checkpoints/DDPG/Target_actor/DDPG_target_actor_400.pth (torch, 183215 bytes, 10 tensors)

fc1.weight f4 [256, 41]
0	0xbd767340	-0.060168505
1	0x3e21856d	0.15773554
2	0x3d55dbaf	0.05221146
3	0xbe07fd29	-0.13280167
4	0xbe1f2320	-0.15540743
5	0xbd6ebe09	-0.0582867
6	0x3cb3a076	0.0219271
7	0x3de96528	0.11396247
8	0x3ddc559c	0.10758516
9	0xbcbd0193	-0.02307204
10	0xbdabebbb	-0.083945714
11	0x3dfa8cbf	0.122338764
12	0xbd537e1b	-0.051633935
13	0x3d250d8b	0.04029612
14	0x3e38ccb3	0.18046837
15	0xbde4c41e	-0.11170219
16	0xbde8dfb1	-0.11370791
17	0x3d27755b	0.040883403
18	0xbd635775	-0.055503327
19	0xbddf7169	-0.10910303
20	0x3d9777cc	0.07395896
21	0x3deb40b9	0.11486954
22	0xbd299916	-0.04140576
23	0xbdc0434e	-0.09387837
24	0x3d702708	0.058630973
25	0x3d0a306e	0.033737592
26	0x3da62537	0.08112567
27	0x3c68acc6	0.014201349
28	0x3e0e29d4	0.13883144
29	0xbdf19374	-0.117957026
30	0xbe1c6312	-0.15272167
31	0x3cda95bb	0.026682725
32	0x3d02b600	0.03191185
33	0x3d1603bc	0.036624655
34	0x3ca2eabb	0.019887319
35	0xbe6075f6	-0.21919999
36	0x3d9ba87a	0.07600494
37	0x3e0b6d65	0.1361595
38	0x3db74c66	0.08950119
39	0x3c2e5773	0.010640967
40	0xbdf774c0	-0.12082815
41	0x3d8dec72	0.06929864
42	0x3d1c136e	0.038104467
43	0xbc1e87c3	-0.009675923
44	0x3e0f67b8	0.1400441
45	0xbd6e6c1c	-0.05820857
46	0x3dc25b76	0.09490101
47	0xbd053b11	-0.032527033
48	0x3dcb34cd	0.0992218
49	0xbd2ece1d	-0.042677034
50	0x3d24a0d8	0.040192455
51	0xbde4fb00	-0.11180687
52	0xbe124e0e	-0.14287588
53	0xbd0858dc	-0.033287868
54	0xbb8957c0	-0.004191369
55	0x3cecd6de	0.02891105
56	0xbe312bbe	-0.17301843
57	0xbcec21d3	-0.028824722
58	0xbe2e2be5	-0.17008932
59	0x3bf042d2	0.0073321844
60	0xbd6a4e88	-0.0572038
61	0x3e527589	0.20552649
62	0x3e081661	0.13289787
63	0x3ea0f677	0.31438038
64	0x3e007111	0.12543131
65	0x3e418a24	0.18900353
66	0x3dd60a6e	0.10451208
67	0x3eaf73a7	0.34267923
68	0xbd885dde	-0.06658529
69	0x3c6d7c91	0.014495031
70	0xbe0cdc39	-0.13755883
71	0x3debed73	0.11519899
72	0x3ddb5b6f	0.10710799
73	0xbcf08496	-0.029360097
74	0xbdd414d0	-0.10355532
75	0xbd98c754	-0.07459894
76	0xbecffd09	-0.40622738
77	0x3da3146d	0.0796288
78	0xbd066620	-0.032812238
79	0x3c23f9aa	0.010008255
80	0xbd4b0404	-0.049564376
81	0x3dc87e59	0.09789724
82	0x3c77ee03	0.01513243
83	0xbd93db22	-0.07219531
84	0xbd748d92	-0.059705324
85	0xbe042f83	-0.1290875
86	0xbe289c42	-0.16465858
87	0xbd4f7d9a	-0.050656892
88	0xbd93fb4a	-0.07225664
89	0x3d14b712	0.036307402
90	0xbd085c46	-0.033291124
91	0xbe482535	-0.19545443
92	0x3cf95dd7	0.030440254
93	0x3e45b94f	0.19308971
94	0x3e41b436	0.18916401
95	0x3e20e39b	0.15711825
96	0xbbf89d04	-0.007587077
97	0xbe23bb36	-0.15989384
98	0xbde7fb5a	-0.113272384
99	0x3d00a55b	0.031407695
100	0x3d5965b3	0.053075504
101	0xbd02a56a	-0.031896032
102	0xbdda034c	-0.1064516
103	0x3b22d125	0.0024843898
104	0xbe204cb8	-0.15654266
105	0xbe2c76ac	-0.16842145
106	0xbe10dff1	-0.14147927
107	0xbdf13317	-0.11777323
108	0xbdf85383	-0.121253036
109	0xbb3a1b2c	-0.0028397543
110	0x3c9f3d77	0.019438488
111	0x3d69d20b	0.05708508
112	0x3da81657	0.08207386
113	0x3d23cfa1	0.039992932
114	0x3cb5ada3	0.022177523
115	0x3d3b423f	0.045717474
116	0x3cbcb808	0.023036972
117	0x3df4c9b0	0.11952531
118	0xbd82eda9	-0.06392986
119	0xbda64585	-0.081187285
120	0x3c0a6a39	0.008448177
121	0xbddc7fe5	-0.107665814
122	0xbd0b79f8	-0.034051865
123	0x3d6de4c5	0.0580795
124	0xbe86d8c3	-0.2633725
125	0xbe3160ef	-0.17322133
126	0xbc4c5601	-0.012471677
127	0xbcd0abee	-0.025472607
128	0x3d59cdaf	0.05317467
129	0x3cae13cb	0.021249672
130	0x3db7391f	0.08946442
131	0xbd82ddf2	-0.06389989
132	0x3dbeb9b3	0.09312763
133	0x3d7dae9c	0.0619341
134	0x3e78ee75	0.24309714
135	0x3e24e6be	0.16103646
136	0x3dbb8f72	0.091582194
137	0x3de47b96	0.11156385
138	0x3e842727	0.2581112
139	0xbcdc22cd	-0.026872063
140	0x3e9bedd0	0.30454874
141	0x3dc110bf	0.09427022
142	0xbd5192cf	-0.0511654
143	0xbd8adae1	-0.06780029
144	0xbdede6d8	-0.116162956
145	0xbea2786c	-0.317325
146	0xbde18dcf	-0.11013376
147	0xbe1c1627	-0.15242825
148	0xbd5c34f7	-0.05376145
149	0xbe1d1af0	-0.15342307
150	0xbca36534	-0.019945718
151	0xbcd0a928	-0.025471285
152	0x3e4888cb	0.19583432
153	0xbda9df20	-0.08294511
154	0xbdaab883	-0.08335974
155	0x3e2f162e	0.17098305
156	0xbd36e717	-0.04465398
157	0xbd947786	-0.0724936
158	0x3ed0e35c	0.4079846
159	0x3e67757d	0.22603412
160	0x3d54d161	0.05195749
161	0x3c5accee	0.013354523
162	0x3de609a0	0.112323046
163	0x3dcfb9aa	0.101428345
164	0x3dd5079b	0.10401841
165	0x3e51ea97	0.20499645
166	0xbe7c3cb2	-0.24632528
167	0x3d418e69	0.047254954
168	0xbe539f51	-0.20666243
169	0x3d74ae71	0.059736673
170	0xbdd95dd1	-0.10613597
171	0xbcbbede5	-0.022940585
172	0x3d6eeede	0.05833327
173	0x3df40a80	0.11916065
174	0x3e0beaae	0.13663742
175	0xbc8ac544	-0.016939767
176	0xbe4dd091	-0.20099093
177	0xbe8a01a6	-0.26954383
178	0xbeb14dd5	-0.34629694
179	0xbe942957	-0.2893779
180	0xbe9f71af	-0.3114142
181	0xbdfc1318	-0.12308329
182	0xbeaeab96	-0.34115285
183	0xbe28fd35	-0.16502841
184	0x3c106b26	0.008814609
185	0x3b9dff11	0.004821666
186	0x3e83a081	0.25708392
187	0x3dd6f51f	0.10495972
188	0x3db139cf	0.08653604
189	0x3d992610	0.07477963
190	0x3e541b0b	0.20713441
191	0x3d7f2533	0.062291335
192	0x3e0bfd3d	0.13670821
193	0xbc1f3f2b	-0.00971965
194	0x3d4d8626	0.050176762
195	0xbd81ddbe	-0.06341122
196	0x3cdc90ee	0.026924577
197	0x3dc98267	0.098393254
198	0xbd75acbf	-0.059979197
199	0xbef746c2	-0.4829617
200	0xbe4981d2	-0.19678429
201	0xbd4bb467	-0.049732592
202	0x3bc398de	0.005969151
203	0xbe76b53c	-0.24092573
204	0xbd0f40e8	-0.03497401
205	0xbb80a85e	-0.003926321
206	0x3e0f9a52	0.14023712
207	0x3e33c6f5	0.17556365
208	0x3d527c70	0.051388204
209	0xbcaf0358	-0.0213639
210	0x3d2dc374	0.042422727
211	0x3d843047	0.06454521
212	0x3e52bdca	0.20580211
213	0x3e113137	0.1417893
214	0x3e0d5f65	0.13805921
215	0x3dfd21d9	0.123599716
216	0x3d053fb5	0.03253146
217	0xbd8cfbea	-0.06883986
218	0x3d92bcc5	0.07164911
219	0x3dac98e8	0.08427602
220	0xbbdf0137	-0.0068055647
221	0x3d965ea9	0.07342274
222	0x3c9fb2a6	0.019494366
223	0x3d593e29	0.053037796
224	0xbd359673	-0.044332933
225	0xbe3f1bb3	-0.1866291
226	0xbbb7e672	-0.005612188
227	0x3d7a4bcd	0.061107446
228	0xbb45a217	-0.0030156428
229	0xbdec9674	-0.11552134
230	0xbd47be47	-0.048765447
231	0x3e40399d	0.18771978
232	0x3cbc4be9	0.022985416
233	0x3ddde7cf	0.108352296
234	0xbcfcaa30	-0.03084287
235	0xbe0dde01	-0.13854219
236	0x3ddf8197	0.10913389
237	0x3e3c1d1d	0.18370481
238	0x3e7c0628	0.24611723
239	0xbbed0334	-0.007233048
240	0x3e8c633c	0.2741946
241	0x3d565b2e	0.05233305
242	0xbcd6af6e	-0.026206698
243	0x3cb6297e	0.022236582
244	0x3d9899c8	0.074512064
245	0xbe5d5b83	-0.2161694
246	0x3e680821	0.22659351
247	0x3d4aeda1	0.049543027
248	0x3dc2ad8c	0.09505758
249	0xbdad55fb	-0.08463665
250	0xbe036dec	-0.128349
251	0xbe70ca5a	-0.23514691
252	0xbde06879	-0.109574266
253	0xbe0b2d98	-0.13591611
254	0xbe437e29	-0.19091095
255	0xbe3cc8e8	-0.18436015

fc1.bias f4 [256]
0	0x3c08ef05	0.008357768
1	0xbd5fcb34	-0.05463715
2	0xbd0c317e	-0.034226887
3	0x3d33fab3	0.043940257
4	0xbdcbf542	-0.099588886
5	0x3ddfda61	0.10930324
6	0x3d52df92	0.051482745
7	0x3d609c82	0.054836757
8	0xbb92dfbc	-0.0044822376
9	0x3cff6985	0.031178245
10	0xbdb00488	-0.08594614
11	0xbd825190	-0.06363213
12	0x3ca05a94	0.019574441
13	0x3de639e8	0.112415135
14	0x3e041859	0.12899913
15	0x3d883275	0.06650249
16	0xbc8eaf66	-0.01741762
17	0x3cb26279	0.021775471
18	0x3c32c8fd	0.010912177
19	0xbd57effb	-0.052719098
20	0xbd1551aa	-0.036454834
21	0x3e03dc0b	0.12876908
22	0x3d932a6a	0.07185824
23	0x3db46415	0.08808152
24	0x3dcd95f8	0.1003837
25	0x3e0e0d81	0.13872339
26	0xbd978a97	-0.07399481
27	0xbc2e540b	-0.010640155
28	0x3cc2c5ec	0.023776017
29	0xbd65c777	-0.056098428
30	0x3d32f2c8	0.043688565
31	0xbccfa0ba	-0.025345195
32	0x3d9666bd	0.073438145
33	0xbda60663	-0.08106687
34	0x3d9582eb	0.07300361
35	0xbd8a7bf6	-0.06761925
36	0x3d0ec819	0.034858797
37	0xbd3b15cd	-0.045675088
38	0xbd80910e	-0.06277667
39	0xbc8d938f	-0.017282275
40	0x3d6f03f3	0.058353376
41	0x3d2b06ce	0.041754536
42	0x3dfd9649	0.1238218
43	0xbd3be80f	-0.045875605
44	0xbd597a00	-0.053094864
45	0x3c2a1b5b	0.010382499
46	0x3d997ec7	0.07494884
47	0x3d65886d	0.05603831
48	0xbd973cd4	-0.07384649
49	0xbdb4317e	-0.087985024
50	0x3c61f29b	0.013790752
51	0x3d817071	0.063202746
52	0xbd9e1ea1	-0.07720686
53	0x3d946831	0.072464354
54	0xbd9a0208	-0.07519919
55	0xbd221dd4	-0.039579228
56	0xbdaa1902	-0.08305551
57	0x3cc5624c	0.024094723
58	0x3cf21d90	0.029555112
59	0xbd988c5b	-0.07448646
60	0x3dac4abb	0.08412691
61	0x3df2267a	0.11823745
62	0x3d815e72	0.06316842
63	0xbd9b78b3	-0.07591381
64	0x3b03e712	0.0020126742
65	0x3cca9cdb	0.024732998
66	0xbc8e9a10	-0.017407447
67	0x3d62355b	0.055226665
68	0x3c813aa4	0.015775032
69	0x3e2fbef1	0.17162682
70	0x3d98a856	0.074539825
71	0x3d749a31	0.05971736
72	0x3d189191	0.037248198
73	0x3d882257	0.06647175
74	0xbc865816	-0.016399425
75	0x3d59959f	0.053121205
76	0xbd4ef4c3	-0.05052639
77	0xbb69d83f	-0.0035681871
78	0xbbb183ce	-0.0054173237
79	0xbd8e3739	-0.06944127
80	0x3bdcebad	0.006741962
81	0xbcc6b8fe	-0.024258133
82	0xba20bc54	-0.00061315787
83	0x3cb1909f	0.021675406
84	0x3d3ba643	0.045812856
85	0x3d13f96f	0.03612655
86	0x3dbc59df	0.09196829
87	0xbd856fc6	-0.0651546
88	0xbda04703	-0.078260444
89	0xbcd6b96c	-0.026211463
90	0x3c471962	0.012152048
91	0x3d6130e1	0.054978255
92	0xbd897f36	-0.06713717
93	0x3b3334a1	0.0027344602
94	0xbd982ace	-0.07430039
95	0x3d6bad31	0.057538215
96	0xbd6f0441	-0.058353666
97	0x3c0e2be2	0.008677455
98	0x3d3c1d83	0.045926582
99	0xbd221783	-0.039573204
100	0xbd937858	-0.07200688
101	0x3ddf756f	0.109110706
102	0xbded6653	-0.115917824
103	0x3dda2a67	0.10652619
104	0x3d252f3c	0.04032825
105	0xbdba50ee	-0.09097467
106	0xbc5fc4d9	-0.013657772
107	0x3d0afaaf	0.033930477
108	0xbc08f08c	-0.008358132
109	0xbd15239d	-0.036410917
110	0x3d5713e0	0.05250919
111	0x3d9607f8	0.07325739
112	0x3d89dc5d	0.06731484
113	0x3c6f60a7	0.014610446
114	0xbd9b6afc	-0.07588765
115	0x3d8f86ad	0.07008109
116	0xbd084b94	-0.033275202
117	0x3d61ccbe	0.055126898
118	0x3d3bc576	0.04584261
119	0x3c048e6a	0.008090595
120	0x3da8b98e	0.08238517
121	0xbdc9a640	-0.09846163
122	0xbd37c7d0	-0.04486829
123	0x3c22527a	0.009907359
124	0x3d9490c5	0.07254175
125	0xbd9e6f53	-0.07736077
126	0xbd7dcfe9	-0.061965857
127	0xbd88a7b3	-0.06672611
128	0xbd820b87	-0.06349855
129	0xbd4cec55	-0.05003007
130	0x3d8cd7fe	0.06877135
131	0x3d93da0b	0.07219323
132	0xbd9cb7cd	-0.07652245
133	0x3dc788d1	0.097428925
134	0x3cbf79b9	0.023373472
135	0xbce4a2b8	-0.027909622
136	0x3d55ef9f	0.052230474
137	0x3cd91626	0.026499819
138	0xbd89b6ae	-0.067242965
139	0xbd43db8e	-0.047816806
140	0xbc882518	-0.01661925
141	0xbd3c6263	-0.045992266
142	0xbd604901	-0.054757122
143	0xbc73d52b	-0.014882366
144	0xbc09274b	-0.008371185
145	0xbdb08e90	-0.08620942
146	0x3c69dc56	0.014273724
147	0xbc167368	-0.009182788
148	0xbd8cc017	-0.06872576
149	0x3d8e7599	0.06956024
150	0xbd08485b	-0.03327213
151	0xbcb0f5ba	-0.021601547
152	0x3dc74ff9	0.097320504
153	0x3d47a0b2	0.048737235
154	0x3cf1d98b	0.029522678
155	0x3dbcc945	0.092180766
156	0xbd7d56c1	-0.061850313
157	0xbd87803c	-0.06616256
158	0xbdaaba7d	-0.08336351
159	0xbcb7a604	-0.02241803
160	0x3d08fde2	0.033445247
161	0x3d60f9a9	0.054925594
162	0x3d547fa2	0.051879533
163	0x3d8cce02	0.0687523
164	0x3d6c56d7	0.057700004
165	0xbd55628d	-0.05209594
166	0xbc2291a8	-0.0099224225
167	0xbc8f552c	-0.017496668
168	0xbc405272	-0.0117384065
169	0xbd86a8d4	-0.0657517
170	0xbdc25922	-0.09489657
171	0xbd8238ab	-0.06358465
172	0xbd8731dd	-0.066013075
173	0x3d6e25ca	0.058141507
174	0x3d2b5ffa	0.041839577
175	0xbcf56aa3	-0.029958075
176	0x3da797b7	0.08183234
177	0xbc8931f6	-0.016747456
178	0xbd5da732	-0.054114528
179	0x3be43cae	0.0069652414
180	0x3bae0b51	0.0053114076
181	0x3d8e055b	0.06934615
182	0xbccceb09	-0.025014417
183	0xbd492d21	-0.049115304
184	0x3b60fc78	0.003433017
185	0xbcbe3569	-0.023218827
186	0xbcab75be	-0.020930167
187	0xbdf30b1e	-0.11867355
188	0xbd9cbb2f	-0.0765289
189	0xbd15f766	-0.03661289
190	0x3d8a36b3	0.06748714
191	0xbd96aa88	-0.07356745
192	0x3cb43309	0.021996992
193	0x3d6e0dc2	0.05811859
194	0x3d67bca0	0.05657637
195	0x3e0aac74	0.13542348
196	0xbd35197e	-0.044213764
197	0x3d91b243	0.07114079
198	0xbda393b0	-0.079871535
199	0x3bdd603c	0.006755857
200	0xbd4c803e	-0.04992699
201	0xbd288229	-0.041139755
202	0x3dc69b58	0.09697598
203	0x3d703c6c	0.058651373
204	0xbd84e054	-0.064881
205	0x3dd8eb2b	0.1059173
206	0xbd1d1bd7	-0.03835663
207	0xbd116484	-0.03549625
208	0x3c1c78d6	0.009550294
209	0x3db5eff9	0.08883662
210	0xbbb0ad8f	-0.0053917835
211	0x3dbb88c1	0.09156943
212	0x3c471d85	0.012153034
213	0xbdc5c36f	-0.096564166
214	0xbdb0decf	-0.08636247
215	0xbd92743f	-0.071510784
216	0x3e08eb22	0.13370946
217	0x3d26bf12	0.040709563
218	0x3dbed6b0	0.09318292
219	0x3d82caca	0.06386335
220	0xbdc3db4d	-0.09563313
221	0x3d8314c5	0.06400446
222	0x3d039ecb	0.03213386
223	0x3de2ecd5	0.110803284
224	0xbd9878d6	-0.074449226
225	0xbb7dd8ce	-0.0038733962
226	0xbd245122	-0.040116437
227	0x3dfbc1b2	0.12292804
228	0x3d20950c	0.039204642
229	0x3d766833	0.060157966
230	0x3c8dee23	0.017325466
231	0xbd534fdc	-0.05158983
232	0xbd16adc5	-0.036786813
233	0x3d27ce16	0.040968023
234	0xbd2f15d6	-0.042745434
235	0x3da7015d	0.08154557
236	0xbbe60cc3	-0.0070205643
237	0x3daa1a55	0.08305804
238	0x3cf0227b	0.029313317
239	0x3d930c97	0.07180136
240	0x3ccf9d36	0.025343519
241	0xbd087d7f	-0.033322807
242	0xbcd9e977	-0.026600583
243	0x3d09cb94	0.033641413
244	0x3bf21b4b	0.0073885075
245	0xbdb2e2a8	-0.087346375
246	0x3cbc107f	0.022957085
247	0xbd307a1d	-0.043085206
248	0xbdb4505b	-0.08804389
249	0xbcd3b8a7	-0.025844885
250	0xbcdda587	-0.027056469
251	0x3d52e202	0.05148507
252	0xbd49601e	-0.04916393
253	0x3e2e2367	0.17005692
254	0xbcf007bb	-0.029300561
255	0x3d95ddb7	0.073176794

ln1.weight f4 [256]
0	0x3f6f360c	0.93441844
1	0x3f8e1875	1.1101214
2	0x3f66bed9	0.9013496
3	0x3f80b43a	1.0055001
4	0x3f75ede4	0.9606612
5	0x3f8f0d22	1.1175883
6	0x3fa24b70	1.2679272
7	0x3f850232	1.0391295
8	0x3f9e6c08	1.2376719
9	0x3f95b5eb	1.1696142
10	0x3f895dbf	1.0731734
11	0x3f77e3f7	0.9683222
12	0x3f810461	1.0079461
13	0x3f94afb1	1.1616117
14	0x3fa03e8a	1.2519085
15	0x3f836a98	1.0266905
16	0x3f8d5bf5	1.1043688
17	0x3f8b1eae	1.0868738
18	0x3f89f558	1.0777998
19	0x3f786978	0.9703593
20	0x3f8ba3d9	1.0909377
21	0x3faf716a	1.3706486
22	0x3f9579b3	1.1677765
23	0x3f89c6a9	1.0763751
24	0x3f8d4044	1.1035237
25	0x3fa4abf9	1.2864982
26	0x3f7379d4	0.9510777
27	0x3f6adaa8	0.9173989
28	0x3f94fe41	1.1640092
29	0x3f9903e8	1.1954317
30	0x3f7ab4a8	0.9793191
31	0x3f789b89	0.9711233
32	0x3f87e5f9	1.0617057
33	0x3f8695f5	1.0514513
34	0x3f824aa0	1.0179024
35	0x3f89ff79	1.0781089
36	0x3f79a3b5	0.9751542
37	0x3f8f3c27	1.1190232
38	0x3f85e421	1.0460244
39	0x3f86dc98	1.053607
40	0x3f65fa45	0.89835006
41	0x3f7a2482	0.97711957
42	0x3fa6107e	1.2973783
43	0x3f796f87	0.974358
44	0x3f6ec542	0.9326974
45	0x3f8ace07	1.0844125
46	0x3f846ec7	1.0346307
47	0x3f7c0cec	0.9845722
48	0x3f837f19	1.0273162
49	0x3f734935	0.9503358
50	0x3f8811c2	1.0630419
51	0x3f8727dc	1.0559039
52	0x3f7e48ab	0.9932963
53	0x3f67c8a4	0.9054053
54	0x3f739a20	0.9515705
55	0x3f81f3e8	1.0152559
56	0x3fb36227	1.4014329
57	0x3f8b837a	1.0899498
58	0x3f8b4cf7	1.0882863
59	0x3f75df3d	0.9604376
60	0x3f84ed7c	1.0384974
61	0x3fc6ef43	1.5541767
62	0x3f8609d8	1.0471754
63	0x3f8431a3	1.0327648
64	0x3fd02490	1.6261158
65	0x3f82fa2c	1.0232596
66	0x3f6d1a01	0.92617804
67	0x3f834f4f	1.0258578
68	0x3f80117b	1.0005335
69	0x3f98afcd	1.192865
70	0x3f846114	1.0342126
71	0x3f831ca8	1.024312
72	0x3f8f2cd1	1.1185552
73	0x3f82ba7b	1.0213159
74	0x3f67ac9f	0.90497774
75	0x3f8ffb0b	1.1248487
76	0x3f7289ff	0.94741815
77	0x3f9a42f8	1.2051687
78	0x3f78de4c	0.972142
79	0x3f80ff9b	1.0078005
80	0x3f7ff404	0.99981713
81	0x3f8bbe13	1.0917381
82	0x3f8d5c5e	1.1043813
83	0x3f90c1de	1.1309164
84	0x3f795b49	0.97404915
85	0x3f6634dd	0.8992441
86	0x3f8c13e6	1.0943573
87	0x3f76e8fb	0.9644925
88	0x3f8480e5	1.0351835
89	0x3f6cc25c	0.9248407
90	0x3f7ac962	0.97963536
91	0x3f8aff3a	1.0859139
92	0x3f7ba8a1	0.9830418
93	0x3f864674	1.049025
94	0x3f7a82af	0.9785566
95	0x3f8ee9de	1.1165121
96	0x3f837dd0	1.027277
97	0x3f84047e	1.0313871
98	0x3fb891e4	1.4419522
99	0x3f7d1f43	0.98875827
100	0x3f89b942	1.0759661
101	0x3f953bf4	1.1658921
102	0x3f847ec3	1.0351185
103	0x3f8ddd84	1.1083226
104	0x3f9059ba	1.1277382
105	0x3f7144c4	0.94245553
106	0x3f7f758a	0.99788725
107	0x3fa30e3f	1.2738723
108	0x3f700c96	0.93769205
109	0x3f858a9c	1.0432925
110	0x3f906a44	1.128243
111	0x3fb0ef93	1.3823112
112	0x3f7bef02	0.9841157
113	0x3f7db71c	0.9910753
114	0x3f80da50	1.0066624
115	0x3f881236	1.0630558
116	0x3fa30136	1.2734745
117	0x3f800f19	1.0004607
118	0x3f978641	1.1837846
119	0x3f8477ef	1.0349101
120	0x3f8ffb31	1.1248533
121	0x3f86bc9f	1.0526313
122	0x3f802c47	1.0013512
123	0x3fa3ef59	1.2807418
124	0x3f857bd0	1.042841
125	0x3f8a99a1	1.0828134
126	0x3facd0fb	1.3501276
127	0x3f89d0cb	1.0766844
128	0x3f81e986	1.0149391
129	0x3f84dc8a	1.0379803
130	0x3f933528	1.1500597
131	0x3f883f23	1.0644268
132	0x3f827e45	1.0194784
133	0x3f9b3ce3	1.2127956
134	0x3f70ff02	0.9413911
135	0x3f6f4bfa	0.93475306
136	0x3f890e0d	1.0707413
137	0x3f8196bf	1.0124129
138	0x3f7de242	0.9917337
139	0x3f9043b4	1.1270661
140	0x3f678d4e	0.9044999
141	0x3f9811b8	1.1880407
142	0x3f877134	1.0581422
143	0x3fa1b0f9	1.2632133
144	0x3f6cd14f	0.9250688
145	0x3fa0d6a8	1.2565508
146	0x3f740e93	0.9533474
147	0x3f6a72c2	0.91581357
148	0x3f804b66	1.002301
149	0x3f86ea0c	1.0540175
150	0x3fa6c3a0	1.302845
151	0x3f6af41e	0.91778743
152	0x3f85898a	1.0432599
153	0x3f4d2667	0.8013672
154	0x3f8aec08	1.0853281
155	0x3f73d356	0.9524435
156	0x3f7a37ad	0.97741205
157	0x3f7f4f06	0.99729955
158	0x3f860c78	1.0472555
159	0x3f87f946	1.0622947
160	0x3f9f369b	1.2438539
161	0x3f83e247	1.0303429
162	0x3f6ef124	0.933367
163	0x3fa4bede	1.2870748
164	0x3f7f4fd1	0.99731165
165	0x3f797604	0.974457
166	0x3f8a5c7b	1.0809473
167	0x3f973b0e	1.1814897
168	0x3f773550	0.96565723
169	0x3f86c3d8	1.0528517
170	0x3f7d3ee9	0.9892412
171	0x3f7c3a93	0.9852688
172	0x3f808925	1.0041853
173	0x3f7f23b6	0.99663866
174	0x3f8c8320	1.0977516
175	0x3fa9af21	1.325657
176	0x3f72c999	0.94838864
177	0x3f956154	1.1670327
178	0x3f858491	1.0431081
179	0x3f7938e2	0.9735242
180	0x3f7f9b7b	0.9984662
181	0x3fb2357c	1.3922572
182	0x3f7e6371	0.99370486
183	0x3f952c7f	1.1654204
184	0x3f86fcec	1.0545936
185	0x3f79efda	0.9763161
186	0x3f84aa5e	1.0364492
187	0x3fadbab1	1.3572599
188	0x3f9ffd8b	1.249925
189	0x3f878633	1.0587829
190	0x3fa0a29d	1.2549626
191	0x3f6f42c6	0.93461263
192	0x3f877976	1.0583942
193	0x3fd0bef9	1.630828
194	0x3fb0e336	1.3819339
195	0x3f917119	1.136264
196	0x3f755e1d	0.9584673
197	0x3fbfab30	1.4974117
198	0x3f7c645a	0.98590624
199	0x3f75a778	0.9595866
200	0x3f89e964	1.077435
201	0x3f72afb4	0.9479935
202	0x3f89fe3b	1.078071
203	0x3f6d8af8	0.92790174
204	0x3f80863f	1.0040969
205	0x3f93369c	1.150104
206	0x3f9e5ad4	1.2371469
207	0x3f7c1a26	0.984774
208	0x3f95c39a	1.1700318
209	0x3fb1cf92	1.389147
210	0x3f7d2d3b	0.9889714
211	0x3fb00604	1.3751836
212	0x3f8aa4d8	1.0831556
213	0x3f713ad3	0.94230384
214	0x3f68a7e2	0.9088117
215	0x3f6836f9	0.9070888
216	0x3f90fbc6	1.1326835
217	0x3f95edbc	1.1713176
218	0x3f86e7b6	1.0539463
219	0x3f812d40	1.0091934
220	0x3f956df7	1.1674184
221	0x3f95b980	1.1697235
222	0x3fb8a41f	1.4425086
223	0x3f86a8db	1.0520281
224	0x3f8bc6fc	1.09201
225	0x3f94ccb4	1.162497
226	0x3f6b2d61	0.9186612
227	0x3f9c2d8d	1.2201401
228	0x3f757d77	0.9589457
229	0x3f814c69	1.0101444
230	0x3f7bb68f	0.9832544
231	0x3f80e8ac	1.0071006
232	0x3fb7fa19	1.4373199
233	0x3f7e03fb	0.99224824
234	0x3f7b447b	0.9815137
235	0x3f79133a	0.9729496
236	0x3f8eea02	1.1165164
237	0x3fe9f045	1.827645
238	0x3f72f86d	0.9491032
239	0x3ff2cf92	1.8969595
240	0x3f88d9ea	1.0691502
241	0x3fcaa23d	1.5830761
242	0x3f70a805	0.9400638
243	0x3f5ec75a	0.87022936
244	0x3f78610d	0.9702309
245	0x3f78a35f	0.97124285
246	0x3f8564e4	1.0421414
247	0x3f78ea5a	0.9723259
248	0x3f73974a	0.95152724
249	0x3fb699ab	1.4265646
250	0x3fa4dbf3	1.2879623
251	0x3f700f6a	0.9377352
252	0x3f8256bd	1.018272
253	0x3fa7677d	1.3078457
254	0x3f80aaff	1.0052184
255	0x3fa8f49e	1.3199651

ln1.bias f4 [256]
0	0xbd7988e5	-0.06092157
1	0x3c3d067a	0.011537189
2	0xbd61b4ff	-0.055104252
3	0xbcedf8f5	-0.029049376
4	0xbd4b6acb	-0.049662393
5	0x3d37dc83	0.04488803
6	0xbc960b6b	-0.018315991
7	0xbcded94a	-0.02720322
8	0x3d67155f	0.056416865
9	0xbd80db3f	-0.06291818
10	0xbd2a0d20	-0.041516423
11	0xbc99d534	-0.018778421
12	0xbcefa6ec	-0.0292544
13	0x3d3cad26	0.046063565
14	0x3dcae783	0.099074386
15	0x3c9bd4b0	0.019022316
16	0x3abcbe80	0.0014400035
17	0xbcd80ca6	-0.026373219
18	0x3d893247	0.06699043
19	0xbd3b7cfd	-0.045773495
20	0x3c0c7161	0.0085719535
21	0xbcd057f7	-0.02543257
22	0x3d926270	0.07147682
23	0x3cd203c1	0.025636556
24	0x3d64948a	0.05580572
25	0x3e3d0395	0.18458398
26	0xbd3be980	-0.04587698
27	0xbdbdb1aa	-0.09262402
28	0x3dd78464	0.105232984
29	0x3cad442a	0.021150667
30	0xba06bfd6	-0.000514028
31	0xbc9d3d8c	-0.019194387
32	0x3c9070fe	0.017632004
33	0xbc7c9cdd	-0.0154182585
34	0x3bad2b33	0.0052846908
35	0x3be3b31e	0.0069488427
36	0xbd4a95e6	-0.04945936
37	0x3c7f8b19	0.015597128
38	0xbca324ec	-0.019915067
39	0xbbd7687c	-0.006573735
40	0xbdd651d8	-0.10464829
41	0xbc480f83	-0.0122107295
42	0x3e74b569	0.23897327
43	0xbd6db4e4	-0.05803384
44	0xbdb451f7	-0.08804696
45	0x3d42b688	0.047537357
46	0xbc411ecf	-0.0117871305
47	0xbd19a778	-0.037513226
48	0xbb8ea0df	-0.0043526734
49	0xbdd165a9	-0.10224468
50	0x3d4bc3c6	0.04974725
51	0xbd292364	-0.041293517
52	0x3c2a57ae	0.010396881
53	0xbdb3f53e	-0.087870106
54	0xbd92e752	-0.07173027
55	0x3cfccbbb	0.030858865
56	0xb96b5480	-0.00022442825
57	0xbd359a44	-0.044336572
58	0x3d9d8583	0.07691481
59	0xbd319dbb	-0.043363314
60	0x3d899640	0.06718111
61	0x3cf80112	0.030273948
62	0x3bf75a9e	0.007548644
63	0x3a68afe0	0.0008876305
64	0x3d1a9b8a	0.03774599
65	0xbce5c62a	-0.028048594
66	0xbdd992c9	-0.106237
67	0xbce5a761	-0.028033914
68	0xbd7bcecf	-0.061476525
69	0x3df9d620	0.12199044
70	0xbe3f6157	-0.18689476
71	0x3c614408	0.01374913
72	0x3d321cde	0.04348456
73	0xbc8025f2	-0.015643094
74	0xbda0b44e	-0.078468904
75	0xbca9a9d0	-0.020710856
76	0xbd565050	-0.052322686
77	0x3dbe20ac	0.092835754
78	0xbceef510	-0.02916959
79	0xbd0a6d30	-0.033795536
80	0xbd92fa36	-0.0717663
81	0xbc988f4f	-0.018623022
82	0x3c9a009a	0.018799115
83	0xbca25565	-0.01981611
84	0xbde31e44	-0.11089757
85	0xbe0f7462	-0.1400924
86	0x3d098993	0.033578467
87	0xbd3a0fc7	-0.045425203
88	0xbdbef6df	-0.09324431
89	0xbdcf90e4	-0.101350576
90	0xbd82eec4	-0.06393197
91	0x3da76703	0.08173945
92	0xbd0b53b6	-0.03401538
93	0x3cb8f285	0.02257658
94	0xbd0ad7d7	-0.033897247
95	0x3da53b4d	0.08067951
96	0xbd9f11a8	-0.077670395
97	0xbc8e7a71	-0.017392369
98	0x3dfac955	0.12245432
99	0xbcaefded	-0.021361316
100	0xbc3d350c	-0.011548292
101	0x3ded40d8	0.115846336
102	0xbd03b19d	-0.032151807
103	0x3dd7aeee	0.10531412
104	0x3df1b594	0.118022114
105	0xbdee5fb5	-0.116393484
106	0xbcd1c3d3	-0.025606072
107	0xbca0c1ca	-0.019623656
108	0xbd98841b	-0.07447072
109	0xbc9c0e7e	-0.01904988
110	0xbd222d5f	-0.03959405
111	0xbc90529d	-0.017617518
112	0xbd63f2ce	-0.05565148
113	0xbd995ab6	-0.07488005
114	0x3a56af94	0.00081896153
115	0x3c9fc06e	0.019500937
116	0xbc64f697	-0.013974807
117	0x3c0e91cb	0.008701752
118	0xbd52cabf	-0.051462885
119	0x3d618323	0.055056702
120	0x3cfcd8cd	0.030865097
121	0xbdc43763	-0.09580877
122	0xbc88f425	-0.01671798
123	0xbdc3a9cc	-0.095538706
124	0xbba3f50a	-0.005003576
125	0xbda3a3fc	-0.07990262
126	0x3c256180	0.010094047
127	0xbc8e5d01	-0.017378332
128	0x3c7dd952	0.015493708
129	0xbcfa035b	-0.030519178
130	0xbd55f35f	-0.05223405
131	0x3ca16c3b	0.019704929
132	0xbcccfac6	-0.025021922
133	0x3d12f8df	0.035881873
134	0xbdaaa6f5	-0.08332626
135	0xbd5e602e	-0.054290943
136	0xbd64a01e	-0.055816762
137	0x3c1f9c32	0.00974183
138	0xbc9c72de	-0.019097742
139	0x3cd2d2d0	0.025735289
140	0xbde644ce	-0.11243592
141	0x3d3b0874	0.04566236
142	0xbbf0e332	-0.0073513025
143	0xbd1094c7	-0.035298135
144	0xbda1807c	-0.078858346
145	0xbd6765cd	-0.05649357
146	0xbd4fd98f	-0.05074459
147	0xbdef24cf	-0.116769426
148	0x3beae98b	0.007168954
149	0xbbb76125	-0.0055962973
150	0x3c712ec2	0.014720621
151	0xbe53a896	-0.20669779
152	0x3b532730	0.0032219402
153	0xbe3dfaea	-0.18552747
154	0x3d98576b	0.07438549
155	0xbd39d7cf	-0.045371827
156	0xbc9901d8	-0.018677637
157	0xbcf7fe4d	-0.030272627
158	0xbd02417a	-0.031800725
159	0xbc910d3e	-0.01770651
160	0x3da1d333	0.07901611
161	0xbc915b25	-0.017743656
162	0xbd7a1452	-0.061054535
163	0xbcb30a27	-0.021855427
164	0xbc87ff8a	-0.016601343
165	0xbcfd8cc5	-0.030950913
166	0xbc9ffe4c	-0.019530438
167	0xbd27fa21	-0.041010026
168	0xbd87e6dd	-0.066358306
169	0xbc38366f	-0.011243447
170	0xbcc56515	-0.024096051
171	0xbcff45bc	-0.031161182
172	0x39b2afd4	0.00034081808
173	0xbd05306a	-0.032516874
174	0xbd83072d	-0.06397853
175	0xbb02f1e4	-0.0019980604
176	0xbe16e361	-0.14735176
177	0x3bc25426	0.0059304414
178	0xbc448205	-0.01199389
179	0xbce91ddf	-0.028456626
180	0xbd4e2c88	-0.050335437
181	0xbd8ed59d	-0.06974337
182	0xbd0bafbf	-0.03410315
183	0x3d158489	0.03650335
184	0xbd48dffa	-0.049041726
185	0xbd9e904d	-0.07742367
186	0x3c19572d	0.009359163
187	0xbcf71621	-0.03016192
188	0xbc9d8a78	-0.019231066
189	0xbc12fb10	-0.008970991
190	0xba73ea4e	-0.00093046285
191	0xbc936ed4	-0.017997183
192	0xba44f3d5	-0.00075131404
193	0x3cb9b4e6	0.022669267
194	0x3d7d9107	0.061905887
195	0x3cb2754f	0.021784453
196	0xbcfd5246	-0.03092302
197	0x3e354a0b	0.17704026
198	0x3c0df715	0.008664866
199	0xbd5c9ac6	-0.05385854
200	0xbd02101a	-0.031753637
201	0xbd8c3750	-0.068464875
202	0x3cf447e7	0.029819442
203	0xbd8ad160	-0.06778216
204	0xbca95e08	-0.02067472
205	0x3cbbb9c5	0.02291573
206	0xbbf430de	-0.0074521145
207	0xbc9e836d	-0.019349778
208	0x3d41ac7a	0.047283627
209	0x3cbeaee2	0.02327675
210	0xbc3b07ac	-0.011415403
211	0xbd7d3893	-0.06182153
212	0xbd021676	-0.0317597
213	0xbd8723cc	-0.065986246
214	0xbdc22784	-0.09480193
215	0xbdfd7015	-0.123748936
216	0x3dc09461	0.09403301
217	0xbd1dec4e	-0.038555436
218	0x3b4653e5	0.0030262407
219	0xbbd76ce3	-0.0065742596
220	0x3844e858	4.694643e-05
221	0x3d461c0d	0.048366595
222	0xbcbb9a7a	-0.022900809
223	0xbd70d248	-0.05879429
224	0xbbd1b2ac	-0.006399473
225	0xbd10f80a	-0.0353928
226	0xbda15a80	-0.0787859
227	0x3e053c1e	0.13011214
228	0xbd2267d6	-0.039649807
229	0x3a199022	0.0005857964
230	0xbd374854	-0.04474671
231	0xbc59b925	-0.013288771
232	0xbc148c31	-0.009066627
233	0xbd146056	-0.036224686
234	0xbc7a7e3a	-0.015288884
235	0xbd01cb97	-0.0316883
236	0xbc100f3b	-0.008792694
237	0xbae069dc	-0.0017121392
238	0xbd531122	-0.05153001
239	0x3d8a9a36	0.06767695
240	0x3ae51eae	0.0017480457
241	0xbce0fd09	-0.027464407
242	0xbe16520a	-0.14679733
243	0xbe8014f5	-0.2501599
244	0xbcd42b34	-0.025899507
245	0xbd1774c4	-0.03697659
246	0x3d2dfbde	0.042476527
247	0xbd560307	-0.05224898
248	0xbd271498	-0.040791124
249	0xbbf3a57a	-0.007435498
250	0xbc332d05	-0.010936026
251	0xbd53ea40	-0.05173707
252	0xbd0d4bb2	-0.034496017
253	0x3e5e6550	0.21718335
254	0xbc3f487e	-0.011674998
255	0x3d17d03c	0.037063822

fc2.weight f4 [128, 256]
0	0xbd848656	-0.06470935
1	0x3bb01caf	0.005374513
2	0xbc091193	-0.008366006
3	0xbd0b441e	-0.03400051
4	0xbd618445	-0.055057783
5	0x3d514d36	0.051099025
6	0x3e28d3c3	0.1648703
7	0x3e105975	0.14096625
8	0x3da88d7f	0.08230113
9	0x3dfb6977	0.12275975
10	0xbade990c	-0.0016982867
11	0xbc1f405a	-0.009719932
12	0xbd0f9d87	-0.03506234
13	0xbdbbcf8b	-0.09170445
14	0x3d2cb78c	0.04216723
15	0x3d898302	0.06714441
16	0x3e4d7add	0.200664
17	0x3de9a8b2	0.11409129
18	0xbd815ba7	-0.063163094
19	0x3d937511	0.07200063
20	0x3dba4a7b	0.09096237
21	0xbe67f0ce	-0.22650453
22	0xbd746e4a	-0.059675492
23	0x3cfc4626	0.030795168
24	0x3e1323be	0.14369103
25	0xbe982927	-0.29718897
26	0x3d29bde3	0.041440856
27	0x3d482ecb	0.04887275
28	0x3d2eae13	0.04264648
29	0xbd044f7c	-0.032302365
30	0xbd93d160	-0.072176695
31	0x3d8e205e	0.06939767
32	0xbdc7c7f3	-0.09754934
33	0xbcc64fab	-0.02420791
34	0xbcefa028	-0.029251173
35	0xbddeac88	-0.108727515
36	0x3d028a30	0.031870067
37	0xbc31a4af	-0.010842486
38	0xbc4bd005	-0.012439732
39	0x3e4afc24	0.19822747
40	0xbc80b28c	-0.015710138
41	0xbd81d367	-0.0633915
42	0xbe06e36a	-0.13172689
43	0x3a7f04a6	0.00097281707
44	0x3e0be6dc	0.13662285
45	0x3d5c5257	0.053789463
46	0x3de57879	0.11204619
47	0xbcfcc628	-0.030856207
48	0x3d18e93d	0.03733181
49	0x3cff90d0	0.031196982
50	0x3d4bc1f3	0.04974551
51	0xbe80043d	-0.25003234
52	0x3e1767a0	0.14785624
53	0xbd088f40	-0.03333974
54	0xbbdb790c	-0.0066977795
55	0x3e092031	0.13391186
56	0xbed940c2	-0.4243222
57	0x3e33f821	0.17575122
58	0x3dfef36d	0.124487735
59	0xbd51fe82	-0.05126811
60	0x3b6027e2	0.003420346
61	0xbd97bb4e	-0.074087724
62	0x3cc16bd6	0.02361099
63	0x3ced54f9	0.028971182
64	0xbea6b1cd	-0.32557526
65	0xbc110d16	-0.008853218
66	0x3d070d1e	0.032971494
67	0x3d41a67a	0.047277905
68	0xbdffc539	-0.12488789
69	0x3e257307	0.1615716
70	0x3e480910	0.19534707
71	0xbd2c789a	-0.042107202
72	0x3e39c67c	0.18142122
73	0x3d0ecc9a	0.034863092
74	0x3e2ee982	0.17081264
75	0x3e66bdee	0.2253339
76	0x3b9eff45	0.004852208
77	0xbd08fe4e	-0.03344565
78	0x3e11a0eb	0.14221542
79	0xbd881a44	-0.06645635
80	0x3e1f372f	0.15548395
81	0x3dc2f554	0.09519449
82	0x3e086d89	0.13323034
83	0xbb841697	-0.004031013
84	0xbda7513d	-0.08169792
85	0x3cce8204	0.02520848
86	0x3d15e96b	0.036599558
87	0x3cbb95ff	0.022898672
88	0x3db62b5c	0.08894989
89	0x3df09a78	0.117482126
90	0x3e801027	0.25012323
91	0x3d8748ed	0.06605706
92	0x3da32831	0.0796665
93	0x3d0e0ffc	0.034683213
94	0x3b987904	0.004653098
95	0x3d3b29eb	0.045694273
96	0xbd854513	-0.065073155
97	0x3e02b689	0.12764944
98	0x3e37afe8	0.17938197
99	0x3e068b39	0.13139047
100	0x3dc0a92b	0.09407266
101	0x3e8d1097	0.2755172
102	0xbe4cf526	-0.20015392
103	0xbdae51bc	-0.08511683
104	0x3d8a6780	0.06758022
105	0x3d36c3e6	0.044620417
106	0x3dbdb4bf	0.0926299
107	0xbdf7a7aa	-0.12092526
108	0xbd41d9ef	-0.04732698
109	0x3e18b5dd	0.14913125
110	0xbd03cc0c	-0.032177016
111	0x3d596f73	0.053084802
112	0x3e05b6c4	0.13058001
113	0xbce1becb	-0.027556797
114	0xbde4495a	-0.11146803
115	0x3de5d95c	0.11223099
116	0x3dc4b80f	0.09605419
117	0x3dcc48ff	0.099748604
118	0xbe18d4ca	-0.14924923
119	0x3e7d781c	0.2475285
120	0x3d027e1a	0.03185854
121	0x3d491178	0.049088925
122	0xbe0948bc	-0.13406652
123	0x3e095763	0.13412242
124	0xbd67223b	-0.05642913
125	0x3e4b72ba	0.19867983
126	0xbd7dca45	-0.061960477
127	0xbd25c182	-0.040467747
128	0xbcefd88a	-0.029278059
129	0x3cf7fcde	0.030271944
130	0xbcc5f02b	-0.024162373
131	0x3e16c0b0	0.14721942
132	0x3d9a0fdb	0.075225554
133	0x3e91981f	0.28436372
134	0x3c990226	0.018677782
135	0xbd8fcefa	-0.070218995
136	0x3e759859	0.23983897
137	0xbcb14522	-0.02163941
138	0x3caae190	0.02085951
139	0x3d3177a5	0.043326993
140	0x3dbaaeec	0.09115395
141	0xbe96a938	-0.2942598
142	0x3c701cfb	0.014655347
143	0x3df50d28	0.119654
144	0xbc6f5450	-0.014607504
145	0xbd5138ef	-0.051079687
146	0x3d905de9	0.07049162
147	0x3ce0aeee	0.027427163
148	0x3dafe7bd	0.085891224
149	0xbb4f4f9d	-0.0031633147
150	0x3e37a7cb	0.17935102
151	0x3d2b09cd	0.041757394
152	0xbadefbe1	-0.0017012322
153	0xbce4c17d	-0.027924294
154	0x3d479721	0.048728112
155	0x3cb4065c	0.021975689
156	0xbc4ef0ff	-0.0126307
157	0x3d98505b	0.074372016
158	0xbd81ca0d	-0.06337366
159	0x3d9788d9	0.073991485
160	0x3e83ed6f	0.25767085
161	0x3de5a23a	0.11212583
162	0x3dfd6862	0.12373425
163	0x3e5cdc73	0.2156847
164	0x3d2318ac	0.03981845
165	0xbc2d1927	-0.010565079
166	0xbdc718d2	-0.09721531
167	0xbdd66693	-0.10468783
168	0x3c0faedc	0.008769717
169	0x3cbfb9ae	0.023403969
170	0x3db2b7ef	0.08726489
171	0x3d695416	0.056964956
172	0x3dc74cfc	0.097314805
173	0x3db46c46	0.08809714
174	0x3dcc409f	0.09973263
175	0xbdbb5529	-0.091471024
176	0x3de1463b	0.109997235
177	0xbc07a94b	-0.008280109
178	0x3d857632	0.065166846
179	0xbd2bb175	-0.041917283
180	0x3dd44c4b	0.10366114
181	0xbe0460b4	-0.12927514
182	0xbcd8142f	-0.026376812
183	0xbd3114cf	-0.043232735
184	0x3e13ae23	0.14421897
185	0x3da9a247	0.08282905
186	0x3dd523f8	0.10407251
187	0x3d39ed96	0.045392595
188	0x3e2106c1	0.15725233
189	0x3dfaf6da	0.122541144
190	0x3e2c14d4	0.1680482
191	0x3da0c598	0.07850188
192	0x3e6de254	0.23230869
193	0x3f26ed42	0.65205777
194	0x3e033abb	0.12815373
195	0x3dad7b8b	0.084708296
196	0x3e400615	0.1875232
197	0x3f523951	0.8211871
198	0xbc81d6cd	-0.015849495
199	0x3e3a732c	0.18207997
200	0x3d9c9632	0.07645835
201	0x3d8e67bd	0.0695338
202	0xbd52abd1	-0.05143339
203	0x3ae64584	0.0017568325
204	0xbc23f761	-0.01000771
205	0x3e40e5d5	0.18837674
206	0x3d851c45	0.064995326
207	0x3df206a4	0.11817673
208	0x3e1dd3a1	0.15412761
209	0x3e1ba756	0.15200552
210	0xbd369c9e	-0.044582956
211	0x3c541bdd	0.012946096
212	0x3d97fe7f	0.07421588
213	0x3cbc836b	0.023011884
214	0x3ddf69e3	0.10908868
215	0xbd454159	-0.048158024
216	0x3e395254	0.18097812
217	0xbdca15ba	-0.09867425
218	0xbb89f1db	-0.0042097396
219	0x3daef6da	0.08543177
220	0xbe0551ea	-0.13019529
221	0x3e3796de	0.17928645
222	0xbdd05efa	-0.10174365
223	0x3d817edd	0.063230254
224	0x3d579923	0.052636277
225	0x3d52f31d	0.051501382
226	0xba7b59a5	-0.0009588248
227	0x3c3b4367	0.011429644
228	0x3e3f17fa	0.1866149
229	0xbcebcd92	-0.028784547
230	0xbd5687cb	-0.052375596
231	0x3d41c44f	0.047306355
232	0x3ebf63c6	0.3738081
233	0x3d9a0414	0.07520309
234	0x3ce99243	0.028512126
235	0x3e1205c9	0.1426002
236	0x3ccb5a7b	0.024823418
237	0x3e3b3a79	0.18284024
238	0x3db7ba6a	0.089711025
239	0x3eab65f5	0.33476225
240	0x3cc48462	0.023988906
241	0xbe79ae02	-0.24382785
242	0xbd739273	-0.059465837
243	0x3d15e7ed	0.036598135
244	0x3e016d2f	0.12639306
245	0xbccffd77	-0.025389416
246	0x3dea33db	0.11435672
247	0x3d49c527	0.049260285
248	0x3cccaa2b	0.024983486
249	0xbd756aab	-0.05991618
250	0xbded4ef5	-0.115873255
251	0x3d7da375	0.061923463
252	0xbdbd87c3	-0.0925441
253	0x3da8622a	0.08221848
254	0x3aef4075	0.0018253463
255	0x3ea62df4	0.32456934

fc2.bias f4 [128]
0	0x3d2d465d	0.04230343
1	0xbcfebc5e	-0.03109568
2	0xbe2434c2	-0.1603575
3	0x3bd1232c	0.0063823666
4	0x3bb7d840	0.005610496
5	0xbc0b0d2f	-0.00848703
6	0x3b605e3e	0.003423586
7	0x3c983ed2	0.018584643
8	0x3c094786	0.008378869
9	0xbcc06e4f	-0.0234901
10	0x3b1c471a	0.002384609
11	0xbb53e235	-0.0032330875
12	0x3b0329b4	0.002001387
13	0xbc2828fd	-0.010263679
14	0x3c35c6ca	0.011094758
15	0xbc0cb91c	-0.008589055
16	0x3a054fc5	0.0005085434
17	0x3ce52589	0.027972
18	0x3e4e6199	0.20154418
19	0x3cb19c11	0.021680864
20	0x3aceff3d	0.001579262
21	0x3babe7ae	0.005246124
22	0xbb8d2292	-0.0043070996
23	0xbda7ed6c	-0.081995815
24	0x3b82f269	0.0039961827
25	0x3d6e979d	0.05825006
26	0x3c5957e7	0.013265586
27	0x3d58c092	0.052918024
28	0x3c65525f	0.01399669
29	0x3c5e1c23	0.013556513
30	0x3c5eeaac	0.013605755
31	0xbc18225b	-0.009285535
32	0xbb563135	-0.0032683138
33	0x3b09a568	0.002100313
34	0x3bc84cbe	0.006112664
35	0xbc0f4935	-0.008745481
36	0xbbdab334	-0.0066741947
37	0x3bf18af4	0.007371301
38	0xbb315d76	-0.0027063764
39	0x3c170bf6	0.00921916
40	0xbcc25537	-0.023722274
41	0x3d0b97c0	0.034080267
42	0x3c38db97	0.011282823
43	0xbae0962e	-0.0017134601
44	0xbbbe4784	-0.005806865
45	0x3ae51fa9	0.0017480749
46	0x3d808786	0.06275849
47	0x3bcade51	0.006191053
48	0x3d0021ce	0.03128224
49	0x3be19835	0.0068845996
50	0xbad4db58	-0.0016239686
51	0x3cc21ddd	0.02369588
52	0xbbe92a74	-0.0071156565
53	0x3993b3ab	0.00028171888
54	0x3a0a3d7e	0.0005273445
55	0x3ca371fc	0.019951813
56	0x3d61f6ee	0.05516713
57	0xbc1759ce	-0.00923772
58	0x3cb1d262	0.021706764
59	0x3b01cef1	0.0019807185
60	0x3cba6432	0.022752855
61	0x3c9c8778	0.019107565
62	0xbbfa8ec4	-0.0076464135
63	0x3cf4ba13	0.029873883
64	0x3b3b0899	0.002853906
65	0x3cb0a783	0.02156425
66	0xbc3ad968	-0.011404373
67	0x3bc88d7e	0.006120383
68	0x3b0b07d9	0.0021214394
69	0xbb3e051c	-0.0028994745
70	0x3aee0af2	0.0018161221
71	0x3d4480ed	0.047974516
72	0x3b28be8b	0.0025748338
73	0x3d64234d	0.055697728
74	0x3ccbc238	0.024872884
75	0xbbbcd838	-0.00576308
76	0x3b3929c8	0.0028253663
77	0xbc488abd	-0.012240109
78	0x3ca28ab0	0.019841522
79	0xbcd9e0ea	-0.026596505
80	0xbc6c616d	-0.014427525
81	0xbe579447	-0.21052657
82	0x3d0da097	0.03457698
83	0x3b861817	0.004092227
84	0x3ce63010	0.02809909
85	0x3cf7d5a2	0.030253235
86	0x3cc6f346	0.024285924
87	0xba92eaf4	-0.0011208938
88	0x3d58b3b0	0.05290574
89	0x3c399c33	0.011328745
90	0x3cecb3c0	0.028894305
91	0x3c1e44bb	0.009659941
92	0xbb3f50e6	-0.0029192506
93	0x3c1042a3	0.00880495
94	0x3a99483d	0.0011694502
95	0xbbeaba5b	-0.0071633286
96	0xbdaf193f	-0.08549737
97	0x3c78cbb5	0.015185286
98	0x3ce2ea4c	0.027699612
99	0x3cfa7239	0.030572044
100	0x3cda8e85	0.026679287
101	0x3c8cfeeb	0.017211398
102	0x3c4363ab	0.011925618
103	0xbc4df0a3	-0.012569579
104	0xbc491121	-0.01227215
105	0x3ce479fb	0.027890196
106	0x3c4478c5	0.011991684
107	0x3c56cc1c	0.013110187
108	0x3cf6707d	0.030082935
109	0x3e01a39b	0.12660067
110	0x3d2ce931	0.042214576
111	0x3bed252e	0.007237098
112	0x3d00e302	0.03146649
113	0xbea0c6c6	-0.31401652
114	0xbdf936c5	-0.121686496
115	0xbc181c1a	-0.009284044
116	0x3d3a61a9	0.045503292
117	0xbc5d34c9	-0.0135013545
118	0x3d479663	0.048727404
119	0x3c7af1f1	0.015316472
120	0x3d5ad8c6	0.053429388
121	0xbe553d31	-0.20824124
122	0x3cba7272	0.02275965
123	0x3cae31cf	0.021263985
124	0xbc791978	-0.015203826
125	0x3c2ec633	0.010667372
126	0x3cac29e5	0.02101607
127	0x3cd3f317	0.02587275

ln2.weight f4 [128]
0	0x3f81107d	1.0083157
1	0x3fa3f3b7	1.2808751
2	0x3f7eb5eb	0.99496335
3	0x3f7ef2d0	0.9958925
4	0x3f91af71	1.1381665
5	0x3f730d56	0.94942224
6	0x3f79426a	0.97366965
7	0x3f97d51f	1.1861914
8	0x3f80453b	1.0021127
9	0x3f76f377	0.9646525
10	0x3f739a72	0.9515754
11	0x3f6cbdbd	0.9247702
12	0x3f750b79	0.9572063
13	0x3f95c66a	1.1701176
14	0x3f7bbbc3	0.98333377
15	0x3f883d11	1.0643636
16	0x3f86468f	1.0490283
17	0x3f800607	1.0001839
18	0x3f67ef26	0.90599287
19	0x3f80fbe8	1.0076876
20	0x3f798329	0.9746576
21	0x3fe8fdcf	1.8202456
22	0x3f749cd9	0.9555183
23	0x3f7b2f93	0.9811947
24	0x3f89a571	1.0753614
25	0x3f926d7a	1.143966
26	0x3f7ffad2	0.99992096
27	0x3f7f6940	0.99769974
28	0x3f6e7ac6	0.9315609
29	0x3f965270	1.1743908
30	0x3f69defd	0.9135588
31	0x3fce6fcc	1.6127868
32	0x3f73d543	0.95247287
33	0x3f75f883	0.96082324
34	0x3f7be70f	0.9839944
35	0x3f7d97c1	0.99059683
36	0x3f7416fa	0.9534756
37	0x3f8889ac	1.0667014
38	0x3f96bab7	1.1775731
39	0x3f7c1557	0.9847006
40	0x3f8e9081	1.1137849
41	0x3f8304c0	1.0235825
42	0x3f7d2371	0.98882204
43	0x3f7f0739	0.99620396
44	0x3f707dd9	0.9394203
45	0x3f7a3710	0.9774027
46	0x3f835cbc	1.0262675
47	0x3f6d9e1e	0.9281939
48	0x3f8a432d	1.080175
49	0x3f5bca06	0.8585514
50	0x3f872328	1.0557604
51	0x3fb3ecf3	1.4056686
52	0x3fad50b2	1.3540251
53	0x3f726046	0.9467815
54	0x3f79ec12	0.9762584
55	0x3f833e97	1.0253476
56	0x3f8c9a1b	1.0984529
57	0x3f73499a	0.9503418
58	0x3f947bcf	1.1600283
59	0x3f5b9848	0.8577924
60	0x3f824767	1.017804
61	0x3f83b3b7	1.028922
62	0x3f76f452	0.96466553
63	0x3f818ee5	1.0121733
64	0x3f6b7c4e	0.9198655
65	0x3f85b7a3	1.0446666
66	0x3f6c9033	0.9240753
67	0x3fb070ba	1.3784401
68	0x3f7b6d78	0.9821391
69	0x3f76dc06	0.9642948
70	0x3f84b430	1.0367489
71	0x3f88a57c	1.0675502
72	0x3f742866	0.95374143
73	0x3f83c80d	1.0295426
74	0x3f7bdc2a	0.9838282
75	0x3f7b16e8	0.9808183
76	0x3f69ec2b	0.9137599
77	0x3f7189fc	0.9435117
78	0x3f7d5c3f	0.9896888
79	0x3f77446b	0.9658877
80	0x3f74147e	0.9534377
81	0x3f8a021c	1.0781894
82	0x3fa3537f	1.2759856
83	0x3f739b97	0.95159286
84	0x3f828cf1	1.0199262
85	0x3f898a37	1.0745305
86	0x3f8c42c6	1.0957878
87	0x3f742cc0	0.95380783
88	0x3f82ab24	1.0208478
89	0x3f80830b	1.0039991
90	0x3f7dfd79	0.99214894
91	0x3f822052	1.0166113
92	0x3f830806	1.0236824
93	0x3f8717d5	1.0554148
94	0x3f8215fe	1.0162961
95	0x3f8bea8e	1.0930955
96	0x3f89f344	1.0777364
97	0x3faa3a2a	1.3299
98	0x3f8608c4	1.0471425
99	0x3fa1255f	1.258953
100	0x3f996940	1.1985245
101	0x3f9e2f22	1.2358134
102	0x3f7c7b57	0.986257
103	0x3f6e2b89	0.9303518
104	0x3f6f51bf	0.9348411
105	0x3f833439	1.0250312
106	0x3f7fb1cb	0.99880666
107	0x3f7e4e92	0.9933864
108	0x3f7f0b6f	0.9962682
109	0x3f657ba9	0.89641815
110	0x3f83c59a	1.0294678
111	0x3f7e1be0	0.99261284
112	0x3f8cda22	1.1004069
113	0x3f82b7b5	1.0212313
114	0x3f7f73c4	0.9978602
115	0x3f793c4b	0.97357625
116	0x3f854729	1.0412341
117	0x3f7f3c46	0.99701345
118	0x3f7a6b68	0.9782014
119	0x3f820b2c	1.0159659
120	0x3f8c233f	1.0948256
121	0x3f743f03	0.9540865
122	0x3f7e9ca6	0.99457777
123	0x3f7bdf81	0.98387915
124	0x3f8c8895	1.0979182
125	0x3fb76c27	1.432988
126	0x3f830850	1.0236912
127	0x3f7f884e	0.9981736

ln2.bias f4 [128]
0	0x3bbead18	0.005818974
1	0xbd4ff3bb	-0.05076955
2	0xbc11f79e	-0.008909134
3	0xbc21145b	-0.009831513
4	0xbd93d8b2	-0.07219066
5	0xbdd8dd06	-0.10589032
6	0xbabb1b47	-0.0014275097
7	0x3d034edc	0.032057628
8	0xbd0116ae	-0.03151577
9	0xbcabcf61	-0.02097291
10	0xbdbe2c6a	-0.09285815
11	0xbd8aa88f	-0.06770431
12	0xbd58fa33	-0.052972984
13	0xbcc7004c	-0.024292134
14	0xbb9bf7a7	-0.004759747
15	0xbbe95389	-0.007120554
16	0xbd777abb	-0.06041978
17	0x3d09386b	0.03350107
18	0xbe03eea0	-0.12883997
19	0xbd827562	-0.06370045
20	0xbc9d1a7d	-0.01917767
21	0xba4fa8a7	-0.00079215545
22	0xbdb7ee38	-0.089809835
23	0xbc9e9eae	-0.019362774
24	0xbd2578ae	-0.040398292
25	0x3d9a6dc0	0.075404644
26	0x3b908bbb	0.0044111884
27	0xbd9ebcf7	-0.07750886
28	0xbdb1d870	-0.0868386
29	0xbcc41143	-0.023934012
30	0xbe4b2cfc	-0.19841379
31	0xbd806e5e	-0.06271051
32	0xbd31afb2	-0.043380447
33	0xbcf046c1	-0.029330613
34	0xba05e5f4	-0.0005107813
35	0xbd01e363	-0.031710993
36	0xbc36f6f7	-0.011167279
37	0xbcba73a8	-0.022760227
38	0xbbea4edb	-0.0071505136
39	0xbbf52dac	-0.007482251
40	0xbce74add	-0.02823394
41	0x3cb74942	0.0223738
42	0x3bfb0ea1	0.007661656
43	0xbd3fa757	-0.046790447
44	0xbd8674d7	-0.06565254
45	0xbd622350	-0.055209458
46	0x3d027c22	0.031856664
47	0xbd386f03	-0.045027744
48	0x3cf142e1	0.029450836
49	0xbe2138d9	-0.15744342
50	0x3cb21d8d	0.021742607
51	0xbbc08c96	-0.005876134
52	0xbd83c89a	-0.06434746
53	0xbc8e9a20	-0.017407477
54	0xbd9d80ef	-0.07690608
55	0xbd10f135	-0.035386283
56	0x3d377e75	0.044798333
57	0xbd32a346	-0.04361274
58	0x3d485be2	0.04891575
59	0xbe5e6d38	-0.21721351
60	0x3c327e4c	0.010894369
61	0x3c8099b0	0.015698284
62	0xbcf2fe10	-0.029662162
63	0xbc465015	-0.012104054
64	0xbdcc5cd9	-0.09978647
65	0x3ceab570	0.02865097
66	0xbd010d47	-0.031506803
67	0x3d4dca6d	0.050241876
68	0x3a4b0da0	0.0007745866
69	0xbceddc14	-0.029035605
70	0xbd00959b	-0.031392675
71	0x3d6854ae	0.05672138
72	0xbc3d5c12	-0.011557596
73	0x3d71cedd	0.05903517
74	0xbd6c583d	-0.057701338
75	0xbdb0c617	-0.08631533
76	0xbdae934b	-0.08524188
77	0xbd8a7955	-0.067614235
78	0x3c44f56e	0.012021406
79	0xbd874793	-0.066054486
80	0xbda6b342	-0.081396595
81	0x3ca66936	0.02031384
82	0x3b563e99	0.003269112
83	0xbd4ec7e0	-0.050483584
84	0x3cd8a796	0.026447099
85	0xbe087f88	-0.133299
86	0xbc346fa8	-0.011012949
87	0xbda6229a	-0.081120685
88	0x3d260685	0.04053356
89	0x3c06f2c5	0.008236592
90	0x3c3126a2	0.010812433
91	0xbda2c677	-0.079480104
92	0xbd8e30fd	-0.069429375
93	0xbd4bacb4	-0.04972525
94	0xbd52c400	-0.05145645
95	0xbd0aaa1c	-0.033853635
96	0x3c35645f	0.011071294
97	0xbd9d3d44	-0.07677701
98	0x3c2da329	0.010597982
99	0xbcaeebf7	-0.021352751
100	0x3c8c9ef9	0.017165648
101	0xbd36ef53	-0.04466183
102	0x3b6b1ba4	0.003587463
103	0xbda56c64	-0.080773145
104	0xbdc00b27	-0.09377127
105	0x3cc02daf	0.023459284
106	0xbd999715	-0.0749952
107	0xbb3ed545	-0.0029118818
108	0x3c9f2c46	0.01943029
109	0xbe05682c	-0.1302802
110	0x3ca48a90	0.020085603
111	0x3c02c2ec	0.007981043
112	0x3cde7399	0.02715473
113	0x3caa425e	0.0207836
114	0x3b396880	0.0028291047
115	0xbc6d5e40	-0.014487803
116	0x3d515bf0	0.05111307
117	0xbcb3f179	-0.02196573
118	0xbc49605a	-0.012291038
119	0xbc2fe432	-0.010735558
120	0x3d5045d9	0.050847862
121	0xbc780d3c	-0.015139874
122	0xbc00e04d	-0.0078659775
123	0xbca02972	-0.019551013
124	0xbcd93fd6	-0.026519697
125	0xbd04d141	-0.032426123
126	0x3c89364b	0.016749522
127	0x3c77f223	0.0151334135
