checkpoints/DDPG/Target_actor/DDPG_target_actor_600.pth (torch, 183215 bytes, 10 tensors)

fc1.weight f4 [256, 41]
000000 98 f1 84 bd a4 fa 56 3e 9c c3 78 3d 9a 8d 1c be
       -0.06491393 0.2099405 0.060733423 -0.15288392
000010 2a ba 28 be 29 28 64 bd 7d 94 68 3d a9 3f 1c 3e
       -0.16477266 -0.055702362 0.056782234 0.1525866
000020 4b 4c 13 3e 4b a2 ae 3c d4 88 11 bd bc 7d 2e 3e
       0.14384572 0.021317622 -0.03553088 0.17040151
000030 0d 28 28 bc 3d cb 49 3d 3c 6f 2b 3e 51 eb 12 be
       -0.010263455 0.04926609 0.16741651 -0.14347579
000040 c9 01 35 be 59 e5 e2 bc 87 09 ab bd 4b 18 f0 bd
       -0.17676462 -0.027697252 -0.083514266 -0.117233835
000050 fa 7c 90 3d 46 70 03 3e e0 50 c6 bc b0 5a 8f bd
       0.070550874 0.12835798 -0.024208486 -0.06999719
000060 31 3a 91 3d 7f 81 9f 3c 96 db 40 3e b2 09 67 bc
       0.07091177 0.019470928 0.18833765 -0.014101433
000070 27 c8 7b 3e d4 5f d9 bd 96 11 11 be 10 18 45 3d
       0.24588071 -0.10613981 -0.14166865 0.04811865
000080 c8 4c aa 3d 48 8d 7f 3d 8a 42 29 3d 4c f2 b0 be
       0.08315426 0.062390596 0.041323222 -0.34559858
000090 d3 58 da 3d a6 60 21 3e 5d 75 92 3d 1a 63 03 3d
       0.10661473 0.15759525 0.071512915 0.032076932
0000a0 d5 5b 73 bd ea ac 99 3d fb 5a a4 3d 33 f4 bf bd
       -0.05941375 0.07503684 0.08025166 -0.09372749
0000b0 25 62 30 3e 33 ec 16 bd f7 ad 73 3d 76 f6 66 bd
       0.17224939 -0.03684635 0.059492078 -0.056387387
0000c0 8a 5f c6 3d c8 3a 3b bd e5 f2 81 bb 87 66 13 be
       0.096861914 -0.045710355 -0.003965723 -0.1439458
0000d0 1e 96 41 be 70 8c 75 bd 80 bd 33 bd 8a 47 0a bd
       -0.18904921 -0.059948385 -0.043881893 -0.03375963
0000e0 45 ec 71 be d6 dc b3 bd d1 95 5b be 4e 2a 8b bd
       -0.23625286 -0.087823555 -0.21443869 -0.06795178
0000f0 e4 1e b6 bd 4a b6 46 3e 53 a1 34 3e 27 ea e2 3e
       -0.08892611 0.19405475 0.17639665 0.4431927
000100 60 cb 8a 3e 15 06 9f 3e 33 3a 37 3e 71 a6 fd 3e
       0.27108288 0.31059328 0.17893295 0.49541047
000110 4a a1 11 be ff 0f 2b 3e ac 27 fd bd e8 9c 15 3e
       -0.14221683 0.16705321 -0.123610824 0.14610636
000120 e2 38 d5 3d c7 c3 83 bc b2 9a d7 bd e3 e9 9e bd
       0.1041124 -0.016084565 -0.10527553 -0.07759454
000130 5d 68 1b bf 13 bc d1 3d 62 ab 12 bd fe 7c 0d 3c
       -0.6070612 0.102409504 -0.035807975 0.0086357575
000140 43 49 57 bd f6 9b 19 3e d3 c5 32 3d ab a7 62 be
       -0.052560102 0.150009 0.04364569 -0.22134273
000150 ad ca f7 bc 36 49 21 be 79 a2 3f be 89 76 d6 bd
       -0.03024801 -0.15750584 -0.18714322 -0.104718275
000160 01 83 c4 bd 5e 5c e2 3c 9f 17 5c bd 38 8e 80 be
       -0.095952995 0.027631935 -0.053733464 -0.25108504
000170 3a 7f 9e bc 51 fc 33 3e b6 3c 58 3e ec 3c 3c 3e
       -0.019347776 0.1757672 0.2111691 0.18382615
000180 4d 01 08 bc 33 52 1c be 42 64 0b be d6 86 41 3d
       -0.008301091 -0.15265732 -0.13612464 0.04724773
000190 dd 02 8f 3d e7 43 d6 bc 66 a8 fd bd 88 c5 21 bd
       0.06982968 -0.026155425 -0.12385635 -0.03949502
0001a0 6b 5a 84 be 03 3e 9d be 3c 26 91 be b4 b1 70 be
       -0.25850233 -0.30711374 -0.28349483 -0.23505288
0001b0 89 ab 49 be 4a 84 89 bc 1c c6 65 bd 15 2f 51 3d
       -0.19694342 -0.016786713 -0.056097135 0.05107029
0001c0 63 5e 81 3d e0 12 10 bc 8f 42 70 3c 95 c8 bc 3c
       0.06316831 -0.008793563 0.014664306 0.023044864
0001d0 d4 f0 d2 bc ee f1 11 3e a1 85 f2 bd e1 17 05 be
       -0.025749601 0.14252445 -0.11841894 -0.1299739
0001e0 a3 ce 84 3c 21 35 20 be f1 5c 22 bb ec 60 b2 3d
       0.016211813 -0.15645267 -0.0024774636 0.08709893
0001f0 d9 e0 95 be bd 20 5f be bf 07 33 bd a2 0d 2b bc
       -0.29273108 -0.21789832 -0.04370856 -0.010440262
000200 d2 9e 90 3d f7 4c 27 3a 72 6d e0 3c d7 0f 13 be
       0.070615426 0.0006382013 0.027395938 -0.14361511
000210 fd 10 50 3a 94 79 c5 3c 2e c0 58 3e ea ca 19 3e
       0.0007937102 0.024105825 0.2116706 0.15018812
000220 6f c1 eb 3d bf bb 4d 3e 65 e3 c5 3e 32 d8 f1 3d
       0.11511504 0.2009115 0.3865005 0.11808814
000230 40 3a e9 3e 3e f2 48 3e c2 c2 43 3c 39 c9 d4 bc
       0.45552254 0.19623658 0.011948289 -0.025974857
000240 47 46 e8 bd 2d 31 ba be fc cf 26 be 0c 4b 1e be
       -0.11341529 -0.36365643 -0.16290277 -0.15458316
000250 53 5b 5a bd 9c 96 32 be f7 58 02 3d 6b 33 3e bd
       -0.05330975 -0.17440265 0.031823125 -0.046435755
000260 16 25 5f 3e 34 4b 93 bd 50 3c c8 bd 65 7f 31 3e
       0.21791491 -0.07192078 -0.09777129 0.17333753
000270 3d e3 5a bd 53 fb b1 bd 0b db d7 3e 22 89 75 3e
       -0.053439368 -0.086905144 0.42159304 0.23978093
000280 c2 c9 19 3d 90 2e 49 3c db 85 c8 3d 87 2c eb 3d
       0.037545927 0.012279168 0.09791156 0.11483102
000290 75 a7 04 3e 8e c6 53 3e 9f 78 9c be 4d 84 55 3d
       0.12954505 0.20681211 -0.30560777 0.052128125
0002a0 4e cb 68 be 79 2d b1 3a 99 cb 1c be 71 9e 2b bd
       -0.22733805 0.001351758 -0.15312041 -0.04189915
0002b0 63 1a 5c 3d da 3f 00 3e 05 a5 02 3e f2 41 9a bc
       0.0537361 0.12524357 0.12758262 -0.018830273
0002c0 79 14 48 be b2 24 8f be df 1b ca be 53 bb ad be
       -0.1953906 -0.27957684 -0.3947439 -0.3393198
0002d0 26 68 c9 be 81 4a 50 be 82 d3 ce be 5d 76 56 be
       -0.3933727 -0.20340921 -0.40395743 -0.2094359
0002e0 7d 85 ec bc 55 27 34 bb 56 29 6e 3e 9d d4 ac 3d
       -0.028872246 -0.0027489264 0.23257956 0.0843899
0002f0 7c 7c 5f 3d 04 66 84 3d 1c 4d 96 3e f1 81 eb bb
       0.054562077 0.064647704 0.29355705 -0.007187121
000300 a8 51 64 3e 36 00 a5 bc 92 b2 11 3d 7b be 97 bd
       0.22296774 -0.020141702 0.03557069 -0.07409378
000310 44 13 dc 3c 39 73 ba 3d 26 b7 90 bd 8d bf 10 bf
       0.026864655 0.09104008 -0.07066183 -0.56542283
000320 7b dd 5a be 66 76 77 bd be 36 3b 3c e4 d2 80 be
       -0.2137355 -0.060415648 0.011426626 -0.25160897
000330 cb 2e 00 bd 8e 78 de bc 5a 91 36 3e c6 ba 3d 3e
       -0.031294625 -0.027157094 0.17828885 0.1852828
000340 9e 22 2f 3d 31 0d 01 bd c8 e4 21 3d bc 71 7f 3d
       0.042757623 -0.03150672 0.039524823 0.062364325
000350 1e f9 43 3e 82 c9 0d 3e 3c ec 2e 3e 12 a5 2d 3e
       0.19138 0.138464 0.17082304 0.169575
000360 3b 0b 52 3d 86 5b 83 bd 3a 41 46 3d 95 f0 70 3d
       0.05128024 -0.06413941 0.04840205 0.058823187
000370 b1 3e 0c bd d5 56 10 3d 19 00 cd bc c5 2a b2 3c
       -0.034239475 0.03523906 -0.02502446 0.02174891
000380 90 20 9b bd c7 c1 60 be 7c 1e da bc 96 c3 57 3d
       -0.0757457 -0.2194892 -0.026625864 0.05267676
000390 1c 30 97 3b b8 97 fa bd e3 4f 81 bd 45 89 7b 3e
       0.0046138894 -0.12235969 -0.06314065 0.24564083
0003a0 b5 5e 78 3c b2 41 2a 3e e8 33 0a bd 93 7a 0e be
       0.015159299 0.16626623 -0.033740908 -0.13913946
0003b0 b6 c7 0e 3e 53 1a 62 3e b9 be 8f 3e 69 f6 bc 3c
       0.13943371 0.22080354 0.28075197 0.023066716
0003c0 fb b1 7c 3e e7 3c aa 3d 0a 1f 86 3b f3 30 ba 3c
       0.24677269 0.083123975 0.0040930556 0.022728419
0003d0 99 a7 d6 3d 43 97 39 be 07 0b 8b 3e 5d 3b 1e 3d
       0.104811855 -0.18124108 0.2715685 0.038630832
0003e0 d3 f1 71 3d 65 66 12 bd f3 46 b0 bd f0 e9 66 be
       0.059068512 -0.035742182 -0.086072825 -0.22550178
0003f0 73 4a ec bd 0c f3 0c be 54 5f 31 be dd c6 15 be
       -0.115376376 -0.1376459 -0.17321521 -0.14626642

fc1.bias f4 [256]
000000 ee 11 f4 3c 58 10 6c bd 01 03 aa bd 40 e6 f1 3c
       0.029793706 -0.057632774 -0.08301354 0.029528737
000010 05 d6 e1 bd 1f f4 0e 3e 3f f5 93 3d 4d 52 47 3d
       -0.11027149 0.13960312 0.07224511 0.048662473
000020 b4 11 e1 bc d6 ad 04 3d f2 bc e1 bd f9 f8 b7 bd
       -0.027474262 0.032392345 -0.110223666 -0.08983035
000030 a1 d4 9d 3c 39 d3 07 3e d3 25 f6 3d bb 16 a2 3d
       0.019266428 0.13264169 0.12018933 0.07914492
000040 20 9c 36 bc 81 8e 79 3d 65 9f 83 bc fd 6e 6c bd
       -0.011145622 0.060926918 -0.016067216 -0.057723034
000050 26 ee 46 bd f1 14 18 3e b5 15 b4 3d 5f 7a dc 3d
       -0.04856696 0.14851739 0.08793203 0.10765528
000060 10 e8 f7 3d 4c d8 24 3e ee 7e b1 bd a3 13 01 bd
       0.12104809 0.16098136 -0.08666788 -0.031512868
000070 f6 c2 6c ba 19 a5 b0 bd 8e e0 8c 3d ab fa 50 bd
       -0.0009031737 -0.0862524 0.06878768 -0.051020306
000080 c1 8c c6 3d 48 29 ce bd c1 a6 b1 3d 67 b1 bd bd
       0.096948154 -0.100664675 0.08674384 -0.092623524
000090 c8 da 94 3d ed 08 88 bd c8 23 ac bd ab 17 a1 bc
       0.07268292 -0.066423275 -0.08405262 -0.019664606
0000a0 c2 d8 be 3d eb 57 4f 3d 33 7a 16 3e 15 30 72 bd
       0.09318687 0.050620954 0.14695053 -0.059127886
0000b0 33 a8 8b bd 67 cd c7 bc 3d 09 b3 3d 40 11 86 3d
       -0.06819191 -0.024389936 0.087419964 0.06546259
0000c0 90 1d cc bd f0 05 dd bd 22 2d 29 3c 11 0b a1 3d
       -0.09966576 -0.10792148 0.010325702 0.07863439
0000d0 b1 9b cb bd ce cf bb 3d d5 bf c7 bd 53 f6 7e bd
       -0.09941805 0.09170495 -0.09753386 -0.06224663
0000e0 0a 37 f1 bd c8 2e a9 3c 6b d9 18 3c 33 3d d2 bd
       -0.11778076 0.02065219 0.00932918 -0.10265579
0000f0 09 8a be 3d 07 73 1b 3e 7d 5a cb 3c 87 ec cc bd
       0.09303672 0.15180598 0.024823422 -0.100060515
000100 ad d7 8d 3c 21 0a f0 3c 90 cd 4c bc 8c 9b ad 3d
       0.017314756 0.029301705 -0.012500182 0.08476934
000110 cc 88 a9 3c 07 9c 43 3e af 07 ce 3d 00 7c 9e 3d
       0.020695113 0.19102488 0.10060059 0.07738495
000120 25 74 8b 3c 4f bb c2 3d 1f f1 0a bd f9 cf 54 3d
       0.017023155 0.095083825 -0.033921357 0.05195615
000130 4e 08 67 bd d3 3b 8a bc 40 5d c5 bc a2 f8 d1 bd
       -0.056404404 -0.01687423 -0.024092317 -0.10252501
000140 ca 35 a4 3c b5 98 5f bb 9b 3e 71 bc 55 2f ed 3c
       0.02004518 -0.003411812 -0.014724399 0.028953234
000150 90 bb 6e 3d f5 73 81 3d 5a 4c e0 3d 4a 43 94 bd
       0.058284342 0.06320945 0.10952063 -0.07239397
000160 f5 94 bb bd a9 f9 c3 bc 3f dd 93 3c 4f 25 fc 3c
       -0.09159271 -0.023922758 0.018049834 0.030779509
000170 31 fa b0 bd 4c dd e0 bc 08 c6 c6 bd 21 90 2c 3d
       -0.0864147 -0.027449273 -0.0970574 0.04212964
000180 e8 ea ac bd 25 79 df 3c 8c c0 65 3d 40 ea e3 bc
       -0.08443242 0.027279446 0.05609183 -0.02782166
000190 48 e9 cd bd eb a7 06 3e cd cc 09 be 27 b0 f5 3d
       -0.100542605 0.13149993 -0.13457032 0.11996489
0001a0 f9 da d4 39 5c 08 a1 bd 0b ae e7 bc 2d 7d 37 3d
       0.00040598938 -0.078629225 -0.028281232 0.04479711
0001b0 37 c6 ad 3c 53 84 51 bd fb f3 b8 3d c3 85 9b 3d
       0.02121268 -0.051151585 0.090309106 0.075938724
0001c0 d2 ef da 3d 9f 32 18 3d 9e eb c9 bd c4 08 a6 3d
       0.10690273 0.03715765 -0.098593935 0.08107141
0001d0 15 03 5e bd b2 72 9f 3d 06 e9 9d 3d d3 9f 97 bc
       -0.054202158 0.07785548 0.07710461 -0.018508827
0001e0 94 10 b3 3d 74 98 04 be 30 b2 88 bd 8b 35 79 3c
       0.087433964 -0.12948781 -0.066746116 0.01521052
0001f0 07 ac d1 3d 5a 92 b3 bd e9 1a af bd 7c 56 bd bd
       0.1023789 -0.08768149 -0.085500546 -0.09245011
000200 68 cc b3 bd 0d 3e 9d bd bb 65 9c 3d ac 8e c2 3d
       -0.08779222 -0.07677851 0.07636591 0.09499869
000210 b2 b1 ca bd 44 42 05 3e 43 c9 5a 3d 9f a6 89 bc
       -0.09897174 0.1301356 0.053414594 -0.016803084
000220 a3 03 b2 3d ef b1 19 3d d7 94 ac bd 20 2e 96 bd
       0.086921 0.037523206 -0.084268264 -0.073330164
000230 0e 9d 5e bc 84 85 87 bd a8 6b c1 bd 0c 39 06 bd
       -0.013587249 -0.06617263 -0.09444362 -0.032769248
000240 c0 15 cb 3c 20 7a 9f bd 07 6d 1a 3d 3e 36 ab 3b
       0.024790645 -0.07786965 0.037701633 0.005224972
000250 60 46 be bd 67 b7 cc 3d 2a c5 70 bd a3 b4 62 3b
       -0.09290767 0.09995919 -0.05878178 0.003459253
000260 be 4c f3 3d f8 3d 3a 3d 91 55 45 3c 1d e9 b2 3d
       0.11879872 0.045469254 0.012044326 0.08735869
000270 76 79 bc bd 64 c5 c8 bd 68 2c d2 bd dc 58 bb bb
       -0.09202854 -0.09803274 -0.10262376 -0.00571738
000280 a2 c0 7b 3d de 04 98 3d 3e c9 9b 3d 32 08 83 3d
       0.061463006 0.07422803 0.07606743 0.063980475
000290 67 33 a2 3d 56 27 99 bd 5c bf 98 3b be 6a 38 bd
       0.079199605 -0.07478206 0.0046614837 -0.045023672
0002a0 9b a3 b9 bb 60 c9 ba bd 96 bf 03 be 9e d6 af bd
       -0.0056652552 -0.091204405 -0.12866053 -0.08585857
0002b0 85 8b bb bd ae 75 a4 3d 0c fc 78 3d e5 7a 27 bd
       -0.091574706 0.08030258 0.060787246 -0.040888686
0002c0 49 a4 e8 3d 27 57 d8 bc ed e7 a5 bd 8b 25 5a bb
       0.1135946 -0.026408745 -0.08100877 -0.0033286538
0002d0 4a 35 03 3d 3e 5f 9a 3d 86 13 55 bd 7f e4 86 bd
       0.032033242 0.07537697 -0.052020572 -0.06586551
0002e0 08 2f cf 39 fd 19 0a bd 47 9d 31 bd 13 3a 23 be
       0.00039517158 -0.03371619 -0.043362882 -0.15940122
0002f0 27 71 85 bd f0 ad 1c bd 52 6d b3 3d 48 3a ca bd
       -0.06515723 -0.038251817 0.087610856 -0.098743975
000300 46 51 8f 3b 0e e9 9c 3d 0d 67 7f 3d 28 a9 21 3e
       0.004373702 0.07661639 0.062354136 0.15787184
000310 89 58 96 bd e8 0d c3 3d 75 28 e4 bd 7e dc 18 3d
       -0.073411055 0.09524137 -0.11140529 0.037319653
000320 96 77 88 bd c9 f7 3f bd 06 08 de 3d ce 58 a2 3d
       -0.06663434 -0.046867166 0.10841374 0.079270944
000330 21 f0 b2 bd 67 57 08 3e 72 2f 22 bd d8 ad e9 bc
       -0.08737207 0.13314591 -0.03959603 -0.028525278
000340 ac 51 be 3b 69 2a f6 3d 74 ce 0f bc 3a e9 f5 3d
       0.005808076 0.12019808 -0.00877725 0.12007375
000350 7a 82 78 3c 7e b5 e7 bd 23 90 cf bd ca 4b 8d bd
       0.015167827 -0.11313914 -0.10134914 -0.06899221
000360 f4 73 1d 3e 57 cf 82 3d e0 35 ec 3d a8 e3 92 3d
       0.15376264 0.06387203 0.11533713 0.07172328
000370 96 14 f2 bd 4b 7a af 3d 1b 5b 47 3d a7 7f 11 3e
       -0.11820333 0.085682474 0.04867087 0.14208852
000380 b8 c5 ce bd b5 12 49 bb b5 52 30 bd b9 79 11 3e
       -0.100963056 -0.0030681316 -0.043047626 0.1420659
000390 e2 4f 33 3d bb 9b a3 3d 78 e3 3f 3d 57 17 a6 bd
       0.043777354 0.079886876 0.04684779 -0.081099205
0003a0 c4 50 fa bc bb 42 91 3d de de 7e bd de bd d3 3d
       -0.03055609 0.07092806 -0.06222426 0.10338949
0003b0 4f 53 d0 bc 4e 84 da 3d 9c 59 ee 3c de 00 9f 3d
       -0.02543035 0.10669766 0.029095463 0.07763837
0003c0 ad a6 1a 3d 29 5a e5 bc 48 f1 e1 bc e7 c5 60 3d
       0.03775661 -0.027997093 -0.027580872 0.054876234
0003d0 76 d0 7d bc da 85 e7 bd 14 62 36 bc eb ed 1a bd
       -0.0154915955 -0.11304827 -0.011131782 -0.037824553
0003e0 b6 01 ea bd 55 fe 90 bc ee 54 19 bd 77 0d 93 3d
       -0.114261076 -0.0176994 -0.03743451 0.071803026
0003f0 1e fc 7a bd 2c 96 18 3e b8 58 21 bd 72 69 de 3d
       -0.061275594 0.14901036 -0.03939125 0.10859956

ln1.weight f4 [256]
000000 7d 1b 69 3f ce c9 94 3f 98 8c 5f 3f 46 d5 7e 3f
       0.9105757 1.1624086 0.87323904 0.9954418
000010 2f 83 71 3f c1 b2 91 3f fc e8 a4 3f bf b2 7a 3f
       0.94340795 1.1382676 1.2883601 0.97928995
000020 d6 24 a5 3f db 6f 9f 3f 3e 4a 8b 3f e5 12 75 3f
       1.2901866 1.245601 1.0882032 0.95731956
000030 e3 1f 84 3f 58 d8 91 3f 0b 8d a0 3f 17 ef 81 3f
       1.0322231 1.1394148 1.2543043 1.015109
000040 39 c7 99 3f 48 fe 8e 3f 18 85 87 3f 16 c8 73 3f
       1.2013923 1.117135 1.0587492 0.9522718
000050 ba 6d 89 3f fa 56 b5 3f ba f5 8c 3f 02 cd 88 3f
       1.0736611 1.4167168 1.101249 1.0687563
000060 ea d7 8d 3f 04 f0 a4 3f 10 10 6e 3f 03 21 65 3f
       1.1081517 1.2885747 0.9299326 0.89503497
000070 d9 17 94 3f f8 9f 97 3f ad 0b 77 3f c9 a0 77 3f
       1.1569778 1.1845694 0.9650219 0.96729714
000080 4d de 85 3f 05 72 87 3f 2d c5 78 3f f6 34 8d 3f
       1.0458466 1.0581671 0.97175866 1.1031787
000090 94 3a 77 3f 0f 56 8e 3f cf 9e 89 3f 0f 73 82 3f
       0.9657376 1.1120013 1.075159 1.0191363
0000a0 6d 68 59 3f c4 6c 75 3f 8e 3f a6 3f 94 95 79 3f
       0.84924966 0.9586909 1.2988145 0.97493863
0000b0 d8 de 6c 3f 6a 56 85 3f c4 00 83 3f 5a 3d 78 3f
       0.9252753 1.0416996 1.0234609 0.96968615
0000c0 c4 97 82 3f 3d 77 70 3f 58 04 84 3f 97 de 87 3f
       1.0202565 0.93931943 1.0313826 1.0614804
0000d0 bb e0 7b 3f ca 23 5f 3f c0 ac 71 3f 58 e4 81 3f
       0.98389786 0.87163985 0.9440422 1.014781
0000e0 ba 1d b6 3f 35 7b 8e 3f fa 96 8a 3f 80 e8 72 3f
       1.4227822 1.113135 1.0827324 0.94886017
0000f0 9d 79 7c 3f 46 30 cd 3f d5 fc 80 3f 8b 8c 85 3f
       0.9862307 1.6030357 1.0077158 1.0433515
000100 bb 87 db 3f fb 79 7d 3f f7 ce 6c 3f f0 24 82 3f
       1.7150797 0.9901425 0.92503303 1.0167522
000110 ce 8d 83 3f 79 52 98 3f 8b 0d 8d 3f ba 11 81 3f
       1.027765 1.1900169 1.1019758 1.0083535
000120 07 7a 89 3f 1b b3 81 3f f1 47 56 3f c6 07 90 3f
       1.0740365 1.0132784 0.83703524 1.1252372
000130 ee 45 6d 3f eb fd a3 3f 24 09 74 3f 21 78 81 3f
       0.9268483 1.2811865 0.9532645 1.0114785
000140 42 8b 7a 3f 4f c3 8b 3f 10 21 8f 3f 30 29 8d 3f
       0.9786874 1.0918978 1.1181965 1.1028194
000150 c8 99 79 3f 55 63 68 3f 61 66 8b 3f 61 dd 74 3f
       0.97500277 0.9077657 1.0890619 0.956503
000160 97 c2 92 3f 13 67 67 3f 9a 04 73 3f 3e 42 90 3f
       1.1465634 0.90391654 0.94928896 1.1270216
000170 0f 93 7b 3f b6 6b 85 3f 4a 51 79 3f 0d d0 8d 3f
       0.9827127 1.0423496 0.9738966 1.1079117
000180 de cb 88 3f e3 8d 87 3f 08 b5 da 3f b5 2e 7b 3f
       1.0687215 1.0590175 1.7086496 0.98118144
000190 9a 94 8b 3f 70 7b 95 3f 43 9f 86 3f 1a 6d 8a 3f
       1.0904725 1.1678295 1.0517353 1.0814545
0001a0 6e 09 8d 3f 48 bf 69 3f 16 37 79 3f 6f 87 aa 3f
       1.1018503 0.913075 0.9734968 1.3322581
0001b0 94 1d 6c 3f f1 5d 85 3f 75 85 8e 3f e3 8c b7 3f
       0.9223263 1.0419294 1.1134478 1.433987
0001c0 4c bd 82 3f 1e e9 76 3f f4 98 81 3f f9 14 88 3f
       1.0214019 0.9644946 1.0124803 1.06314
0001d0 42 c7 ab 3f 58 7a 7d 3f 1d ff 98 3f 45 f4 81 3f
       1.3420184 0.99014807 1.1952854 1.015267
0001e0 ea 95 8f 3f f3 ce 8a 3f 3b 0b 7f 3f 18 9a bc 3f
       1.1217625 1.0844406 0.9962651 1.4734526
0001f0 a7 c8 84 3f 97 11 9e 3f 06 48 b2 3f e3 ac 8b 3f
       1.0373734 1.2349118 1.392823 1.0912136
000200 05 71 81 3f a3 04 89 3f de 56 a5 3f 4a ba 87 3f
       1.0112616 1.070454 1.2917135 1.0603726
000210 bf 0d 84 3f ce f0 9d 3f e3 3b 75 3f b6 64 6c 3f
       1.0316695 1.2339113 0.95794505 0.9234117
000220 74 ee 8b 3f 4e a5 7f 3f fc 12 7c 3f a0 52 91 3f
       1.0932145 0.9986161 0.9846647 1.135334
000230 d8 42 53 3f 64 4e 97 3f 81 a9 89 3f f1 6c b6 3f
       0.8252387 1.1820798 1.0754853 1.4251996
000240 75 3a 63 3f 44 f4 9c 3f a6 cf 6d 3f 8f c1 55 3f
       0.88761073 1.2262044 0.9289497 0.8349847
000250 4e 7e 80 3f 47 72 85 3f 42 b1 ac 3f 9a b3 6d 3f
       1.0038545 1.04255 1.3491595 0.92852175
000260 b4 0d 86 3f 8d cd 40 3f 8b b7 89 3f b0 c4 6d 3f
       1.0472932 0.75313646 1.0759138 0.92878246
000270 0a fa 76 3f 19 7c 80 3f a1 42 82 3f c3 bf 89 3f
       0.9647528 1.0037872 1.0176584 1.0761646
000280 82 53 a7 3f ef aa 81 3f b4 2d 63 3f f0 99 ab 3f
       1.307236 1.013029 0.8874161 1.3406353
000290 40 fb 7d 3f 49 cf 74 3f 45 26 88 3f ad 28 98 3f
       0.992115 0.9562879 1.0636679 1.1887413
0002a0 e6 45 8b 3f f2 f9 88 3f c1 99 7a 3f e5 a6 7a 3f
       1.0880706 1.0701277 0.9789086 0.9791091
0002b0 6e f3 80 3f 75 30 7b 3f b3 ee 93 3f 36 2f aa 3f
       1.0074289 0.98120815 1.155722 1.3295658
0002c0 49 6f 72 3f 84 50 94 3f dc ce 87 3f 16 c7 71 3f
       0.9470106 1.1587071 1.0610003 0.94444406
0002d0 51 39 81 3f 5d 74 b4 3f 94 c0 7b 3f 9e c6 94 3f
       1.0095617 1.4098011 0.98340726 1.1623113
0002e0 8a 2c 8e 3f aa 06 80 3f 0b 49 83 3f d5 db aa 3f
       1.1107342 1.0002034 1.0256666 1.3348337
0002f0 fe 73 9d 3f 69 e8 87 3f 71 5b a7 3f 3c b5 64 3f
       1.2301023 1.0617801 1.3074781 0.8933904
000300 7c 94 89 3f f6 3e db 3f eb d0 bd 3f bc ac 91 3f
       1.0748439 1.7128589 1.4829382 1.1380839
000310 55 84 74 3f c7 7f d4 3f 18 8a 7a 3f 4c 52 68 3f
       0.9551442 1.6601495 0.97866964 0.90750575
000320 27 be 8c 3f b8 c6 7e 3f 01 a8 88 3f f8 7a 66 3f
       1.099553 0.9952197 1.0676271 0.90031385
000330 50 f6 81 3f 96 f7 94 3f ca b6 a6 3f dd 54 7b 3f
       1.0153294 1.1638057 1.3024533 0.98176366
000340 65 39 95 3f 20 00 c9 3f 90 96 75 3f 3b 92 b5 3f
       1.165814 1.5703163 0.95932865 1.4185251
000350 af 7c a1 3f 47 65 6a 3f 77 94 5d 3f 3c 32 5c 3f
       1.2616175 0.91560787 0.86554664 0.8601415
000360 f2 45 90 3f 40 87 97 3f ed 4d 87 3f c6 ab 7d 3f
       1.1271346 1.183815 1.0570656 0.9909023
000370 4e b4 98 3f f8 ef 9b 3f 37 cd be 3f 8b 3d 91 3f
       1.1930025 1.2182608 1.4906377 1.1346906
000380 e7 78 90 3f d0 be 99 3f 73 37 63 3f 21 60 9b 3f
       1.1286896 1.2011356 0.88756484 1.2138711
000390 91 52 6e 3f 7d 80 80 3f cf 5c 7c 3f b3 be 7e 3f
       0.93094736 1.0039212 0.98579115 0.99509734
0003a0 92 c3 c2 3f 44 f4 7b 3f be 8c 78 3f e0 91 74 3f
       1.5215933 0.98419595 0.97089756 0.9553509
0003b0 f8 00 90 3f cb 0c f8 3f 2c 2d 69 3f bd 87 05 40
       1.1250296 1.9378904 0.9108455 2.0864098
0003c0 4b d9 8d 3f 3e fb ce 3f 8e 70 6c 3f 6f 21 64 3f
       1.1081938 1.6170423 0.92359245 0.89113516
0003d0 ca bc 70 3f 36 e6 72 3f 27 bd 84 3f 9e ed 74 3f
       0.9403807 0.94882524 1.0370225 0.95675075
0003e0 78 71 6f 3f 8b b4 bd 3f ed 38 ae 3f 69 40 62 3f
       0.93532515 1.4820722 1.3611122 0.8837953
0003f0 54 db 87 3f bc 7b a5 3f bb bd 80 3f ff f4 ad 3f
       1.0613809 1.2928386 1.0057901 1.3590392

ln1.bias f4 [256]
000000 82 9d ac bd 1b 9d 98 3b 19 4e b2 bd 8e 1b 42 bd
       -0.0842848 0.0046574003 -0.08706302 -0.04738956
000010 96 b4 a1 bd 9f 05 37 3d 19 65 cc bc 40 fd 5e bd
       -0.07895772 0.044683095 -0.02495055 -0.054440737
000020 2e d2 54 3d 32 20 9a bd 64 f4 57 bd 37 e3 e1 bc
       0.051958255 -0.07525672 -0.052723303 -0.027574165
000030 5b 5e 4a bd 29 62 1d 3d 36 3a b3 3d 1c 18 5d 3c
       -0.04940639 0.03842369 0.08751337 0.013494518
000040 3b 69 e7 3b bb 65 06 bd 89 32 71 3d 78 b2 70 bd
       0.007062105 -0.03281186 0.058886085 -0.05876395
000050 40 a0 21 3b 69 73 ef bc a6 57 66 3d 6d 90 a9 3c
       0.0024662167 -0.029229837 0.05623593 0.02069875
000060 be a4 52 3d d1 a1 3a 3e 97 5c 7e bd 01 f5 f1 bd
       0.05142664 0.1822579 -0.06210002 -0.11814309
000070 56 4e d2 3d 05 a3 99 3c 8b 57 ad bc 1b 98 20 bd
       0.10268848 0.018754492 -0.021159908 -0.03920756
000080 bc 6b 4f 3c 5a b3 69 bc 88 3e 26 bd 1f 55 05 3b
       0.012659963 -0.014263952 -0.04058698 0.0020344926
000090 38 45 84 bd c1 1f 81 3c 9d e5 83 bc 99 f3 71 bc
       -0.06458515 0.015762212 -0.0161007 -0.014767551
0000a0 43 08 1d be 8b a2 d6 bc 4a 7e 75 3e 2e f3 d8 bd
       -0.15335183 -0.026200553 0.23973957 -0.10593258
0000b0 49 35 f7 bd bb 88 b1 3c d0 53 ba bc 92 24 58 bd
       -0.1207071 0.021671643 -0.022745043 -0.05276925
0000c0 23 46 22 bc 3c 23 de bd 5a e9 0c 3d 65 e5 4d bd
       -0.009904417 -0.10846564 0.03440223 -0.050267596
0000d0 e9 dd d0 3b 59 81 02 be f5 d8 b3 bd ce e3 fc 3c
       0.00637411 -0.12744655 -0.08781616 0.030870344
0000e0 45 74 80 ba b7 34 72 bd 95 cc 8b 3d 21 c3 5c bd
       -0.0009800276 -0.059132304 0.0682613 -0.053897027
0000f0 07 42 2d 3d 4e 05 e8 3c 57 ac 2e bc f0 c9 62 3a
       0.042299297 0.028322842 -0.010661206 0.0008651307
000100 db 3d 31 3d 91 fb 33 bd c6 8a 0b be 27 45 19 bd
       0.04327188 -0.043941084 -0.13627157 -0.037419464
000110 2d 68 93 bd 09 eb f4 3d be d3 57 be f4 b2 cd bb
       -0.07197604 0.11958892 -0.21076867 -0.0062774364
000120 2f cc 09 3d 3c a0 a1 bc a5 53 fc bd 4c b8 2d bd
       0.03364199 -0.019729726 -0.123206414 -0.042412087
000130 d1 b7 94 bd 0d f2 bf 3d ad 95 93 bd 36 83 28 bd
       -0.07261623 0.093723394 -0.07206283 -0.041140758
000140 dc 31 bb bd e1 8f 8b bc f8 fd 1c 3c bf 5f 25 bd
       -0.09140369 -0.01703638 0.009582035 -0.040374514
000150 60 3c fe bd 1a df 2f be 31 88 02 3d 2c a6 98 bd
       -0.12413859 -0.1717495 0.031868163 -0.0745357
000160 55 57 c9 bd 77 8a f7 bd c5 7b b3 bd b3 90 78 3d
       -0.098311104 -0.12086957 -0.087638415 0.06068487
000170 88 0d 11 bd fa 09 2f 3c 2d 1d 20 bd 16 ac 8f 3d
       -0.035413295 0.010683531 -0.039090324 0.07015245
000180 27 08 c6 bd b4 58 b3 bc 58 da db 3d d1 8d 1c bd
       -0.09669524 -0.021892883 0.10735005 -0.038221184
000190 73 33 98 bc ef cc ed 3d 36 e8 f6 bc de b8 b7 3d
       -0.01857922 0.116113536 -0.030140024 0.089708075
0001a0 70 08 e2 3d 73 2d 18 be 99 11 89 bd 7b 89 d5 bc
       0.110367656 -0.14861088 -0.066928096 -0.026066532
0001b0 7b 36 f2 bd f2 5c ad bc 75 1f 86 bd a4 f1 d8 bc
       -0.118267976 -0.021162484 -0.06548969 -0.02648241
0001c0 97 6f 74 bd 95 78 b7 bd 90 b5 98 3a 25 d2 88 3b
       -0.059676733 -0.08958546 0.001165079 0.004175442
0001d0 f7 2c 94 bc 8d 7d da 3b eb f6 6b bd 5b aa 2e 3c
       -0.018087847 0.006667799 -0.057608526 0.010660733
0001e0 a1 42 bf 3c 4d 80 dd bd b9 82 c4 bc f4 74 ee bd
       0.0233472 -0.10815487 -0.023988115 -0.11643401
0001f0 fa 3f 07 bc 9c b0 c9 bd 4a af 60 3c ac da cd bc
       -0.008254999 -0.09848139 0.013713667 -0.025128685
000200 83 1e 6f 3c 72 b1 00 bd c7 31 8e bd 50 88 a4 3c
       0.014594677 -0.031419225 -0.06943088 0.02008453
000210 9c 9a ca bc 2b f8 14 3d 74 27 ff bd 47 cf a9 bd
       -0.024731927 0.036369484 -0.12458697 -0.08291488
000220 40 66 99 bd b4 be 02 bc df 23 d6 bc cb 17 d0 3c
       -0.07490206 -0.0079800375 -0.026140152 0.02540197
000230 36 1c 2d be 6d 31 31 3d d2 4a 89 bc 90 72 53 bd
       -0.16905293 0.043260027 -0.01675931 -0.051622927
000240 2b 9f fb bd 48 2d b2 bd 61 b2 ae bd b9 37 43 be
       -0.12286218 -0.08700043 -0.08530117 -0.19064225
000250 50 8e dd 3b 59 03 8e bc 7e 92 a0 3c 97 a9 7c be
       0.0067613497 -0.01733558 0.019601103 -0.24674068
000260 99 67 1e ba c3 58 6c be 60 f2 8a 3d 25 5e a8 bd
       -0.0006042659 -0.23080735 0.067845106 -0.08221082
000270 26 d7 e2 bc 3d 99 12 bd 51 c2 18 bd 09 61 5a bc
       -0.027690481 -0.03579067 -0.03729469 -0.013328799
000280 8a c8 a8 3d 4a 1c 1c bd 94 aa d5 bd c3 d0 f2 bc
       0.08241375 -0.038112916 -0.10432926 -0.029640561
000290 10 57 c3 bc 47 33 65 bd 11 e0 ce bc c8 d1 69 bd
       -0.023845226 -0.055957105 -0.025253328 -0.05708483
0002a0 5e da af bd bd 7e 5e bc 1e 80 e9 bc 7a f9 1b bd
       -0.08586572 -0.013580021 -0.028503474 -0.038079716
0002b0 8d 0a 52 3a e6 fd 5d bd e1 a2 95 bd ef 94 0c bb
       0.00080124364 -0.054197215 -0.07306457 -0.0021451076
0002c0 b8 6a 28 be a4 3a 69 bb 6b 67 5d bc 2e c1 25 bd
       -0.1644696 -0.003558793 -0.013513426 -0.040467434
0002d0 ab 0b 5f bd 30 ce ac bd d7 2d 25 bd 68 4f 20 3d
       -0.054454487 -0.08437765 -0.04032692 0.039138228
0002e0 36 28 db bd 87 5f c8 bd 74 2c 8b 3b 9c 4d cd bc
       -0.10701029 -0.097838454 0.0042472426 -0.025061421
0002f0 bf 9c dd bc c2 78 0b bc dd a1 e8 b9 58 64 0f bd
       -0.027052281 -0.008512678 -0.00044371086 -0.035007805
000300 97 56 03 bd ab 45 d6 3c e6 97 95 3d 79 64 94 3c
       -0.032065 0.026156267 0.07304363 0.018114315
000310 4f 87 3c bd 92 a9 35 3e f1 4e 3d 3b 60 88 dc bd
       -0.046027478 0.17740467 0.0028886164 -0.10768199
000320 1d d8 10 bd f9 5d c9 bd 76 f5 84 3c 57 a1 c8 bd
       -0.03536235 -0.09832377 0.016230326 -0.09796398
000330 4d 61 9f bc 3e 28 ab 3c 00 fa 5d bb b8 87 fd bc
       -0.019455576 0.020893212 -0.0033870935 -0.030948505
000340 a6 fe bb 3c 94 00 f7 3c 0f b5 15 bd 06 cb 86 bd
       0.022948574 0.030151643 -0.036549624 -0.065816924
000350 31 73 0f bd af 09 ba bd 4b 84 0d be fe 9c 39 be
       -0.035021964 -0.09083878 -0.13819997 -0.18126294
000360 72 5f be 3d 80 76 36 bd 35 a3 a2 bb ce ff 2a bd
       0.092955485 -0.044546604 -0.0049633035 -0.04174786
000370 80 6c 87 3b 35 ed 2d 3d 0d 04 03 bd 5c 5e 8a bd
       0.0041328073 0.042462546 -0.031986285 -0.06756279
000380 a6 f0 f5 ba 58 82 5a bd 51 c3 d4 bd ff 6a 00 3e
       -0.0018763735 -0.05334696 -0.10388816 0.12540816
000390 95 55 8f bd 25 b9 80 bb 73 9b 83 bd 42 f6 c7 bc
       -0.06998745 -0.003928321 -0.06426134 -0.024409417
0003a0 a3 bd 38 bc 74 d4 29 bd 07 b4 b9 bc 49 47 3c bd
       -0.011275682 -0.041462377 -0.022668852 -0.04596642
0003b0 d4 3d 32 bd 00 c6 23 3c 7f 0a ab bd 3d c6 bb 3d
       -0.043515995 0.009995937 -0.08351611 0.0916867
0003c0 16 19 e0 3b 72 34 ce bc 23 87 41 be 4e 2a 84 be
       0.006838928 -0.025171492 -0.18899207 -0.25813526
0003d0 8a 1c 57 bd 8d 88 53 bd 90 93 68 3b 02 66 92 bd
       -0.05251745 -0.051643897 0.0035488345 -0.07148363
0003e0 70 89 71 bd ab 23 b7 bb eb 0a ca bb 31 24 a5 bd
       -0.05896896 -0.0055889688 -0.0061658523 -0.080635436
0003f0 45 48 0c bd 83 c6 5b 3e 50 10 ba bc 88 0b 29 3d
       -0.03424861 0.21462445 -0.022712857 0.041270763

fc2.weight f4 [128, 256]
000000 fd 52 57 bd a6 5a a3 bc f1 0e 52 bc 24 32 7f bd
       -0.05256938 -0.019940685 -0.012820945 -0.062303677
000010 32 f3 04 bd 49 74 58 3d 2c 67 4c 3e 1f e7 04 3e
       -0.03245849 0.052845273 0.19961232 0.1297879
000020 4a 7d 01 3e 44 3a 36 3e 47 95 97 3c 4b ed 0a 3c
       0.1264545 0.17795664 0.018503798 0.008479427
000030 b0 a9 38 bd c3 96 01 be b0 c9 9f 3c 3d 6e a7 3d
       -0.0450837 -0.12655167 0.019505352 0.08175323
000040 c2 7b 2c 3e af 6e 8b 3d ba 9b 83 bd a1 2c 89 3d
       0.16844085 0.068082206 -0.06426187 0.066979654
000050 11 25 bd 3d 73 e1 71 be a2 51 da bd 94 27 6e 3c
       0.092355855 -0.23621158 -0.106601015 0.014535803
000060 5d 5f 07 3e 07 3b 96 be e6 99 3f 3d 30 bf 68 3d
       0.13219972 -0.2934191 0.04677763 0.056822956
000070 f0 a0 43 3d e2 7a db 3b 88 41 71 bd 78 50 61 3d
       0.047760904 0.0066979984 -0.058900386 0.05500838
000080 5c d8 e6 bd 92 db f0 3b 09 c6 63 bc d2 35 e8 bd
       -0.11271736 0.0073503936 -0.013902196 -0.113383904
000090 91 59 8b 3c 1c b4 fe 3b a1 bc ff bc 00 c4 7a 3e
       0.017010482 0.0077729356 -0.031217875 0.2448883
0000a0 4e f3 84 bc a4 15 65 bd 1f 09 d7 bd c5 8e 29 3d
       -0.016229298 -0.05592884 -0.104997866 0.04139592
0000b0 7b bc 1b 3e 5e f2 a8 3d 52 b9 d0 3d 6f 83 34 3a
       0.15208618 0.08249353 0.10191597 0.000688604
0000c0 f4 04 86 3d e3 a0 70 3d c1 f1 6e 3d a7 3e 80 be
       0.065439135 0.058747184 0.058336023 -0.250478
0000d0 58 3a 2e 3e 0d b8 0f bd 39 df 69 3a 9f 51 25 3e
       0.17014444 -0.035087634 0.00089215074 0.16144417
0000e0 73 d3 ca be 78 c0 3b 3e 6d 30 0e 3e dd dc 3b bd
       -0.39614448 0.1833514 0.1388566 -0.04586493
0000f0 c2 88 41 3c e3 ef 9f be 5b 56 13 3d 2d 8b be 3c
       0.011812391 -0.31237707 0.035971027 0.023259724
000100 37 6b 23 be a2 c0 6f bb d5 a9 2a 3d 35 33 3c 3d
       -0.15958868 -0.0036583324 0.04166587 0.045947272
000110 38 d8 ee bd 72 0b 3f 3e 75 70 85 3e 68 70 4c bd
       -0.11662334 0.1865671 0.2606236 -0.049911886
000120 b4 92 51 3e ab 9e 7d 3c cc 4a 3d 3e 9c 54 50 3e
       0.20466119 0.015479724 0.18485564 0.20344776
000130 c9 0e 00 3b 2f 13 46 3c 19 f8 2a 3e 5a 9b 31 bd
       0.0019540063 0.012089535 0.16696204 -0.043361045
000140 b5 fd 06 3e f1 dc c0 3d 7b ba 33 3e 1d 3b 23 bd
       0.13182719 0.09417141 0.17551605 -0.039851297
000150 2b 60 ad bd 36 2f 93 3c e6 a1 75 3d e2 4c 22 3d
       -0.08465608 0.017966848 0.05996885 0.039624102
000160 fe 4b 08 3e b3 05 00 3e 7b 12 79 3e 52 b5 80 3d
       0.13310239 0.12502174 0.24323456 0.06284584
000170 9f 52 a3 3d d2 5d 4c 3d 43 db c5 3c 28 fe ac 3d
       0.07974743 0.04989416 0.024152404 0.08446914
000180 79 b9 70 bd db 8b 6a 3e 69 c7 81 3e 97 b7 f3 3d
       -0.05877063 0.22904913 0.2534745 0.11900251
000190 5c cb b3 3d 5d f8 a2 3e d5 7e 4e be b9 f0 7f bd
       0.08779022 0.3183011 -0.2016557 -0.06248543
0001a0 f8 25 c0 3d ff 59 c5 3d ad dd fb 3d 38 e6 ea bd
       0.09382242 0.09636306 0.12298141 -0.11469692
0001b0 90 c5 79 bc e7 71 34 3e 30 ef 54 be 74 cf 9e bd
       -0.0152448565 0.17621575 -0.20794368 -0.07754412
0001c0 99 6c 27 3e 9c d3 24 3b 9a 1e e9 bd 1f 2e fb 3d
       0.1635002 0.0025150543 -0.1138279 0.12264656
0001d0 89 b1 00 3e 6e 90 16 3e 4b 83 78 bd da dc 88 3e
       0.12567724 0.14703533 -0.060672086 0.26730996
0001e0 92 e2 bd 3d 57 ff 95 3d 9a f9 e2 bd 66 4a 75 3e
       0.092717305 0.07324093 -0.11082764 0.23954162
0001f0 e2 da 85 bd d9 ee 8c 3e e3 25 94 bd ae 6d 9c bc
       -0.06535889 0.27525976 -0.07233789 -0.019095268
000200 38 1b cd bb 5a d7 86 3d 82 16 c7 bc ab ae 2b 3e
       -0.0062593482 0.06584044 -0.024302725 0.1676585
000210 84 d7 93 3d 47 c2 93 3e 57 d3 f5 bc f1 48 2b bd
       0.07218841 0.2885916 -0.030008001 -0.04181761
000220 32 d3 56 3e 9e 40 1d 3c 4f 7e 83 3c 7f 07 60 3d
       0.20979002 0.0095979255 0.01605144 0.05469465
000230 19 50 d4 3d 94 96 8f be b0 4b ac 3c 46 11 0f 3e
       0.1036684 -0.2804457 0.021032184 0.13971433
000240 c5 e8 a6 bc 9a 71 fe bc 96 c7 c3 3d 0d 6f a6 3c
       -0.020374665 -0.031060029 0.09559552 0.020316625
000250 66 4e e8 3d 85 8d 96 bb e9 6a eb 3d a5 c0 00 3e
       0.11343078 -0.004594507 0.11495001 0.12573488
000260 3b f3 28 3d 01 7b dd bc 32 7c 7a 3d c7 c5 c4 3c
       0.041247588 -0.027036192 0.061153598 0.024020089
000270 10 7c fe bb 88 57 82 3d e3 f0 c6 bc 7c 53 4d 3e
       -0.0077662542 0.063643515 -0.024284786 0.20051378
000280 f8 72 ea 3e df cd eb 3d b4 1d 06 3e f2 60 73 3e
       0.4579084 0.11513876 0.13097268 0.2376745
000290 80 17 67 3d 92 70 1d 3d c6 4a 89 bc 0c 37 2b bd
       0.056418896 0.038437434 -0.016759288 -0.041800544
0002a0 1f e5 2c 3c 2e 39 76 3c 1a b8 eb 3d b7 5e 4d 3d
       0.010552674 0.015028281 0.11509724 0.050139155
0002b0 52 08 f2 3d f0 7f bc 3d 38 ff 8a 3d a6 88 dd bd
       0.11817993 0.0920409 0.0678696 -0.10817079
0002c0 3d c9 34 3d cb dd 3c 3b b8 ca 84 3d fb 0c 16 bd
       0.04413723 0.0028818722 0.06483978 -0.036633473
0002d0 2f cd ad 3d 2a 8e 0d be eb 22 76 3b 8c e3 e2 3b
       0.08486401 -0.13823763 0.0037557434 0.0069240984
0002e0 2a 66 5a 3e 2d 7a aa 3d 7d db 17 3e e7 c8 34 3d
       0.21328035 0.083240844 0.14829822 0.044136908
0002f0 da 95 3c 3e 9a 40 ff 3d 19 04 dd 3d c3 06 b6 3d
       0.18416539 0.12463494 0.10791797 0.088880084
000300 01 c0 68 3e 9a 1d 40 3f 3d d1 2d 3e 87 87 d6 3d
       0.22729494 0.7504517 0.1697435 0.104750685
000310 60 5c 7e 3e 02 30 6d 3f 53 4f 90 ba 5d 8d 1c 3e
       0.24839926 0.9265138 -0.0011009969 0.15288301
000320 bf 54 c9 3d 0f df 10 3e d3 0b a2 bc a1 e0 f6 bb
       0.09830617 0.1414759 -0.019781029 -0.007534102
000330 a7 84 e1 bc 69 d0 3d 3e 07 eb b3 3d b0 ab f2 3d
       -0.027529074 0.18536533 0.08785062 0.11849153
000340 ac 6d 1c 3e 0b 3a 50 3e 3a ca 5e bd 50 a9 53 3c
       0.15276212 0.20334642 -0.054392077 0.012918785
000350 3f d3 26 3e 43 07 e7 3c 65 84 dc 3d cb c4 2f bd
       0.16291521 0.028201705 0.1076744 -0.042912286
000360 d0 99 4b 3e 56 e8 42 be dd 60 c1 bc 9b 1a f7 3d
       0.19882894 -0.19033942 -0.023605758 0.120656215
000370 2c 91 ef bd 43 2c 39 3e 69 b2 f8 bd ba 41 6f 3d
       -0.11697611 0.18083291 -0.12143404 0.05841229
000380 1c e9 b4 3d 63 64 9c ba c1 a6 3d bb 10 ee 13 3d
       0.088335246 -0.0011931773 -0.0028938504 0.036115706
000390 11 9f 3b 3e 5b 41 26 bc 22 89 da ba f7 8c c4 3d
       0.18322398 -0.010147418 -0.0016672949 0.095971994
0003a0 84 d9 c9 3e d2 4a 86 3d 29 1b 9e 3d 77 fb 0d 3e
       0.39423764 0.065572396 0.07720024 0.13865457
0003b0 cc 49 bd 3d 9e 69 d7 3e d7 ea ad 3d 99 36 a9 3e
       0.09242591 0.42072767 0.08492058 0.33049467
0003c0 90 2f 18 3e 98 6a 3d be 49 06 42 bb f9 c5 1e 3e
       0.14861894 -0.18497694 -0.0029605797 0.15505208
0003d0 ed 4a 00 3e 80 6d cf bb 4a 7f 22 3e 16 80 5d 3d
       0.12528582 -0.006330192 0.1586887 0.05407723
0003e0 64 d8 d0 3c fe 82 bf bc 9c 40 0e bd 79 13 67 3d
       0.025493808 -0.023377892 -0.034729585 0.056415055
0003f0 e1 2e 07 be 80 a5 d3 3d ae 97 ad ba 0c 85 a8 3e
       -0.13201477 0.10334301 -0.0013244057 0.32914007

fc2.bias f4 [128]
000000 20 3b 4e 3d 24 d7 05 bd e5 95 55 be 33 08 62 bb
       0.050349355 -0.032675877 -0.20857961 -0.003448975
000010 06 03 93 bb 3f 58 76 ba 22 0a 7f 3b 4b f0 78 3b
       -0.0044864444 -0.0009397305 0.0038915952 0.0037985023
000020 1f 4f 00 3d 58 83 86 bc 76 34 57 3c 94 4e f6 3b
       0.031325456 -0.016420051 0.013135066 0.0075166915
000030 3b 74 47 ba 04 df 74 bc f5 6c 59 3c ae 40 2e bb
       -0.0007608567 -0.014945749 0.013270606 -0.0026588845
000040 74 b0 1f 3c 0a 3d db 3c a9 8c 88 3e 5b 4c 22 3d
       0.00974666 0.026762504 0.26669815 0.0396236
000050 6b 15 e4 3b 5a 8b 2f bb a6 20 66 3a f6 de 71 bd
       0.006960561 -0.002678594 0.00087786687 -0.059050523
000060 a9 1a 47 3a c8 c7 82 3d 29 b0 7a 3c 3e 5c 92 3d
       0.000759522 0.063857615 0.015300789 0.071465
000070 29 4f ae 3c d3 57 1b 3c 3e c0 97 3c a1 18 e3 bb
       0.02127798 0.009481388 0.018524285 -0.006930426
000080 03 9a 04 ba 16 eb 6f 3c d3 5b 3f 3c e2 17 20 38
       -0.000505835 0.014643451 0.011679607 3.8169215e-05
000090 3d 82 dd bb 3b d0 08 3c ca 39 a7 3b 58 78 53 3c
       -0.0067599104 0.008350427 0.0051033245 0.01290711
0000a0 a0 d3 fe bc 39 37 0b 3d 59 d4 4d 3c db c0 a4 3b
       -0.03110677 0.03398821 0.012562835 0.005027873
0000b0 f1 31 26 bb f3 a7 2c 3c 47 ef 8d 3d 53 88 68 3c
       -0.0025359357 0.010538089 0.06930404 0.0141926585
0000c0 58 3b 2d 3d e2 9b e4 3c 53 a6 87 3b 55 1e b6 3c
       0.042292923 0.027906362 0.0041397004 0.02223126
0000d0 3e 09 98 bb d6 a8 83 ba f4 b1 91 ba 55 03 be 3c
       -0.0046397736 -0.0010044824 -0.0011115656 0.023194948
0000e0 17 9d 75 3d 3f 26 28 bb 14 1d ae 3c 76 54 c0 3c
       0.059964266 -0.0025657562 0.0212541 0.023477774
0000f0 58 f0 ba 3c 2f 8a a8 3c 9a 39 88 bb 3b 30 11 3d
       0.022819683 0.020573704 -0.0041572573 0.035446387
000100 04 e7 ed 3b ed 8f a4 3c 06 02 5a bc da f8 00 3c
       0.007260205 0.02008816 -0.0133061465 0.007871831
000110 36 ca 69 bb c2 d5 96 b9 b5 ad 2e bb a8 04 49 3d
       -0.0035673506 -0.00028769491 -0.002665383 0.049076706
000120 b8 33 19 3b 49 7f 5e 3d 8b 3e d8 3c 70 b6 42 ba
       0.0023376774 0.054320607 0.02639701 -0.0007427698
000130 8e 5a 69 3c b5 80 b4 bb 89 ca b4 3c 99 19 5b bc
       0.014242781 -0.005508507 0.022069233 -0.013372802
000140 f7 08 7b bc c8 d3 b6 be bc a1 07 3d 88 ad 39 3c
       -0.015321962 -0.3570845 0.033113226 0.011332877
000150 bb 35 f8 3c 9c 36 ef 3c bd ef b6 3c aa de 42 3c
       0.030299058 0.029200844 0.022331113 0.011893908
000160 a2 cb 64 3d dc cf f0 3b 70 b7 10 3d 8d 7c 62 3c
       0.055858262 0.0073489975 0.03533119 0.0138236405
000170 6f 47 d0 3b d7 98 37 3d 2d 80 1f 3c c0 c1 ef bb
       0.006356172 0.044823494 0.009735149 -0.007316798
000180 fa 03 d8 bd 56 3a bf 3c 04 c2 d3 3c 32 53 14 3d
       -0.105476335 0.023343246 0.02584935 0.036212154
000190 35 c1 f7 3c 1b 31 9f 3b 0d c1 66 3c cd c2 ec ba
       0.030243495 0.0048581487 0.014084113 -0.0018063426
0001a0 9b 66 12 bc e4 d5 e9 3c 33 e3 a3 3c 32 f8 8a 3c
       -0.008935596 0.028544374 0.020005798 0.016964052
0001b0 cb 66 03 3d 28 8f 10 3e b5 65 36 3d 32 70 e7 3b
       0.032080453 0.1411711 0.04453059 0.0070629353
0001c0 dc 1a 01 3d f5 5f 00 bf d3 98 12 be 12 40 2b bc
       0.031519756 -0.5014642 -0.1431611 -0.010452287
0001d0 50 a0 34 3d 39 0b 07 bc 32 a9 32 3d 97 c0 88 3c
       0.0440982 -0.008242422 0.04361839 0.016693396
0001e0 22 18 63 3d 8e c3 b1 be 0f 33 9c 3c 30 af a7 3c
       0.055442937 -0.3471951 0.019067315 0.020469278
0001f0 ab 15 4a bc 3f e2 5e 3c c0 28 c9 3c b0 bd da 3c
       -0.012334268 0.013603746 0.024555564 0.026701778

ln2.weight f4 [128]
000000 64 d7 7d 3f 9b 27 b1 3f eb b5 7e 3f 33 02 7c 3f
       0.99156785 1.3840212 0.99496335 0.98440856
000010 76 28 93 3f c6 69 6b 3f f8 38 75 3f e6 4e 9e 3f
       1.1496723 0.9195827 0.9579005 1.2367828
000020 a8 f7 63 3f f6 e7 78 3f 6f 6c 63 3f 1f 34 60 3f
       0.8904977 0.97228944 0.8883733 0.8757953
000030 ea ee 70 3f c2 77 96 3f 57 38 79 3f 76 83 8b 3f
       0.94114554 1.1755297 0.9735159 1.0899494
000040 a4 0b 8b 3f f9 d0 7a 3f 77 c5 52 3f b3 3c 7b 3f
       1.0862927 0.97975117 0.8233256 0.98139495
000050 01 b3 7a 3f d4 f1 fb 3f d7 d6 67 3f fb 4c 7b 3f
       0.9792939 1.9683175 0.90562195 0.9816434
000060 82 16 93 3f 5e 1d 92 3f 1e a0 7d 3f d3 ce 77 3f
       1.1491244 1.1415212 0.99072444 0.96799964
000070 a8 d4 60 3f dd e8 93 3f 6c 94 6f 3f 83 01 e1 3f
       0.8782449 1.1555439 0.9358585 1.7578586
000080 85 7c 68 3f 1b c5 7f 3f 4e 75 76 3f 05 3f 76 3f
       0.90815 0.99910134 0.9627274 0.9618991
000090 06 35 71 3f d0 de 88 3f e8 81 9b 3f e1 01 79 3f
       0.9422153 1.0692997 1.2149019 0.9726849
0000a0 c0 9e 97 3f 7c 9e 80 3f 58 23 7a 3f 36 f7 85 3f
       1.1845322 1.0048366 0.9771018 1.0466068
0000b0 9a aa 5f 3f d1 67 70 3f e2 a2 82 3f 34 93 6a 3f
       0.8736969 0.9390841 1.0205958 0.91630864
0000c0 10 f7 90 3f 13 4e 49 3f 65 48 88 3f 8b 21 aa 3f
       1.1325397 0.78634757 1.0647093 1.3291487
0000d0 c6 ee b4 3f 13 c0 71 3f ab a8 70 3f 8e ae 87 3f
       1.4135368 0.94433707 0.94007367 1.0600145
0000e0 05 2b 8c 3f a4 ee 75 3f 66 cf 92 3f ac 55 4d 3f
       1.0950629 0.9606726 1.1469543 0.8020885
0000f0 33 ef 7f 3f 5c d0 82 3f 09 2b 73 3f 81 1a 7e 3f
       0.99974364 1.0219836 0.9498754 0.9925919
000100 ff 4d 64 3f f0 6e 82 3f f2 0d 69 3f bc 8b b8 3f
       0.8918151 1.0190105 0.91036904 1.4417644
000110 e5 75 80 3f a6 73 74 3f 2e fb 87 3f c4 cb 87 3f
       1.0035979 0.95488966 1.0623529 1.0609059
000120 02 22 71 3f 6e 6c 80 3f b2 a1 78 3f 37 fc 72 3f
       0.94192517 1.003309 0.9712173 0.949161
000130 88 ba 55 3f 5e 43 6b 3f b8 d4 79 3f a0 da 6b 3f
       0.8348775 0.9189967 0.9759021 0.9213047
000140 f1 9e 67 3f 1c 02 8a 3f 49 98 a2 3f 62 34 61 3f
       0.904769 1.0781894 1.2702724 0.87970555
000150 02 af 81 3f 19 ab 88 3f 06 c8 87 3f 9c 63 71 3f
       1.0131533 1.0677215 1.0607917 0.94292617
000160 d0 d5 80 3f 9d 4d 7d 3f da cb 77 3f bf e2 7b 3f
       1.006525 0.98946553 0.9679543 0.9839286
000170 04 0a 85 3f 10 16 7a 3f 8a 87 8b 3f 90 48 97 3f
       1.0393682 0.97689915 1.0900738 1.1819019
000180 44 f3 89 3f a4 5b ad 3f 90 f4 83 3f cf a5 b9 3f
       1.0777364 1.3543591 1.030901 1.4503726
000190 fe 88 a1 3f 02 1c 9a 3f 53 bd 7a 3f 25 a6 66 3f
       1.2619932 1.2039797 0.97945136 0.90097266
0001a0 26 d2 72 3f 0e ef 81 3f 8e 3b 73 3f 17 59 7a 3f
       0.9485191 1.0151079 0.9501275 0.9779219
0001b0 81 07 7c 3f 87 aa 5e 3f a8 18 82 3f cd df 7a 3f
       0.9844895 0.86978954 1.0163774 0.9799774
0001c0 3b 6f 8b 3f b5 b7 82 3f c4 73 7f 3f ea cd 76 3f
       1.089332 1.0212313 0.9978602 0.9640795
0001d0 c9 0d 83 3f a7 be 82 3f dc c0 7c 3f 01 33 84 3f
       1.0238582 1.0214432 0.9873178 1.0328065
0001e0 0a 3f 8b 3f 03 3f 74 3f ab db 7a 3f d5 63 78 3f
       1.0878613 0.9540865 0.97991437 0.9702733
0001f0 a3 bc 8d 3f 2e 5c de 3f a7 91 81 3f e5 10 7d 3f
       1.1073192 1.7371881 1.0122575 0.98853904

ln2.bias f4 [128]
000000 0b fb c7 bb 93 c3 7c bd 9e f7 11 bc a4 04 bc bc
       -0.0061029247 -0.06170995 -0.008909134 -0.022951432
000010 a7 a7 e7 bd c2 13 13 be 77 76 b6 ba 58 73 61 3a
       -0.11311274 -0.14363006 -0.0013920803 0.00086002564
000020 33 65 21 be 66 89 cb bc 8b a1 14 be 5a c6 e6 bd
       -0.1576126 -0.02484579 -0.14514749 -0.11268301
000030 a5 30 ac bd 68 16 0f bd 69 53 1f bc b9 d4 e8 bb
       -0.08407716 -0.034933478 -0.009724476 -0.0071054366
000040 6f 7b 8d bd 64 f0 fd 3c 90 1a 56 be 78 c3 ab bd
       -0.06908309 0.030998416 -0.2090857 -0.08386892
000050 7e 5d 1b bd 14 ba 71 bc 06 46 0d be 9f bb 49 bc
       -0.037930958 -0.014753837 -0.13796243 -0.012312799
000060 9c 22 8f bd 5d 11 99 3d 61 11 19 3b 70 8d d6 bd
       -0.06989023 0.07474015 0.0023356306 -0.10476196
000070 ab cf 0d be 95 ce fd bc c5 b3 6b be ae e1 94 bd
       -0.1384875 -0.030982295 -0.23017795 -0.072696075
000080 8c e3 a9 bd 42 d4 2b bd 69 5f 8d bb 52 31 94 bd
       -0.08295354 -0.04195047 -0.0043143523 -0.072359696
000090 cc 5b 5a bc b3 33 31 bd e1 64 08 bd 8d 1e 44 bc
       -0.01332755 -0.043262195 -0.03329933 -0.0119701745
0000a0 fc 49 43 bd 2c a2 5c 3c a3 24 e0 3b 69 f9 95 bd
       -0.04767798 0.013466399 0.006840305 -0.07322962
0000b0 83 8c fb bd ed 75 c4 bd b0 db e6 3c dc 4b 88 bd
       -0.1228266 -0.09592805 0.028180927 -0.06655094
0000c0 79 c6 24 3d 0d cb 75 be 08 ee 66 bb 40 24 f7 bb
       0.04022834 -0.24003239 -0.0035237093 -0.007542163
0000d0 7c 95 93 bd af 8f ad bc 61 3c d8 bd fb 6f 4b bd
       -0.07206246 -0.021186678 -0.10558391 -0.04966734
0000e0 e6 9b 35 3d ef 0f 45 bd e6 f2 41 3d 39 60 8d be
       0.04433813 -0.0481109 0.047350787 -0.27612475
0000f0 b9 89 f1 3b 54 b3 6d 3c 9c ab 01 bd 20 d8 4d bd
       0.007371154 0.014508087 -0.0316578 -0.05025494
000100 75 ab e7 bd b5 3f a4 3c d0 2f 64 bd f0 78 48 3d
       -0.11312 0.02004991 -0.05570966 0.04894346
000110 f5 bc 8a bc 20 19 2e bd 15 49 3e bd 19 f7 66 3d
       -0.016935805 -0.04250443 -0.046456415 0.056387994
000120 5a 6a 6f bc f3 ad 59 3d 3e 1e b5 bd 8a 34 22 be
       -0.0146127585 0.053144407 -0.08843659 -0.15840355
000130 61 35 22 be 59 b5 ce bd e3 8a 1f 3c 78 a6 dc bd
       -0.15840675 -0.10093183 0.009737703 -0.10773939
000140 24 61 06 be 36 69 a6 3c 8d b4 8f bb 18 33 aa bd
       -0.13122994 0.02031384 -0.004385537 -0.083105266
000150 6f c8 c7 3c 26 fa 1a be 54 c8 0a bd a2 e2 bf bd
       0.024387566 -0.15134487 -0.033882454 -0.09369399
000160 d2 21 10 3d 2a 1b 85 3a c4 df 53 bc f0 02 0f be
       0.035188504 0.001015519 -0.012931768 -0.13965964
000170 b4 de bf bd fe f3 1e be b3 c5 8d bd 39 ea 3e bd
       -0.09368649 -0.15522763 -0.06922474 -0.04661009
000180 5f 64 35 3c 04 50 ab bd ed 72 a2 bc 4a 04 e5 bc
       0.011071294 -0.08364871 -0.019830192 -0.027956147
000190 9c 27 10 3c b5 3c 8a bd 1d 4d 1c 3b 77 7b c7 bd
       0.008798506 -0.0674986 0.0023849674 -0.09740346
0001a0 2e 76 02 be 69 6e b8 3c 32 2f f9 bd a3 25 2f bc
       -0.12740394 0.022513585 -0.12167205 -0.010690126
0001b0 da 60 2a 3c 0d 0a 24 be fd 45 9e 3c d5 a3 d1 3b
       0.010399068 -0.16019459 0.019320482 0.006397704
0001c0 76 0e d9 3c 5e 42 aa 3c 80 68 39 3b f4 13 7f bc
       0.026496153 0.0207836 0.0028291047 -0.015568722
0001d0 24 54 2a 3d bb 92 a8 bc 46 5c 1b bd 8f c7 a9 bc
       0.04158415 -0.020577779 -0.037929796 -0.02072504
0001e0 b5 c1 46 3d 3c 0d 78 bc 5e 9e 81 bd 73 f1 b1 bc
       0.048524577 -0.015139874 -0.06329034 -0.021721577
0001f0 3c 93 df bc d4 af 49 bd df 16 66 3c 2a e1 64 3c
       -0.027291887 -0.04923995 0.014043539 0.013969699
