checkpoints/DDPG/Target_actor/DDPG_target_actor_1000.pth (torch, 93435 bytes, 10 tensors)

fc1.weight f4 [256, 19]
000000 3d 44 e3 be 98 3c ff ba 90 0a 6d 3e 9e 3e a3 3c
       -0.44388 -0.0019473014 0.2314856 0.01992732
000010 11 1c 67 3d 4c 09 9b ba b1 08 76 3d 7d d7 f8 3c
       0.05642325 -0.0011828332 0.060066883 0.03037619
000020 59 90 0c ba d9 10 8d 3d 00 8b 9c 3c 66 e0 66 3e
       -0.00053620856 0.06887979 0.01910925 0.22546539
000030 d8 d0 a2 bc 01 6c d9 3d ab c3 9f bd 31 69 f5 bc
       -0.019874975 0.10616303 -0.078009926 -0.029957386
000040 8a 9a 83 bc 62 c2 35 3e 03 4a dd 3c 5f 11 1c 3e
       -0.0160649 0.17749932 0.02701283 0.15241002
000050 fa 71 06 3e d7 36 3f 3d c9 e2 f0 3c e3 4f d3 bc
       0.13129416 0.04668316 0.029405015 -0.025794929
000060 7b 48 d3 3d 03 a8 8e 3d 0d 0c ce 3c 46 88 98 3d
       0.10316559 0.069656394 0.02515223 0.07447867
000070 5c 61 f7 3d 02 b8 c5 bd 95 c4 44 3b 5c 8c 58 3d
       0.12079117 -0.09654237 0.0030024399 0.052868232
000080 b0 e8 94 bd d0 c5 c7 be 14 b3 bc 3d 54 aa 35 3d
       -0.07270944 -0.39018106 0.09213844 0.04435189
000090 1b b9 a9 3c be e6 2f 3e ba 14 d1 bd e3 d2 00 bd
       0.020718148 0.17177865 -0.102090314 -0.031451117
0000a0 a9 99 0c be d9 57 3e 3d 6d 55 4f bd 11 1f 82 3b
       -0.13730492 0.046470497 -0.050618578 0.0039709886
0000b0 0e d5 a7 bc ab 35 b4 bd 26 64 0c 3e 54 5c b4 bd
       -0.020487335 -0.08799299 0.13710079 -0.08806673
0000c0 08 04 83 bd c4 13 19 bc 57 bd 87 bc 2b af 0b 3d
       -0.06397253 -0.009343091 -0.016569776 0.0341026
0000d0 a0 80 f0 3c 96 8e b1 bd 2d 97 20 3c 15 64 de ba
       0.029358208 -0.08669774 0.009801668 -0.0016967083
0000e0 ea eb f6 3d 27 83 0e 3e 9a f6 23 3e 70 72 76 3c
       0.12056716 0.13917218 0.1601204 0.015041932
0000f0 47 2d ea bd dc 9b 0f 3e 4f b8 be 3a c0 e5 42 3d
       -0.11434417 0.140243 0.0014550778 0.047582388
000100 83 c4 8f 3d 21 c8 ed 3c d5 4d 01 be 93 cb 09 bd
       0.070199035 0.029026093 -0.12627347 -0.03364141
000110 dd 65 de bd d2 36 80 bb 85 02 c9 be eb 8e 55 bd
       -0.10859273 -0.003912785 -0.39259735 -0.05213825
000120 88 38 0e be 6d 60 1f 3d d6 50 52 bd 7c d2 26 3e
       -0.13888752 0.03891032 -0.051346622 0.16291231
000130 c8 ea 1d be 59 58 11 3d f6 0a a6 3d 5e 9e 27 bd
       -0.15421593 0.035484646 0.081075594 -0.040922515
000140 8d 27 50 3d 9c 2e 97 3c a1 37 66 3e 70 73 db 3d
       0.05081897 0.018454842 0.22482158 0.10715377
000150 e0 16 50 be e9 e8 1d 3e 8e 56 1f 3e ee 18 4e 3e
       -0.20321226 0.1542088 0.15560362 0.20126697
000160 36 12 14 3e 11 77 f2 3e e3 b2 d2 3d 54 e3 af 3d
       0.14460072 0.47356465 0.10288026 0.08588281
000170 f4 de 40 3d 31 40 34 3e b0 77 47 3d 8c f6 95 3e
       0.047087625 0.17602612 0.048698127 0.29289663
000180 cd 16 14 3e ae 56 86 3d 7c 31 21 bb 16 36 06 be
       0.14461823 0.065595016 -0.0024596145 -0.1310657
000190 e2 ff 26 bd f5 46 b8 bc 00 6b b1 bc 24 8f f5 3d
       -0.040771373 -0.022494772 -0.021657467 0.119901925
0001a0 bc df 8a bd 35 80 be bd 11 62 de bd 63 2a 0f bd
       -0.06780955 -0.09301797 -0.108585484 -0.034952533
0001b0 21 c3 a1 be 79 8c d2 bd 34 8a 0f 3d b2 9b 7b 3c
       -0.31594184 -0.10280699 0.03504391 0.015356945
0001c0 52 f6 98 bd 19 4f a2 3c 7e 27 c3 bc c7 17 d5 3d
       -0.07468857 0.019813107 -0.023822542 0.10404926
0001d0 01 ac 9f bd 91 1e d4 bd 96 df 4c be 38 2d 82 be
       -0.07796479 -0.103573926 -0.20007166 -0.25425124
0001e0 35 57 9f be de 23 bf bc 72 f0 c4 3d a1 31 db 3b
       -0.3112122 -0.023332532 0.09616174 0.006689266
0001f0 27 7b 08 bc 55 e5 f0 bd df 73 1a be da e5 75 3e
       -0.008330143 -0.117624916 -0.15083264 0.24013463
000200 1a a9 91 bd c6 d8 a1 bb 83 b5 28 3d ac 4d de 3d
       -0.07112332 -0.0049391715 0.041188728 0.108546585
000210 01 8c 56 3c 68 55 71 be c8 f6 81 bc 7c ed 83 3d
       0.013094903 -0.23567736 -0.015864745 0.06441781
000220 1f fc 8a 3d 48 e4 22 3d e0 ab 9c bd 99 90 ac bb
       0.067863695 0.039768487 -0.0764997 -0.005266261
000230 49 be 2d 3e 13 3c 88 3d b6 50 74 be ff 8e 55 be
       0.1696712 0.06652083 -0.23858914 -0.2085533
000240 53 bd d8 bd 36 73 f9 bd 9b 4f 93 be 7c 06 04 be
       -0.10582986 -0.12180178 -0.28771672 -0.12893099
000250 c0 19 18 bd df 00 f5 3c 96 10 82 bc 59 c4 b5 bb
       -0.037133932 0.029907642 -0.01587705 -0.005547088
000260 36 d8 81 3d 38 55 1d be f7 e4 b9 3b 19 75 72 3d
       0.06340067 -0.1536454 0.0056730467 0.059193704
000270 b0 cf 42 be d9 94 70 3e a8 43 3a bd 6b cb 0b 3e
       -0.19024539 0.23494281 -0.04547468 0.13651817
000280 ff 8b 9f 3b 6e 29 b1 3d b3 42 06 be 82 f4 a4 bd
       0.0048689838 0.0865048 -0.13111381 -0.08054449
000290 8b 86 da 3c 54 6b e7 bc 1f 84 16 bd c6 96 73 bd
       0.026675483 -0.02824942 -0.036747094 -0.05946996
0002a0 88 22 4c 3d d0 49 43 be d2 80 24 3e ab 12 f0 bd
       0.04983762 -0.19071126 0.16064766 -0.11722311
0002b0 0e 8f a0 bd 10 d6 c7 bd 6a 1f 62 bb a6 a2 0e be
       -0.078397855 -0.09757626 -0.0034503588 -0.13929233
0002c0 da 15 88 be 44 b2 02 be e2 13 43 3d 1e e5 b8 3d
       -0.2657917 -0.12763315 0.047626384 0.09028076
0002d0 60 12 ee 39 36 68 98 3d 33 11 85 bc a6 8a 35 3e
       0.00045408588 0.07441752 -0.016243553 0.17728671
0002e0 19 1d be 3b 3c f3 05 be 3b 53 b8 3d 10 f1 f0 3c
       0.0058018086 -0.13081068 0.0900025 0.029411823
0002f0 d6 66 68 3e f3 1e 45 be 18 20 2e be ef d1 81 be
       0.22695479 -0.19250087 -0.1700443 -0.2535548
000300 bf 2c 24 bd 79 6b 1b 3e 27 14 34 be 37 0d 5e 3d
       -0.040081736 0.15177716 -0.17585813 0.05421182
000310 82 93 61 bd b7 a1 32 3e 8b e4 47 3d ce b8 ff bd
       -0.055072315 0.17444502 0.04880194 -0.124864206
000320 13 38 67 be 14 d0 07 be e3 90 77 bd ea d2 14 bd
       -0.22579984 -0.1326297 -0.06044091 -0.036333956
000330 22 01 ae 3d 7b 49 5b be ca b9 46 3d 6e 3a 20 be
       0.0849631 -0.2141475 0.048517026 -0.15647289
000340 f5 76 a3 bd 21 d4 a0 be 3e 67 0b be c9 2d 9f 3e
       -0.07981674 -0.31411842 -0.13613603 0.3108962
000350 68 39 55 3e 05 e1 52 bd 7f 89 88 3d 59 4d 2d bb
       0.2082268 -0.051484127 0.0666685 -0.0026443808
000360 f3 23 03 3e 7f d4 ec bc ef 5b 28 3d ed 09 34 3b
       0.12806682 -0.02890992 0.0411033 0.0027471737
000370 85 2e 9b 3b 6c 29 4c 3e 03 41 f0 bd bf 6b 36 3d
       0.00473577 0.19937676 -0.1173115 0.04453635
000380 0e 95 a5 3d 31 29 60 3d 7e 1b 76 bd 23 e4 36 be
       0.080850706 0.054726783 -0.060084812 -0.17860465
000390 a8 df fe 3c 98 71 0d 3e 92 99 14 be ef 3d 44 3e
       0.031112507 0.13812864 -0.14511707 0.19164251
0003a0 93 de 2d be 3f 44 90 3d a2 c1 3d bd 27 31 2d bc
       -0.16979437 0.07044267 -0.04632724 -0.010570801
0003b0 05 91 e7 bc 07 f0 12 be 86 d4 b4 3d 12 df 42 3e
       -0.028267393 -0.14349376 0.08829598 0.19030407
0003c0 29 ca 17 3e 50 cb 0a 3f 71 19 a0 3e 9e 54 af 3d
       0.14823212 0.5421648 0.3126941 0.08561061
0003d0 bd 39 52 3d 13 87 3e 3d e9 90 56 3e 6d 95 87 3d
       0.051324595 0.046515536 0.20953716 0.066202976
0003e0 30 8e ac 3e fa f3 62 bd 85 b5 8e 3e 52 67 03 3f
       0.3370223 -0.055408455 0.27872863 0.5132953
0003f0 bb b9 43 be 45 11 11 3f ea 6b 98 3d 0b f0 fb bd
       -0.1911382 0.56666976 0.07442458 -0.12301644

fc1.bias f4 [256]
000000 73 36 0f 3d 9a f2 a7 bc 95 9c 09 bd c6 19 80 bd
       0.034964036 -0.020501424 -0.033596594 -0.06254916
000010 7e e0 01 3e 59 2e c8 bc 87 6d 83 bd 6a 31 db bd
       0.12683293 -0.024436163 -0.06417375 -0.10702784
000020 5b ab bb bc 04 b3 74 ba 23 a2 a9 bd e2 24 9f 3c
       -0.022908857 -0.0009334537 -0.08282878 0.019426767
000030 fd bf 9e 3d c3 da 97 3d ea c2 cc bb 92 ef eb bc
       0.077514626 0.07414772 -0.0062488215 -0.02880076
000040 64 63 0f 3e a2 ed 8a 3d 46 ba 6e bd 83 52 9d 3d
       0.14002758 0.06783606 -0.058283113 0.076817535
000050 89 a8 d7 3c e1 16 62 3d e7 25 6c 3e 5e 3f b7 3b
       0.026325481 0.0551976 0.23061334 0.0055922708
000060 b5 f3 6c 3d a8 60 c8 bc 25 5c 60 3d 4c 27 e9 bd
       0.057849605 -0.024460152 0.054775376 -0.113844484
000070 11 b8 2d 3e c1 a5 62 bd 60 03 ee 3b ee 37 56 bc
       0.16964747 -0.055333856 0.007263586 -0.013074858
000080 87 d8 40 3d 33 b0 e0 3c e8 b8 81 3d 25 ee 1b bd
       0.047081497 0.027427768 0.06334096 -0.03806891
000090 f0 63 c4 3d 7e 96 54 bd 4b 48 f6 3d f1 2f 87 3c
       0.09589374 -0.051901333 0.120255075 0.016502352
0000a0 40 ca 6f 3d 11 a4 64 bc 18 85 c2 bd be 81 c1 3d
       0.05854249 -0.013955132 -0.09498042 0.094485745
0000b0 e3 10 8d bc 01 3b 41 bd 29 37 e2 3d 53 77 dd bd
       -0.017219966 -0.04717541 0.11045677 -0.10813775
0000c0 df 31 1c 3e 9d 9d 05 bd 0d 5a 89 bd 7d 5f 8c bd
       0.152534 -0.032621015 -0.06706629 -0.068541504
0000d0 57 58 1b 3e f1 b1 01 be 69 f5 ea bd 6c 90 0e 3e
       0.15170418 -0.12665536 -0.114725895 0.1392228
0000e0 2f ff e9 bd 06 64 e6 bd 5a c0 83 3d e4 a0 ca 3b
       -0.114256255 -0.11249547 0.064331725 0.0061837304
0000f0 d7 22 e2 bb fe a4 1f 3d bc 80 81 3d 6f d6 86 bc
       -0.006901126 0.03897571 0.06323382 -0.016459672
000100 e8 69 c3 3d bf 09 f1 ba 00 87 87 bc 50 a4 d9 bd
       0.095416844 -0.0018389745 -0.016543865 -0.10627043
000110 b8 e2 88 bd f5 1e 56 3c e2 20 2b 3e 0f fb 8c 3d
       -0.06683868 0.013068904 0.16711763 0.06883823
000120 13 31 8d 3d 80 e8 15 3e 81 3b 89 3d 6e a4 1f 3e
       0.06894126 0.14639473 0.067008026 0.15590069
000130 6a 61 3d bd e6 65 fb 3d 4f 7c ba bc 2d 51 18 bc
       -0.04623548 0.12275295 -0.022764353 -0.009296698
000140 6e 53 a7 3c 3b e3 39 bd 62 d2 1b bc 58 95 1d 3d
       0.020425525 -0.04538272 -0.009510608 0.038472503
000150 f5 61 f4 3d 57 d9 10 3e e7 33 9d 3d 6c a0 af bd
       0.11932746 0.14145409 0.07675915 -0.0857552
000160 c5 af 03 3d a6 5e 0e 3c e3 6c 76 3e 2e ba ea 3d
       0.03215005 0.008689558 0.24064974 0.11461292
000170 2f c0 af bc 37 58 99 bc bf 0d 0e 3b 16 c4 94 3d
       -0.021453945 -0.018718822 0.0021675674 0.07263963
000180 47 df 22 3e f4 9b 2e 3e a5 70 9d 3d dc 0a 16 3e
       0.15905486 0.17051679 0.07687501 0.1465258
000190 a2 1f 08 3e 18 90 2e bc e8 28 fe bd e1 70 1d be
       0.13293317 -0.010654472 -0.12410146 -0.15375091
0001a0 a2 58 60 3c 26 a1 85 3d 10 12 4a bd e7 75 fd bd
       0.013693007 0.06524877 -0.049333632 -0.12376004
0001b0 41 c7 e7 bd 1c 70 8d 3d 06 1d 56 3d c5 fe a9 3d
       -0.113173015 0.06906149 0.052273773 0.083005466
0001c0 25 a5 87 3e c6 fc 05 bd 9e c3 c7 3d 45 20 78 3d
       0.26493183 -0.032711767 0.09754108 0.06057765
0001d0 46 49 18 3e e4 2e 5f 3e 93 05 a6 bd 06 ac 65 bd
       0.14871702 0.21795231 -0.08106532 -0.056072257
0001e0 d4 5e 08 3e 78 ea 7c 3d 57 83 72 3d 38 22 96 3d
       0.13317424 0.061747044 0.059207287 0.073307455
0001f0 8e cf 8f bd 2a 69 08 3e fa a1 0e 3e dc eb 23 bd
       -0.0702201 0.13321367 0.13928977 -0.040019855
000200 bc 28 c5 3d 44 19 4a 3c 9f 32 e7 bc 79 93 86 3d
       0.0962691 0.012335125 -0.02822238 0.06571097
000210 c5 da 5b bd bc 97 44 3e 54 0c 29 3d b0 32 0a 3e
       -0.05367543 0.19198507 0.041271523 0.13495898
000220 97 6f 09 3c 51 74 1b 3c c7 a1 25 3c 47 64 b9 3c
       0.0083884215 0.009488181 0.0101093715 0.022630824
000230 df 6e 15 be e2 ad 14 3e dc fc 88 bd 2d 7e 08 3e
       -0.14593075 0.14519456 -0.06688854 0.13329382
000240 ac 48 e3 3d a5 2b 10 3e 23 a6 c4 3d d0 8d 6d bd
       0.110978454 0.14079149 0.096020006 -0.05799657
000250 4b 34 03 3e dd fc 36 3e ae 28 d5 3d d1 be df 3d
       0.12812917 0.17869897 0.1040815 0.10925067
000260 07 64 cd 3d 6d 38 f3 3d 1a 97 54 bd 58 22 ff bc
       0.10028844 0.11875997 -0.051901914 -0.031144306
000270 c6 cb db 3d 5f 76 9e bd b0 a0 c4 3d a7 9a ca 3b
       0.10732226 -0.07737421 0.09600961 0.006182987
000280 97 f9 82 bd 7b b8 89 bd ee d8 0a be be 17 b1 3d
       -0.06395262 -0.0672464 -0.13559315 0.086471066
000290 99 b4 c9 3c 20 05 26 3d 67 41 83 3a d9 2f c7 3d
       0.024622248 0.04053223 0.0010013998 0.09725923
0002a0 8b f9 ba bd 45 bf 10 3d f8 da 76 bd 92 75 40 3d
       -0.09129628 0.03533866 -0.06026742 0.046987124
0002b0 34 f5 0f 3e 1f b1 c9 3d b6 2b f8 3d 71 35 ca bd
       0.14058381 0.09848236 0.12117712 -0.098734744
0002c0 09 ac 79 3d f9 33 e5 bc 44 c4 34 3e 13 63 5b bd
       0.06095508 -0.027978884 0.17652994 -0.05356128
0002d0 c5 20 86 3c 99 39 2b bd 29 dc 42 bd 4d ab e1 3d
       0.016373048 -0.041802976 -0.047573242 0.11019001
0002e0 b1 bf 18 3e 6a 67 c6 bc e6 78 2c 3d fe ca 47 3c
       0.14916874 -0.024219234 0.042107485 0.012194393
0002f0 75 0d d7 3d 5e 0b f0 bc 83 35 ad 3c 19 a2 e7 bd
       0.105006136 -0.029302295 0.02114368 -0.113102145
000300 92 48 57 3d 32 df 7b bd 75 64 c8 3b 37 dd 22 3e
       0.052559443 -0.061492153 0.006115491 0.159047
000310 72 9f c4 3d 9e 44 5f bd 97 3a 0f 3d fc c3 e4 bd
       0.09600724 -0.054508798 0.034967985 -0.111701936
000320 16 bb 05 3d d5 2d 9e bc 2b b8 ce bd ce 19 05 3d
       0.032649122 -0.019308964 -0.10093721 0.032495312
000330 62 47 1f 3e 9b d0 ad bd d0 8a e8 bb c2 33 85 bc
       0.15554574 -0.08487054 -0.007096626 -0.016260032
000340 0d 0f ca 3d 61 de 41 3d 35 05 c0 3d 35 f4 9a 3c
       0.09866152 0.047331218 0.09375993 0.018915275
000350 9d 77 11 be c9 5e 3c bc e5 ba 5c 3d 22 d9 09 bc
       -0.14205785 -0.011497208 0.053889174 -0.008413585
000360 95 57 67 3d ec 28 2f 3e fb 35 82 bd 82 d1 c8 bd
       0.05648001 0.17105454 -0.06357952 -0.098055854
000370 ef c0 7e bd 7d 31 05 3e 0e 7f 97 bd 8c 42 67 3e
       -0.062195715 0.1300716 -0.07397281 0.2258398
000380 ea 14 09 3e 61 db 6c 3e 41 2a c0 bd b0 7f 5a bd
       0.13386884 0.23130561 -0.09383059 -0.05334443
000390 ff 7a f7 bd bf 7c a0 3a d4 6b 3a 3e 89 f2 c3 3d
       -0.120840065 0.0012244208 0.18205196 0.09567744
0003a0 62 6f 71 bc c2 74 d6 3c 30 eb 91 bd 25 77 83 bc
       -0.014736028 0.026178721 -0.071249366 -0.016048023
0003b0 99 4b 22 3d 8c 7e 28 3c c3 e5 b4 3d 22 d5 58 bc
       0.039622877 0.010284077 0.08832886 -0.013234409
0003c0 b1 51 05 3e 65 fa 06 3d 40 b1 97 3d 86 33 e5 3c
       0.13019444 0.03295364 0.07406855 0.02797867
0003d0 f9 a7 48 3e 70 f2 d9 3b 65 b5 5a bd 64 c7 8d bd
       0.19595326 0.0066512153 -0.053395648 -0.06922796
0003e0 0f 2b 23 3e c5 d1 08 3e 06 ad 50 3c e1 ec dc 3b
       0.15934394 0.1336127 0.0127365645 0.0067421054
0003f0 fd 34 35 3d f3 f9 37 bd a6 14 cd 3d f8 27 87 bd
       0.044239987 -0.044916105 0.10013704 -0.0659942

ln1.weight f4 [256]
000000 a0 4d 96 3f b2 df 76 3f 47 92 95 3f 0e bf 69 3f
       1.1742439 0.9643508 1.1685265 0.9130715
000010 f5 fb 7b 3f 04 61 8c 3f 9c 0a 81 3f 5d c6 63 3f
       0.9843133 1.0967107 1.0081363 0.88974553
000020 e0 86 74 3f 63 23 64 3f d8 c9 84 3f d5 b9 99 3f
       0.955183 0.89116496 1.0374098 1.2009836
000030 c5 00 72 3f dc 3b b0 3f 8a a1 61 3f ef 47 60 3f
       0.94532424 1.3768268 0.88137114 0.8760976
000040 17 4f 7c 3f c3 10 6e 3f 71 83 65 3f 9a 5d 9a 3f
       0.9855818 0.92994326 0.8965369 1.2059815
000050 ef da 9a 3f 6b ee 98 3f a2 41 ad 3f 66 c0 82 3f
       1.2098063 1.1947759 1.3535655 1.0214965
000060 a8 46 93 3f 86 61 7f 3f 8b 5a ad 3f ef 71 83 3f
       1.1505938 0.99758184 1.3543257 1.0269145
000070 a9 7f 85 3f fc 5f 8c 3f 09 63 c3 3f cb 3b a7 3f
       1.0429584 1.0966792 1.5264598 1.3065122
000080 e6 5a 9b 3f 5b fc 9b 3f 2f 52 5a 3f 5a ac 8e 3f
       1.2137115 1.2186388 0.8528165 1.1146348
000090 fd 95 89 3f 18 d6 56 3f e3 18 6b 3f b6 39 64 3f
       1.0748898 0.8392043 0.9183485 0.8915056
0000a0 43 d0 ce 3f 71 fc 67 3f 18 13 70 3f 0f a8 a7 3f
       1.6157306 0.9061957 0.93779135 1.3098162
0000b0 4b d1 53 3f 8d c6 58 3f 3a f5 a8 3f ba 5c b1 3f
       0.8274123 0.84677964 1.3199837 1.3856423
0000c0 70 a6 86 3f 32 24 90 3f 27 13 5f 3f b4 4b 8b 3f
       1.0519543 1.1261046 0.871386 1.0882478
0000d0 b1 2e 84 3f f5 82 9f 3f 1d 6c 68 3f 97 b0 9a 3f
       1.0326749 1.246184 0.9078997 1.2085141
0000e0 89 0d 6f 3f d5 d7 8b 3f 2a 9c ab 3f 9d 85 5d 3f
       0.9338003 1.0925242 1.3407032 0.86532
0000f0 71 0e 4d 3f 26 51 a1 3f 2e c3 9f 3f 5a 81 8b 3f
       0.8010016 1.260289 1.2481439 1.089885
000100 ce 1b 90 3f de b3 8d 3f f2 2c 5e 3f ed 75 81 3f
       1.1258485 1.1070516 0.8678733 1.0114113
000110 1e 21 75 3f 78 03 59 3f 49 8e a5 3f 13 ea ab 3f
       0.9575366 0.8477092 1.2934047 1.3430809
000120 1a 5b 70 3f 8c 63 68 3f a8 83 80 3f da 78 b0 3f
       0.9388901 0.90776896 1.0040178 1.3786881
000130 48 cd 74 3f cc d2 45 3f 4b 71 88 3f e6 74 56 3f
       0.95625734 0.77274776 1.0659574 0.8377212
000140 ce e8 85 3f 92 be 69 3f f0 f5 73 3f 4b 90 9e 3f
       1.0461671 0.9130641 0.95297146 1.2387785
000150 d1 17 80 3f 15 13 be 3f fd 8c a6 3f d4 30 68 3f
       1.0007268 1.4849573 1.3011776 0.90699506
000160 d5 64 6d 3f da c1 93 3f d1 6f 9c 3f a2 62 81 3f
       0.9273198 1.1543534 1.2221624 1.0108225
000170 4f a0 68 3f 73 94 36 3f d7 2d 79 3f 37 bf 92 3f
       0.9086961 0.71320266 0.9733557 1.1464604
000180 84 88 89 3f d6 35 d8 3f 85 f2 91 3f 68 cd a4 3f
       1.0744786 1.689143 1.1402136 1.2875185
000190 d6 ca a1 3f 5e f7 80 3f ca 32 c6 3f ed fd a1 3f
       1.2640026 1.007549 1.548425 1.2655617
0001a0 29 56 8c 3f b4 f7 92 3f 46 b2 6a 3f 0e c3 8b 3f
       1.0963794 1.1481843 0.91678274 1.0918901
0001b0 80 21 8b 3f 0f ea 6c 3f 32 33 37 3f 5c 31 88 3f
       1.0869598 0.92544645 0.7156249 1.0640063
0001c0 77 fa 9c 3f ca d3 74 3f 8e 9c bd 3f 5d 19 b7 3f
       1.2263936 0.95635664 1.4813402 1.4304615
0001d0 e5 92 94 3f 81 52 e7 3f c3 e4 62 3f 7c 90 84 3f
       1.1607329 1.8072053 0.8863031 1.0356593
0001e0 de 95 8a 3f b0 68 98 3f 34 d1 6f 3f a6 d3 80 3f
       1.0826986 1.1906948 0.93678594 1.006459
0001f0 52 5a 93 3f db 3d 88 3f 3c 59 94 3f 7e 25 9b 3f
       1.1511939 1.0643877 1.1589732 1.2120817
000200 82 9c 9a 3f 19 21 8c 3f 83 95 c7 3f ac a5 a9 3f
       1.2079012 1.0947601 1.5592502 1.3253684
000210 b9 45 85 3f ba a4 9b 3f d6 67 7f 3f ec e4 86 3f
       1.0411903 1.2159646 0.99767816 1.0538611
000220 67 91 66 3f 3b e1 a9 3f 12 d8 72 3f dd ea 77 3f
       0.90065616 1.327186 0.9486095 0.9684275
000230 5e 02 79 3f 78 75 8a 3f 4d 80 b6 3f cc ff ab 3f
       0.9726924 1.0817099 1.4257904 1.3437438
000240 19 c7 58 3f d0 c4 6f 3f a0 ea 9b 3f 52 ce 6a 3f
       0.846788 0.9365969 1.2180977 0.9172107
000250 90 d1 6d 3f 80 31 a9 3f 77 8f 9e 3f d9 30 99 3f
       0.9289789 1.3218231 1.2387532 1.1968032
000260 70 5a e1 3f 2a 6a 8d 3f 95 65 7d 3f f5 ca 78 3f
       1.7605724 1.1048024 0.98983127 0.9718469
000270 5e 2e 8b 3f ad 32 81 3f d6 fa a8 3f 90 81 72 3f
       1.0873525 1.009359 1.3201549 0.94728947
000280 fc 56 60 3f 33 1d 86 3f b0 68 b8 3f 38 54 77 3f
       0.8763273 1.0477661 1.4406948 0.9661288
000290 01 d9 49 3f fc 53 62 3f 23 18 56 3f 69 02 ae 3f
       0.78846747 0.884094 0.8363058 1.3594486
0002a0 d4 1f 53 3f eb 6f 8e 3f 24 48 80 3f 4f c3 6c 3f
       0.8247044 1.1127905 1.0022016 0.9248552
0002b0 50 c2 96 3f da 87 8f 3f a2 91 9d 3f ff eb 76 3f
       1.177805 1.1213334 1.2310069 0.9645385
0002c0 65 40 98 3f 21 c3 8c 3f 33 4f ac 3f 10 31 50 3f
       1.1894652 1.0997049 1.346167 0.81324863
0002d0 27 d8 40 3f ce 16 8b 3f 5a 97 66 3f 7e ff 90 3f
       0.7532982 1.0866334 0.90074694 1.132797
0002e0 80 5e 7a 3f 81 af 86 3f 0d c5 88 3f bc 1c 87 3f
       0.97800446 1.052231 1.0685135 1.0555644
0002f0 94 56 80 3f a5 55 8f 3f 58 14 b9 3f 0e f1 70 3f
       1.0026422 1.1198012 1.4459333 0.9411782
000300 5c bc 5f 3f f0 22 4f 3f 59 81 95 3f 36 83 8d 3f
       0.8739679 0.80912685 1.1680099 1.1055667
000310 17 68 61 3f 60 23 56 3f f4 79 7a 3f 7e c9 89 3f
       0.88049453 0.8364773 0.97842336 1.0764616
000320 fc db 73 3f b3 bd 98 3f 24 73 83 3f f7 ba 89 3f
       0.95257545 1.1932892 1.0269513 1.0760182
000330 e9 bb b5 3f d8 94 9b 3f 27 2d 98 3f 9c 89 8e 3f
       1.4197971 1.2154799 1.1888779 1.1135745
000340 ca e1 ae 3f d7 eb 8d 3f 15 af b2 3f 40 58 6b 3f
       1.3662655 1.1087598 1.3959681 0.91931534
000350 a5 66 75 3f d8 20 7d 3f 06 80 92 3f da b8 92 3f
       0.9585975 0.9887824 1.144532 1.1462662
000360 b5 33 a0 3f 13 54 bc 3f 56 ec 56 3f 4c dc 7d 3f
       1.251578 1.4713157 0.8395437 0.9916427
000370 f9 b2 97 3f bb 26 ab 3f 0f 18 ba 3f 10 6f fa 3f
       1.1851493 1.3371195 1.4538592 1.9565144
000380 0f 15 75 3f 48 c9 97 3f 2f e8 91 3f e3 d3 98 3f
       0.9573526 1.1858301 1.1398982 1.1939663
000390 8f 3f 4e 3f 23 15 6c 3f 5f eb bb 3f 29 3d 72 3f
       0.8056573 0.9221975 1.4681205 0.94624573
0003a0 bf 6c 75 3f a5 59 a0 3f 62 e0 8b 3f 51 45 71 3f
       0.9586906 1.2527357 1.0927851 0.94246393
0003b0 b6 fd 6d 3f 92 79 84 3f b0 b8 7b 3f 7c 70 6b 3f
       0.9296526 1.03496 0.98328686 0.9196851
0003c0 41 30 8a 3f db f7 88 3f 8b 69 a2 3f 83 b3 a6 3f
       1.0795976 1.070064 1.2688459 1.3023533
0003d0 e8 db 99 3f 0d 44 bf 3f 27 bb 6b 3f 61 dd 7e 3f
       1.2020235 1.4942642 0.92082447 0.9955655
0003e0 50 4b de 3f b8 2b 85 3f f0 d8 90 3f ef c3 4b 3f
       1.7366734 1.0403967 1.1316204 0.79595846
0003f0 db b6 a2 3f 73 4d 4f 3f 7d 0b c2 3f 90 6f 60 3f
       1.2712053 0.80977553 1.5159756 0.8767023

ln1.bias f4 [256]
000000 66 81 52 bd d1 75 d3 bd 00 e9 ab 3c 92 93 2e bd
       -0.051392935 -0.10325206 0.020985126 -0.042621203
000010 79 4d 04 bd a4 dd 40 bc 2e de 13 be 03 7c e7 bd
       -0.032300446 -0.011771593 -0.14440224 -0.1130295
000020 d6 9a 25 bc 87 64 31 be 65 ee c1 bc 75 ca 4c be
       -0.010107717 -0.17323504 -0.023673246 -0.19999106
000030 c2 1e 8f bd 2c 49 b6 bc d6 d7 31 be 95 c3 2b be
       -0.069882885 -0.022251688 -0.17367491 -0.16773827
000040 a4 f4 0d bd 35 09 b9 bd 1d c0 4a be d3 1a 44 bb
       -0.034657136 -0.09034959 -0.19799848 -0.0029923215
000050 ee cf 08 be f9 8d 95 bd 98 1b ef 3b 20 70 0b be
       -0.13360569 -0.0730247 0.0072969906 -0.13616991
000060 9c b6 2f be dc 8b c1 bd 9b 72 16 bd ca 6e ca bc
       -0.17159504 -0.09450504 -0.03673039 -0.024711031
000070 65 d0 c4 bc 3a d1 2f bd c1 69 95 3c a9 76 ee bc
       -0.024025152 -0.042924143 0.018238904 -0.029109316
000080 0f 21 d9 bd ac 56 4c bd e7 04 3a be 81 c9 aa bd
       -0.106020086 -0.049887344 -0.18165933 -0.08339215
000090 27 a7 ad bc 42 8a 26 be 4c ea a9 bd 36 1b a9 bd
       -0.021197869 -0.16263679 -0.08296642 -0.08257143
0000a0 a6 03 b7 bc 4d 3b 05 be 44 cb db bd ce 4e 0a be
       -0.022340607 -0.13010903 -0.10732129 -0.13506624
0000b0 71 28 6e be 92 c8 28 be a7 6d f6 bd 66 bc 2c 3d
       -0.23257615 -0.16482762 -0.12032633 0.04217186
0000c0 a1 61 e5 bd 05 10 a3 bd 18 a1 41 be 9b 06 da bd
       -0.11200262 -0.0796204 -0.18909109 -0.10645791
0000d0 6e 19 7f bd 86 3c fa 3c 2d 1a f4 bd 34 5c a6 bd
       -0.06228011 0.030546438 -0.11919055 -0.08123055
0000e0 73 a6 ad bd b5 a7 7f bc 58 1c d0 bc dc 4b 23 be
       -0.08479013 -0.015603949 -0.02540414 -0.15946907
0000f0 82 df 35 be c3 99 ea 3c 6b 59 10 be 4a da f4 bd
       -0.17761043 0.028637772 -0.1409661 -0.11955698
000100 09 48 00 be 2f 26 cc bd cc dd 30 be 4a 0a c4 bc
       -0.12527479 -0.099682204 -0.17272109 -0.023930687
000110 42 74 d0 bc 2a 37 cd bd 92 dd 94 3b 7e da dd bc
       -0.025446061 -0.10020287 0.004543015 -0.027081724
000120 e9 74 e5 bd ae 6a 0e be e0 e9 4e bd 8a da 29 bd
       -0.112039395 -0.13907883 -0.05051601 -0.04146818
000130 46 ee cb bd b7 bc 99 be d4 f9 88 ba 1d 24 33 be
       -0.099575564 -0.3002679 -0.0010450431 -0.17494245
000140 2b ea 26 be 68 49 13 be 73 5c e3 bd d7 16 88 bd
       -0.16300265 -0.14383471 -0.11101618 -0.06644981
000150 da 43 8e bd 85 8d c8 bd 79 d2 c4 bb d8 d2 d7 bd
       -0.069465354 -0.09792618 -0.0060065356 -0.10538262
000160 43 25 1f be e7 53 27 bd 48 4e db ba 48 7d 69 bd
       -0.15541558 -0.0408515 -0.0016731704 -0.057004243
000170 e0 c7 19 be a0 43 84 be c2 e2 d2 bd c1 97 22 be
       -0.15017653 -0.25832844 -0.10297157 -0.15878202
000180 71 59 ea bb 64 cf 6f 3d 50 aa b2 bd 80 8b 7a bd
       -0.0071517755 0.058547392 -0.08723891 -0.061168194
000190 6b 24 82 bc 8b e5 08 be 7b 9d 33 bb ed a9 82 bb
       -0.015886506 -0.13368814 -0.0027407098 -0.003987542
0001a0 60 74 8c bd bc 7c 8b bc df 97 0c be 9c 4d bc bc
       -0.06858134 -0.017027251 -0.13729809 -0.022986226
0001b0 03 af 5d 3c e1 76 c1 bd 4c d5 91 be b5 fd c8 bb
       0.013530496 -0.094465025 -0.28483045 -0.00613376
0001c0 17 29 75 bd a5 bd 8f bd ef c8 66 bd d2 8d 98 3c
       -0.05985364 -0.07018594 -0.05634397 0.018622313
0001d0 03 bd b0 bd 66 42 ce 3b 51 d0 ce bd d9 82 46 3c
       -0.08629801 0.0062945364 -0.10098327 0.012116157
0001e0 53 02 2e 3d 04 3c 9e bd c6 67 ac bd c4 ed 2a be
       0.042482685 -0.07726291 -0.08418231 -0.16692263
0001f0 50 cd f8 bc c9 f9 c2 bd c2 e2 5b bd 9e 13 1c 3b
       -0.030371338 -0.09520299 -0.05368305 0.0023815404
000200 e3 b5 e7 bd a0 d6 c4 bd 5f b1 77 bc ec a9 14 bd
       -0.11313989 -0.09611249 -0.015117972 -0.036294863
000210 31 11 ce bd ef 92 e7 ba 6e c1 62 bd 76 3f e4 bd
       -0.10061873 -0.0017667691 -0.05536025 -0.11144917
000220 3e 32 01 be ec f8 8a 3c 0f f8 91 bd 36 0f c2 bd
       -0.12616822 0.016964398 -0.071273915 -0.094755575
000230 ea e5 6e bd f4 ea 87 bd 30 96 f2 bc 54 8a 5a bd
       -0.058324732 -0.066366106 -0.02961263 -0.053354576
000240 1f 01 04 bd 67 c2 94 bd 82 df ee bc 35 ad 65 be
       -0.03222763 -0.07263642 -0.029159311 -0.22429354
000250 6b 6d 9f bd 8d 2a 4c bd e2 8f 1b 3d 7e 29 91 bd
       -0.07784542 -0.049845267 0.037979014 -0.07087992
000260 73 1a 94 bd 2f 1f e7 ba 00 b7 b7 bd 0c d0 12 be
       -0.07231607 -0.0017633195 -0.08970451 -0.14337176
000270 72 5a 25 be 9c 1c 12 3b d3 82 04 3c c0 24 08 be
       -0.16147783 0.0022294885 0.008087832 -0.13295269
000280 94 02 b5 bd 72 5c 9e bd 79 94 63 bb 37 bd ba bc
       -0.08838382 -0.07732476 -0.0034725948 -0.022795303
000290 05 c3 55 be ee 1b 1a be 00 03 15 be 23 b6 47 bd
       -0.20875175 -0.15049717 -0.14551926 -0.048757683
0002a0 b1 43 1c be 50 1b ca bc 2b 15 67 bd 8b 6c 33 be
       -0.15260197 -0.024671227 -0.05641667 -0.17521875
0002b0 fe 61 8f b9 b4 8e 0c 3d 32 39 1c bd 52 23 33 bd
       -0.00027348095 0.03431578 -0.038140483 -0.043734856
0002c0 4c 8f a2 bd 28 d7 38 3c f5 10 fa bc 83 b4 db bd
       -0.07937488 0.011281766 -0.030525664 -0.10727789
0002d0 90 e0 8f be e4 9a 7a 3d f6 91 83 be b3 a8 68 bd
       -0.28101015 0.06118287 -0.25697297 -0.05680151
0002e0 64 87 29 bc b8 33 8a bd 2d cd 32 bd 37 05 4f be
       -0.010347221 -0.06748146 -0.043652702 -0.20216833
0002f0 bf f6 10 bd 2e 30 ea bd 6d be 17 bc a9 66 1e bd
       -0.035391565 -0.11434971 -0.00926171 -0.038672123
000300 a1 df 22 be 33 e8 32 be 2c 47 c4 bd 03 74 d8 bb
       -0.1590562 -0.1747139 -0.095838875 -0.0066056265
000310 fb 58 36 be 7d f9 0c be 78 6d 10 be 1b b8 b6 bd
       -0.17807381 -0.13767047 -0.14104259 -0.08921834
000320 b3 69 30 be 66 f8 f7 bc 99 43 3a bd 06 3c 3a be
       -0.17227821 -0.030269813 -0.045474622 -0.1818696
000330 23 58 9a ba 0f a4 9c 3b 34 f8 9d bb b4 ee cc bc
       -0.0011775534 0.0047802995 -0.004820848 -0.025016166
000340 e5 20 65 bd 4e fe 1e be 49 10 a7 bd 2a e4 15 be
       -0.055939574 -0.15526697 -0.08157403 -0.14637819
000350 fb 50 43 bd c6 1f 37 be a7 f3 3f bd c7 b6 da bd
       -0.04768465 -0.17883214 -0.046863224 -0.10679393
000360 79 60 00 be 51 ce 5f bc 11 05 a7 bd fa 37 56 bc
       -0.12536801 -0.0136600295 -0.08155263 -0.013074869
000370 81 6d 60 3d 53 77 cb 3b 7a 38 4e bd 35 6b 48 3e
       0.05479193 0.006209293 -0.05034683 0.19572146
000380 1d 50 e3 bd 11 a2 bf bc b8 01 bf bd 8b 19 f9 bb
       -0.11099265 -0.023392709 -0.093265 -0.007601922
000390 ca b2 2f be d5 5c ba bd 18 88 8c 3d 1d c3 35 be
       -0.17158046 -0.090997376 0.06861895 -0.17750211
0003a0 16 a3 3d be 45 89 b0 bd e0 fe 18 3d 6b 1b 92 bd
       -0.18519244 -0.08619932 0.037352443 -0.07134136
0003b0 0b 14 c9 bd bf 54 01 be e5 f6 56 bd 62 bf 14 be
       -0.09818276 -0.12629984 -0.05248155 -0.14526132
0003c0 fd d8 d5 bd 15 1d f1 bd 44 62 07 bd 5c 3d 66 bd
       -0.10441778 -0.11773125 -0.033052698 -0.05621086
0003d0 72 a2 30 3d 40 73 53 bd cc db c4 bd 45 0f a9 bd
       0.04312367 -0.051623583 -0.096122354 -0.082548656
0003e0 f9 d7 54 3d fd 50 d3 bd 0b c6 9b bd c7 50 10 be
       0.05196378 -0.10318182 -0.07606133 -0.14093314
0003f0 53 d9 78 bd ab b8 35 be ff 2c ca bc c8 aa b9 bd
       -0.06075413 -0.17746226 -0.024679659 -0.09065777

fc2.weight f4 [64, 256]
000000 bf 55 c8 be 53 e5 54 3e ee 5a 03 3e 7e 02 b2 bd
       -0.3912792 0.20790605 0.12827656 -0.086918816
000010 b8 a5 7f 3d 46 65 0b bc ca 7d 17 3e 03 c1 bc 3c
       0.0624139 -0.008508032 0.14794078 0.023041254
000020 fc db 81 3d 3b 33 2d be a8 2f c7 bd 80 5a 7a be
       0.06340787 -0.16914074 -0.097258866 -0.24448586
000030 2c f5 19 be ae 44 b9 be 5e 31 7e 3d c3 01 b7 3d
       -0.15034932 -0.3618521 0.0620588 0.08935883
000040 89 ec f7 3c c2 7e 05 bd 6b 79 e1 bc a6 a7 4c be
       0.030264156 -0.03259159 -0.027523717 -0.19985828
000050 28 ba 69 be 64 f2 2e 3d 52 20 8c 3d c6 7d 7d 3d
       -0.22824919 0.04271163 0.06842102 0.061887525
000060 81 4c a0 3d b4 cc 01 3e 86 7f e4 be 57 93 c7 3b
       0.07827092 0.12675744 -0.44628543 0.0060905623
000070 da d1 30 3e c4 fa 37 3e 11 52 61 be 71 6a ae 3b
       0.17267552 0.17966753 -0.22003962 0.0053227474
000080 98 ab 8e be 7c 1f 61 3d 30 42 44 3d 21 7d 50 3e
       -0.2786529 0.054961666 0.047914684 0.20360233
000090 a9 bf 46 bd de 62 1a 3c d1 c2 f8 3c dc ed 2e be
       -0.048522625 0.009422986 0.030366333 -0.17082924
0000a0 38 d9 05 bf 09 04 2c 3d 87 2f 18 3e 4b 81 58 3e
       -0.52284575 0.041996036 0.1486188 0.21143071
0000b0 df 32 1b 3d 73 fe f8 3d 71 93 a5 bd 90 b4 9e 3e
       0.03789031 0.12157907 -0.08084763 0.30997133
0000c0 71 e5 96 bd 11 ce 28 3e e8 01 58 bd f8 55 99 bd
       -0.07367981 0.16484858 -0.052736193 -0.074871
0000d0 3c 81 5d be 0d c8 52 3e b1 44 71 3c 28 eb 18 3e
       -0.2163133 0.20584126 0.01472585 0.14933455
0000e0 5d 51 9f 3d 90 54 87 3e 50 22 20 bd a5 28 d6 bd
       0.07779191 0.26431704 -0.039095223 -0.10456971
0000f0 28 7d 8a 3b 55 58 bc 3d 27 95 3c be 16 93 3a 3e
       0.0042263456 0.091965355 -0.18416272 0.18220171
000100 06 54 c7 bd b6 af 1b 3e 48 21 98 3e fe ca bc 3d
       -0.09732823 0.15203747 0.29712892 0.09218405
000110 63 88 f2 3d 97 89 b2 3d 14 72 c4 be 6b c4 85 be
       0.1184242 0.087176494 -0.38368285 -0.26126418
000120 9a 62 1e be c2 17 e8 bd 50 8c c8 bc b3 e2 23 3e
       -0.15467301 -0.113326564 -0.024480969 0.16004448
000130 2e 7c c8 3d 49 f2 45 3e f4 5a d9 3c 1e a5 8c 3d
       0.097893104 0.19330706 0.026532628 0.06867431
000140 af 0a ff 3d 2e 43 2e 3d b4 3c dc 3d 60 e0 9d 3e
       0.124532096 0.042544536 0.10753766 0.30835247
000150 d6 5b a0 3d 5e ed c3 3e 30 9d 05 be 7d 2b 92 3b
       0.07830016 0.38267034 -0.13048244 0.0044607506
000160 c9 b1 0a 3d 04 e0 8a 3d f8 ad e5 bd 57 30 cd 3b
       0.033860955 0.06781009 -0.112148225 0.006261866
000170 32 00 99 be cb 80 23 3d 28 59 28 be 81 0b 86 be
       -0.29882962 0.03991775 -0.1644026 -0.26180652
000180 7d 3c e9 bd 7d a6 ce 3e b1 f4 dc 3d bf e3 8c bc
       -0.1138849 0.40361395 0.10788859 -0.017198442
000190 6d 06 81 bd 05 0a 22 bd 31 c4 38 3e be f3 8c 3e
       -0.06300054 -0.039560337 0.18043591 0.2752971
0001a0 22 ea d7 bd d8 89 22 bd ed 85 00 3e 41 c9 bc 3d
       -0.10542704 -0.03968224 0.12551089 0.09218074
0001b0 98 74 89 3d ac 8f 1f 3d c0 84 99 bc 7e 88 f2 bd
       0.067116916 0.038955376 -0.018740058 -0.1184244
0001c0 3b 30 39 3e ab 91 cf 3d 85 8b 97 3e c1 7c ab be
       0.18084805 0.10135206 0.29598632 -0.33493617
0001d0 bd df 55 bd 10 eb 68 3e 62 e6 25 bc 01 f5 b4 3d
       -0.052215327 0.22745919 -0.010125728 0.08835793
0001e0 99 ba 39 3d 83 22 2a be 5a c3 95 3d 7a 6d 88 bd
       0.04534397 -0.16614728 0.07312651 -0.06661506
0001f0 ab 40 09 3e c3 f5 86 3e d8 b4 7a be 10 5a 7b 3e
       0.13403575 0.26359376 -0.24483049 0.24546075
000200 1d fb 33 bd 5e 3b e2 bd 84 33 a2 3e 0c f2 80 bc
       -0.043940652 -0.1104648 0.31679928 -0.015740417
000210 bd 8e 9b 3e 5e 9c 19 be 26 1c 6a be bc 75 30 3d
       0.30382338 -0.15001056 -0.228623 0.04308103
000220 3c 60 ff bd ed d6 94 3d dc 34 98 bd e3 48 fd 3d
       -0.12469527 0.07267556 -0.07431957 0.12367418
000230 e6 96 45 3e 37 e2 5c 3e 83 b7 66 3e 5a 33 5c 3d
       0.19295844 0.21570669 0.22530942 0.05375991
000240 f6 05 67 bd cd 5a be bd 0d fd 0d bd 71 59 ca 3d
       -0.05640217 -0.092946626 -0.034665156 0.09880341
000250 e5 f4 54 bc 99 50 bc 3d 11 77 af be 1a 9d c1 bd
       -0.0129978405 0.0919506 -0.34270528 -0.09453793
000260 d1 bd 87 be d0 0f b4 bc cb d9 04 be a4 4f 45 be
       -0.26512006 -0.021980196 -0.12973706 -0.19268662
000270 d8 f8 40 3d b2 67 b4 3d 27 ea 26 3e b9 10 32 3e
       0.047112316 0.08808841 0.1630026 0.17389192
000280 3b 36 14 3d 3e 94 54 3c aa 63 64 3e 6c 0c a9 bd
       0.03618453 0.012974797 0.22303644 -0.082543224
000290 f3 f0 34 3d a6 a9 09 3e 1b ff 48 be 9f 97 22 bc
       0.0441751 0.13443622 -0.19628565 -0.009923845
0002a0 c6 d8 04 3e 19 7f 08 be 34 42 02 3c a3 2f e5 3d
       0.12973318 -0.13329734 0.007950354 0.111907266
0002b0 91 66 87 be 7b ed 13 3c 50 5b 7c be e8 38 29 3b
       -0.2644544 0.009028788 -0.24644208 0.0025821272
0002c0 ea ef 97 be 77 58 84 3b e4 7e c7 3d a4 c8 93 bc
       -0.29675227 0.004038866 0.09740999 -0.018040009
0002d0 b3 33 93 3d 86 a7 94 3d a4 c3 1c be 96 75 11 3e
       0.07187595 0.07258515 -0.15309006 0.14205012
0002e0 99 04 81 3d ce de af bd a7 3f 41 3c 56 8c 26 be
       0.06299705 -0.085874185 0.011794961 -0.16264471
0002f0 c4 fc eb bd 3b 3d be be d1 29 6e be e8 d9 fa 3d
       -0.115228206 -0.3715609 -0.23258139 0.122485936
000300 9e 5d 4a ba 98 fc 08 bb 64 8b 38 bd a0 97 4f bd
       -0.00077196385 -0.002090251 -0.04505481 -0.05068171
000310 39 d0 63 3e bb 8a ef 3d 51 69 20 3c 58 bb 8c 3e
       0.222474 0.116963826 0.009790734 0.27486682
000320 09 3b d2 bd 98 9e f3 bd 32 d8 1a 3e ee 5b 49 be
       -0.10265166 -0.11895484 0.15121534 -0.19663975
000330 5a de 03 be 7d 30 5c 3e 1b 9e 64 3d 69 37 ef 3d
       -0.12877789 0.21502872 0.055814844 0.116804905
000340 99 e0 e3 be ab 35 e5 3d e0 e1 c5 3c eb 78 3e 3e
       -0.44507292 0.11191877 0.024155557 0.18600814
000350 07 63 df 3d 0c 3f a5 3d 0b 86 36 bd 42 06 46 be
       0.1090756 0.08068666 -0.044561427 -0.19338325
000360 2e b3 1e be 66 5a 9f 3e 08 93 7e 3e ed 18 f3 3d
       -0.15498039 0.31123656 0.24860775 0.118699886
000370 29 fe 2e 3e 7a 1d 5b 3e 4f 9e 8e 3e ac ee 06 3d
       0.17089142 0.21397963 0.27855155 0.03294246
000380 92 af 9f 3d 60 81 90 3d f1 c3 72 3e 86 ca ab 3d
       0.07797159 0.07055926 0.23707558 0.08388238
000390 3f 84 63 3d 7c 97 0c be c9 c6 8f 3e a6 15 df 3d
       0.05554604 -0.13729662 0.2808135 0.10892801
0003a0 bb 07 01 3d 84 de 2d be 7a d6 0a 3e 86 a7 1b 3c
       0.031501513 -0.16979414 0.13558379 0.00950039
0003b0 bc ae 09 3e a6 c7 36 3d 33 61 22 3d 0a c2 b4 bd
       0.13445562 0.044623993 0.039643478 -0.088260725
0003c0 22 c3 b6 3d 4b 6d b2 3e 4e 11 6a be bb af 95 bd
       0.089239374 0.3484901 -0.22858164 -0.073089086
0003d0 14 2e 08 bd 2f 18 43 be dd fd 16 3e f7 7b 75 3e
       -0.03324707 -0.19052194 0.14745279 0.2397307
0003e0 a1 96 46 3d 75 89 3c be ea cd d1 3d 38 bf 16 be
       0.048483495 -0.1841181 0.10244353 -0.14721382
0003f0 5b 97 c6 be 89 71 3f 3d 1d ce b8 be 8c fe 08 3e
       -0.3878735 0.046739135 -0.36094752 0.13378352

fc2.bias f4 [64]
000000 6d 6b b0 3b 1b 24 ea bc f8 20 e4 ba ea 9c a7 bb
       0.0053839 -0.02858167 -0.0017404845 -0.005115141
000010 b6 b1 08 bc 07 1c 2a 3c 53 5d 9a 3c 9c 34 02 3d
       -0.008343151 0.010382659 0.018843329 0.031788453
000020 a6 8c 80 3c 9e b3 26 bd 5c b9 0a 3c d9 34 a8 3b
       0.015692066 -0.04069864 0.008467045 0.005133253
000030 55 de 00 3d 75 df d2 b9 ac 34 28 3d 53 ab 6d 3b
       0.031462032 -0.0004022081 0.041065857 0.0036265447
000040 0f 0b 6e 3d 50 f2 55 bb 37 f4 fc 3a 83 93 9a 3d
       0.058116015 -0.003264565 0.0019298856 0.07547667
000050 f0 62 0a bc 6e 83 86 3b 0c ca 3c 3c 9a b4 93 3d
       -0.00844644 0.004105023 0.011522781 0.072121814
000060 ad 3d 4e 3c e5 59 96 3c d2 4b 07 38 1a b1 b5 3c
       0.012587947 0.018353412 3.225712e-05 0.022179175
000070 09 cf f9 3c 2a 1d b3 3b 96 6c cd bb 0c 1a 12 bc
       0.03049423 0.005466123 -0.006269048 -0.008917343
000080 8f 05 e9 3c 73 ae 39 3d 17 3f 44 3d 6d 96 b2 3c
       0.028445033 0.045332383 0.04791173 0.021800244
000090 2b 31 16 3d 12 15 22 bc 69 54 f2 3c 46 cc a7 3c
       0.036667984 -0.009892719 0.029581266 0.020483147
0000a0 79 51 9d 3c a3 c7 4c 3d 8a 72 f6 3b e4 f0 aa 3c
       0.019203888 0.049995076 0.0075209783 0.020866819
0000b0 1b ba 3b 3c 17 b7 ce 39 1d 2d 31 3c b4 d6 5b 3b
       0.011457945 0.00039427794 0.0108139785 0.003354472
0000c0 83 cc f8 3c e6 8d c3 3b 4b 02 9c 3d c4 02 0a 3d
       0.030370956 0.0059678433 0.07617625 0.033694044
0000d0 56 65 b7 3b 32 1e 12 bc 72 00 e3 3c 4a b6 f4 3c
       0.005596797 -0.008918332 0.027710173 0.029872078
0000e0 d5 e2 29 3d ed e5 1e ba 0e 6c dd ba b3 d3 bc ba
       0.04147609 -0.0006061483 -0.0016893165 -0.0014406353
0000f0 9d 07 01 3c 82 4f 52 bc 92 6b 9b bc c7 63 18 3e
       0.00787535 -0.012836339 -0.018972192 0.14881812

ln2.weight f4 [64]
000000 2e ab 9e 3f 50 27 88 3f c1 6c 98 3f 0e 8a 95 3f
       1.239599 1.0636997 1.1908189 1.1682756
000010 6c 36 ae 3f cc 67 a4 3f 5c ae 91 3f b6 a0 80 3f
       1.3610358 1.2844176 1.1381335 1.0049045
000020 f0 48 b3 3f 8a a4 83 3f 25 16 80 3f 95 47 99 3f
       1.4006634 1.0284588 1.0006758 1.197497
000030 cf 76 8b 3f fa b2 52 3f d1 a8 92 3f 11 8c c6 3f
       1.0895633 0.82304347 1.1457769 1.5511495
000040 3a 42 b9 3f 20 1f b7 3f 96 65 6b 3f 88 bc 8f 3f
       1.4473336 1.4306374 0.9195188 1.122941
000050 69 52 5a 3f 45 21 9a 3f ed 23 af 3f 94 da 8a 3f
       0.85282 1.2041403 1.3682839 1.0847955
000060 d7 9a 71 3f a4 68 9a 3f f4 dc 5a 3f 81 5f ae 3f
       0.9437689 1.2063184 0.854934 1.3622895
000070 fe 2b 92 3f 3e 09 9d 3f 33 33 58 3f 12 c3 86 3f
       1.1419675 1.2268445 0.84453124 1.0528281
000080 cf 5a 80 3f c5 ea a0 3f 01 c9 71 3f 8e 55 88 3f
       1.0027713 1.2571646 0.9444733 1.0651109
000090 1c c9 bf 3f 86 86 52 3f 92 e9 2c 3f fd b8 a0 3f
       1.4983249 0.82236516 0.675439 1.2556454
0000a0 73 68 88 3f 63 f9 85 3f ee ae 68 3f ef 2f 90 3f
       1.0656875 1.0466732 0.9089192 1.1264628
0000b0 d9 09 8d 3f 33 e7 9f 3f b7 12 7f 3f 19 43 9e 3f
       1.101863 1.2492431 0.9963793 1.2364227
0000c0 0b 9e 8e 3f a8 2a 7c 3f f1 57 bb 3f 95 29 98 3f
       1.1141981 0.9850259 1.4636213 1.188769
0000d0 80 d8 84 3f df f9 9a 3f 44 4d 85 3f 35 2f 72 3f
       1.037857 1.2107505 1.0414205 0.9460328
0000e0 be db 99 3f 7c ba b1 3f b5 35 83 3f aa 69 83 3f
       1.2020185 1.3885036 1.0250765 1.0266621
0000f0 78 bd 96 3f f3 f4 af 3f 31 db 89 3f a8 2f 95 3f
       1.1776571 1.3746628 1.0770017 1.1655169

ln2.bias f4 [64]
000000 63 5a 76 bd b3 ee 3e be 3d a5 13 be 98 a2 d7 3c
       -0.060144793 -0.18645744 -0.14418502 0.026322648
000010 28 07 35 be 0c 7a 5c be 8d da 1f be a2 3b 62 bb
       -0.17678511 -0.21530932 -0.15610714 -0.0034520407
000020 9d 32 4c be f0 10 59 be ec a4 20 bd ce 37 94 bc
       -0.19941182 -0.21197867 -0.03921978 -0.018093016
000030 88 3e e2 3c e5 e9 98 be 09 35 94 3d f5 9b e2 3b
       0.027617708 -0.29865947 0.07236678 0.006915564
000040 09 0c 94 bc d5 ca b5 bd 4c 4d 7a be aa 1a 95 3d
       -0.018072145 -0.08876578 -0.24443549 0.072804764
000050 16 1a 50 be a7 d4 5f bc 57 4b d1 bd ea 71 13 3d
       -0.20322451 -0.01366154 -0.10219448 0.03599731
000060 b1 96 a9 3b d1 ec 33 bd cd cc 1e be 78 54 c5 bd
       0.0051754345 -0.043927018 -0.15507813 -0.09635252
000070 b2 00 98 bd 65 1b 01 be 2d ce 18 bd 99 9f 04 be
       -0.074220076 -0.12608106 -0.037306 -0.12951507
000080 50 9b c0 bb a3 af a9 bd 07 06 6d 3d 0d 58 8d bc
       -0.0058778897 -0.08285453 0.057867076 -0.0172539
000090 85 95 a1 bd fc 5a 92 be 9b c0 c6 be 86 85 7a 3b
       -0.07889847 -0.2858504 -0.3881882 0.0038226559
0000a0 42 b7 cb bc 89 1c 52 bc 69 3e 0e be 0b ef 9b bd
       -0.024867658 -0.012824186 -0.13890995 -0.07613953
0000b0 64 89 2d 3d 22 7d 16 3d d6 66 81 bd a3 b3 e2 bd
       0.042367354 0.03674043 -0.063184425 -0.11069419
0000c0 b3 e4 c9 bc 5b 91 5f bc e1 96 ce 3c 35 02 42 bc
       -0.024645185 -0.013645495 0.025218429 -0.0118413465
0000d0 63 f7 bc bc 40 3a e9 bb 2e 9c 05 3b ef 9b 28 bc
       -0.023067182 -0.0071175396 0.002038728 -0.010291084
0000e0 7c df 35 3d e1 32 be bd c7 be b5 bc b8 f3 39 3c
       0.044402584 -0.09287048 -0.022185696 0.011349611
0000f0 c5 25 4b be b8 87 fc bd 77 63 49 bd 99 76 29 bd
       -0.19838627 -0.12330574 -0.049167123 -0.04137287

action.weight f4 [4, 64]
000000 2d 2d 04 3c fb e1 c3 be 83 da 0e 3d 7b 0b 7b be
       0.008067411 -0.38258347 0.034876358 -0.24516098
000010 a3 dd 1e 3f b4 77 e6 3e c9 2d 16 bc a2 77 e2 3b
       0.6205694 0.450132 -0.0091661895 0.006911234
000020 fe 13 f7 bc b0 33 8a 3c 9d 4c 15 3d c4 33 3d 3b
       -0.0301609 0.01687035 0.036450017 0.0028869966
000030 be b6 72 bd 99 67 da 3d d2 f7 79 3a 19 49 e0 3b
       -0.059256308 0.10664291 0.00095355243 0.0068446514
000040 aa 2f 9c 3c e4 6c d9 be 23 d6 40 3e b1 8d b2 3d
       0.019065697 -0.4246589 0.18831687 0.08718432
000050 0b 8e 5b 3e 1b 6b 4b 3e c6 90 a5 bc 99 7c 4b bc
       0.21440904 0.19865076 -0.020210635 -0.012419843
000060 84 4a f0 3d fe 59 1a be 00 d9 41 bd a9 12 3b 3c
       0.11732963 -0.15073392 -0.047326088 0.011418023
000070 c4 91 27 bd 98 65 5b be 33 59 2a 3e 90 26 cc 3d
       -0.040910497 -0.21425474 0.1663559 0.09968293
000080 51 d7 c4 bc 08 97 0b bc 01 df 37 be 3f 68 ba 3c
       -0.024028452 -0.008519895 -0.17956163 0.022754787
000090 e2 4e bd 3c f5 4a 88 3d 68 14 1b bc 89 83 41 3d
       0.023108903 0.06654922 -0.009465314 0.047244582
0000a0 3d 81 80 3d 1c 00 c1 3c 1c d3 bb bc 0c b8 f1 3b
       0.0627465 0.023559622 -0.022927813 0.0073766764
0000b0 b8 8e d4 3c 32 2b 21 bd 69 22 e2 3d 96 c9 25 3c
       0.02594696 -0.039347835 0.110417195 0.010118863
0000c0 d7 1a 98 3b e6 1d c2 bd 8e 59 15 3a 91 f9 9a 3b
       0.0046418714 -0.09478359 0.00056972436 0.0047294577
0000d0 cf 50 18 be 2f 33 6b be 90 c2 c4 3d f7 2d 70 bd
       -0.14874576 -0.22968744 0.09607422 -0.058637585
0000e0 f2 ec 5a bd 86 b4 05 3d 80 27 12 be 1c 3d ab bd
       -0.053448625 0.032642864 -0.1427288 -0.08361265
0000f0 07 b1 49 3d f6 39 ff 3a 13 82 29 be d3 ca fd bb
       0.049241092 0.001947223 -0.16553526 -0.007745126
000100 41 1c 14 3f 6e 07 2a 3e 08 70 23 3f 48 1d 3f bf
       0.5785561 0.16604397 0.6384282 -0.74654055
000110 c6 c0 80 3e b7 8c 94 3e a8 fd 84 be cd 07 92 3e
       0.25147074 0.29013607 -0.25974774 0.28521577
000120 8a 37 de be 8a d2 a3 3e 1e 3f 0c 3f 54 25 e8 3e
       -0.43401748 0.31996566 0.5478381 0.4534098
000130 8e 36 ad 3e 94 50 df bd dc a3 b3 3e 38 d6 5a bc
       0.33830684 -0.10904041 0.35085952 -0.013356738
000140 5b 54 ef 3d eb d2 11 3f e5 e0 07 bf ad f6 6f be
       0.116860114 0.5696246 -0.53077537 -0.23433943
000150 12 36 bd be 21 a5 00 3e 30 91 32 3f 63 f5 5f bd
       -0.36955315 0.12562992 0.6975279 -0.05467738
000160 6b a8 9e 3d 97 65 40 bd fc 4c ad 3e 8c 00 61 bf
       0.07746967 -0.046971884 0.33847797 -0.8789146
000170 b8 eb 84 3e c0 67 aa 3e 8b 67 50 be bc 25 19 be
       0.2596109 0.3328228 -0.20351999 -0.14955801
000180 31 24 33 bf de 03 88 bf 27 1d 48 be 90 73 9d bd
       -0.699771 -1.062618 -0.1954237 -0.076880574
000190 94 b5 16 be 53 40 08 be 40 59 38 3d dd 41 d5 3e
       -0.14717704 -0.13305788 0.04500699 0.41651812
0001a0 87 26 35 3e a2 76 9f be 18 de 2b 3d 08 af 95 be
       0.17690478 -0.31145197 0.041959852 -0.292351
0001b0 0d 78 cb 3e 73 0d 23 be 7f ba 0a 3e 14 dc 6c 3e
       0.3974003 -0.15923099 0.13547705 0.23130828
0001c0 4b 09 aa bd 5b 56 4f be 1b d8 e0 be 52 2f a5 3e
       -0.08302554 -0.20247786 -0.43914875 0.32262665
0001d0 7f 12 e3 3d 81 06 26 3f 70 f2 a1 3e d0 58 0e bf
       0.11087512 0.64853674 0.31630278 -0.5560427
0001e0 96 85 1f 3f fb bb c5 3e cf 2d 1b 3f f2 c1 9b be
       0.6231321 0.3861998 0.60616773 -0.30421406
0001f0 ed e9 fc bf a2 4e 90 3f a1 03 cf bd 8b 62 af be
       -1.9758888 1.1273997 -0.10108114 -0.3425487
000200 12 86 51 3f ec ef 03 be e6 2e eb 3e 41 dc 35 bf
       0.818452 -0.12884492 0.45934218 -0.71039206
000210 68 30 c1 bd 4d b9 84 be d2 ec 30 3f e7 3d 62 be
       -0.09433061 -0.25922623 0.6911136 -0.22093926
000220 08 fe 2e 3e a8 80 a4 3d 1a 16 b0 be 97 e5 a8 bc
       0.17089093 0.08032352 -0.34391862 -0.02061729
000230 5b 69 5f 3e a5 49 b1 bc c6 f1 05 be f4 c2 40 bf
       0.21817534 -0.021641562 -0.1308051 -0.75297475
000240 2b c6 90 3f 6b 0d cb 3e 60 f6 e6 be 7d b0 43 3f
       1.1310476 0.39658675 -0.45109844 0.76441175
000250 cb f6 4d 3e 7a 0b 03 bf 45 12 b4 be dc 7a 0d 3e
       0.20113675 -0.51189387 -0.3517019 0.13816398
000260 ca 0c d5 3d 74 49 29 bf 42 38 86 3e 10 cb e2 be
       0.1040283 -0.66127706 0.26214796 -0.4429555
000270 c9 46 84 3e 20 82 65 3e c5 ee be 3e 78 23 27 bf
       0.25835255 0.2241292 0.37291542 -0.65288496
000280 79 9a 2e 3d ca ae 7c 3e 8d 7b 92 3c b4 a6 19 bf
       0.042627785 0.24676052 0.01788118 -0.60019994
000290 3c 08 26 bf 6b 1f 57 be 77 0c 81 bd 0e 1c 10 be
       -0.64856315 -0.21008079 -0.063012056 -0.14073202
0002a0 06 da c8 be f3 03 01 3e 43 ab 5b be d6 7a 6d be
       -0.3922884 0.12599163 -0.2145205 -0.2319139
0002b0 e0 db 84 3e 7c 66 77 bf ff 05 1a be c9 46 22 3f
       0.25949 -0.96640754 -0.1504135 0.6338926
0002c0 15 3b b4 be e4 1b 5f 3f 73 b7 01 be d3 69 19 bf
       -0.35201326 0.8715193 -0.12667637 -0.599271
0002d0 a0 23 66 bf 21 12 0c bf 15 8e 45 bf b4 72 50 3d
       -0.8989811 -0.5471516 -0.77169925 0.05089064
0002e0 b8 5f d3 3d 46 d4 3b bf 84 72 4c 3d ef 88 0a bd
       0.10320991 -0.7337078 0.049913898 -0.033821996
0002f0 97 38 3f 3e 7b 2e 5f 3c b6 d5 64 3f ab a7 b7 3e
       0.18673931 0.013621922 0.89388597 0.35870108
000300 47 7c 2b be f5 93 32 bd 9a 91 39 bf b9 92 22 3e
       -0.16746627 -0.043598134 -0.72487795 0.15876283
000310 c5 e3 05 3e a9 02 05 3e d5 c5 1c 3e dd cc 99 3c
       0.13075168 0.12989296 0.15309842 0.018774444
000320 27 36 49 3f 68 2e 73 3e c4 8a 64 3e e2 ea 68 3f
       0.78598255 0.23748171 0.2231856 0.909834
000330 ba be 79 be 73 31 87 bb 48 c7 74 be 4c 5a cc 3e
       -0.24389163 -0.004125768 -0.23904145 0.3991264
000340 ed c9 81 bf ca 7c 74 3e b5 b4 ae bc 3f b3 66 be
       -1.0139748 0.23875728 -0.021326402 -0.22529314
000350 33 da 97 bd 3e 8e 3d 3e ec 8c 30 3f 23 ac 0c bf
       -0.07414665 0.18511292 0.6896503 -0.5495016
000360 a7 8a ec bd de 72 28 3f 05 2b 40 be 6b db 6f 3d
       -0.11549883 0.65800273 -0.1876641 0.058558863
000370 0d 2e 07 3f f6 9a 32 3e 5f 5f 99 be 14 c1 0b 3e
       0.5280464 0.17441925 -0.29955575 0.13647872
000380 2f 67 90 3e ad 17 bb 3e b2 8d 13 3e 48 37 3c bd
       0.28203723 0.365415 0.14409521 -0.045951158
000390 94 6c 0b 3f 11 26 94 bd 59 2a 6d be 67 bf 1e bf
       0.5446255 -0.07233823 -0.23160686 -0.62010807
0003a0 33 71 ae 3e 44 67 81 be 10 69 0b 3d 5d e4 c4 3e
       0.3407074 -0.25274098 0.034035742 0.38455477
0003b0 c8 2a cf be a2 2b ae 3e 56 2a 6a 3e 49 c7 3d be
       -0.40462327 0.34017664 0.22867712 -0.18533053
0003c0 3c 69 46 3e 2a 04 97 3d 57 4b 0a 3f 71 dc 3d be
       0.19376081 0.07373841 0.5402121 -0.18541123
0003d0 9e f9 02 3f bb d3 86 be 67 57 be 3e fc 0b b6 be
       0.51162136 -0.26333413 0.37176058 -0.35556018
0003e0 f9 60 78 bd e4 46 f8 3d 3b c6 20 3e 8f 28 5f 3f
       -0.060639355 0.12122896 0.15700619 0.8717126
0003f0 cb 5b 75 3e 90 c9 1e 3e 13 c6 f0 be a2 94 3d be
       0.23960797 0.15506577 -0.4702612 -0.1851373

action.bias f4 [4]
000000 81 1f a3 bc 52 ca 92 3c 90 00 c3 3c 73 e0 63 bd
       -0.019912483 0.01791874 0.02380398 -0.055633973
