checkpoints/DDPG/Target_actor/DDPG_target_actor_800.pth (torch, 183215 bytes, 10 tensors)

fc1.weight f4 [256, 41]
00000000: d908 aebd e544 8f3e 1e59 ef3d 2e0e 1cbe
00000010: b758 0fbe 80ba cabc 3e8b d03d bebc 4e3e
00000020: 2aca 423e 70a2 b53d f048 8f3c 675d 6d3e
00000030: e92a e73c 97bf 8d3d aceb 423e 8b54 03be
00000040: 0cf7 4dbe 6110 66bd bacf b0bd cb27 e9bd
00000050: bb14 be3d d1f9 2a3e 0789 e13b ac70 3fbd
00000060: f957 a33d 63c3 983c 2e95 7c3e b9c6 fbbb
00000070: e5af 9b3e 98fb 99bd 3c1a dcbd 563d c33d
00000080: 5afd 133e ddd7 ed3d 8652 b53d ee9f d4be
00000090: 0050 253e 50b9 513e ac59 723d c862 a23d
000000a0: 7431 d638 d3fe 9bbb b265 c03d c235 22be
000000b0: e03a 153e 92d8 86bd 440c 01bd acf4 fabd
000000c0: 46fe 843d 4416 42bd f000 b9bc 892e 27be
000000d0: 9ba8 4fbe cbe4 87bd 2a7e 29bb 5de7 4d3c
000000e0: dec8 45be 22dc 20bd 6cb1 2fbe be28 0ebe
000000f0: 7d7b 3abe 2aa8 f83d 91b7 d23d d19a cf3e
00000100: 1479 9d3e 5bab d53e 96a4 963e dca9 183f
00000110: 91a9 39be b12d 893e 53cc 05be 2f9c 1d3e
00000120: b06b be3d 7dde f1bc b0bf ecbd 1db7 b5bd
00000130: 0d05 36bf c737 153e ff45 40bd e475 183c
00000140: e371 82bd 526d 233e 359b fe3c e5e3 67be
00000150: d189 37bb 5f39 37be 146d 4abe 55f1 ffbd
00000160: 0dc8 f0bd 4ddd df3b db67 c6bd f2a1 84be
00000170: 5796 01bd f6d3 233e 1ec3 353e 520c 213e
00000180: 7f1c e0bc 7fb8 08be f58c f1bd 42b6 b33c
00000190: de0a 053d bce5 50bd 3978 f4bd 3794 f4bc
000001a0: 1639 83be 706d a0be 20d2 8ebe 50a8 84be
000001b0: 8bbd 72be d36d 09bd 62e0 c4bd 96ed 5d3d
000001c0: 8c0b 883d 9331 09bd 1bba fd3c 8066 ca3c
000001d0: 4fa5 4ebd 660f 0a3e 2363 16be 3e63 1ebe
000001e0: 3ee8 823c 7380 39be 261d d1bc ae87 463d
000001f0: c9a2 92be ed29 30be 1ab1 a5bc eb07 ab3c
00000200: ee52 903d 18ec 04bd 4951 6abd a89b 71be
00000210: 24d8 e6bd 2cf2 2cbd ab2f 343e 88ab f33d
00000220: b0e0 b83d 0f0e 603e 88b0 d23e 22e2 1d3e
00000230: 76cf e83e 677f f93d b0db 23bd 83ed 3bbd
00000240: 6e11 34be 4986 e4be 1e5d 83be 8644 4bbe
00000250: c623 79bd 6c9c 4fbe 02a4 1c3d b90c 99bd
00000260: 223d 5e3e 6898 93bd 411c ecbd 9bad 303e
00000270: bd8e 88bd 47db d5bd 0bd6 c23e 24ae 753e
00000280: e213 a43c b88a 8d3c eaa5 a43d c32b 053e
00000290: 4f8d 693e 7560 4e3e 43cb cdbe afba 843c
000002a0: 5706 6cbe 4e2e 243c 27bb 0abe dd2c 9cbc
000002b0: dae3 e63c e624 d03d 61b1 b13d 5b15 3ebd
000002c0: b349 6cbe b3c9 a4be 7056 e6be fb23 cfbe
000002d0: f024 eebe 3c14 7ebe 9254 d0be 2f05 50be
000002e0: 949f 2fbc ca41 fa3b 7591 6a3e 1e72 a33d
000002f0: 9e0f 483d accb 313d 2b68 983e 67d7 9abc
00000300: b883 683e 0863 08bd cabb a33c a2e9 8dbd
00000310: 4bf0 ee3c cbef cf3d 49e2 86bd 6603 06bf
00000320: 9be5 5dbe 91cc 63bd fe2a 153c 20bb 7cbe
00000330: 0bc2 f33b d372 30bd dd6a 483e dd7f 423e
00000340: 4acb 2a3d dcc4 c8bc 21a0 4d3d 9686 6e3d
00000350: e230 363e 8974 033e 09e2 3e3e a5a1 4e3e
00000360: bb48 8f3d b093 93bd 95c4 133d 8404 5a3d
00000370: 177a fabc 3f71 d53c 30c4 22bd 35b6 6f3c
00000380: 28af afbd 943f 75be f888 2cbd 977a 333d
00000390: 3464 343c d896 12be cc2a aebd 8df7 843e
000003a0: 7d45 ca3c 1aa7 383e 9357 21bd 318a 13be
000003b0: 9a1f 263e 040f 7f3e 1b83 9d3e 3adb 3b3d
000003c0: bac9 813e 01db d43d 0a48 dc3c 47e8 ba3c
000003d0: d5ab 023e 44f6 1ebe 59e9 9b3e ce57 8fbb
000003e0: eaef 583d 10da d5bc 8e08 a1bd 0ccd 59be
000003f0: 8a46 cbbd 659b f4bd 109d 0ebe b455 ebbd
-0.08497781 0.2798225 0.1168692 -0.15239784 -0.13998686 -0.024747133 0.10182808 0.20189187
0.19022432 0.08868873 0.017490834 0.23180161 0.028218703 0.069213085 0.19035214 -0.1282522
-0.20113772 -0.056167964 -0.08633371 -0.11384543 0.09281298 0.1669686 0.00688279 -0.04673831
0.07975764 0.018647855 0.24666283 -0.0076836017 0.30407634 -0.07518691 -0.10747191 0.09533183
0.14452115 0.11613438 0.08853631 -0.41528267 0.16143799 0.20480847 0.05916755 0.07928997
0.000102135265 -0.004760602 0.09394397 -0.1584082 0.1457324 -0.06584276 -0.031505838 -0.12253699
0.06493811 -0.047384515 -0.022583455 -0.16326346 -0.20279162 -0.06635436 -0.0025862553 0.012567368
-0.19314906 -0.039272435 -0.17157525 -0.1388273 -0.1821117 0.1214145 0.10288919 0.40547803
0.30756438 0.41732296 0.29422444 0.59634185 -0.1813109 0.26792672 -0.13066225 0.1539161
0.092978835 -0.029525036 -0.11559999 -0.08872817 -0.71101457 0.14572059 -0.046941753 0.009305451
-0.063693784 0.15959671 0.031079868 -0.22645529 -0.002800573 -0.17892979 -0.19768173 -0.12497202
-0.11756907 0.006831801 -0.096877776 -0.25904804 -0.031637516 0.15998825 0.17750213 0.15727356
-0.027357338 -0.1335163 -0.117944635 0.021937493 0.032481067 -0.05100034 -0.11936993 -0.02985583
-0.2562949 -0.31333494 -0.27894688 -0.25909662 -0.23705117 -0.033552002 -0.0961311 0.054181658
0.066428274 -0.033494543 0.030972531 0.024707079 -0.05045062 0.13482437 -0.14686255 -0.15467545
0.015979882 -0.18115406 -0.025526594 0.048469238 -0.2863982 -0.17203493 -0.02022605 0.020877799
0.070470676 -0.03245172 -0.057206426 -0.23594534 -0.11271694 -0.04222314 0.17596309 0.11897951
0.09027231 0.21880363 0.41150308 0.15418294 0.4547078 0.12182503 -0.040004432 -0.045880806
-0.17584774 -0.446337 -0.2565698 -0.19850358 -0.06082513 -0.20274514 0.038242348 -0.0747313
0.21703008 -0.072068036 -0.115288265 0.17253725 -0.0666785 -0.104422145 0.38053927 0.2399221
0.020029012 0.01727806 0.08039458 0.13004975 0.22807811 0.20153983 -0.4019414 0.016202299
-0.23049293 0.0100208055 -0.13547955 -0.019064361 0.02818482 0.10163288 0.086764105 -0.046407085
-0.23074989 -0.32185134 -0.44987822 -0.40457138 -0.46512556 -0.24812406 -0.40689522 -0.20314477
-0.010719199 0.007637237 0.2290705 0.079807505 0.04884302 0.043407127 0.29766974 -0.01890154
0.22706497 -0.03329757 0.019987006 -0.069293275 0.029167315 0.10153159 -0.06586129 -0.52348936
-0.21669619 -0.05561501 0.009104488 -0.24680758 0.007438903 -0.043078255 0.19572015 0.18994088
0.041697778 -0.024507932 0.05020154 0.05823382 0.17792085 0.12837423 0.18640913 0.2017885
0.06996294 -0.072059035 0.036076147 0.053226963 -0.030575795 0.026054977 -0.03973788 0.014630844
-0.0857833 -0.23950034 -0.04212281 0.043818083 0.011010218 -0.14315355 -0.085042566 0.25970116
0.024691338 0.18032494 -0.039390158 -0.14408185 0.16222993 0.24908072 0.30764088 0.045863368
0.25349218 0.10393334 0.02688982 0.022815837 0.12760861 -0.1552363 0.30451468 -0.004374481
0.052963175 -0.026104957 -0.0786296 -0.21269625 -0.09925564 -0.11943702 -0.13927102 -0.11490956

fc1.bias f4 [256]
00000000: b3b5 9d3d 56d5 8cbd 5999 dcbd 7ecd 443c
00000010: 1a01 d8bd f84b 263e 7d56 b33d 9b9c a13d
00000020: 0202 50bd 1ce3 0d3d d025 04be 0a3a e7bd
00000030: 8652 e53c c493 253e 7e49 f23d 6c19 b73d
00000040: 9845 a6bc 42dc a33d 3de3 25bd 77b2 8cbd
00000050: 3b51 84bd 5c55 343e 677f ea3d 04f5 fa3d
00000060: b7fc 0d3e e7ea 373e c0c5 d2bd 0447 4cbd
00000070: ecb0 bcbc 8575 e0bd 8046 ac3d c396 8ebd
00000080: bb45 063e b16f f2bd d3d2 cb3d 2c54 f8bd
00000090: 71f4 cb3d 23a1 b0bd 46e3 cdbd 0f70 b5bc
000000a0: 1b13 bb3d 4025 403d 6c9a 2a3e 0038 8ebd
000000b0: 0fe9 a0bd 50ac 33bd 7f17 d53d 8612 903d
000000c0: 3067 fabd ed86 02be f7ba 523c b48d b53d
000000d0: 5e08 f0bd 45d5 da3d aaf4 f3bd 1ec5 a6bd
000000e0: 4e0b 0ebe cd5f ab3c 67f6 45bc 7e29 01be
000000f0: a605 ee3d eddb 313e 1873 843b 2560 f6bd
00000100: 32c4 ca3c e3c5 1f3d bb7e 1dbc e302 ea3d
00000110: c443 883c 453d 573e dafc f63d 350e ba3d
00000120: 8d6c dcbb 3a17 f33d 791e 22bd 18de 9c3d
00000130: 7b6b 90bd e76d f1bc 7a96 20bd 61e9 02be
00000140: 5b78 223d ce86 82bb 9d76 92bc fd96 2a3d
00000150: 33cf 853d 42a1 9a3d 87af 003e 8392 8ebd
00000160: 7696 e0bd 97d2 27bd 98b3 8e3c 8ed2 d43c
00000170: 0a80 d9bd 4bc8 28bd 2e1c eebd 0da8 d33c
00000180: 0c64 b9bd e775 2b3d 82c8 8c3d 16ee a0bc
00000190: 32be fdbd 42f8 1a3e 8419 24be f2e0 013e
000001a0: 8f6c fcbc ee09 95bd 7c7c 0ebd 210b 5b3d
000001b0: 6c2c 153d bd93 7abd 415c f03d d629 cd3d
000001c0: fe9e f83d d9cc 413d cdf1 f3bd e7fe c23d
000001d0: 1469 86bd 17ba ba3d c152 c23d 647a 10bd
000001e0: 3504 d23d b07a 1dbe 0834 acbd dcf2 ba3c
000001f0: 3f37 fd3d 6807 ccbd 0896 d1bd 3721 e7bd
00000200: d337 e1bd e4f6 c4bd edd5 b53d ece7 eb3d
00000210: 49d4 eebd e5eb 213e 4383 ab3d 4c71 62bc
00000220: b22b fa3d bcf4 433d 6a60 d0bd cd13 c2bd
00000230: b8a8 55bc d2bc a8bd 8691 f7bd 1cf8 3cbd
00000240: 381f 0c3d c0cf 91bd 9f09 863d 246e 11bb
00000250: 4a6c ecbd 6731 f03d 77c1 9bbd 3d3d 6e3c
00000260: a84a 103e adfe 3e3d 61b4 e9bb 464c b53d
00000270: fce4 e6bd d331 f0bd 129f fabd 0b68 0a3c
00000280: b53a aa3d c2ee a43d 7ec6 d33d 1b89 853d
00000290: 1d86 d33d 33de bfbd d037 81b9 5cc6 46bd
000002a0: 9163 0c3b 4efe e0bd 8380 1fbe 1bbf d2bd
000002b0: 6260 eabd 3252 e73d c3be 9e3d 7afa 80bd
000002c0: b5f1 053e 9dbe f7bc 484d d6bd e61c 1ebc
000002d0: 8644 513d cdb6 c43d cd12 99bd ada7 a9bd
000002e0: 4b2a 9e3b f3ee 36bd a3c8 77bd cc05 3fbe
000002f0: b438 a5bd fb14 1abd e952 d93d cdda ebbd
00000300: 0b35 79bb 7386 b53d f44d 8d3d 4e74 353e
00000310: e371 bdbd d61c e93d d706 0fbe c5c3 8d3d
00000320: a4ef adbd 6c2f 43bd d3a9 f43d 5b07 c83d
00000330: 7aa4 debd c59f 213e c91d 49bd 892f 75bc
00000340: f1db 2d3c 69b6 153e f799 7ebc c02d 0e3e
00000350: 88d9 803c cfcc fabd 8cf2 dcbd b98f 84bd
00000360: 12e2 303e 6464 ad3d d489 0f3e 2c7e a63d
00000370: d7ba 0dbe 3962 d93d f818 853d 5dfb 2b3e
00000380: 2781 00be 36f8 50bc 2213 31bd ee07 233e
00000390: 7dc5 8a3d c542 c53d 1c73 5e3d 8709 d6bd
000003a0: efc6 d4bc 00ad bd3d 0c01 9ebd fd53 003e
000003b0: 536b 4cbd 33b1 fa3d c226 e23c 1b1a a23d
000003c0: 90bb 1e3d fe9e dfbc 3af5 46bd 2284 903d
000003d0: fa69 1bbd fca2 09be 9acd 0cbd 4e20 08bd
000003e0: 24a8 08be d104 e9bc 8c39 67bd ae1c bc3d
000003f0: 604c acbd c27c 0a3e 4226 3fbd 8b71 0c3e
0.07700672 -0.06876628 -0.10771436 0.012011884 -0.10547085 0.16239917 0.08756731 0.07891198
-0.050783165 0.034640417 -0.1290505 -0.11290367 0.027993452 0.1616965 0.11830424 0.08940396
-0.020296857 0.08000995 -0.040499914 -0.06869977 -0.06460806 0.17610687 0.11450081 0.12253764
0.13865934 0.17960702 -0.10291624 -0.049872413 -0.023033582 -0.10959915 0.08411884 -0.06962349
0.13112538 -0.1183771 0.09952321 -0.121254295 0.09958733 -0.086244844 -0.100531146 -0.02214816
0.091345035 0.046910524 0.1666047 -0.06944275 -0.078569524 -0.043865502 0.10404872 0.07034783
-0.12226713 -0.12746783 0.012861959 0.08864918 -0.11720346 0.10685209 -0.119119 -0.08143066
-0.138715 0.020919705 -0.012082673 -0.12613484 0.11622171 0.17369051 0.0040420406 -0.12030057
0.024751756 0.03900708 -0.009612734 0.11426332 0.016633876 0.21019466 0.12059946 0.09084741
-0.0067268074 0.118696645 -0.039579842 0.076595485 -0.0705175 -0.02947135 -0.039206006 -0.1278434
0.03966556 -0.003983355 -0.017878825 0.0416479 0.06533661 0.07550289 0.12566958 -0.06961539
-0.10966198 -0.04097232 0.017419621 0.025979307 -0.10620125 -0.04120664 -0.116264686 0.025836969
-0.090522856 0.041860487 0.06874181 -0.019644778 -0.123897925 0.15133765 -0.16025358 0.12683466
-0.030813484 -0.072772846 -0.034786686 0.05347741 0.036419317 -0.06117605 0.11736346 0.10017745
0.121397 0.0473145 -0.11911354 0.09521275 -0.06563011 0.09117525 0.0948844 -0.03527297
0.10254709 -0.15378833 -0.08408362 0.022820882 0.12364053 -0.0996235 -0.10233694 -0.11285632
-0.10996976 -0.09617403 0.08878694 0.11518845 -0.11661584 0.15812643 0.083746456 -0.013820957
0.122153655 0.04784082 -0.101746395 -0.09476433 -0.013040714 -0.082391396 -0.12088303 -0.046135053
0.03420946 -0.07119703 0.06544804 -0.0022190893 -0.11544092 0.11728173 -0.0760526 0.0145409675
0.14090979 0.046629597 -0.0071320985 0.08852439 -0.11274144 -0.11728253 -0.122373715 0.008447657
0.08311979 0.08053352 0.10340594 0.065202914 0.103283145 -0.09368553 -0.0002464638 -0.048529014
0.002142165 -0.10986005 -0.15576367 -0.10290357 -0.11444165 0.112949744 0.07751229 -0.062977746
0.13080485 -0.030242259 -0.10463959 -0.009650445 0.05109074 0.09605179 -0.07474289 -0.08283935
0.004826819 -0.044661473 -0.060494076 -0.18654555 -0.08067456 -0.037617665 0.10611517 -0.11516342
-0.0038026 0.08863535 0.06899634 0.17720148 -0.09250238 0.11382453 -0.13967453 0.06922106
-0.084929734 -0.047652647 0.11946454 0.09767028 -0.10871215 0.15783603 -0.04910067 -0.014964947
0.01061152 0.14620365 -0.015539638 0.1388464 0.015728727 -0.122460954 -0.1078845 -0.064727254
0.17273739 0.084664136 0.14017421 0.08129534 -0.13840805 0.106144376 0.06498903 0.16795106
-0.12549268 -0.012754491 -0.043231137 0.15920994 0.06775949 0.09631876 0.054308996 -0.10451036
-0.025973765 0.09261513 -0.077150434 0.12532039 -0.04990704 0.12240829 0.027606372 0.079151355
0.038753092 -0.027297493 -0.04857371 0.07056452 -0.037942864 -0.1344108 -0.034375764 -0.033233933
-0.1334539 -0.02844468 -0.056451365 0.09185158 -0.08413005 0.13524154 -0.046667345 0.13715188

ln1.weight f4 [256]
00000000: 316f 623f 520f 9b3f 112d 553f e9f5 693f
00000010: de4c 7b3f af16 943f 909e a33f aaa8 743f
00000020: 8296 b63f 5017 a23f 2eb3 8e3f 1540 723f
00000030: 604a 833f 9471 903f e5af 9f3f 531a 813f
00000040: ba54 9f3f 658b 963f 60f1 843f 1702 733f
00000050: d80d 883f cb99 b83f 2d6e 833f 9524 883f
00000060: 6aee 8e3f f445 a53f e9b7 6a3f a01f 5d3f
00000070: 7127 933f 5720 983f d990 643f d019 743f
00000080: 9f0d 863f 69d3 873f a470 6e3f 1c21 8e3f
00000090: 2260 793f 8793 8c3f d0b8 8a3f 08fb 743f
000000a0: fa95 4f3f 67d3 683f 1937 a63f 6a02 6c3f
000000b0: 72ee 703f 6119 7a3f 1f67 803f 6b15 723f
000000c0: 89c3 813f 3ed2 6e3f 5857 803f 4211 863f
000000d0: 566b 7a3f dc7b 553f 6e39 743f 6f8b 813f
000000e0: a9d0 b43f 8c27 913f deaa 8a3f 4ee7 703f
000000f0: 6796 733f f0ef d73f 0559 773f 1238 863f
00000100: 1402 e33f 8a5c 783f 0d9a 6d3f 9cd0 803f
00000110: faed 873f 0104 983f 3cd8 8e3f 4e4f 713f
00000120: f229 853f 5070 803f 79c0 4b3f 8a29 873f
00000130: 4548 693f 28d5 be3f 64c4 6d3f fa38 823f
00000140: 8ecb 733f 8cb9 8d3f 2993 a03f 05f5 873f
00000150: 3482 6e3f e379 663f 38fc 8a3f f14c 743f
00000160: 4b45 973f 3a32 633f 26ee 663f 8f21 8f3f
00000170: d152 7b3f d075 813f fff2 793f d0a7 8c3f
00000180: 0618 873f 5445 913f c97b f93f f4e0 6f3f
00000190: 1859 8b3f 3c40 953f 3386 873f fbd3 853f
000001a0: ed7d 893f 6628 5e3f dfe5 6a3f a16f b03f
000001b0: 30ff 6f3f 388e 893f 8b96 8b3f 99c6 b53f
000001c0: f78a 853f e4dd 683f e2a1 813f 0218 893f
000001d0: 3010 b13f 0c55 7e3f 38b3 963f 8fd2 703f
000001e0: 80bc 8f3f 3401 903f f066 7c3f f1fc c83f
000001f0: 0f18 843f fd29 ac3f 3825 b53f a732 8c3f
00000200: 4dbe 803f c433 8a3f 486a b13f 4259 863f
00000210: 6245 853f 4280 9f3f 1df3 7b3f 6430 643f
00000220: 04fa 8d3f 723c 7e3f b547 7a3f 6099 913f
00000230: 54f3 433f ff2f 963f 7190 8b3f ee38 c73f
00000240: 21d6 4b3f d423 963f af68 663f 1274 373f
00000250: e23f 803f d81a 853f 2490 ae3f 80dc 783f
00000260: b60c 863f e929 323f d305 893f 34bd 643f
00000270: 5eb0 733f 6b18 803f acb8 813f 8954 8b3f
00000280: 0c8e b23f d57a 803f 8db2 5b3f a147 ad3f
00000290: 730f 7c3f f872 6b3f 666a 883f 1b0e 973f
000002a0: 4a55 933f fe39 8b3f 997b 7a3f 8cf5 783f
000002b0: 5f2d 813f 04a5 763f 9d91 9a3f 14a9 a53f
000002c0: 4afa 6a3f ed1b 903f 9678 863f 9d2d 633f
000002d0: ec23 803f f109 b63f 271e 753f 9e43 943f
000002e0: 42bf 913f eb30 833f 29b8 833f 00ac ac3f
000002f0: 0489 9e3f 7a43 913f 030f ab3f 0366 5c3f
00000300: 7556 883f 8418 ef3f 8ede ba3f 710d 923f
00000310: 6dc5 6a3f 6eda db3f 1234 793f b5a2 5d3f
00000320: d9d9 8d3f 8a87 793f 7b1a 863f a533 5b3f
00000330: 2ebe 833f ef90 963f 6ab9 ad3f 200c 7a3f
00000340: b0a4 933f 5444 cc3f 89f0 613f 89ad b73f
00000350: 3577 ac3f 767b 673f 511f 543f 9018 533f
00000360: 87db 8f3f dd5a 9a3f a8ac 873f 22c0 793f
00000370: 1158 9a3f f9b9 a03f 7be0 c33f 2220 963f
00000380: 131a 943f e000 9c3f 3a95 5a3f c29c 9a3f
00000390: ecad 663f 5d2e 7f3f 2c3d 783f 9ab9 7d3f
000003a0: 29b7 cd3f ca23 7a3f dd86 763f 9e7c 6f3f
000003b0: 6489 8d3f c17a fb3f 2ff5 583f 4306 1240
000003c0: fb7e 933f 492f da3f c249 633f d5d5 6d3f
000003d0: a72d 6c3f c9f0 6e3f 480b 853f facd 653f
000003e0: 0af8 6a3f 5fc9 be3f 7155 a93f 39f5 523f
000003f0: bc92 893f a1ff a23f 903c 893f 5ab0 af3f
0.88450915 1.211405 0.8327189 0.91390854 0.98164165 1.1569422 1.2782764 0.9556986
1.4264681 1.2663364 1.1148431 0.9462903 1.0257072 1.1284661 1.2475554 1.0086159
1.2447731 1.176129 1.0386162 0.94925064 1.0629225 1.4421934 1.0267998 1.0636164
1.1166508 1.2911973 0.91686875 0.8637638 1.1496412 1.1884869 0.8928352 0.95351887
1.0472907 1.0611392 0.93140626 1.1103854 0.9741231 1.0982522 1.083765 0.95695543
0.8108822 0.90947574 1.2985564 0.92191184 0.9411384 0.97694975 1.003147 0.9456393
1.0137798 0.93289554 1.0026655 1.0474017 0.9782003 0.8339212 0.9540013 1.0120677
1.4126178 1.1340194 1.0833395 0.9410294 0.9515137 1.6870098 0.9662021 1.0485861
1.7735009 0.97016203 0.9281319 1.0063663 1.06195 1.1876222 1.115974 0.94261634
1.0403426 1.0034275 0.79590565 1.0559552 0.911259 1.49088 0.92877793 1.0173638
0.95232475 1.107225 1.254491 1.0621649 0.93167424 0.90029734 1.0858221 0.95429903
1.1818022 0.88748515 0.90207136 1.1182116 0.9817324 1.0114079 0.9763641 1.0988712
1.0554206 1.1349282 1.9490901 0.93702626 1.0886564 1.1660228 1.0587829 1.0455316
1.0741554 0.86780393 0.91757005 1.3784066 0.9374876 1.0746527 1.0905317 1.4201232
1.0433034 0.9096358 1.0127528 1.0710452 1.3833065 0.9934852 1.1773443 0.94071287
1.1229401 1.1250367 0.9859457 1.5702192 1.0319842 1.3450314 1.4151983 1.0952958
1.0058075 1.0797048 1.386056 1.0495989 1.0411799 1.2461016 0.98417836 0.8913634
1.1091924 0.9931098 0.97765666 1.1374931 0.76543164 1.1733397 1.0903455 1.5564249
0.7962361 1.1729684 0.90003484 0.71661484 1.0019495 1.0398817 1.3637738 0.97211456
1.0472629 0.695952 1.0704902 0.893512 0.9519099 1.0007452 1.0134482 1.0885173
1.3949599 1.0037485 0.8581932 1.3537484 0.98461074 0.91972303 1.065747 1.180118
1.1510403 1.0877073 0.97844845 0.97249675 1.0091971 0.96345544 1.2075688 1.2942224
0.9178816 1.1258522 1.050555 0.88741475 1.0010962 1.4221784 0.95749134 1.1583135
1.1386492 1.0249304 1.0290576 1.348999 1.2385564 1.1348717 1.3363956 0.8609316
1.0651385 1.8679357 1.4599168 1.1410352 0.917075 1.7176034 0.9734508 0.86576396
1.1082107 0.9747244 1.0476831 0.8562568 1.0292413 1.176298 1.3572209 0.9767475
1.1534634 1.5958352 0.8825765 1.4349834 1.3473879 0.9042276 0.82860285 0.82459354
1.123887 1.2058979 1.0599566 0.97558796 1.2058126 1.2556754 1.5302881 1.1728556
1.1570457 1.2187767 0.8538395 1.2079089 0.90109134 0.9968012 0.9696834 0.9911133
1.6071521 0.9771086 0.96299535 0.93549526 1.1057553 1.9646837 0.8474912 2.2816322
1.1523126 1.704568 0.8878442 0.92904407 0.9225716 0.9333616 1.0394068 0.8976742
0.9178473 1.4905204 1.32292 0.8240543 1.0747905 1.2734262 1.0721607 1.3725693

ln1.bias f4 [256]
00000000: 726e d8bd a80c 9abc 7043 f0bd 0b15 99bd
00000010: ec12 f3bd c799 313d 7d37 00bd 04bf c9bd
00000020: 36f7 443d a8de b6bd ac89 8fbd ab3b 0ebd
00000030: 5b21 81bd 7662 e43c a00d 9f3d 7f83 833b
00000040: a324 b33a c572 3ebd c46b 423d f0b6 92bd
00000050: 879c acbb 1bc8 0dbd 4baa 3d3d 96f0 7c3c
00000060: 089e 433d 9d3c 373e 75b6 9dbd c98f 16be
00000070: 1a44 cb3d 818a 863c 7fa5 81bd 8983 78bd
00000080: 2a70 f73b 7fcc 4ebc 0227 c3bd f7d2 1a3b
00000090: 5318 9bbd 3e3f 763c b754 80bc 90af dcbc
000000a0: c246 54be 5947 6ebd 01c5 753e 1209 1fbe
000000b0: af27 1fbe bff8 e3bb fcea 2dbd e5c2 9dbd
000000c0: b717 a1bc d8b4 ecbd 0928 f33b c112 70bd
000000d0: 3220 3abb fe83 41be 5630 c3bd 1e05 fd3c
000000e0: debc 7e3b 090a a2bd efef 5c3d f01e 7ebd
000000f0: 83f4 0c3c ca48 da3c 0f74 24bd 32ed 553a
00000100: 2e83 4d3d 1caf 90bd a1a5 23be 75fa 4abd
00000110: aa66 a2bd ae36 ef3d 983f 64be 035c 11bd
00000120: 1865 6b3c 2412 cfbc 7b07 2cbe 236a a1bd
00000130: bd4c b6bd 4ac7 b93d f724 dabd dc57 38bd
00000140: 4e9e eebd 2aba cabc 138c 053b 9496 98bd
00000150: 3841 14be 268d 4abe 7162 ec3c 66af cdbd
00000160: 1f0e d6bd 7d31 1abe 8bb1 f4bd 9e69 4d3d
00000170: 45c6 1abd 1599 bfb8 f7a7 44bd d816 523d
00000180: 817e d8bd 74c0 0ebd fe91 af3d 9f4c adbd
00000190: 7012 b5bc 7d2d ee3d 1668 f1bc f8ab 923d
000001a0: 14f9 c73d 4970 4cbe c69e 0dbe fd1b b0bc
000001b0: c294 1dbe e83b 08bd 1f84 c6bd 9697 0bbd
000001c0: 6942 81bd cbbf f3bd 8451 433a 9573 ebbc
000001d0: 8d28 cabc c331 abbb ae87 72bd 5738 4dbd
000001e0: 051d a63c 5f59 eebd a814 04bd 9879 09be
000001f0: f681 7fbc 173f e2bd 93b6 8d3c a524 d1bc
00000200: 005b 513c 5df8 f8bc ad5e a5bd 498d a73c
00000210: 61fb c3bc ce4c 133d 34d0 21be 4c9e 01be
00000220: caa5 b2bd cdc7 d7bc 0a94 01bd 15e2 d63c
00000230: 2176 6abe 07f6 263d 4c2e cbbc 277d a3bd
00000240: 4021 50be 1bf0 01be 8da9 d7bd 1c40 97be
00000250: 2a8f 9d3b 5785 bdbc 0dfe c03c bcd2 8fbe
00000260: 0dc2 1dbb c806 97be 64aa 6c3d 0699 00be
00000270: f8e1 1cbd 62b4 1bbd 0f84 3cbd 9e21 05bc
00000280: 420e b93d 8d4b 85bd 970b 0dbe a85c 44bd
00000290: f98a f5bc 5498 c6bd a32b 22bd 3524 93bd
000002a0: 066a d0bd 61e2 51bc 03ad 0ebd 0fba 29bd
000002b0: d166 0639 e1c1 91bd 6bd4 aebd ee45 d1bb
000002c0: cd20 37be 58e9 01bd ccde 84bc 63e1 72bd
000002d0: e4a6 6ebd 5bd5 c3bd 2c1e 53bd a5f1 213d
000002e0: 1457 10be c58e 08be a9aa 48bb db17 acbc
000002f0: 591e 57bd 152f 08bd 1e8f 2c3a 0e2d 6fbd
00000300: bd57 6dbd 8e5e e73c 3f79 823d 66e0 593c
00000310: dd2b 88bd ad5e 333e fc72 28bb 92f2 1dbe
00000320: e608 1cbd 565f f7bd 8c82 69bc 420d 1abe
00000330: 3ff4 abbc b22f 993c f6b9 c4ba 4960 32bd
00000340: eab9 da3b 5519 bc3c 0d7d 96bd 4cd6 92bd
00000350: e4ae 40bd cdaf d1bd d82a 33be 02cf 66be
00000360: 12f1 ba3d 3532 3abd 25a1 41bc 3635 a8bd
00000370: 1e04 1b3c c050 2c3d 9aed fbbc d3cb 8fbd
00000380: f9d3 3b39 d02d acbd bae4 0cbe fb87 f73d
00000390: c410 d5bd 26b2 19bc b8e3 b2bd e32e 10bd
000003a0: cbe1 41bc 998a 44bd 443b 10bd 41de 8abd
000003b0: 9ca8 b4bd 88bf 523c de49 14be b975 e23d
000003c0: 75de 8f3a eba5 dbbc dce9 79be ef1a 8ebe
000003d0: 1c77 b6bd 967b 7dbd 480c 1ebd 8a49 ebbd
000003e0: ff22 a1bd 7d56 1ebc 4abc 24bc 9b56 eebd
000003f0: 58cd 0cbd a5f4 4a3e dc2a 42bd 0028 303d
-0.10567941 -0.018804863 -0.11731613 -0.07474717 -0.118688434 0.043359544 -0.031302918 -0.098508865
0.04808732 -0.08929187 -0.07008681 -0.034724873 -0.0630519 0.027878981 0.07766271 0.0040134783
0.0013667535 -0.04649617 0.047466055 -0.07163799 -0.005267683 -0.034614664 0.046304982 0.0154382195
0.047758132 0.17894216 -0.077008165 -0.14703287 0.09925099 0.016423466 -0.06330394 -0.060672317
0.007551213 -0.012621998 -0.095289245 0.002362428 -0.07572999 0.015029727 -0.015665395 -0.026939183
-0.20730117 -0.05817351 0.24000932 -0.15530804 -0.15542482 -0.006957143 -0.042460427 -0.07703189
-0.019664628 -0.11557931 0.007420544 -0.058611635 -0.0028400538 -0.18898007 -0.09530704 0.03088623
0.0038869898 -0.0791207 0.053939756 -0.062041223 0.008603218 0.026646037 -0.040149745 0.000816065
0.05017393 -0.070646495 -0.15981151 -0.04955526 -0.07929738 0.11680351 -0.22289884 -0.03548814
0.014367364 -0.025277205 -0.16799729 -0.07881572 -0.089013554 0.090712145 -0.10651582 -0.045005664
-0.11651288 -0.024746973 0.002037768 -0.074505955 -0.14478004 -0.19780406 0.028855534 -0.1004322
-0.10451912 -0.15057941 -0.11947926 0.050149553 -0.03778674 -9.1361035e-05 -0.048011746 0.051291317
-0.10571004 -0.034851506 0.08572768 -0.0846188 -0.022103518 0.1162977 -0.029468577 0.07161707
0.09764305 -0.19964708 -0.13830099 -0.02149772 -0.15388778 -0.033260256 -0.09693169 -0.03408011
-0.06311495 -0.11901816 0.00074508064 -0.028741637 -0.02467754 -0.005224438 -0.059211425 -0.050102558
0.02027751 -0.1163814 -0.03224626 -0.1342529 -0.01559495 -0.1104719 0.017298972 -0.025530169
0.012778044 -0.030391866 -0.080746986 0.020453112 -0.023923578 0.03596192 -0.1580208 -0.12658042
-0.08723028 -0.02634039 -0.03163532 0.026230851 -0.22896625 0.040761974 -0.02480235 -0.07982855
-0.20325184 -0.12689249 -0.10530386 -0.295411 0.0048083263 -0.02313487 0.02355864 -0.28090465
-0.0024071962 -0.2949736 0.057779685 -0.12558374 -0.038301438 -0.038013823 -0.04602438 -0.008125691
0.090359226 -0.06508551 -0.13773952 -0.047939926 -0.029973494 -0.09697023 -0.039592396 -0.0718464
-0.10176472 -0.012810321 -0.034832966 -0.041437205 0.00012817538 -0.071170576 -0.08536609 -0.00638651
-0.17883606 -0.031716675 -0.01621952 -0.059296977 -0.058264628 -0.09562179 -0.051542446 0.03953709
-0.14095718 -0.13335712 -0.00306193 -0.021007469 -0.052519176 -0.033248026 0.00065826054 -0.058392577
-0.057945002 0.02824333 0.06370782 0.01329813 -0.06648991 0.17516585 -0.0025703302 -0.15424564
-0.038094424 -0.12078731 -0.014252316 -0.1504412 -0.020990489 0.0186995 -0.0015009034 -0.043548856
0.0066749947 0.022961298 -0.0734807 -0.0716978 -0.04704179 -0.102386095 -0.17496812 -0.22539905
0.09128012 -0.045458037 -0.011818205 -0.08213274 0.009461431 0.042069197 -0.030752946 -0.07021298
0.00017912676 -0.084071755 -0.13759127 0.12086483 -0.104035884 -0.009380853 -0.0873484 -0.035200965
-0.011833618 -0.04798374 -0.03521277 -0.06780673 -0.08821222 0.012863047 -0.14481303 0.1105761
0.0010976332 -0.026812514 -0.24405617 -0.27754924 -0.08909437 -0.06188544 -0.03858593 -0.11488636
-0.07868003 -0.009664175 -0.010054657 -0.116376124 -0.03437552 0.19819887 -0.047404155 0.043006897

fc2.weight f4 [128, 256]
00000000: 9922 16bd 2ad2 34bd f2a1 d2ba bd10 67bd
00000010: 1b75 293c 8aa6 583d 2baa aa3d 9de8 fc3d
00000020: 7231 483e 158d 923e 9299 583d 0ee0 283c
00000030: afd5 41bd b8a0 14be e425 7f3b 5245 963d
00000040: 0ef3 343e bfbc c33d 43e9 6fbd 4220 af3d
00000050: bcba a73d 0583 58be 2ad9 e6bd 0309 deba
00000060: c998 063e eee2 a0be 47de 733d 0765 833d
00000070: c3ad 403d 9d4f f43b 010c 8bbd 68e2 4c3d
00000080: 0f06 13be 0e0e 2f3c 53cd efbc 8fce b1bd
00000090: ffc1 2dbc cc1b 3b3c 95da 95bc e36f 623e
000000a0: bd79 27bc 7023 34bd 9235 e0bd 32e9 e23c
000000b0: 45e7 283e 598b 9c3d b238 bf3d 8282 8f3b
000000c0: 71c1 c03d d075 903d 4548 8e3d 21d0 6bbe
000000d0: e280 0a3e 2355 f3bc af5a 0b3d 62f1 0b3e
000000e0: be96 bcbe 1afd 723e 6c29 263e 7f82 3abd
000000f0: bd86 623c d7e5 07bf 2377 fd3c b888 0e3c
00000100: 574d 66be 4bae a0bb c9d7 8f3d 9b21 563d
00000110: 1eba cdbd 55ba 343e bdb0 863e 2106 75bd
00000120: 373e 4e3e e76b 9e39 f854 3f3e 1431 303e
00000130: a023 af3c 9344 cfbc 37a3 2c3e 563b 37bd
00000140: 8ecd f13d b251 c53d 921a 813e 8476 633c
00000150: 7da1 86bd 513e 023d 814d 483d 7ff4 973c
00000160: be10 0c3e 1d82 1b3e 30e5 803e 6625 593d
00000170: 8613 9d3d ef54 913d 3a1d bb3c 7470 b83d
00000180: 96ab 38bd 15dc 873e e362 963e 0d49 f83d
00000190: c6b4 e33d 8538 a23e 0944 3cbe 8c72 abbd
000001a0: e29e af3d 29dc ab3d 9c68 ff3d 0ed7 88bd
000001b0: b70f 013b b168 633e b9b2 8bbe 03c7 33be
000001c0: 4611 293e 95a7 003d d252 05be 2a7c 0c3e
000001d0: 1a7f 1c3e 2631 223e 34c8 45bd 0993 863e
000001e0: aaf5 e53d 3990 033e 41cd f4bd 9c3d b33e
000001f0: 1457 80bd 03ad ae3e 1769 69bd e4d7 0c3c
00000200: 5691 3ebc 81c8 833d 0845 a23d 8502 1a3e
00000210: 3241 a93d 9617 983e ea58 63bd d9bb 7abd
00000220: 200d 433e f85c 87bc ae1c a03c 0929 673d
00000230: 96ce bf3d ded7 8abe 61da 373d f4c4 9d3e
00000240: 25a2 32bd 2de6 c4bd 7fee a83d 1b81 5ebc
00000250: 72e5 c73d 8cfb 6e3c fb61 df3d f20f 433e
00000260: 75f1 4c3d dcde bbbc c84c 9f3d 41df 0a3d
00000270: f97d 8ebc e1b8 613d fe71 d2bc c228 3b3e
00000280: 0abf 363f dbe3 f33d f7fe 183e 2228 863e
00000290: 8e69 813d a750 ad3c cbcb d0bc 410b a7bc
000002a0: bab4 1b3d 84cf 8b3b 6284 e03d bcab 473d
000002b0: cf71 dd3d 9b7b b13d 0e16 903d 9ea6 abbd
000002c0: bcf4 a6bd 1cda 5b3d eaff 8e3d 9f56 d53b
000002d0: 8203 103e cb75 31be 499b 203c ce18 c23c
000002e0: 3c98 763e 77ad be3d 3a7e 123e 708b a83d
000002f0: 05e2 423e 2fa2 8c3d 84a9 2e3e 43f2 a53d
00000300: c4a5 803e 6ef7 863f 3f9f 463e e2a2 d23d
00000310: e289 6d3e 67ba 813f 24b0 10bc 73cd 1c3e
00000320: 9976 103e 68c6 0e3e 2418 8bbb 9f3d 34bc
00000330: 54bc 42bd 471f 143e 95d3 ee3d f42e 0b3e
00000340: 3538 5a3e 7ebd 7e3e 58ee 92bd b8e5 383d
00000350: c4dc 703e 896e 2b3d 1b04 f23d 92c4 e3bc
00000360: 0804 413e 58e8 43be 0da0 03bd b6ca 103e
00000370: bd3e afbd 45d1 583e 4ebc b1bd 9fa4 683d
00000380: 3816 063e aca8 b03c 64b5 173b 5fa4 1b3d
00000390: 6fca 3d3e 4f40 8dbc cd8e 82ba 57e3 ba3d
000003a0: 46cd df3e 703c 813d b346 ad3d de45 0e3e
000003b0: 4e9e cc3d 6c6a ec3e 3a53 d53d 67c7 e33e
000003c0: 9433 4b3e cb71 88be e023 c9bb 403d 1b3e
000003d0: 3fae fc3d 9d09 7ebc cb1e 273e 4c03 423d
000003e0: c55c 6a3c 3f11 00bd 18da 7fbd 2d8e ac3d
000003f0: ccb9 e9bd def1 c23d b278 a4bc 1b35 c33e
-0.03665409 -0.04414574 -0.0016069992 -0.056412447 0.0103428615 0.0528932 0.08333238 0.12349055
0.19550112 0.28623262 0.05288083 0.010307325 -0.047322925 -0.14514434 0.0038932497 0.073374406
0.17670843 0.09557485 -0.058572065 0.085510746 0.08189914 -0.2114373 -0.112718895 -0.0016939942
0.1314422 -0.31423134 0.059538152 0.06415754 0.047040712 0.0074557797 -0.06789399 0.050020605
-0.1435778 0.010684503 -0.02927271 -0.08681976 -0.010605334 0.0114202015 -0.018292705 0.22112994
-0.010221896 -0.04397911 -0.10947718 0.027699087 0.16494472 0.07643766 0.09336986 0.0043795714
0.09411896 0.07053721 0.06947378 -0.23028614 0.13525727 -0.029703682 0.03402203 0.13666299
-0.36833757 0.23729363 0.16226739 -0.045534607 0.013826069 -0.5308508 0.030940598 0.0086995885
-0.2249044 -0.00490359 0.070235796 0.052278142 -0.10045265 0.17649205 0.26306716 -0.059820298
0.2014092 0.00030216502 0.18684757 0.17206222 0.021379292 -0.025301253 0.16859137 -0.04473432
0.118067846 0.09634723 0.25215584 0.013883237 -0.0657377 0.03179771 0.04890204 0.018549202
0.13678262 0.15186353 0.25174856 0.05301418 0.076697394 0.07096278 0.022841085 0.09005824
-0.045085512 0.26535097 0.2937232 0.12123308 0.11118464 0.31683746 -0.18385328 -0.083714575
0.08575226 0.083916016 0.124711245 -0.066816434 0.0019693205 0.22207905 -0.27284792 -0.17556386
0.16510496 0.03140982 -0.13019875 0.1371924 0.1528286 0.15839061 -0.04828663 0.26284054
0.11228497 0.12847985 -0.119532116 0.35007942 -0.06266609 0.34116372 -0.056984987 0.008596394
-0.0116313305 0.064347275 0.07923323 0.15040024 0.08264388 0.29705495 -0.055504717 -0.0612143
0.19047976 -0.016523823 0.019544926 0.05643562 0.09365575 -0.2711782 0.044885997 0.30814326
-0.043611664 -0.09614215 0.082486145 -0.013580586 0.0976056 0.014586341 0.1090736 0.19049051
0.05003496 -0.022933416 0.07778317 0.033904318 -0.017394053 0.055107955 -0.025689121 0.18277267
0.7138525 0.11908694 0.14941011 0.26202494 0.06318961 0.021156622 -0.025487801 -0.020391108
0.03801415 0.004266681 0.1096275 0.048747763 0.10812723 0.08666154 0.070354566 -0.08381389
-0.08152148 0.053674802 0.069824055 0.00651057 0.14063838 -0.1733009 0.009802648 0.023693468
0.2408151 0.093104295 0.14305964 0.082297206 0.19031532 0.068668716 0.17056853 0.081028484
0.2512647 1.054426 0.19396685 0.10284974 0.2319713 1.013501 -0.008831058 0.15312748
0.14107741 0.13942873 -0.004244821 -0.01100102 -0.047542885 0.14465056 0.1166145 0.1359213
0.21310504 0.24876973 -0.07174367 0.045140952 0.23521715 0.04185346 0.11817189 -0.027803693
0.18849194 -0.19131601 -0.03213506 0.14139828 -0.08556888 0.2117358 -0.086784944 0.05679762
0.13094413 0.021564804 0.0023148889 0.037998553 0.18534254 -0.017242579 -0.0009960771 0.09125393
0.437113 0.06310356 0.084607504 0.1389384 0.09991132 0.46174943 0.10416265 0.4448807
0.19843894 -0.26649317 -0.00613831 0.15160084 0.12337922 -0.015505222 0.1632034 0.047366425
0.014304345 -0.031266447 -0.06246385 0.084255554 -0.11412391 0.09518789 -0.020077083 0.38126454

fc2.bias f4 [128]
00000000: 6471 5d3d 8161 00bd 43ed 67be cef4 e4bb
00000010: 89c1 983b 7cc1 eb3b 60c1 613b 348c 903b
00000020: 036c 533d bf7e 32bc 0f1b a23c 8ea2 ae3c
00000030: 5e3d 543b 3d2a 58bc 1008 743c f53e 93ba
00000040: fb87 353c 35f9 dd3c e6ec b03e 4221 383d
00000050: f471 7d3c beb2 0dbc aea2 253c f1ca 16bd
00000060: dfdd 4d3b 1a8f 813d b2d7 843c 4cb1 a23d
00000070: c717 273d 55d4 da3b 3289 ed3c a53d b5bb
00000080: 64a0 c83b 3723 8d3c e082 813c aefe 663c
00000090: 40e4 f2bb bf08 003c 0f96 bd3b b27a 613c
000000a0: 173a 08bd 8fc0 0f3d b9ae 5a3c b2cb 8c3b
000000b0: 7121 8b3b c085 fb3c ec10 933d 03f9 ad3c
000000c0: b92a 393d 8bf9 463d 2e13 873c 1d5d b73c
000000d0: 6423 603b 4485 93ba e222 e13b f948 d73c
000000e0: ac31 7d3d 0dc8 bd3b d9b6 ab3c a028 273d
000000f0: 9ab3 ae3c 44b7 af3c b9b4 cdba 0ec4 413d
00000100: 7a0c c03c 1ea1 a93c 053b 30bc d328 033c
00000110: f0a7 85bb 1450 e33b 50c3 d4bb f9af 463d
00000120: 8098 c13a 0bab 503d 6fe6 0a3d 1bfe 7a3b
00000130: 3235 f53c 6b40 34ba ce94 bd3c 5ac7 00bb
00000140: 7378 0ebc fcfe 03bf 94b2 133d ef04 9b3c
00000150: 4ac0 013d b75d 083d 827d cf3c cffb 893c
00000160: 687e 623d a813 003c 7221 293d 475e b73c
00000170: b9e7 4f3c 7f5d 5e3d 0ee0 5e3c 3cba c5bb
00000180: c867 d3bd 715c b23c c554 113d 6144 d73c
00000190: 5a6d 153d d6bb 5f3c adc9 753c 5be2 a33c
000001a0: edf9 733b e1ee f03c 5216 fe3c d79b 973c
000001b0: 2882 eb3c 46cc 1e3e 000f 3e3d 9dd3 e33b
000001c0: d6f2 003d d7ee 29bf 9ecb fdbd bfef 6fbc
000001d0: badb 363d 8dcf 81bb d9c7 4d3d 11e7 883c
000001e0: 9259 633d 9c13 f6be eb52 b53c 0635 a23c
000001f0: 263d 53bc 21b3 a83c 1962 d73c 7190 e03c
0.054063216 -0.031342987 -0.22649102 -0.006987191 0.004661743 0.007194696 0.0034447536 0.0044112448
0.05161668 -0.010894476 0.019788293 0.021317746 0.003238521 -0.013193664 0.0148945 -0.0011233973
0.011079784 0.02709637 0.3455574 0.044953592 0.015469063 -0.0086485725 0.010109587 -0.036814634
0.0031412763 0.063261226 0.016216133 0.07943973 0.04079416 0.006678144 0.028996084 -0.0055310302
0.0061226357 0.017228706 0.015809476 0.014098806 -0.0074124634 0.007814585 0.0057857106 0.013762163
-0.033258524 0.035095748 0.013347321 0.0042967433 0.00424593 0.030703425 0.07180962 0.021236902
0.04520676 0.048577826 0.016488638 0.022383267 0.0034200782 -0.0011254926 0.0068706134 0.026279913
0.06181495 0.00579167 0.020961212 0.040810227 0.021325875 0.021449693 -0.0015694118 0.047306113
0.02344345 0.02070671 -0.010756259 0.008005339 -0.0040788576 0.0069370363 -0.0064930096 0.048507664
0.001477018 0.05094437 0.033911165 0.0038298431 0.029932592 -0.0006876054 0.023142245 -0.0019650073
-0.0086957095 -0.5156095 0.036058977 0.018923251 0.03167752 0.0332925 0.025328401 0.016843705
0.05529633 0.007817186 0.04129166 0.022383822 0.012689524 0.054288384 0.0136032235 -0.0060341638
-0.10322529 0.021772595 0.035481233 0.026277723 0.03648124 0.013655623 0.015001697 0.020005396
0.0037227825 0.029410781 0.031016503 0.018506927 0.028748587 0.15507612 0.046401024 0.0069527165
0.031481586 -0.66380066 -0.123923525 -0.014644562 0.04464314 -0.0039615096 0.050239418 0.016711744
0.055505343 -0.48061836 0.022134265 0.019800674 -0.012892997 0.020593228 0.026291894 0.027412625

ln2.weight f4 [128]
00000000: 629d 753f 016b b93f ebb5 7e3f 28d5 783f
00000010: 15fa 9a3f d60a 663f f16b 713f 15cf a63f
00000020: b975 573f 393f 753f bbab 593f 13dc 613f
00000030: 5c18 743f fbc4 953f 74ce 763f a254 8f3f
00000040: 0c41 8b3f 759a 763f 235f 423f ed98 713f
00000050: 9f60 7a3f cf60 0140 f833 623f 07d6 7c3f
00000060: 7f20 993f c13d 913f 786b 7a3f 2d98 6c3f
00000070: 549e 583f d61a 923f d3a1 6e3f aead e63f
00000080: b737 5f3f 970b 7a3f 8b69 723f 4f29 663f
00000090: 2177 6e3f 0710 8c3f 6729 9e3f 9bc9 743f
000000a0: 3e68 9b3f 1578 7b3f bb73 763f 48b9 883f
000000b0: 9fc3 533f a462 613f 472f 813f 133f 6c3f
000000c0: f05a 973f f523 3d3f 864d 843f e9be a33f
000000d0: c404 bf3f e0e6 713f 723a 6b3f ace2 8d3f
000000e0: 2a72 8b3f a731 7a3f 7c21 913f 3205 443f
000000f0: 847d 7a3f 585b 813f e8b1 6f3f d65a 6e3f
00000100: 5efa 633f 2f2b 803f 6d5f 5f3f 10be bd3f
00000110: e064 8c3f 2829 743f 495e 8d3f 51ac 863f
00000120: e753 6e3f 144d 7a3f 909b 713f 121f 6d3f
00000130: 49e6 4b3f cee0 613f 6be4 753f 950c 5f3f
00000140: 5408 613f 1c02 8a3f dfd5 a53f d5eb 4f3f
00000150: 0c72 803f 51db 873f 3d09 843f 0a55 683f
00000160: 4130 7d3f 1175 793f db3d 733f 5d32 813f
00000170: b463 843f 51ab 763f 2a3b 903f e1ec 9b3f
00000180: 44f3 893f 8d2c ad3f c917 7d3f 3b86 bd3f
00000190: 6bbd a63f b2f4 973f 1e3a 783f 96eb 673f
000001a0: acf7 723f 8914 803f 5f9b 693f 72d8 743f
000001b0: ad7c 783f c768 563f 85d5 7e3f e63d 773f
000001c0: c1ce 893f b5b7 823f c473 7f3f 97cb 743f
000001d0: 91d7 813f d0a6 833f 9783 823f b989 863f
000001e0: 1fcd 893f 033f 743f 05ca 803f 1adb 743f
000001f0: 7114 8e3f dae0 fa3f 255a 7f3f 4d8a 793f
0.9594327 1.448578 0.99496335 0.9720025 1.2107569 0.89860284 0.9430533 1.3031946
0.84164006 0.95799595 0.85027665 0.8822643 0.9534967 1.1700739 0.9640877 1.1197703
1.0879226 0.9632943 0.7592642 0.9437397 0.9780368 2.0215337 0.8836055 0.9876408
1.1963042 1.1346971 0.97820234 0.924197 0.8461659 1.141444 0.93215674 1.8021753
0.8719439 0.97673935 0.94692296 0.8990678 0.93150526 1.0942391 1.2356385 0.95620126
1.2141187 0.98230106 0.9627034 1.0681543 0.8272037 0.8804114 1.0092553 0.92283744
1.1824627 0.7388299 1.0336158 1.2792636 1.4923329 0.9449291 0.91886055 1.10848
1.0894215 0.97732013 1.1338344 0.7657043 0.9784777 1.0106001 0.9363084 0.93107355
0.89053905 1.0013179 0.87254983 1.4823627 1.0968285 0.953753 1.1044399 1.0521337
0.93096775 0.9777386 0.94377995 0.92625535 0.7964826 0.8823365 0.96051663 0.87128574
0.8790333 1.0781894 1.2955893 0.81219226 1.0034804 1.0613805 1.0315319 0.9075476
0.98901755 0.97444254 0.9501626 1.0093495 1.0342927 0.9635516 1.1268055 1.2181665
1.0777364 1.3529221 0.9886442 1.4806589 1.3026556 1.187155 0.9696368 0.9059385
0.9490917 1.0006267 0.912527 0.9564277 0.9706524 0.8375363 0.99544555 0.96578825
1.0766221 1.0212313 0.9978602 0.95623153 1.0143911 1.0285282 1.0196408 1.051078
1.0765723 0.9540865 1.0061651 0.9564682 1.1099988 1.9599869 0.99746925 0.97476655

ln2.bias f4 [128]
00000000: ab80 0cbd 61a7 78bd 9ef7 11bc c357 eebc
00000010: dbcc 0ebe e556 38be e00a f4ba 69eb 19bc
00000020: 0676 5dbe 4d29 1fbd d5ee 45be bbd3 19be
00000030: 152a cebd cdd3 14bd e009 99bc f49d 58bc
00000040: b32b 9dbd 7764 ed3c ca79 8cbe 0758 f3bd
00000050: 4454 6ebd 5d31 cbbc 9c6f 24be a0dd 4abc
00000060: 78eb abbd eb0b 8c3d 08bb b4ba 2c0a 1cbe
00000070: f835 43be c519 15bd fbe2 80be f9ec a1bd
00000080: d874 fabd ead7 69bd a077 8dbc ddae 01be
00000090: a0db 7ebc 097a 58bd 43e9 a2bd 58c3 a2bc
000000a0: 6292 65bd b6f4 f43a 51c3 b83b d35f bbbd
000000b0: 8d14 3abe 941f 20be 469f a43c 9c48 dcbd
000000c0: 95cb 083d c5d8 9bbe 2ceb 1ebd c451 d6bb
000000d0: 50ed aebd 142d e1bc b90f 01be a629 94bd
000000e0: f3e8 2a3d 4d33 33bd 7b90 3e3d a43d a1be
000000f0: dca2 423b c5b9 4d3c 3e69 14bd c4a7 e7bd
00000100: 7730 fdbd d6d9 213c d468 c0bd 8a9d 413d
00000110: 0328 babc 564c 82bd 9c50 8ebd b927 603d
00000120: ad24 91bc 511f 353d 12a1 edbd ef3f 58be
00000130: faf7 71be 9be9 12be 0118 c13b 4657 1ebe
00000140: 982b 21be 3669 a63c f669 74bc df7f 0ebe
00000150: e939 b33c 6921 2abe c8ac 5ebd d0f0 06be
00000160: 95b5 c43c 56e8 68ba 030c 41bd 31a4 4fbe
00000170: 4980 e9bd 554a 47be e416 a3bd 3639 68bd
00000180: 5f64 353c aa1f c5bd f920 90bd ebbf 3abd
00000190: 6476 b6ba 752a 92bd 466b 10ba faf5 fabd
000001a0: 3ee3 10be a366 b33c 7654 32be 2275 c2bc
000001b0: b436 a0bb 4d51 45be c0b8 983c 2648 ad3b
000001c0: 9d6d d33c 5e42 aa3c 8068 393b 027b 99bc
000001d0: 583d f63c 35b8 bdbc 14ea 7fbd b12b 08bd
000001e0: c2c4 373d 3c0d 78bc e9ac c0bd c039 bfbc
000001f0: 784e edbc 9859 82bd f3bc 103c 02f8 513c
-0.034302395 -0.0607065 -0.008909134 -0.029094582 -0.13945334 -0.18001898 -0.0018618964 -0.009394505
-0.21627054 -0.038857747 -0.19329388 -0.15022175 -0.1006662 -0.0363348 -0.018681467 -0.013221253
-0.076743506 0.02897857 -0.27436668 -0.11882024 -0.05818583 -0.024803812 -0.160582 -0.012381941
-0.083945215 0.06838211 -0.001378865 -0.15238255 -0.19063556 -0.03640153 -0.25173172 -0.07906527
-0.122293174 -0.057090677 -0.017268956 -0.12664361 -0.015555292 -0.052850757 -0.079546474 -0.019868538
-0.056047805 0.0018688652 0.005638518 -0.091491364 -0.18171902 -0.15637046 0.020095479 -0.10756037
0.033397276 -0.3043882 -0.038798496 -0.006540509 -0.085413575 -0.027487315 -0.12603654 -0.07234506
0.041726064 -0.043750096 0.046524506 -0.3149234 0.0029699123 0.012556498 -0.03623318 -0.11311296
-0.123627596 0.009878596 -0.093949944 0.04726938 -0.022724157 -0.06362216 -0.06948969 0.054725382
-0.017717684 0.04421932 -0.11602987 -0.21118139 -0.23629752 -0.14346926 0.005892754 -0.1546298
-0.15739286 0.02031384 -0.014917841 -0.13915966 0.0218782 -0.16614307 -0.054363996 -0.131778
0.024012366 -0.00088847184 -0.047130596 -0.20277478 -0.114014216 -0.19461949 -0.079633504 -0.056695186
0.011071294 -0.0962518 -0.07037539 -0.045593183 -0.0013920781 -0.07137004 -0.0005509149 -0.122539476
-0.14149186 0.021899527 -0.17415032 -0.023737494 -0.0048893336 -0.19269295 0.018642783 0.005288142
0.025809104 0.0207836 0.0028291047 -0.018735413 0.030058548 -0.023159126 -0.062479094 -0.033244792
0.044865377 -0.015139874 -0.0940798 -0.023342967 -0.02896808 -0.06364745 0.0088341115 0.012815477

action.weight f4 [4, 128]
00000000: 6558 cbbb e151 92bb 5c8b 09be e2cd 87bd
00000010: 7390 85bc f4ab 093c d628 abbe f165 80bd
00000020: f7b0 b03a 0e46 64bd c7c5 1ebb ca4b 6fbc
00000030: cbe1 24be c6a0 b13c 67c0 e03c 84a8 943d
00000040: 4eae 373e 172f ebbd 93a8 89bb f6b1 87bb
00000050: 9146 723a 7245 cdbf fb6a 3d3e 277e 2ebd
00000060: 810e be3b 1f6d 32bd 8998 943d 128f 99bb
00000070: 534e 5e3b fda9 2bbe eaaa 04bb 2350 2b3f
00000080: fb21 88bd 1359 e63a 6468 a63b a7f4 fabc
00000090: f2c0 febd 8236 7cbe be61 b4be 11b2 f43c
000000a0: e3a5 b6be 7313 78bc 260e 563e 69f4 8cbd
000000b0: bf86 f0bd b507 b2bb 40ca f83c 1a05 92bc
000000c0: 1b61 b13c a619 d2bb 2995 01bc 069a 39bf
000000d0: 1f2e 2c3f c7ba 03bd 157a 383e 077b b7bb
000000e0: c123 993d d0e0 0dbe 6d37 48be 7667 84bb
000000f0: a77d b63d 28f4 0c3e 5f54 e33c 931c 71bb
00000100: 21a2 f4ba 8bd9 0dbd fe4b 8fbe afd7 c7be
00000110: c8bb 163d f41c 6d3b c022 3dbc 0484 ffbd
00000120: 2e44 b7bd cf3e 35bd d172 8fba 67b7 843d
00000130: ce7b 94bb 8fe8 1bbd 6720 883d c4dc 943d
00000140: d57f 853e ba93 6cbd 075a b73c 0197 a2bb
00000150: 1b94 b33d 6afb 44bb a6ec f43b 0810 e83d
00000160: 0c08 83bc 21b5 babd 7674 24ba f049 3abb
00000170: 001b 1ebb 9128 113e 7570 f13d e9d0 393d
00000180: 1da2 19bd 6ce9 133c ec86 dabc da8b 82bc
00000190: 178e 193c cc1f e3bc a1c8 ca3d de0b 87bc
000001a0: 98cb 4d3e 76d7 a63e c0d7 9abb caed 733c
000001b0: 2a54 a93c 042d 52bb 9452 bf3d 8e8e 3abe
000001c0: 9276 2abe b160 d23c a7aa b8bc 745c 4bbe
000001d0: 1572 19bc a63f 943d 70e1 ccbb 0f30 99bc
000001e0: 9633 a93d 852b 0abe 0cd2 14bc 0747 31be
000001f0: 8654 24be 5472 823f 201c 163d ed14 823e
00000200: a065 153d 8ac4 8cbf 951e 9b3b c6ee 48be
00000210: 69e8 953e 003d 873e 422a 32be cadb c9bd
00000220: 4014 673c bcfe 6bbe 1167 273e c927 23be
00000230: 73b3 41bf 97ef dbbe b605 c53d 3dbb 443f
00000240: 5455 4dbf 3ed4 8fbc 6476 8bbd 62d8 b6bd
00000250: 710c 53be 0567 0cbf 014e 4a3e aedf 17bd
00000260: 23be 2cbf 7f28 18be 1fa4 df3b 9a0d 1e3d
00000270: 9f2e 6a3c 8e1e d5be 1d0c d83e 403b 99bf
00000280: 5db1 1cbc 73b8 f73e 301a c13d f050 553c
00000290: 6385 24be f323 85be 71c8 fdbe 7a55 cfbd
000002a0: 0657 3bbf 6ffd b7bd 0a61 efbd 7527 47be
000002b0: a556 c73d 563f 08be 7341 3abd 434a abbe
000002c0: ff1b e6be 7a55 61bd a7b3 1ebe 61af 5cbf
000002d0: dc18 8fbe 686b 073e 869c 853e d267 593e
000002e0: 7de4 54be 1e78 50bd a24a 1cbe cc22 efbd
000002f0: d7ca f93c 282b e83b 7d93 08be 785e 6ebe
00000300: 6142 8abd fb46 68bc 5313 1cbe 2d3a 2c3e
00000310: a737 9fbf 47f1 9a3d fc52 09ba ceff 2cbe
00000320: 8928 37be c29f f5bd 7c7d 623e a285 49be
00000330: 22a5 f3bc 1f3a b6be 5da8 4dbe ff19 a4bd
00000340: 37ed 5e3c 1ad8 de3b 7b44 9a3d d4e4 05bd
00000350: e54b 08be 1a0f 6d3e 0925 233e b86b 0c3e
00000360: 3728 e1bd b075 7ebe a23b 9abc 6a97 14bf
00000370: 2fb1 2cbe 037b 1ebe 6294 46bf b826 1ebf
00000380: f7ac a2bb f145 a9be 03b1 f2bd 2190 f9be
00000390: c267 91be 1286 c4ba 5b04 e93c a522 cebe
000003a0: ccb5 0cbf 0f05 0d3b c48d 61be 7c18 4dbd
000003b0: 9c7e f6bd 1543 943e 0154 26be cddd 85bd
000003c0: 4081 3dbe 84c1 0a3d 1654 a9bc 6aa3 c4be
000003d0: 2220 54be fbf8 453f 17be 773c 14e1 9e3e
000003e0: 13ef 2cbe 1294 643e 72b6 f1be 19d5 10be
000003f0: 32d6 b3be c03b 05bf 1a9c c3bd 3592 6bbd
-0.006205606 -0.004465327 -0.13432068 -0.06631066 -0.01630423 0.008402813 -0.33429593 -0.06269444
0.0013480474 -0.05573087 -0.0024226771 -0.014605472 -0.16101758 0.021683108 0.027435495 0.07258704
0.17937586 -0.11483591 -0.004201004 -0.0041410876 0.00092420826 -1.6036818 0.18497841 -0.042600777
0.005800069 -0.043561097 0.07255656 -0.0046862448 0.0033921197 -0.16764064 -0.0020243474 0.66919154
-0.06647106 0.0017574154 0.0050783623 -0.030634237 -0.12439145 -0.24630168 -0.3523082 0.029870065
-0.35673437 -0.015141356 0.20903835 -0.06882555 -0.11744451 -0.0054330477 0.030369878 -0.017824698
0.021652749 -0.006411749 -0.007909098 -0.72500646 0.67257875 -0.032160547 0.1801532 -0.005599383
0.07477523 -0.1385529 -0.19552393 -0.004040654 0.08910685 0.13765013 0.027750192 -0.0036790713
-0.0018664041 -0.034631293 -0.27987665 -0.3903174 0.036800176 0.0036180587 -0.01154393 -0.12476352
-0.08948551 -0.044249352 -0.0010944252 0.06480294 -0.00453136 -0.038063582 0.06646805 0.0726867
0.2607409 -0.05775807 0.022381796 -0.0049618487 0.08768483 -0.003005708 0.0074744998 0.11331183
-0.015995048 -0.09116579 -0.00062734575 -0.0028425418 -0.002412498 0.14175631 0.117890276 0.045365248
-0.03750812 0.00902782 -0.026675664 -0.015935827 0.009372256 -0.027725123 0.09901548 -0.01648515
0.20097196 0.3258626 -0.0047254264 0.014888236 0.020670015 -0.0032070288 0.093419224 -0.18218443
-0.16646793 0.025680872 -0.02254231 -0.19859487 -0.009365578 0.072387025 -0.00625246 -0.018699674
0.08261792 -0.13493164 -0.009083282 -0.17312251 -0.16047868 1.019114 0.036647916 0.2540659
0.03647387 -1.0997479 0.0047338703 -0.19622335 0.29278877 0.26413727 -0.17398933 -0.098563746
0.014103949 -0.23046392 0.1634791 -0.15933146 -0.7566444 -0.4295623 0.0962023 0.768482
-0.80208325 -0.01755726 -0.068096906 -0.089279905 -0.20610215 -0.54844695 0.19756319 -0.037078552
-0.67477626 -0.14859198 0.0068249847 0.03858719 0.014293342 -0.41624874 0.42196742 -1.1971207
-0.009563771 0.4838291 0.09428823 0.013019785 -0.16066508 -0.2600399 -0.49566987 -0.10123725
-0.7317966 -0.089838855 -0.116884306 -0.19448645 0.09733323 -0.1330541 -0.045472573 -0.33455095
-0.44943234 -0.055013157 -0.1549822 -0.86205107 -0.27948654 0.13224566 0.2609598 0.2123101
-0.20790286 -0.050895803 -0.15262845 -0.11676559 0.03049223 0.0070852228 -0.13337512 -0.23278224
-0.06750942 -0.014177079 -0.15241747 0.16819067 -1.2438859 0.07565551 -0.0005238501 -0.16894457
-0.17886557 -0.11993362 0.22118181 -0.19679883 -0.029741827 -0.35591218 -0.20083757 -0.08012771
0.013606361 0.0068006637 0.07532593 -0.03268893 -0.13310201 0.23150292 0.15932097 0.13712966
-0.109939985 -0.24849582 -0.018827263 -0.5804354 -0.16864465 -0.15476613 -0.77570164 -0.6177783
-0.0049644667 -0.33061174 -0.118501686 -0.48742774 -0.28399473 -0.0014993569 0.02844446 -0.40260807
-0.549649 0.0021517908 -0.22026736 -0.05007218 -0.120358676 0.2895743 -0.16242982 -0.06536446
-0.18506336 0.033875957 -0.020669978 -0.38405925 -0.20715383 0.7733304 0.015121005 0.31031096
-0.16888075 0.2232211 -0.47209507 -0.1414379 -0.35124356 -0.52044296 -0.095512584 -0.05751248

action.bias f4 [4]
00000000: f241 093c a32e c8bc 1a9f aeba f35f 963c
0.008377539 -0.0244363 -0.0013322562 0.018356299
