checkpoints/DDPG/Target_actor/DDPG_target_actor_600.pth (torch, 93359 bytes, 10 tensors)

fc1.weight f4 [256, 19]
00000000: be6d cabe b010 593c 8f2e 253e 96a1 79bb
00000010: 8790 c13c 0338 babb 8672 df3c 9895 d23c
00000020: ad2c 96b9 0abf 603d c0f9 ee3c 8f80 513e
00000030: 19cb 0abd a0f4 133d 88a8 e5bd 4517 34bd
00000040: ce71 85bb b369 273e ef3c eb3b 7ced 073e
00000050: 3d96 df3d 8691 593d 4b4e 83bd cb1b a3bd
00000060: ac30 7b3d 9db9 813c e6fe 8dbb 0ce1 4b3d
00000070: d555 cd3d b7e7 f0bd 2532 8dbc 2075 043d
00000080: d794 8dbc 1f02 55be 9aa7 923d 05ec 2a3d
00000090: 6341 4539 7033 a63d 96e3 bfbc b705 35bd
000000a0: 1e04 7bbd 00d9 543d 31ce 3a3d c488 79bd
000000b0: 9d0e 9b3d ddbe 99bd 9ebc 0f3e 9e34 afbd
000000c0: 6626 7dbd f8af 8ebc d43e 66bc 2aef c53c
000000d0: d8cd aa3d e266 acbd dd5e f53c 96f4 563a
000000e0: c88b e53d fbb7 c53d 9709 2e3e 6743 cf3c
000000f0: 781e 01be 4bdf b33d 5208 59bd cc36 9dbb
00000100: f9bf 533d cc82 083c 036d 06be 2789 12bd
00000110: 07d8 e6bd fc0c 12bc 3e31 a9be 375a 563c
00000120: ba57 13be 3b4e 443d 66cd 66bd 0265 a13d
00000130: 03da eebd 35b4 833c d530 3f3c 4391 d8bc
00000140: be91 243d c71e 9bbb 3d5a 5b3e 211b ed3d
00000150: 1ea6 4fbe ac6e fe3d e1b7 ef3d a770 293e
00000160: 19c1 ea3d 88bf cd3e e0d7 4e3d 3a00 653d
00000170: e46e 5a3d af8e 153e e4f2 853d 1470 923e
00000180: f6ce be3d e43f a03d 9c84 5fbd 1e6a a5bd
00000190: cdc0 02be de97 e33c 32d5 49bc 71b0 ee3d
000001a0: 7de1 66bd 2fb2 afbd 3b15 dcbd 8c97 c0bc
000001b0: 4913 56be eeda efbc c668 3e3d 9b8d d43c
000001c0: 5187 81bd 9f41 e63c 8628 0a3d 62ed c83d
000001d0: cc80 70bd 6286 073b 73a2 e8bd fa10 89be
000001e0: 3632 66be b2a7 d3bc a7aa b43d 5def 553c
000001f0: fd00 77bc 26d1 d7bd 8dee 13be 2786 793e
00000200: dde8 52bd 7250 bb3a 9838 083d 8258 eb3d
00000210: 4d05 eaba d75e 55be da05 3ebc b153 803b
00000220: 8abf a23d 8257 e83d 54eb 09be 3611 8c3d
00000230: 03e2 233e a896 723d b150 66be 92c7 65be
00000240: 7e5e b7bd 7a72 ddbd 2f17 8abe 8ca1 f7bd
00000250: 6530 c0bc 6c3a ec3c 4470 10bb b324 14bc
00000260: e324 783d 0951 09be f1f2 333d b048 5cbd
00000270: 80e4 52bd 9b49 7c3d 70fb be3d 61dd 033e
00000280: 091f 9fba e2ca c13d b63c 04be ccf9 b1bd
00000290: 3586 0e3d 6570 b13b f4f4 86bc d353 52bd
000002a0: cebd 1f3d 29f9 3abe d019 2f3e 736d 94bd
000002b0: 79a1 5dbd 0d69 1bbe faca bcbc c3ea 10be
000002c0: 19c6 35be fcf1 04be a704 123d 13d8 a83d
000002d0: a0fc db3b 3f24 353d a863 5a39 96f3 3b3e
000002e0: dfe6 47bd da6a bdbd d124 c53d 29c9 163d
000002f0: e2cf 6e3e d8f6 16be 4cd6 20be e040 4cbe
00000300: 7c7b 82bd 6f24 133d da98 8fbc 9635 b1bd
00000310: 155e d33d e0c3 253e 59c4 233d b617 cdbd
00000320: fc70 66be bedf ebbd 7b4e 12bd ae38 4dbb
00000330: fbb6 973d 1af9 41be 8b53 083d 20ea 06be
00000340: ee06 85bd f3b2 8bbe 3f00 37be 970a 8b3e
00000350: 8931 6a3e 3b23 bd3b 6aa7 ad3b 55a3 5f3d
00000360: 7302 013e cc1a bcbc 5e7b 493d b42e 03bc
00000370: 8c0f c339 3971 543e f644 d0bc eb46 a23d
00000380: be24 b63d e1f0 b13c fafb 54bd 19f5 8ebd
00000390: 384e 41ba bbe5 bb3d d773 2ebe 41bc 143e
000003a0: a797 03be 760d bf3d d504 a6bb df73 4cbc
000003b0: 9587 bdbc d037 17be 84f5 ac3d 94fd 393e
000003c0: 7982 133e 9cfe 123f 07f7 8d3e ebc4 a63d
000003d0: e50e 4f3d f067 2d3d 57fc 3d3e 12f1 1a3e
000003e0: 3019 913e ac29 b8bd e711 913e 3fee 9b3e
000003f0: 8e8b 1cbd 9345 b73e 0a19 c53d 0813 f1bd
-0.39536852 0.0132486075 0.16131042 -0.0038090697 0.023628486 -0.0056829466 0.027276289 0.025706097
-0.00028643516 0.05486969 0.029171824 0.20459197 -0.033885095 0.036121964 -0.112137854 -0.043967504
-0.0040724045 0.16348915 0.0071788947 0.13274187 0.109173276 0.053117298 -0.064114176 -0.079642855
0.061325714 0.015835578 -0.004333365 0.04977517 0.10026137 -0.11762946 -0.017235825 0.03233826
-0.017282886 -0.2080159 0.07160874 0.041728992 0.00018811742 0.0811528 -0.023423951 -0.044194903
-0.061283223 0.05196476 0.045606796 -0.060921445 0.07571147 -0.075071074 0.14036795 -0.08554958
-0.061804198 -0.017417893 -0.014053065 0.024161894 0.08340043 -0.08418061 0.02995246 0.00081998983
0.11208302 0.09654232 0.16995846 0.025300695 -0.12609279 0.08782824 -0.05298645 -0.004797792
0.05169675 0.008331966 -0.13127522 -0.03577533 -0.11271673 -0.0089142285 -0.3304538 0.013083032
-0.14388934 0.04792617 -0.056348227 0.07880594 -0.11662676 0.01607714 0.011669357 -0.026436454
0.040178053 -0.0047338936 0.21421142 0.1157744 -0.20278212 0.12423453 0.11704994 0.1654688
0.11462612 0.4018519 0.050498843 0.05590842 0.05332841 0.1460521 0.06540468 0.28601134
0.093168184 0.07824686 -0.054569826 -0.08076881 -0.1276886 0.027782377 -0.012318896 0.11654747
-0.056367386 -0.08578908 -0.10746237 -0.023509763 -0.20905794 -0.029279198 0.04648664 0.025946429
-0.06324638 0.028107462 0.033730052 0.09810902 -0.05871658 0.0020679464 -0.1135911 -0.26770765
-0.22480091 -0.0258368 0.08821612 0.013057557 -0.015075919 -0.10537939 -0.14446469 0.24367581
-0.051491607 0.0014290942 0.033257097 0.11491491 -0.0017854363 -0.2083696 -0.011598075 0.003916227
0.079466894 0.11344816 -0.13468677 0.0683922 0.16004185 0.05922571 -0.22491719 -0.22439411
-0.0895357 -0.1081285 -0.26970813 -0.120913595 -0.023460576 0.028836451 -0.0022039572 -0.009041953
0.060582053 -0.13409819 0.04393286 -0.053780258 -0.051487446 0.061593633 0.09325302 0.12877418
-0.0012139987 0.09462525 -0.12913784 -0.08690223 0.03479596 0.00541501 -0.016474225 -0.051349472
0.03899937 -0.1825911 0.1709969 -0.07247438 -0.05410907 -0.15176792 -0.023046006 -0.14152054
-0.1775135 -0.12982935 0.035648968 0.08244338 0.006713465 0.04422402 0.00020827225 0.1835464
-0.04880416 -0.09248896 0.09626163 0.036812935 0.23321488 -0.14742601 -0.15706748 -0.19946623
-0.06371209 0.035923418 -0.01752894 -0.08652799 0.10320679 0.16188002 0.039982174 -0.10014288
-0.22504038 -0.11517285 -0.035719376 -0.0031314301 0.07407948 -0.18942681 0.033282798 -0.13175249
-0.06495462 -0.27284965 -0.17871188 0.27156517 0.22870459 0.005772022 0.0052994983 0.054599125
0.1259859 -0.022961996 0.049189918 -0.00800674 0.00037204882 0.20746316 -0.025423508 0.07923683
0.08893727 0.021721305 -0.051998116 -0.069803424 -0.0007374021 0.09174677 -0.17036377 0.14524938
-0.1285082 0.09328739 -0.005066494 -0.012478798 -0.02313594 -0.14767385 0.08445266 0.18163139
0.1440524 0.57419753 0.2772753 0.08143028 0.050551314 0.04233545 0.18553291 0.15131024
0.2833953 -0.08992323 0.2833397 0.30455205 -0.038219027 0.35795268 0.096239164 -0.11771208

fc1.bias f4 [256]
00000000: b5a7 ab3c 9910 28bd 4c9b febc d657 8abd
00000010: b35d c63d c4e3 54bc 59c5 6cbd 9f30 bfbd
00000020: fd4a 72bc fe84 ae3b 0802 6ebd 8d63 e13c
00000030: 5130 963d deaf 803d 84f3 1a3c 7eed 21bd
00000040: e3a0 fe3d 6085 4d3d 8a8f 54bd 03cd 803d
00000050: 2470 4e3c 8fe9 363d 7082 4b3e 4f34 bc3c
00000060: c3cf 493d 87e6 18bd 6f6f 083d 5942 b2bd
00000070: f5bb 2b3e ee17 7dbd 3aa8 c6bb d1c7 d43b
00000080: f7a5 413d d2cd c03c c081 3f3d 948d 4bbd
00000090: c68d ab3d 4ae7 34bd 265e bc3d c7e6 b53c
000000a0: 3821 7f3d f208 00bd ff3b a5bd f446 b43d
000000b0: 9781 04bd 5eab 2fbd 5a62 b23d e8ce c7bd
000000c0: 0943 1f3e 348d 44bd 4301 9cbd 25a7 24bd
000000d0: a6e8 0f3e 1cab f7bd 6349 d1bd d506 e13d
000000e0: efb4 b4bd 3daa bdbd 89cd 783d cc10 663c
000000f0: b213 aebb 21cc da3c 2e87 863d 14e8 f9bc
00000100: 23e8 893d 7e9c 07bc f3f0 fbbb f481 a9bd
00000110: c372 51bd c43e cd3c 1acf 2a3e 1d2c b23d
00000120: 3697 3c3d 131d e33d c291 933d 4922 063e
00000130: af4e a3bc 9e2e a63d 94ad 25bc d939 e23c
00000140: 39f9 903b 021d aebc 3c4b abbc 07cf b33c
00000150: fe3f c23d 0942 0a3e ee25 b03d bbde d7bd
00000160: 1eee 993c 9479 e63c 6c4a 4f3e 744c c73d
00000170: 31dd cebc c53b eebc 3e71 ca3b b07d 843d
00000180: cd82 073e 226d 123e 6f4e 653d c135 103e
00000190: c140 e63d 0860 d83c f7c9 adbd f25b ffbd
000001a0: f0b8 e2ba e046 1a3d 5ad1 28bd 064e e4bd
000001b0: 3660 b9bd 25f6 9d3d 99a9 753d 194e 843d
000001c0: 5d8e 653e 0d52 d5bc 3c5d b83d 9627 903d
000001d0: 9370 013e cae6 2b3e 055c 6dbd 0fa5 00bd
000001e0: 690a e63d b361 6d3d 6680 af3d 9775 563d
000001f0: 268a 88bd f602 0c3e 2d3c f03d e60e adbc
00000200: f93c dd3d 7ead b73b 4f25 0fbc c824 6a3d
00000210: 7418 35bd fba1 4c3e 06fe 0f3d e5c2 043e
00000220: 6dc7 e63b e88d b63c ac1b e93c e886 923c
00000230: 7bd2 4abe 19da 003e b8f1 7fbc b930 f23d
00000240: b23a d03d 2ce4 f83d d6cd ba3d cb0b 8cbd
00000250: 18f0 0d3e c63c 223e 4a17 e83d 1102 cc3d
00000260: a50e a43d 56d6 f23d f3f4 fabc 1cbb 3bbd
00000270: fdbd af3d cb89 abbd 1cd6 ca3d 5bbc 53bc
00000280: ea64 73bd 3952 abbd 7464 e0bd a754 ab3d
00000290: 46c4 4c3d dec6 143d 769f 943b bdb2 4d3d
000002a0: 8cba bebd 05b5 6d3d 39d5 54bd f52d 553d
000002b0: e977 f23d d042 dd3d cedd db3d 685e a6bd
000002c0: 0624 293d 7d6c 0bbd 25f0 103e ad3e c0bc
000002d0: b74d 31bc 42d2 c4bc 761e 15bd 602b cd3d
000002e0: df69 1c3e 9f20 01bd a051 4b3d b575 89bb
000002f0: 493e b03d 77ab b8bc 4448 183d b993 c3bd
00000300: c0a7 1f3d 7dcf 3dbd 9155 ba3c 4646 103e
00000310: 1fa2 a33d 91ce 21bd aa51 f03c 29c5 05be
00000320: 3cdb fe3c 0b19 c4bc f6d2 c1bd 185e 4d3b
00000330: a0ca 0d3e a678 a5bd 5c63 3ebb db56 88bc
00000340: 91b0 cf3d 59ec 3e3d 0cd5 ac3d 1a82 76bc
00000350: bebe f2bd d029 24bd 3814 8c3d d409 48bd
00000360: 2964 453d 245a 133e cbbd 67bd 09a9 aabd
00000370: 0c10 81bd f84d 093e 1dec acbc ec1c 473e
00000380: fbb6 0d3e 3cbb 423e 32f5 c1bd 54ac 18bd
00000390: b88f c6bd 1fc9 01bc 796f 303e ed99 cd3d
000003a0: a5b6 a9bc ab83 fa3c 7bb7 07bd 4bd7 87bc
000003b0: 8598 423d 94b5 943a 3cd2 983d e744 b63b
000003c0: e646 ea3d e94f 5c3c 3b4c b13d 52d2 483c
000003d0: b073 3b3e 0844 483c 9e44 c4bc 1526 57bd
000003e0: 27a1 163e a8de 013e 6c9c 853b ef19 133d
000003f0: e44d 123d fd21 36bd a1fb c13d 6e22 3dbd
0.020953992 -0.041031454 -0.03107991 -0.067550346 0.096858405 -0.012993757 -0.057805393 -0.093354456
-0.014788386 0.0053259125 -0.058107406 0.02751329 0.073334344 0.06283544 0.009457473 -0.03953313
0.124330305 0.050176024 -0.051894702 0.06289103 0.012599979 0.044656333 0.19873977 0.022974161
0.049270403 -0.037329223 0.033309396 -0.08704061 0.16770919 -0.0617904 -0.0060625346 0.0064935465
0.047277417 0.023535643 0.0467546 -0.049695566 0.083766505 -0.044165887 0.09197645 0.02220477
0.06228754 -0.03125853 -0.08068084 0.08802596 -0.03235015 -0.042888038 0.08710165 -0.09756261
0.15552916 -0.047986224 -0.07617428 -0.040198464 0.14053592 -0.120931834 -0.102190755 0.10987631
-0.08823573 -0.09260986 0.06074289 0.014042091 -0.0053124065 0.026708664 0.06568752 -0.030506171
0.0673373 -0.008277057 -0.0076886355 -0.0827674 -0.051134836 0.025054343 0.16680565 0.0869982
0.046042643 0.1108953 0.072055355 0.13099016 -0.01993498 0.0811436 -0.010112185 0.027615475
0.004424241 -0.021254066 -0.020909898 0.021949304 0.09484862 0.13501753 0.086009845 -0.10540529
0.018790301 0.028134145 0.20243233 0.09731379 -0.025251957 -0.029081235 0.0061780503 0.064692855
0.1323349 0.14299443 0.055983003 0.14083005 0.112428196 0.026412979 -0.08485787 -0.12468709
-0.0017297547 0.037665248 -0.04121528 -0.11147694 -0.09051554 0.07712964 0.059976194 0.064602084
0.22417589 -0.026040101 0.09002158 0.070388004 0.126406 0.16787258 -0.057949085 -0.031407412
0.11232454 0.0579545 0.08569412 0.052358236 -0.06666975 0.13673005 0.117302276 -0.021125268
0.10802645 0.0056053987 -0.008736922 0.057163984 -0.044212773 0.19983666 0.035154365 0.12964971
0.0070428164 0.022284463 0.028455578 0.017886594 -0.19806854 0.12583198 -0.015621595 0.11825699
0.10167445 0.12152895 0.09121291 -0.06838187 0.1386112 0.15843496 0.11332567 0.09961332
0.08010606 0.118572876 -0.030634379 -0.04583274 0.08581159 -0.08375891 0.09904119 -0.012923325
-0.05942241 -0.08365292 -0.1095666 0.083657555 0.04999187 0.036322467 0.004535611 0.050219286
-0.09312925 0.05803396 -0.051961157 0.05204578 0.11839277 0.10803759 0.10735665 -0.08123475
0.04129412 -0.03403901 0.14154108 -0.023467386 -0.010821751 -0.02402604 -0.036406003 0.10018039
0.15274762 -0.03152525 0.04963839 -0.00419494 0.0860563 -0.022542698 0.037178293 -0.0954966
0.03897834 -0.046340454 0.02274588 0.14089307 0.079899065 -0.039503638 0.029335815 -0.13063492
0.031110398 -0.023937723 -0.09464066 0.0031336602 0.13846827 -0.080796525 -0.0029050922 -0.016642978
0.10141099 0.046612117 0.08439073 -0.015045667 -0.118527874 -0.040078938 0.06839794 -0.048837498
0.048191223 0.14389855 -0.056577485 -0.08333022 -0.06301889 0.13408649 -0.021108681 0.19444627
0.13839333 0.19016737 -0.094705954 -0.03727372 -0.09695381 -0.007921486 0.17230023 0.10039125
-0.020716975 0.030580362 -0.033133965 -0.016582152 0.047508735 0.0011345618 0.07461974 0.005562413
0.11439304 0.013446786 0.08657118 0.0122571755 0.1830585 0.012223251 -0.0239585 -0.052526552
0.14709912 0.12682593 0.004077485 0.035913404 0.035718814 -0.044466008 0.094718225 -0.046175413

ln1.weight f4 [256]
00000000: 1b4a 903f 3b45 6a3f 9f8e 943f 259b 763f
00000010: e944 803f 3d23 8c3f c1c2 803f 0cc0 6a3f
00000020: b8f7 803f 4598 623f 7c82 823f a4a0 9b3f
00000030: 431d 7d3f 687d ae3f cd62 6d3f b7ae 653f
00000040: db6c 803f 660f 773f a9a8 743f 4949 923f
00000050: 37db 9f3f e2a7 8e3f 10a5 a83f 2e13 683f
00000060: 0211 983f 6c82 7d3f 8be1 983f 9c87 813f
00000070: cbc7 8a3f e7c8 923f f8f9 ad3f 0a1e 9c3f
00000080: dfe6 9e3f ce6f 9d3f e506 6d3f 66cd 8d3f
00000090: 4545 8c3f 58e3 713f c3fb 723f 36a0 713f
000000a0: 833e b83f d5fe 713f 8e88 663f 87ee b03f
000000b0: bc22 673f c961 693f e44b ab3f 3fb1 ac3f
000000c0: d545 883f 5da6 8c3f 16bc 623f f563 873f
000000d0: 65fe 873f f131 a33f 08f0 693f 8264 9a3f
000000e0: 64b6 753f 633e 873f 39d9 943f 65b1 6c3f
000000f0: 0813 5c3f 783b a23f f7ca a43f 1272 803f
00000100: cb2c 8c3f 64e5 8a3f c8de 703f fc7b 813f
00000110: b6e7 7e3f 1f5d 763f 65eb a83f f6e2 aa3f
00000120: 78a9 793f f44c 6c3f 0099 843f 8e19 b83f
00000130: 43ac 773f 2af4 5c3f 724c 863f b97d 6a3f
00000140: 3932 793f eef4 703f 0933 7b3f 3fcf 9b3f
00000150: bfe6 7a3f 23a5 c63f ba73 a13f c965 6e3f
00000160: b6b0 6c3f 7c4b 973f ec4d 9f3f 2178 7c3f
00000170: 2c54 623f c406 513f fa6e 7c3f bd50 923f
00000180: 4fe4 8e3f 4e1e e33f 8641 8c3f 8919 a23f
00000190: c998 933f 4e57 823f 9ea8 bd3f 10ad 9b3f
000001a0: 7d2e 813f e396 963f e84d 6c3f 5f5f 863f
000001b0: 6ad7 863f f2aa 7a3f 4902 4d3f 32f7 843f
000001c0: 84ae 8a3f 85ee 793f 30a8 c13f cbb6 a83f
000001d0: be61 8b3f 4b32 ef3f e837 6f3f cfda 853f
000001e0: b85e 903f 3c75 893f 2dd3 733f d48d 7e3f
000001f0: 41f1 883f c791 893f 601c 963f fade 983f
00000200: e13e 9b3f e538 783f 7b55 b93f b75e 9b3f
00000210: d1e8 8a3f d843 9a3f c3f7 823f 90b5 873f
00000220: c0ef 743f 8432 9e3f d93a 793f cbe1 813f
00000230: c3af 7f3f 3688 913f ca3d 9a3f da76 ac3f
00000240: cc18 723f f907 6f3f a911 9b3f 8235 6c3f
00000250: 70a9 753f 1bb5 ac3f ac1a 963f 49e8 973f
00000260: 8247 c33f 8f69 903f 00f7 813f 7873 6a3f
00000270: c825 863f 3039 833f 0dd5 993f 0ac6 703f
00000280: 5729 713f bde4 813f 7906 a33f 4589 833f
00000290: 1354 603f 4123 633f ee31 673f a4ff ab3f
000002a0: e431 633f b15b 853f 5a01 823f a66f 743f
000002b0: 5fa9 953f 139a 933f 4ebf 983f 8e55 783f
000002c0: b37d 8e3f 7c4f 8c3f 92f3 aa3f e7c5 5e3f
000002d0: 7090 503f cfcb 8d3f 6028 6f3f 53b2 8f3f
000002e0: 3430 853f 744b 803f e6d0 903f cfd0 923f
000002f0: 9766 823f 9efd 823f 4f8d a13f e711 763f
00000300: b83e 6c3f 21ba 5c3f f60f 9f3f f0f2 833f
00000310: a6ec 663f 9fdb 663f 7212 7e3f 6bf0 893f
00000320: 9030 683f 2bd0 8f3f 9dee 843f 28b8 833f
00000330: 4b63 b53f 652c 9d3f 114f 923f b569 893f
00000340: 1869 a53f 0b3b 933f 377b 9c3f ded1 6a3f
00000350: 4627 723f 2578 713f 4da7 893f 8dd3 823f
00000360: aaf5 893f 22ff bf3f beb5 783f bcbc 7d3f
00000370: dab1 9e3f d988 ab3f ebca a93f 4db9 f93f
00000380: cb71 7d3f 6b83 953f b1a0 843f be55 993f
00000390: 24ac 643f a0b0 713f 2110 b93f d5c0 763f
000003a0: 7de4 743f 4eb7 8b3f 3607 8d3f 34de 743f
000003b0: d03c 773f d7dc 823f 8352 7a3f 54b6 713f
000003c0: 472f 833f 5149 813f b169 9b3f 6edf 993f
000003d0: 7704 983f b92b 9d3f ade9 753f acf8 883f
000003e0: 7772 de3f 134f 843f 1922 813f 3fec 683f
000003f0: 8acf 933f 11bc 603f 0c8e bc3f ec92 6f3f
1.1272615 0.9151189 1.1606025 0.9633048 1.002103 1.0948254 1.0059434 0.9169929
1.0075598 0.88513595 1.0196071 1.2158399 0.98872775 1.3632021 0.92728883 0.8971972
1.003322 0.9650787 0.95569855 1.1428615 1.2488774 1.1144984 1.3175373 0.90654266
1.188019 0.99027133 1.194383 1.011951 1.0842222 1.146756 1.359191 1.2196667
1.2414206 1.2299745 0.92588645 1.1078308 1.0958639 0.94487524 0.9491541 0.9438509
1.4394077 0.9452947 0.90052116 1.3822793 0.90287375 0.91164833 1.3382535 1.3491591
1.0646311 1.098827 0.88568246 1.057738 1.062451 1.2749616 0.91381884 1.2061923
0.9598143 1.0565914 1.1628791 0.9245818 0.8596654 1.2674398 1.287444 1.0034811
1.095117 1.0851254 0.9408994 1.0115962 0.9957231 0.9623584 1.3196837 1.3350513
0.97524214 0.9230492 1.0359192 1.4382799 0.96747226 0.86310065 1.0492079 0.9159809
0.9734226 0.94123733 0.9812475 1.2172621 0.9800834 1.5519146 1.2613442 0.9312406
0.9245714 1.1819911 1.2445655 0.986208 0.88409686 0.8165095 0.98606837 1.1430889
1.1163424 1.7743623 1.0957496 1.2664043 1.1531001 1.0182893 1.4817083 1.216219
1.0092312 1.1764797 0.92306376 1.0497855 1.0534489 0.9791709 0.8008161 1.0387938
1.0834508 0.97629577 1.5129452 1.3180784 1.0889204 1.8687223 0.9344468 1.04574
1.1278906 1.0738902 0.95244104 0.9943516 1.0698625 1.0747613 1.1727409 1.1943047
1.2128564 0.96961814 1.4479212 1.213828 1.08523 1.2051954 1.0231861 1.0602283
0.9567833 1.2359166 0.9735542 1.0147032 0.99877566 1.1369693 1.2050107 1.3473771
0.9456909 0.9337154 1.2114764 0.92269146 0.95961666 1.3492769 1.172689 1.1867763
1.5256197 1.1282214 1.0153503 0.9158244 1.048028 1.0251827 1.2018143 0.94052184
0.94203705 1.014793 1.273635 1.0276266 0.8762829 0.8872567 0.9031056 1.343739
0.88748 1.0418607 1.0156662 0.9548286 1.1692313 1.1531395 1.1933382 0.97005546
1.113211 1.0961757 1.3355582 0.87020725 0.81470394 1.1077822 0.9342098 1.1226295
1.0405335 1.0023026 1.1313751 1.1469973 1.0187558 1.0233648 1.2621249 0.96121067
0.922832 0.8622151 1.2426746 1.0308514 0.90204847 0.90178865 0.99246895 1.0776495
0.906991 1.1235403 1.0385319 1.0290575 1.4170927 1.2279173 1.1430379 1.0735384
1.2922697 1.1502393 1.2225102 0.9172648 0.94591177 0.9432395 1.0754181 1.022081
1.0778096 1.4999735 0.97152317 0.9911611 1.2398026 1.3401138 1.3265051 1.9509674
0.9900176 1.168073 1.0361539 1.1979291 0.89325166 0.94410133 1.4458047 0.9638799
0.95661145 1.0915315 1.1017826 0.95651555 0.9657717 1.0223645 0.9778215 0.94418836
1.0248803 1.0100499 1.214163 1.202131 1.1876363 1.2278968 0.96059686 1.0700889
1.7378682 1.0336632 1.0088531 0.9098548 1.1547711 0.87786967 1.4730849 0.9358356

ln1.bias f4 [256]
00000000: b726 51bd aadf a0bd 70e0 433d a562 b4bc
00000010: 9401 97bc 7c41 cd3c d295 c6bd d929 90bd
00000020: 2f72 253c b8d6 edbd 0a51 58bc 5332 1bbe
00000030: ac62 7ebd 9044 0abc 36a0 c8bd f792 b0bd
00000040: db93 afbc ee15 59bd b6ab ccbd f02c 48bc
00000050: 194f acbd 616c 49bd 8b3b e73b 17ad e6bd
00000060: 6c3c dabd 2b8e acbd e29a c3bc 02c2 7cbc
00000070: 7cb6 dfbc a777 42bc 7170 b3bb d0d7 03bd
00000080: 6cf5 5fbd 6024 033b 7f31 cebd a648 65bd
00000090: a9f0 81bb 656a cbbd 53c4 87bd b62c 3dbd
000000a0: 6e06 e2bb 2d5d a0bd e5ae 92bd c549 c0bc
000000b0: 3b93 07be 1783 dabd 07a2 27bd 3131 283d
000000c0: e2c0 acbd ccdf f2bc e182 f7bd 3c1c c8bd
000000d0: 6e0c c6bc 230c 033d 60b0 aebd a0d0 5fbc
000000e0: 7b40 64bd 0391 c43a d4a2 9bbc 7265 cdbd
000000f0: 02f8 febd 6661 163d edad 57bd c0f4 a1bd
00000100: 731d e5bd 44f5 90bd 9889 a5bd 503a 80bc
00000110: c629 d7bb 962e 54bd 5f6a 623c 8ed2 b9bb
00000120: 2f6e c7bd 1815 cebd 099a e13b 979c 09bb
00000130: 699d aabd c8e3 4fbe c29a 1b3d e394 dfbd
00000140: d7a5 05be 2f9b d1bd 0a54 a5bd f856 00bd
00000150: b529 7fbd 1d5c bc3a 4eac 8bbc 0e63 91bd
00000160: 2632 bcbd 201c 4fbc 1280 5e3c 2343 1fbd
00000170: 5938 e3bd 0a53 20be 9022 9dbd 9565 ebbd
00000180: 7937 ca3b fd92 ba3d 8427 0dbd bb4c 06bd
00000190: 8054 0cbc f9e8 98bd 4f3d 463c f948 ff3b
000001a0: adaa 9ebd c83b 4cbc 0831 aebd 36a5 f3bb
000001b0: fe72 f33c 5bba 4bbd 6ed7 64be eba2 1fbb
000001c0: 461f 8bbd 19fa 16bd 6896 3abd 3370 f33c
000001d0: b006 90bd 791f b23d f69f 6fbd 2692 ca3c
000001e0: f91d 2f3d c079 31bd b7cb 6bbd 7279 02be
000001f0: 256e d1bb 6a7f 60bd a887 fdbc 491c f13c
00000200: 718d 86bd 609d 8dbd 82f5 043c a7f9 5abd
00000210: 9467 05bd 0661 573b f314 f5bc 19de 5dbd
00000220: a180 8bbd e1df 913c 1e71 1dbd 10d9 66bd
00000230: f706 52bd 7274 90bd 5ff2 02bd 6f99 b9bb
00000240: 85a0 ddb9 3604 84bd 8b98 edbc c8fe edbd
00000250: 9e32 38bd 99d6 4cbd ea50 083d 9dca 5abd
00000260: bea6 3bbd ce7b 9b3a 57eb 48bd d39f f8bd
00000270: 44a5 01be 306b 363c 5168 c93b 4aa9 a6bd
00000280: 65b7 36bd e3d0 98bd 8dd2 dd3b 2f7a 23bc
00000290: 0f0c a6bd 767f babd dd6f e8bd eacc 37bd
000002a0: 2cca d0bd 9e2f b6bc bc26 17bd 52b9 febd
000002b0: f8ac f2ba 6130 2b3d 2708 87bc 9013 d3bc
000002c0: 58dd 93bd a87b 7a3c b1b8 b2bc 8f76 b4bd
000002d0: 961a 6cbe 79aa 953d 3bbe 22be 7eb0 12bd
000002e0: dd3e 1e3c 7596 75bd 7a31 87bc 49a6 f9bd
000002f0: 6ced 82bc 2d65 b4bd 99d6 47bc 733c 18bd
00000300: c309 99bd 6740 febd 821f 16bd f7d5 42bb
00000310: a3a5 04be 6e04 73bd 9d18 67bd f0ee 24bd
00000320: 0311 00be 9f84 c3bc 8420 07bd 1a9a 1dbe
00000330: cc5e ad3b c4f7 173d ec64 613c 1ce3 ecbc
00000340: 7cee f7bc 84d6 a8bd b96a 82bd 7635 fdbd
00000350: 907d 35bd 2a66 dcbd 7b09 acbc 5cee 95bd
00000360: 716b e2bd 0512 863c da4c 1bbd 0726 9dba
00000370: ffd3 6f3d cd3b 8f3c 0100 d5bc 4a69 3a3e
00000380: 46b0 abbd af63 8ebb 9edd 03bd 26fb 763c
00000390: f90f 9ebd 77f6 62bd f599 823d b0fd dfbd
000003a0: 5d12 ebbd 1828 9ebd 8c74 4c3d 1423 71bd
000003b0: c095 49bd 87bb 90bd fcc0 e9bc c512 cbbd
000003c0: e67e b5bd acff a5bd b255 46bc 53c3 21bd
000003d0: d6b6 443d 5d68 dfbc d2f3 1ebd 97c8 33bd
000003e0: af7c 4d3d ecfe 61bd 1dd1 acbd f6a1 94bd
000003f0: 66b6 69bd 6a93 05be b2a2 9dbc 0508 19bd
-0.051062312 -0.078551605 0.047821462 -0.022019694 -0.01843337 0.02505564 -0.09696545 -0.07039232
0.010098024 -0.1161322 -0.013202915 -0.15155916 -0.06210582 -0.008439198 -0.09796183 -0.08621781
-0.021432808 -0.05299943 -0.09993689 -0.012217745 -0.08413524 -0.049175624 0.0070566586 -0.11263483
-0.10656056 -0.08425554 -0.023877565 -0.015427114 -0.027308695 -0.011869348 -0.0054760505 -0.032188237
-0.054677412 0.0020010695 -0.100680344 -0.055977486 -0.0039654565 -0.099324025 -0.06629243 -0.046185218
-0.006897739 -0.07830272 -0.07162265 -0.023472676 -0.13239758 -0.10669535 -0.040926006 0.041062538
-0.08435227 -0.02964773 -0.1208551 -0.0977101 -0.024175849 0.031993996 -0.085297346 -0.01366058
-0.055725556 0.001499683 -0.018998541 -0.10029115 -0.124496475 0.03671398 -0.052656103 -0.079080105
-0.111872576 -0.07078031 -0.080828846 -0.015652806 -0.006566259 -0.05180224 0.013819306 -0.005670852
-0.09737813 -0.10062617 0.0068848175 -0.0020997876 -0.08330805 -0.20301735 0.037989385 -0.1091707
-0.13051544 -0.10234677 -0.0807267 -0.03133294 -0.062295634 0.0014370714 -0.017049935 -0.07098971
-0.091892526 -0.012640983 0.013580339 -0.038882386 -0.11094732 -0.15656677 -0.07672608 -0.114939846
0.0061711636 0.09110067 -0.034461513 -0.03278802 -0.008565068 -0.07466311 0.012099578 0.0077906814
-0.077473976 -0.012465425 -0.08505446 -0.007435466 0.029717918 -0.04973827 -0.22347805 -0.0024358581
-0.06793074 -0.036859605 -0.045553595 0.029716587 -0.070325255 0.08697409 -0.05850216 0.024727892
0.042753194 -0.043329 -0.057567324 -0.1274164 -0.006391304 -0.05480901 -0.030948475 0.029432433
-0.065699466 -0.069147825 0.008115174 -0.053460743 -0.032569483 0.0032864227 -0.029917216 -0.054166887
-0.068116434 0.01780695 -0.038437955 -0.05635935 -0.051276173 -0.0705346 -0.031969424 -0.0056640427
-0.00042272 -0.06446116 -0.029003402 -0.11620861 -0.044970147 -0.050009344 0.03328029 -0.053415883
-0.045813315 0.0011862458 -0.049052563 -0.12139859 -0.126607 0.011133954 0.0061464687 -0.08137758
-0.044608492 -0.07461717 0.0067694844 -0.009977861 -0.08107769 -0.091063425 -0.11349461 -0.044873156
-0.10194811 -0.022239503 -0.036902174 -0.12437691 -0.0018514683 0.041794185 -0.01648338 -0.025766164
-0.07219952 0.015288271 -0.021816583 -0.08811676 -0.23057017 0.07307906 -0.1589288 -0.035812847
0.009658542 -0.05995794 -0.016503084 -0.121899195 -0.015982352 -0.0880836 -0.01219716 -0.037167024
-0.07472565 -0.124146275 -0.036651142 -0.0029729584 -0.1295381 -0.059330396 -0.056419957 -0.04026693
-0.1250649 -0.02386695 -0.032989994 -0.15390816 0.0052908417 0.037101522 0.013756972 -0.028916888
-0.030265085 -0.082440406 -0.06368012 -0.123637125 -0.0443092 -0.10761674 -0.021000614 -0.07320854
-0.11055649 0.016366014 -0.03791509 -0.0011989482 0.058551785 0.01748457 -0.026000978 0.18204227
-0.08383231 -0.0043453793 -0.032193772 0.015074527 -0.0771789 -0.05541083 0.06377021 -0.10937059
-0.11478112 -0.07722491 0.049915835 -0.058871344 -0.04921508 -0.07067018 -0.028534405 -0.099156894
-0.088620946 -0.08105406 -0.012105392 -0.039492916 0.04802593 -0.027271444 -0.038806744 -0.04389247
0.050167736 -0.055174753 -0.08438323 -0.07257454 -0.057058714 -0.13044515 -0.019242618 -0.037361164

fc2.weight f4 [64, 256]
00000000: 9ee9 50be c277 753d 0226 f23d 9cee ecbd
00000010: bbac 653d 92de 45bd 23cd 2c3e fb71 29bc
00000020: eb38 c23d 605b 3cbe ad99 23bd 3b80 36be
00000030: 424c eabd aafa 05be 5561 a23d 957e a53d
00000040: 4a01 ae3d 2201 a6bd 56ff 0b3d 0068 62bd
00000050: e6b0 54bd a028 303d 1a13 593d c9cb b63c
00000060: cd26 2ebc 8559 e43d 3117 35be db6f fc3c
00000070: a5ed 2d3e 1fae 703e 7c35 f6bd ed84 a83c
00000080: b8ae 7fbe dc27 e63c 88b6 503d b01a e03d
00000090: 48ef 09bd 45f5 b23c 2ae7 ac3b 17ea 2bbe
000000a0: 190b eabd 7553 0abd be02 d53d 8f27 623e
000000b0: 818a b43c bbca fd3d ea17 b7bd de2e 973e
000000c0: cb45 7cbd 1bd3 273e b157 1ebd 936a d53c
000000d0: a12b 43be 351b 823e cfed 6a3c e200 563e
000000e0: a60a 8e3d f8b6 853e 4ed9 003d c858 babd
000000f0: a6f5 90bc 2f21 593e 22d2 65bc 4e03 033e
00000100: a38b 5fbd 124f 3e3e d3fa 8b3e 32ef 1d3d
00000110: 3576 1c3e d31d 0c3e 52fc 60be 28d1 29be
00000120: 7052 13be 97a5 2bbe 2389 00bd 785a 4f3e
00000130: 508f 13bb 63aa 5dbd d135 e73d b583 1d3d
00000140: 112d 283d d1af 803d 0685 643d a634 8d3e
00000150: 7190 873d 17e6 c23e cd29 a93c 51b4 363c
00000160: ce51 dc3d 8852 943d 3993 8ebd ed21 2e3d
00000170: 8fba 54be 6022 523a 2bf2 f3bd 460a 3dbe
00000180: 8781 57bd bf43 b83e d025 343e 3fc6 763c
00000190: 4e0b 6cbd 0088 353c 6ec5 7a3e 7829 403e
000001a0: 4c46 73bd 812a debd 81ce e03d a686 e73d
000001b0: 7f48 8a3d 6f9a 6d3d 09b3 8d3c b962 97bc
000001c0: 3ab0 2f3d f08a f73c 8d90 b43e 0ee0 cebd
000001d0: bc1f 673e 160f 6a3e 3047 acbc 79d1 773d
000001e0: eb55 713d b3a7 76bd 3484 8a3d 372b cdbb
000001f0: 2a3e 6c3e 8843 983e e3bf 71be 3505 883e
00000200: a206 39bd 2fe0 433d fb78 9b3e c428 803d
00000210: f3c2 5a3e 0d09 48be 9c58 2cbe 774b 143d
00000220: 235b 06be cf93 a43d 5f85 69bd 658c 2f3e
00000230: ac67 4c3e b963 133e 17b2 2b3e dc8a c03c
00000240: 1a24 5fbc c9b6 073c 66d2 263c f02f 5e3d
00000250: f1bd c1bc b9f9 923d ef9c 0ebe 5d71 c7bd
00000260: 0bea 31be 0355 1cbd a5af 83bd 8d22 63bd
00000270: 1689 eebd 5f44 9e3d 895d 123e fbe6 f93d
00000280: 970e 57bd e342 cc3c 7ad1 e63d 8658 85bd
00000290: b0be 173d f23d b83d c271 6ebe 5b16 a9bd
000002a0: 8cac 9f3d 741d e8bd 9b4a 1c3d b004 0e3e
000002b0: 862e 28be b46d fcbc 165f 5fbe 7f7e b8bb
000002c0: f218 f0bd 8657 8e3c 99f3 2a3d 77b8 56bd
000002d0: 7fd4 413d 4f38 9f3d 87db e6bd 782b 603e
000002e0: 49a3 c73d 7f10 863a e0e9 ec3d d2eb 3fbe
000002f0: cd2e f1bd 5e58 97be 68a2 15bd fbb7 033c
00000300: f718 80bc 448b 36bd a72b 743b db1a 413d
00000310: c844 273e d882 e13d 8fde 92bd e2ee 493e
00000320: febc cbbc c462 8fbc 8bf7 f53d 18be bebd
00000330: c550 e8bd 4590 5f3e 5e86 933d e464 a93d
00000340: bd33 afbe c2ef fd3c 6051 a23d 2837 003d
00000350: f9e5 623d aaf8 8c3c ad43 91bb 230b 77be
00000360: 31c7 8abd a7a0 ce3e ccec 863e 5287 3d3d
00000370: bac2 6a3e 9c43 4a3e 83b3 713e c6ba 6a3e
00000380: d34c 2a3e 4cca 963d 2ba8 013e 1863 e33d
00000390: aa94 9f3d 3296 dfbd f47b 9d3e 9743 c63c
000003a0: d1d5 69bd 2daf a2bd fa73 1c3e 5e89 0a3c
000003b0: a341 ed3d 6331 453d b0ca 86bc 8af1 96bd
000003c0: febc b53d 6324 9d3e 74c2 22be feeb a5bd
000003d0: 409f 09bd 5dec 803d 3be2 143e 0793 8b3e
000003e0: da0a 3bbd d1a5 cabd afa2 9a3c 043d 15be
000003f0: 3c7f 42be babb 0cbc 8e3a a8be ac22 313e
-0.20401618 0.059928663 0.11823656 -0.115689486 0.05607293 -0.048307963 0.16875128 -0.0103421165
0.094835125 -0.18394232 -0.03994148 -0.17822354 -0.11440326 -0.13083902 0.07928721 0.08080784
0.084963396 -0.08105685 0.034179054 -0.055274963 -0.051926516 0.043007493 0.052996732 0.02231397
-0.010629368 0.11149887 -0.17684628 0.030815056 0.16985185 0.23503922 -0.1202192 0.020571196
-0.24968994 0.028095178 0.050955325 0.1094259 -0.033675462 0.02184547 0.0052765803 -0.16788517
-0.11427898 -0.033770997 0.10400914 0.22085403 0.0220387 0.123921834 -0.08940108 0.29527944
-0.061589997 0.16389124 -0.038657848 0.026051795 -0.19059612 0.25411382 0.014338925 0.20898774
0.06935625 0.26116157 0.031457238 -0.09098965 -0.01769526 0.21204065 -0.01402715 0.1279423
-0.054576527 0.1858485 0.273398 0.038558193 0.15279467 0.13683252 -0.21971253 -0.16583693
-0.14386916 -0.16762386 -0.031380784 0.20249355 -0.002251584 -0.05411757 0.112895615 0.038455684
0.041058604 0.06283534 0.055790924 0.2757923 0.06619347 0.3806617 0.020649815 0.011151389
0.107577905 0.07242304 -0.06961674 0.042512823 -0.20774291 0.00080159865 -0.11911424 -0.1846095
-0.05261376 0.35989186 0.1759255 0.015061914 -0.05762797 0.011079788 0.24489376 0.18765819
-0.059393212 -0.10847951 0.109768875 0.11304979 0.06752109 0.058008607 0.017297285 -0.018479692
0.042892672 0.030217618 0.35266533 -0.10101329 0.225707 0.22857317 -0.021030039 0.060502503
0.05891983 -0.060218524 0.06763497 -0.006261255 0.23070589 0.29739022 -0.23608355 0.26566473
-0.04517234 0.04782122 0.30365738 0.062577754 0.2136343 -0.19534703 -0.16830677 0.03620478
-0.13120703 0.08036005 -0.05701196 0.171434 0.19961423 0.1439351 0.16767155 0.023503713
-0.013619447 0.0082833255 0.010181999 0.054244936 -0.023650141 0.07176537 -0.13927053 -0.09738419
-0.17374437 -0.03816701 -0.06429986 -0.055452872 -0.11647241 0.077278845 0.14293493 0.12202259
-0.05250415 0.024934238 0.11270423 -0.06511025 0.03704709 0.0899619 -0.23285583 -0.08256217
0.077965826 -0.11333743 0.038157087 0.13868976 -0.16423997 -0.03081403 -0.21813616 -0.005630314
-0.11723508 0.017375719 0.04173622 -0.052422013 0.047321793 0.07774412 -0.1127234 0.21891582
0.09747941 0.0010228305 0.115680456 -0.18742302 -0.11776505 -0.29559606 -0.036531836 0.00803947
-0.015636904 -0.044566408 0.0037257464 0.047144752 0.16334832 0.110112846 -0.07171356 0.19720033
-0.024870392 -0.01750315 0.12010106 -0.09313601 -0.113435306 0.21832378 0.07203363 0.082711965
-0.3421916 0.030998114 0.07925677 0.0313026 0.0553951 0.017208416 -0.0044331164 -0.24125342
-0.06776274 0.40356943 0.26352537 0.04627163 0.22925845 0.19752353 0.23603635 0.22922811
0.16630869 0.07362804 0.12661807 0.11102885 0.07792027 -0.10917319 0.3075863 0.024202151
-0.057088677 -0.079435684 0.15278617 0.008455602 0.11584785 0.048142802 -0.01645407 -0.07370289
0.08873938 0.30691823 -0.1589449 -0.081016526 -0.03359914 0.06295083 0.14539425 0.2726061
-0.045664646 -0.09894908 0.018876402 -0.14574057 -0.18993849 -0.008589679 -0.32857174 0.17298383

fc2.bias f4 [64]
00000000: 325f 7e3c 217a 8fbc 1ab4 f33b 6830 1bbb
00000010: 66ad 5fbb a316 9f3c 94e6 c83c 92a2 613b
00000020: f3d8 8d3b ea1f 1ebd 06f7 a6ba ad06 653c
00000030: 3d28 e73c 9448 56bc 2144 d03c ecca ea3c
00000040: 670a 383d 5c33 a6ba 05a2 373c 01dd 9d3d
00000050: cb7e 56bc 436d 473b a825 8e3c 32c2 623d
00000060: af5d 9a3c 2e4b b03c 5193 1dbc 7689 243c
00000070: 6835 243d 4842 3e3c 8a08 7a3b 8d56 9fbb
00000080: 9afa 8b3c 53e7 883c 480a 4c3d 199a 693c
00000090: cf34 883c e5c2 6bbc a094 85bc 4960 fe3b
000000a0: c905 6d3c ccfd 503d 793e c83c 2842 243c
000000b0: 3923 663c 4b5d b43b 4e49 373b 0741 603b
000000c0: f361 163d 2323 7d3b af6b 963d 6b78 b93c
000000d0: 1c01 acba 7d91 4b3a 0735 c53c 0e68 6e3c
000000e0: 417a 183d 8533 ee3c fd58 1a3b d4c5 043c
000000f0: 243b cb3c 54b2 67bc 3e15 2bbc 5ccd e43d
0.015525626 -0.01751429 0.0074372413 -0.0023679975 -0.0034130453 0.019419974 0.02452401 0.0034429175
0.004328841 -0.038604654 -0.0012738414 0.013978642 0.02821743 -0.013078827 0.025423111 0.028661214
0.044931795 -0.0012680101 0.011208062 0.07708169 -0.013091753 0.0030430115 0.01735194 0.05536098
0.0188435 0.021520223 -0.0096176425 0.010042539 0.040089995 0.011612482 0.0038152062 -0.0048626126
0.01708727 0.016711866 0.049814492 0.014257931 0.016626744 -0.014389728 -0.016306221 0.007762943
0.014466711 0.05102329 0.024443852 0.0100255385 0.014046484 0.0055042855 0.0027967277 0.0034218447
0.036714505 0.003862568 0.07344758 0.022640428 -0.0013122889 0.0007765515 0.024073137 0.014551176
0.037225965 0.0290773 0.0023551576 0.0081038065 0.024808474 -0.014141638 -0.010442076 0.11171982

ln2.weight f4 [64]
00000000: b330 9e3f 9a4e 8e3f 10b0 a43f 9048 973f
00000010: 2d79 bd3f 8970 b43f 79ea 903f c886 843f
00000020: 766e a63f 361b 873f 482e 813f ac8d 8d3f
00000030: 5c3e 8f3f 0b07 703f 075d 973f e1ba c63f
00000040: b817 b13f 3919 c33f 4395 823f d2ef 903f
00000050: d59f 783f 9eb7 973f e8ad a73f 51cb 923f
00000060: 44d2 753f 17dd 913f 1639 693f 8461 943f
00000070: 7570 8e3f 8b03 a23f 1eae 693f 7ff5 893f
00000080: 35da 823f d33d 973f 865b 863f d529 853f
00000090: acf6 a83f ecd0 723f c31e 583f b69b a03f
000000a0: c020 893f 0030 8a3f 49ac 753f f2c6 903f
000000b0: 1ce8 8f3f 9c4d a93f a3ca 813f 7f97 a33f
000000c0: 26b2 953f 7f15 813f 9b46 b73f df56 873f
000000d0: cb5c 833f df1a 763f bf5d 873f d965 793f
000000e0: 8106 9a3f 41b7 ad3f 79d0 843f e5c5 803f
000000f0: 03f4 8a3f 6a3d 983f e7d9 873f fa89 993f
1.2358612 1.1117737 1.286623 1.1819019 1.4802605 1.4096843 1.1321555 1.0353632
1.300246 1.0555179 1.0092249 1.105886 1.1190906 0.93760747 1.1825265 1.5525781
1.3835363 1.5242072 1.0201801 1.1323187 0.97118884 1.185291 1.3099947 1.1468297
0.96023965 1.1395596 0.9110273 1.159226 1.1128069 1.2657331 0.91281307 1.0778044
1.0222842 1.1815742 1.0496681 1.0403391 1.3200278 0.9485004 0.8442194 1.2547519
1.071312 1.0795898 0.9596601 1.1310713 1.1242709 1.322681 1.0139965 1.2780608
1.1694992 1.0084685 1.4318422 1.0573386 1.0262693 0.9613475 1.0575484 0.9742103
1.2033235 1.357155 1.0376121 1.0060393 1.0855716 1.1893742 1.0613374 1.1995232

ln2.bias f4 [64]
00000000: a668 e83a fb20 d9bd 7623 4bbd a35e 183d
00000010: 61a1 74bd 80d2 09be 7d6c c4bd dd0f b8bb
00000020: 454c 1abe bce5 06be 4e66 06bd e139 9abc
00000030: 9c91 133d 4e45 3cbe a07c 8e3d 752e 213d
00000040: fcc5 163d a7fd eabb 409a 16be ab88 b63d
00000050: 8f82 c5bd f6bf 3dbc 7cf4 61bd af4c 8e3d
00000060: 0e57 a53c 62e6 c3bc 2930 b2bd d2b8 8bbd
00000070: a9ad f3bc 8958 9fbd 9c77 62bb 5f5f c2bd
00000080: 5f95 103c 9c5e 5cbd 948b 8d3d a79f 82bb
00000090: f8cc 50bd 39e3 25be 7f3b 67be bb1f fdbb
000000a0: 0f70 c7bc 31a5 783c a047 7ebd 666e 96bd
000000b0: d647 863d efb6 0f3d f74d 52bd 9d1e 9dbd
000000c0: e235 69ba b71c 243b 5f6a 103d b469 45bc
000000d0: 17fb 4bbc 91e3 0c3c 2b6d a939 ecd2 dc3b
000000e0: cf4d 543d 9d30 70bd 5c34 523b f273 f03c
000000f0: 7f20 0fbe 524e 93bd 0c8b a5bc 6e3f ed3c
0.0017731383 -0.10601994 -0.049594365 0.037199628 -0.059724215 -0.13459206 -0.09591005 -0.0056171254
-0.15068157 -0.13173574 -0.03281241 -0.018826427 0.036027536 -0.18385813 0.06957364 0.039350946
0.036809906 -0.007171351 -0.14707279 0.08912786 -0.09644043 -0.011581412 -0.0551648 0.0694822
0.020183112 -0.023913566 -0.08700592 -0.06822361 -0.029745894 -0.077805586 -0.0034556156 -0.09490847
0.008824675 -0.053801164 0.06911388 -0.003986317 -0.050976723 -0.1619996 -0.2258129 -0.00772473
-0.024345426 0.015176103 -0.062080026 -0.073452756 0.0655667 0.03508657 -0.051343884 -0.07671855
-0.0008896274 0.002504153 0.035257693 -0.012049127 -0.012450001 0.008599178 0.00032315528 0.006739011
0.051832017 -0.05864011 0.0032074666 0.029352162 -0.1397724 -0.07192673 -0.020207904 0.02896091

action.weight f4 [4, 64]
00000000: a973 9c3c b0d9 cebe 05dc 033e 5dc6 88be
00000010: 9172 373f 934b 253f 4f5b 37bc e94e e03c
00000020: a33a 393b 72ed 56bd d2b6 3a3d b455 173c
00000030: cfa6 98bd 4303 283e 40a6 953c 5953 f1bb
00000040: 1e4b 053d 3e13 11bf 7354 9a3e 2681 c83d
00000050: 6cb3 a43e abfe 3d3e ec87 84bc 101d 97bc
00000060: 72ea 003e 22d8 d3bd 05bb e6bd e268 253b
00000070: 62ce 1dbd ab1e 85be 49ac 793e a327 f13d
00000080: ca76 42bd e9aa 3e3c c666 8cbe 2bea 923c
00000090: e88f 08bc 0fe0 d03d 678d b93d adb7 2a3d
000000a0: a9af 843d 386c e93c bbc2 85bc 5ab0 be3c
000000b0: d13b 3a3d 39b2 0bbd b3d2 193e 1052 863c
000000c0: 6412 cf3b 3952 01be 6744 643c bcea 303c
000000d0: 03e8 1dbe 9ece 1ebe 91f3 033e ce8f a9bd
000000e0: 3137 d4bd c24c 8e3c c2bc 1fbe 0a0b eebd
000000f0: cab5 2d3d 2263 d4bd c253 3dbe 6604 1aba
00000100: c21a 063f 75d6 803e 0436 0a3f dbf7 31bf
00000110: 4447 823e 6fb5 8e3e 196f 7abe 4c65 8f3e
00000120: e0a7 99be a37b dd3d 6730 023f 38ca d13e
00000130: 62db c03e 2ebc f2bd dea2 b33e 5853 21be
00000140: ccbe 143e b56b 013f 29e7 80be 796d 67be
00000150: e430 cbbe 6bd8 0c3e 0d70 333f d4c8 98bd
00000160: c491 d73d 246a 3ebe e4c7 c93e 61db eabe
00000170: 3abc e33d e4e8 4b3e 17fc 10bd b6e2 60be
00000180: e885 34bf 2f03 44bf eef3 45be 1ebc c9bd
00000190: ffd5 93bd c721 0fbe 603d 5c3d d40f 973e
000001a0: 74f1 183e 99a1 a9be 8bd8 bbbb e805 73be
000001b0: f76c c93e 4ab9 06be 7f2e 263e b0f2 803e
000001c0: 588b f3bd 17fa 0bbe 9b75 bdbe 2ae4 323e
000001d0: 921c 003e 7b9b a73e 4c2b 9b3e ec75 ffbe
000001e0: c076 d93e f03e 613e fab9 bf3e b2e9 38be
000001f0: 8c94 8abf 0057 ea3e c673 e3bd faed a4be
00000200: 2660 333f 24b5 9e3d 1d19 953e 5909 15bf
00000210: 104d cfbd 05db 8cbe dae2 263f 28eb 22be
00000220: 042a dc3d 65bd 883e a49a 3bbe 668f 9abc
00000230: 461f 623e 265e 81bd 2ae7 c2bd 0067 3dbf
00000240: 8c2b 8b3f aa4b b73e b0d5 c1be 2b5b 0e3f
00000250: bc06 223e 7e55 06bf f09f 86be b5a3 0e3e
00000260: 6812 fb3d c6f6 1bbf b26b e83b 73d9 cbbe
00000270: c9dd dd3e 7564 703e 82f5 893e 1334 21bf
00000280: 1a09 20bd fff2 dabd 17a4 09bc 638c fdbe
00000290: 6cd7 01bf 4e8b 9bbe d64b 76bd e510 90be
000002a0: 11fe 8dbe 2fdb c43d 3947 77be e678 74be
000002b0: 6574 9a3e dc44 88bf 23a7 a3ba c11d 1a3f
000002c0: d55d bcbe 1cc0 2c3f a5e7 2fbe 31c9 dfbe
000002d0: 6e9a 4abf 7ba0 cebe bde8 e5be 6f9c ee3c
000002e0: 0906 0a3e 4759 41bf 5cab a83d 4e2c 22be
000002f0: 9f4e ed3d c957 313e 7940 473f 15f8 953e
00000300: 4059 44be c80c 833d 5f54 52bf 090d df3d
00000310: 570c 253e bffc d1bb c276 0f3e d4a1 e13b
00000320: 9b11 223f 47ff a83e 454d 843e 296a 493f
00000330: 4e71 6abe 0b4a a2bd 7996 7bbe 9185 bc3e
00000340: 1e6c 34bf cafb 593e 06b1 1abe 506e 7ebe
00000350: 2de3 edbd e028 3b3d 3dfe 033f afc9 12bf
00000360: ee4d 1ebe aa36 1a3f 0b83 99bc 966a 0c3d
00000370: 6cae dd3e e240 893e 56cb 84be b72f 9f3d
00000380: 953d 5f3e 3ef2 b53e 28f3 ac3d cc28 bebd
00000390: 9cab cb3e ed75 38be e6ca 5ebd 62e5 20bf
000003a0: eb06 bd3e 113b 8abe f1a8 a93b a7ea bb3e
000003b0: 1678 b1be 3942 ca3e 4ebc 353e 9915 64be
000003c0: 3ad2 523e 5b7e 653d c30b fe3e b3b4 24be
000003d0: 92e6 cc3e 4e1d c9bd 779b b53e 3983 a2be
000003e0: 706d 11bd 5d26 0d3e 8fc8 c73c 9bd8 373f
000003f0: 9e1c 433e 4ec5 2e3e 8249 e0be a82b 54be
0.01909812 -0.40400457 0.128769 -0.2671384 0.7165919 0.6456844 -0.011191203 0.027381377
0.002826371 -0.05247254 0.045584507 0.009236742 -0.07453691 0.16407494 0.01826775 -0.007364672
0.03254234 -0.56669986 0.30142555 0.09790258 0.32168138 0.1855418 -0.016178094 -0.018446475
0.12589434 -0.103439584 -0.1126614 0.0025239517 -0.0385269 -0.2599996 0.24382128 0.11775138
-0.047476567 0.011637428 -0.2742216 0.017933926 -0.008335091 0.10198986 0.090601735 0.041679073
0.06478817 0.028493986 -0.016328206 0.02327745 0.0454672 -0.034105513 0.15021782 0.016396552
0.006319331 -0.12629022 0.013932324 0.010798153 -0.15420537 -0.15508506 0.12885882 -0.08279382
-0.103620894 0.017370585 -0.15599349 -0.11623199 0.042409696 -0.103704706 -0.18488982 -0.0005875289
0.5238458 0.25163618 0.5398867 -0.6951882 0.25444996 0.27872798 -0.24456443 0.2800697
-0.3001089 0.108145975 0.50855106 0.40974593 0.37667376 -0.11852299 0.35085195 -0.1575445
0.14525908 0.5055497 -0.2517636 -0.22600354 -0.39685738 0.13754432 0.7009285 -0.0746018
0.105258495 -0.18595177 0.39410317 -0.45870498 0.11119886 0.1991306 -0.03539666 -0.21961483
-0.70516825 -0.7656736 -0.19331333 -0.09850334 -0.07218551 -0.13977729 0.05376947 0.29504263
0.14935857 -0.33131102 -0.005732601 -0.23732722 0.39340946 -0.1315662 0.16228674 0.25185156
-0.11891812 -0.1366962 -0.37003788 0.1746985 0.12510899 0.3273581 0.3030647 -0.49894655
0.42473412 0.21996665 0.37446576 -0.18057898 -1.0826583 0.457695 -0.111060664 -0.32212812
0.70068586 0.077493936 0.29120722 -0.5821739 -0.101221204 -0.2751085 0.651899 -0.15910017
0.10750201 0.26706997 -0.1832071 -0.018867206 0.22082242 -0.063167855 -0.09516747 -0.7398529
1.0872664 0.35799915 -0.37858343 0.5560786 0.15822881 -0.524742 -0.26293898 0.13929637
0.1225937 -0.6092342 0.0070929164 -0.39814338 0.4333327 0.23475821 0.2694512 -0.62970084
-0.03907118 -0.10690879 -0.0084009385 -0.4952117 -0.5071933 -0.3037972 -0.060130917 -0.2813789
-0.277329 0.096121185 -0.24148263 -0.23874244 0.30166927 -1.0646014 -0.0012485724 0.6020165
-0.36790338 0.67480636 -0.17178209 -0.43708184 -0.7914189 -0.40356812 -0.44904128 0.029127328
0.13478865 -0.7552685 0.08235809 -0.15837213 0.115872614 0.17318644 0.7783275 0.29290834
-0.19174671 0.06398922 -0.8215999 0.10891158 0.16117989 -0.0064083035 0.14010146 0.0068857465
0.63308114 0.3300726 0.25840202 0.7867761 -0.22894785 -0.07924279 -0.2456912 0.36820653
-0.70477474 0.21287456 -0.15106592 -0.24846768 -0.11615596 0.04569328 0.5155981 -0.57338995
-0.15459415 0.6023966 -0.018739244 0.034281336 0.43297136 0.26807314 -0.25936383 0.07772773
0.21800835 0.3553638 0.08444816 -0.09285125 0.39779365 -0.18013735 -0.054392718 -0.6285001
0.3691934 -0.2699819 0.00517761 0.36702463 -0.3466193 0.3950365 0.17747614 -0.22273864
0.20588008 0.056028705 0.49618348 -0.16084556 0.4001966 -0.098200426 0.35470173 -0.3174074
-0.03550476 0.13784166 0.024387626 0.7181489 0.19053885 0.17067453 -0.43806082 -0.20719779

action.bias f4 [4]
00000000: a021 88bc 3705 2abb 8c04 9bbb 16fc 7fbd
-0.016617596 -0.002594305 -0.0047307666 -0.062496267
