checkpoints/DDPG/Target_actor/DDPG_target_actor_400.pth (torch, 93359 bytes, 10 tensors)

fc1.weight f4 [256, 19]
00000000: c4e3 b7be e5f5 243c ee56 cd3d d22d 85bc
00000010: 1e78 80bc 7f7f aabc 7020 45bc 97e8 a13c
00000020: d05c 623a a37f 293d 4b58 f63c 7ad7 463e
00000030: 7f0a 42bd f8ee 0c3d 8bdc 1dbe bc56 6bbd
00000040: a71a 14bc ca99 193e 2b4f 0d3c cb6c 063e
00000050: 75d8 043e f445 613d 3d46 0bbd c306 18bd
00000060: 579a 6b3d 5a07 6f3d 9061 393b 4a43 533d
00000070: 46ae ee3d 3bc2 f0bd 94bc 813a e025 473d
00000080: a68d 04bd 574a 07be fdff b33d 83ec 3c3d
00000090: 31ec 863c e96d bd3d 419d 02bd 0a66 26bd
000000a0: 521d f039 d800 873d d120 b83d 39f4 78bd
000000b0: 1bc6 f53d 9f98 97bd f38f 0a3e 8661 a3bd
000000c0: d755 7cbd 42b5 9dbc 8ca6 07bc ff02 633b
000000d0: ceed 4f3d c093 a0bd 2904 9fbb 680f d83b
000000e0: 4ea6 c53d 5279 a23d 307e 133e 3ffe 213d
000000f0: 22d3 91bd 1711 503d 3423 93bd c04c 2bbd
00000100: ac5b 573d c626 fb3b 9768 dabd 507e 81bc
00000110: 1998 bfbd 7cbf 803c 56ec 15be 1780 913d
00000120: ca3d f4bd e2d9 4c3d 46ea 01bd c321 973d
00000130: 630e 9dbd 6cf8 43bc caf9 9c3b 7b85 4dbd
00000140: 4355 acbc a54a 863c 12ad 1c3e ee9c f73d
00000150: b91f 4bbe 885d d03d 0487 b23d d5fb 0c3e
00000160: faaf bc3d 4522 a03e 5f2b 673a ecdd 083d
00000170: c869 633d 100c fd3d d12c cf3d 5a60 813e
00000180: 77a4 d93d e876 973d 0868 0cbd 0d06 4ebd
00000190: 3e8c 1fbe 3296 6e3d 1ef4 aabc 9c51 d33d
000001a0: d611 42bd 8088 b6bd 466a cfbd f3ef 6dbc
000001b0: d2b7 2bbe 62e9 38bb 6438 633d bc20 e63c
000001c0: 113f 5ebd 610f 183c d6d9 9dbb 50fb bd3d
000001d0: 9637 03bd ab5d 163d 9ba2 5abd ba29 80be
000001e0: fc8d 28be 37e9 ebbc b100 993d 3471 d23c
000001f0: 7aec a6bc d20f b7bd 3bff 06be 0896 3e3e
00000200: f25e adbd e45c 663c eb48 ca3c 669b 023e
00000210: 6228 5ebd 08b0 35be b9f6 bcbb 6ad5 803a
00000220: a169 f63d 5a95 303e 7667 e9bd 916f 023e
00000230: aa17 253e 8a6c 6d3d 0a12 4ebe 7d61 69be
00000240: 5e69 84bd 4ff5 acbd 92a4 9ebe d25b ebbd
00000250: a122 6239 ad3b 703c ade6 af3c 9c98 a5bc
00000260: 7a48 183b 08a1 0abe 25d9 813d a013 59bd
00000270: 0919 eab9 66e2 a23c 0cc0 133e 78f0 f83d
00000280: 2681 deba d897 e33d d3fa cbbd cc11 a1bd
00000290: dc1f 523d 65ab 603d 2b93 913b 2aba 0ebd
000002a0: 99a7 1e3c b512 2abe 5982 ed3d a7da 63ba
000002b0: a11f 31bd 4ef2 3bbe 0b76 e6bb 19b8 b7bd
000002c0: e717 04be 4cce 9fbd 8e28 033d e8dd ad3d
000002d0: 87f9 e83b 3d8e 1d3d f1a4 3a3c 795b 3c3e
000002e0: 15cb 15be 7a1a a1bd 95f4 c53d e0de fe3c
000002f0: b137 6f3e c266 13be 264f 24be 3996 32be
00000300: 8315 b3bd 56e2 b63c ea59 df3c 0cd5 a6bd
00000310: 248b 173e 1f75 233e 60db 233d f35a a0bd
00000320: e009 5abe 40cb c2bd f054 63bc 23e9 983c
00000330: 2d4b 8d3d c89a 2bbe e111 fc3c 7717 e1bd
00000340: 80a0 84bd e85f 62be 65e4 40be 45af 5c3e
00000350: 98d2 2c3e 2c26 163d 7482 d4bd 7114 af3d
00000360: 6613 e33d 53a2 10bd 3200 073d a033 2cbb
00000370: ebd0 c6bc 82d2 433e b861 cabb bebf 14bc
00000380: 0ae7 943d f74a f33c 8fbb 8bbd f249 a2bd
00000390: 52d4 1b3d 89c6 923d a98e 27be 12e7 ee3d
000003a0: 7c69 1fbe 11b3 c03d ba02 04bd 8b4f 90bb
000003b0: 8157 47bc e98f 24be 8e93 933d 016e 283e
000003c0: 2f2a 063e 8da1 163f 5b53 553e 6914 8c3d
000003d0: 5142 5f3d 100e f03c 3977 2a3e 5ab2 203e
000003e0: 694c 883e 4027 34bd 12a2 6b3e 2e6f 343e
000003f0: e0e2 10bc d320 6b3e 4b49 a03d 46f9 d6bd
-0.3591596 0.010068391 0.10026346 -0.0162572 -0.015682276 -0.020812748 -0.0120316595 0.019764228
0.0008635046 0.04138149 0.030071398 0.19418135 -0.04737329 0.034407586 -0.15416162 -0.057455763
-0.009039558 0.15000072 0.008624832 0.13127439 0.12973197 0.054998353 -0.03400253 -0.037115823
0.057520237 0.05835662 0.0028286912 0.051577844 0.11654334 -0.117557965 0.000989812 0.048620105
-0.03236165 -0.13211952 0.0878906 0.046123993 0.016470047 0.09249479 -0.03188825 -0.040624656
0.00045798213 0.06591958 0.08990634 -0.060779784 0.12000676 -0.07402157 0.13531475 -0.079775855
-0.0616053 -0.01925147 -0.008279454 0.0034639237 0.050763898 -0.07840681 -0.004852791 0.0065936334
0.09650861 0.07933296 0.14403605 0.03954911 -0.071203485 0.05079755 -0.07184449 -0.04182124
0.05257766 0.0076645343 -0.1066448 -0.0158073 -0.09355182 0.015716307 -0.14640936 0.07104509
-0.11925848 0.050012477 -0.03171756 0.073794864 -0.0766876 -0.011961084 0.0047905194 -0.050176125
-0.02103675 0.016393015 0.15300396 0.12090479 -0.1983632 0.1017409 0.087171584 0.13767941
0.09213252 0.31276146 0.00088184135 0.033414766 0.055520803 0.12355816 0.1011597 0.25268823
0.10627072 0.073957264 -0.0342789 -0.05029874 -0.15580842 0.058248706 -0.020868357 0.103183
-0.04738029 -0.08912754 -0.10127692 -0.01452254 -0.1676934 -0.002821528 0.0554737 0.02809178
-0.054259364 0.00928101 -0.004817228 0.0927645 -0.032035433 0.036710422 -0.05337773 -0.25031835
-0.16460413 -0.028797729 0.07470835 0.025688745 -0.020376433 -0.08938564 -0.131833 0.1861192
-0.08465375 0.014060233 0.024692973 0.12754592 -0.05423773 -0.17742932 -0.0057667163 0.0009829227
0.12031866 0.17244473 -0.11396687 0.12737872 0.16122308 0.05796484 -0.20124069 -0.22791095
-0.0646541 -0.084452264 -0.30984932 -0.11492123 0.0002156594 0.014662665 0.0214723 -0.020214371
0.0023236559 -0.13537991 0.06340245 -0.05299723 -0.0004465061 0.019883346 0.14428729 0.12155241
-0.0016975745 0.11112946 -0.0995995 -0.078647226 0.051299915 0.054850955 0.0044425926 -0.03484551
0.009683513 -0.16608699 0.115971275 -0.00086919445 -0.043243054 -0.1835415 -0.007033115 -0.08970661
-0.12899743 -0.0780302 0.032021098 0.08489591 0.007109824 0.038465727 0.011391864 0.18394269
-0.14628251 -0.07866378 0.09665791 0.031112134 0.23361088 -0.14394668 -0.16045818 -0.17440118
-0.087443374 0.022324722 0.027264554 -0.08146104 0.14799172 0.15962647 0.040004134 -0.07829847
-0.2129283 -0.09511423 -0.013875231 0.018665856 0.06899104 -0.16758263 0.030770244 -0.10990804
-0.064759254 -0.22106898 -0.18837126 0.21551235 0.1687721 0.036657497 -0.103764445 0.08548821
0.11087684 -0.035311054 0.03295917 -0.0026275888 -0.024269542 0.19123271 -0.0061761998 -0.009078918
0.0727063 0.029698832 -0.06822883 -0.0792426 0.03804428 0.07166774 -0.16363014 0.11665167
-0.15567583 0.09409154 -0.032229163 -0.0044040135 -0.012166859 -0.16070522 0.07205878 0.16448213
0.1310203 0.58840257 0.20832579 0.068398304 0.054506604 0.02930358 0.16647042 0.15693036
0.26620796 -0.043982744 0.23011044 0.17620537 -0.008843154 0.2296174 0.078264795 -0.10496764

fc1.bias f4 [256]
00000000: 28a4 f43b 97bf cabc 2b4f cfbc eacc 2fbd
00000010: 8b4c 983d 4c49 83bb 8b08 39bd 6eb3 8ebd
00000020: 6ddf e03a a581 bb3b cd88 14bd 76da 383c
00000030: 88ff 763d d49a 3a3d d216 f03a a59e babc
00000040: ac2f c93d a4fd 0a3d 3ad2 25bd 67e9 533d
00000050: 8cc9 ae3c a22f 263d 2004 203e 0746 6a3c
00000060: b147 263d 775f fe3a 8eb6 103d 1930 78bd
00000070: 2891 153e 5e2c 92bd ef81 a03b e657 053d
00000080: 9756 3c3d 1743 aa3c 2de7 f43c 4ac4 4ebc
00000090: 4d15 613d f49d f6bc 3955 b83d a863 9f3c
000000a0: f1aa 4b3d 107b 70bc 4ee5 4bbd cbbb d13d
000000b0: bb44 39bd 9cb0 1dbd 68f1 ca3d 2410 a2bd
000000c0: b757 123e 5c00 86bd 1105 71bd ac61 1bbd
000000d0: 19fd fa3d 4666 cdbd ecdc 85bd 2499 3c3d
000000e0: f6a1 80bd 2140 95bd cc55 603d 411f 4f3c
000000f0: 29a2 ec3a 906b 093d fecf a53d 836c 22bd
00000100: de21 3f3d c89b 8cbc bbf1 d9ba 58cf 88bd
00000110: 68ad 11bd 984e ce3c a4fc 1c3e 4fcb 973d
00000120: 90d7 1d3d 4fb7 ea3d 96da 863d 88c6 ef3d
00000130: d052 c3bc f02c 923d a589 953b c7db b73c
00000140: 0f72 a5bb d13f ffbb 4a20 373c 4501 943c
00000150: 4233 b33d 30c8 073e 7675 4e3d aca4 c3bd
00000160: 55d4 b83c e1a9 0c3d 8bd9 2f3e 3ed1 953d
00000170: d6f1 51bc 4eae 26bd 06e9 833b 00ba 533d
00000180: bc47 d63d 6c85 e93d 2263 8a3d 59b2 0a3e
00000190: 3760 e33d 9457 8f3c f29b 95bd c453 d3bd
000001a0: 1f15 afbb 5ee3 0f3d 8554 c7bc e862 bebd
000001b0: ddec 8fbd 656a c03d a924 6f3d f9d4 523d
000001c0: 522f 5f3e 16a6 55bc d86e b23d b60f 713d
000001d0: 6dda aa3d 8a3b 0f3e 3fed 2ebd d194 8abc
000001e0: 586a b23d 96ed 803d 492c 7a3d fd61 2e3d
000001f0: ffcf 57bd 8138 e93d d35c f73d 96cb cbbc
00000200: 39b1 bc3d 7c67 de3c 689d 15bc 3874 443d
00000210: 62b3 00bd bb6f 1d3e 7653 ce3c ea4a dd3d
00000220: ddbf 983b da86 f73c f82b 1a3d d4fa 523b
00000230: 62e8 0abe 0b45 dd3d 24d1 1cbc 1b75 de3d
00000240: 20df b73d dff9 c43d 49f3 8f3d 7461 75bd
00000250: 902a 003e d7cb 123e f9b6 b93d 98b3 9f3d
00000260: 0636 713d 280c 173e 5478 0bbd c7c0 08bd
00000270: 87c1 9e3d be1a 43bd 2f11 933d 8eca f33a
00000280: e0d6 afbc 6c20 88bd 60b2 aebd 7852 a63d
00000290: 6cae 2a3d 923d 323d daf9 4a3b b070 063d
000002a0: a487 6bbd 2136 793d f87a 2cbd 18ff 353d
000002b0: e761 cc3d 3e78 c53d bbe9 d43d a044 73bd
000002c0: 27cd 073d c237 04bd 0746 f73d ce31 93bc
000002d0: 71f2 95bc 07f1 f4bb 11c9 2cbc d712 ac3d
000002e0: 2b3d 063e 5585 55bc 2bb9 743d 5d86 063c
000002f0: 94ce 803d 5e6a 8abc 2476 533c f6fa 9bbd
00000300: 5703 f13c 2573 31bc 3a24 843c 159d 003e
00000310: 3595 8b3d f462 a8bc 641b 903c 9411 c8bd
00000320: 502b 383d a6a8 7bbc 99c9 9ebd 4035 26bc
00000330: be60 ef3d efcd 96bd d731 8fbc 984e ffbb
00000340: ba08 b83d 0381 f43c 55b7 aa3d aba9 303a
00000350: 2843 c3bd 7c6a 0fbb 46a5 833d 3ae1 2ebd
00000360: 4d32 113d 0425 103e a5ba 69bd 6134 84bd
00000370: 93fd 5ebd 2013 fa3d 2fbe d4bc 4592 243e
00000380: 2d7d ea3d 5fcc 173e fa3b 92bd 081b bebc
00000390: a5f2 a6bd fbd1 debc 7b35 183e 7e10 bb3d
000003a0: c7e8 21bc 8259 053d 965f 71bc 0ad3 363c
000003b0: dc0f 363d 296a 663c 1055 833d dd1d 713c
000003c0: a4bd cc3d 21d3 463d 1d9f 953d 4de2 2f3b
000003d0: f058 1b3e 9b82 f53b b39b e9ba 985b 3ebd
000003e0: 3ac1 1e3e a7a9 e73d 282f be3c 15dc 0c3d
000003f0: ebba d43c 8b45 1fbd 377a b33d 1ff1 12bd
0.007465858 -0.02474956 -0.025306305 -0.04292003 0.074364744 -0.0040065404 -0.045174163 -0.06967817
0.001715643 0.005722242 -0.036263276 0.011282554 0.060302287 0.04555781 0.0018317348 -0.022780726
0.09823546 0.033933297 -0.04048369 0.05173626 0.02133634 0.04057277 0.15626574 0.014298922
0.040595714 0.0019407113 0.035330348 -0.060592744 0.14606154 -0.071373686 0.004898302 0.03255453
0.045981016 0.020783944 0.02989539 -0.012620041 0.054951955 -0.030104615 0.0900063 0.0194567
0.04972357 -0.014677778 -0.04977923 0.10240897 -0.045231562 -0.038498506 0.09909326 -0.07913235
0.14291273 -0.06543037 -0.058842722 -0.037934944 0.12255306 -0.10029273 -0.06536278 0.046044484
-0.062808916 -0.07287622 0.054769322 0.012641729 0.0018053699 0.033549845 0.08096312 -0.039654266
0.046663158 -0.017164126 -0.0016627827 -0.06680173 -0.035565764 0.02518396 0.1533075 0.07411825
0.038535655 0.114607446 0.06584661 0.11707789 -0.023843199 0.071374774 0.0045635276 0.022443665
-0.0050489972 -0.00778959 0.011177132 0.018067012 0.08750011 0.13259959 0.05040499 -0.09552893
0.022562185 0.034341697 0.1717283 0.073153004 -0.012814006 -0.040693574 0.0040255813 0.051691055
0.10462901 0.11402401 0.06757189 0.13544597 0.11102336 0.017497815 -0.07305135 -0.103187114
-0.005343094 0.035128944 -0.024332294 -0.092962086 -0.070276 0.09395293 0.05838457 0.051472638
0.21795395 -0.013040086 0.08712548 0.058852874 0.08342443 0.13987556 -0.042706724 -0.016916664
0.0871169 0.06295316 0.06107739 0.042573918 -0.052688595 0.113877304 0.12078252 -0.02487735
0.0921349 0.027148955 -0.009131767 0.047962397 -0.031421073 0.15374653 0.025186282 0.10805304
0.0046615438 0.03021567 0.037639588 0.0032192962 -0.1356521 0.108041845 -0.009571347 0.1086218
0.089781046 0.09617972 0.07028825 -0.05990739 0.12516236 0.14335571 0.090681024 0.07797927
0.05888941 0.14750731 -0.0340503 -0.03338697 0.07751756 -0.047632925 0.07181012 0.0018599795
-0.021464765 -0.06646809 -0.08530116 0.081211984 0.041670248 0.04351575 0.0030971677 0.03282231
-0.057502404 0.060842637 -0.04210946 0.04443273 0.09979611 0.09642075 0.10396143 -0.059391618
0.033154633 -0.032279737 0.120739035 -0.017968085 -0.018304082 -0.0074750218 -0.010545985 0.08402031
0.13109271 -0.013032277 0.059746902 0.008210746 0.06289402 -0.016896423 0.012906585 -0.076162264
0.029420538 -0.010830675 0.016130555 0.12559922 0.06815568 -0.020554997 0.017591186 -0.09768978
0.04496318 -0.015360033 -0.077532955 -0.010144532 0.11688374 -0.073634975 -0.01747982 -0.0077913515
0.089860395 0.029846674 0.08335749 0.00067391497 -0.095342934 -0.0021883538 0.06428008 -0.04269526
0.03544836 0.1407662 -0.057062764 -0.06455303 -0.054441046 0.12210679 -0.025969593 0.16071422
0.11449657 0.14824055 -0.07140346 -0.023206249 -0.081517495 -0.027199736 0.14864151 0.09134005
-0.009882159 0.032556064 -0.014732262 0.011158714 0.04444872 0.0140633965 0.06412709 0.014716593
0.099971086 0.048541192 0.07305739 0.0026837767 0.15170646 0.007492376 -0.0017822891 -0.04647407
0.15503398 0.113116555 0.023215845 0.034389574 0.025968036 -0.03888468 0.08763545 -0.035874482

ln1.weight f4 [256]
00000000: 7463 8d3f 53e3 713f 3f2e 943f c97b 763f
00000010: f4e9 813f 0536 8b3f 5197 7c3f 9af7 6f3f
00000020: 839a 833f 8d14 6f3f 36c9 803f 6d6d 903f
00000030: dcc5 7e3f c0ab a13f 8270 723f b7d1 723f
00000040: f24b 813f 0624 7d3f 5889 703f 6510 863f
00000050: a1f8 9f3f 7e9a 8e3f f29b a33f 58c8 743f
00000060: 4552 973f 3899 723f ad82 9c3f 1879 803f
00000070: 6eef 843f 94b0 903f 5c19 a13f 7aa7 943f
00000080: 6ebf a23f bdc8 9c3f 3e0d 733f 8252 833f
00000090: 5017 8c3f 689a 743f 9a9f 783f 46dd 733f
000000a0: bfdd a23f 82d3 763f a051 733f cd78 b03f
000000b0: d01f 6d3f 1b18 6f3f acef ad3f c744 a63f
000000c0: dc24 8b3f fac5 8a3f b84a 683f bbea 773f
000000d0: 7cc7 893f 310d a33f d7b3 6a3f 2c42 983f
000000e0: f109 793f 88d7 843f 6897 923f b2f4 733f
000000f0: f13d 683f 81c7 9d3f 85b3 a23f 1e02 7c3f
00000100: 24ad 893f 38ef 863f e7b4 743f 621a 7f3f
00000110: 7432 7f3f 0c7c 7b3f e2e3 a43f ce59 9e3f
00000120: 0a80 793f d898 733f 87b6 853f a0ec b83f
00000130: 1d91 7e3f d559 673f 5450 873f 9a0c 733f
00000140: 08f3 6b3f e2ae 723f 444d 763f 7def 963f
00000150: 7613 763f 1125 c83f 0b30 973f e2ba 713f
00000160: 20ae 713f 4b36 9b3f 2962 a03f 4547 7d3f
00000170: 3938 653f 0198 683f 3e18 853f 937d 8b3f
00000180: 3cdf 903f efea e43f 1718 913f d7db 9e3f
00000190: bcc2 923f ac3f 763f 43c6 a63f bbd9 973f
000001a0: e3b2 7f3f bba0 963f cb9f 773f 35a8 853f
000001b0: 303d 863f 15c1 7c3f 4c79 573f c38f 813f
000001c0: 1fb0 843f 06ad 793f e125 be3f 830a aa3f
000001d0: 925e 8c3f ee47 ed3f ce8b 733f 285b 873f
000001e0: 91d9 903f 6e1a 873f 5ce4 753f a812 7d3f
000001f0: 662d 883f e329 823f 708a 993f 00c0 983f
00000200: c676 973f 9812 7b3f 794f aa3f 392a 8c3f
00000210: 63a7 853f 1fd3 a33f ebcd 7c3f 17f0 873f
00000220: ec12 803f 99b0 9b3f ac42 783f 2f88 803f
00000230: 4ef5 7a3f 2d3a 903f 4141 8e3f 10d5 ac3f
00000240: 75de 793f a514 703f 60fe 993f 148a 6f3f
00000250: ed19 773f d1d9 a83f 8921 963f 48a9 953f
00000260: 2a26 a23f 2ea5 873f 570a 803f 59b6 713f
00000270: af17 813f bb58 823f 1deb 943f 61a1 773f
00000280: 6761 753f cf4b 823f 9f4a 9e3f 31b4 863f
00000290: 6531 673f 9735 6e3f c728 6e3f fa3f a13f
000002a0: 4701 6a3f 8fe3 833f 8acf 753f 2a53 723f
000002b0: 7296 943f 9a18 993f e7b4 9a3f e73f 7b3f
000002c0: 2bd1 8d3f 6408 8c3f 5047 a83f c632 653f
000002d0: eadd 5f3f f9cf 8e3f 3d4c 703f e05a 8d3f
000002e0: 72b2 873f 88df 7d3f 4381 8d3f 96f2 8a3f
000002f0: a891 843f f62e 823f 5aba a33f d7f7 763f
00000300: 0925 723f c8cd 673f 6566 a23f 8f95 843f
00000310: 9b78 6c3f 1461 6e3f 08c9 843f e3bc 853f
00000320: c879 6d3f 4de0 8d3f 6b70 833f 0d0f 833f
00000330: 21e4 a03f e871 933f 4029 8d3f 1666 853f
00000340: 4c50 9d3f 959e 913f 4a20 993f 543f 6c3f
00000350: 42a3 723f 1ce5 683f 7b89 893f e6e2 763f
00000360: 7415 6d3f 0ed5 c23f 428d 7e3f a718 7d3f
00000370: 093c 983f 1887 b13f 6d20 973f c898 ff3f
00000380: 0026 813f 7981 903f 836f 7e3f 3923 8e3f
00000390: 26bb 6e3f e700 6e3f b4a0 b23f 4dcc 763f
000003a0: bfe2 793f e136 863f bf0a 8e3f e6ea 743f
000003b0: 7cce 7e3f 84ce 853f aa86 7d3f 5d59 753f
000003c0: 9709 863f 9ba8 7b3f 8758 953f 8f85 913f
000003d0: 1da2 993f 3878 9d3f e737 803f 9d7a 843f
000003e0: 5978 d13f 7a30 853f 090d 773f 9381 723f
000003f0: 5575 853f 31f3 673f 223a b53f 0f27 733f
1.1045976 0.94487494 1.1576613 0.9628263 1.0149522 1.087586 0.9866839 0.93737185
1.0281528 0.93390733 1.0061405 1.1283394 0.9952066 1.2630539 0.94702923 0.9485125
1.0101302 0.9888309 0.9395957 1.0473753 1.249775 1.1140897 1.2781966 0.956182
1.1821982 0.94765043 1.2227379 1.0036955 1.0385568 1.1303887 1.2585864 1.161361
1.271467 1.224876 0.9494208 1.0259554 1.0944614 0.95548105 0.9711853 0.9525951
1.2723922 0.96416485 0.95046425 1.3786865 0.9262667 0.9339616 1.3588767 1.2989739
1.0870624 1.0841668 0.9073901 0.96842545 1.0764003 1.2738401 0.91680664 1.1895194
0.97280794 1.0378275 1.1452456 0.9529525 0.90719515 1.2326509 1.2711035 0.9844073
1.0755963 1.0541754 0.95588535 0.9964963 0.9968636 0.98236156 1.2882044 1.2371156
0.97461 0.95155096 1.0446328 1.4447212 0.99440175 0.9037145 1.0571389 0.94941103
0.9216771 0.947981 0.9621165 1.1791836 0.96123445 1.5636312 1.1811537 0.94425786
0.9440632 1.2125944 1.2529956 0.98936874 0.89538914 0.9085694 1.0398023 1.0897697
1.1318126 1.7884196 1.1335477 1.241084 1.1465678 0.96190906 1.3029255 1.1863321
0.99882334 1.1767801 0.967282 1.0441958 1.0487423 0.9873212 0.8416946 1.0121998
1.0366248 0.9752964 1.485531 1.3284458 1.096636 1.8537576 0.951352 1.0574694
1.1316396 1.0554941 0.96051574 0.9885659 1.0638855 1.0169033 1.1995373 1.1933594
1.1833122 0.98075247 1.3305503 1.0950385 1.0441707 1.2798804 0.98751706 1.0620145
1.0005774 1.2163268 0.96976733 1.004156 0.98030555 1.1267754 1.1113664 1.3502522
0.9760507 0.937815 1.2030754 0.93570065 0.96523935 1.3191472 1.1728984 1.1692286
1.2667897 1.0597284 1.0003155 0.94418865 1.0085353 1.0183328 1.1634251 0.9673062
0.9585175 1.0179385 1.2366523 1.052374 0.90309745 0.9305052 0.9303097 1.2597649
0.914082 1.030382 0.96019804 0.9465815 1.1608412 1.1960633 1.2086457 0.9814438
1.1079458 1.0940061 1.3146763 0.895306 0.8744799 1.1157218 0.9386633 1.1043358
1.0601332 0.99169207 1.1055073 1.0855281 1.0356951 1.0170581 1.2791245 0.96471924
0.9458776 0.9054837 1.2687498 1.0358142 0.9237153 0.9311688 1.037385 1.0448269
0.9276395 1.1084076 1.0268682 1.0238968 1.256962 1.1519136 1.1028214 1.0421779
1.229013 1.137652 1.1962979 0.9228413 0.9478036 0.90974593 1.0745081 0.9643997
0.9261086 1.5221269 0.9943429 0.9886574 1.1893321 1.3869352 1.180677 1.99685
1.0089722 1.1289512 0.99388903 1.1104499 0.93254316 0.92970127 1.3955293 0.9640549
0.9761161 1.0485498 1.109703 0.95670927 0.9953382 1.0453649 0.99033606 0.9583948
1.0471677 0.98304147 1.1667641 1.1368884 1.2002598 1.2302313 1.001706 1.0349919
1.6364852 1.0405419 0.96504265 0.94728965 1.0426432 0.90605456 1.4158366 0.94981474

ln1.bias f4 [256]
00000000: 8299 48bd 71bc 4abd 3915 483d 0c07 19bc
00000010: 7138 5dbc 656c ed3c cc74 a9bd dfb4 62bd
00000020: 87fc de3b 7202 b8bd 2536 34bc 9fa1 ccbd
00000030: 025c 40bd cb0f 003c e361 83bd 2f38 3bbd
00000040: f31a 59bc cc54 0fbd 0dd9 95bd 9bdf 78ba
00000050: c418 4bbd 2eef 13bd ea85 2e3c 9e15 87bd
00000060: 3c31 09bd 40e7 97bd 7261 c73a a567 92bc
00000070: acb7 b6bb 4b69 46bc 4318 c4bb 5f6a adbc
00000080: 529e 0bbd 965b 0d3c dd0a 90bd d4b0 68bd
00000090: af2e 2d3b 2a1f 90bd db29 28bd 8cb5 17bd
000000a0: 2c57 003c a6bb 41bd e566 23bd 485d c63c
000000b0: 98d9 a6bd 4f1e a1bd 4d0b 4d3c 4b9d 023d
000000c0: 4fd8 8ebd 2950 9ebc b361 a7bd 2d3c aabd
000000d0: 3bef ebba d83c ce3c f57c 81bd 1ff0 f23b
000000e0: 9849 2dbd e101 01bb 3ad9 a1bb b7f3 84bd
000000f0: ce01 a9bd f22c 513d e31a 743c 23c9 83bd
00000100: d059 9abd d578 44bd 8e0d 54bd 2831 98bc
00000110: df3f 2bbc 565b f1bc 682e 5c3c 4b37 d2bb
00000120: 4e32 a5bd ab53 95bd 8010 f13c 4af2 fb3c
00000130: ff9b a2bd fc91 2abe e717 403d 2ca2 a0bd
00000140: 093e cbbd 2ba8 93bd 5c43 7fbd fac2 85bc
00000150: 54b1 66bd 9b2f 1d3d 7332 24bc c579 70bd
00000160: a2fd 40bd 4263 673b 0bbe 953c a98a f4bc
00000170: 56f5 a1bd 1747 c3bd e424 5cbd 8066 9dbd
00000180: 939f 013c b96a bd3d 678a 9c3b b7ff 6abc
00000190: ed1a 683b 7462 64bd 4d0d 433c 337c 533b
000001a0: 776e 20bd 63de 593c 8f6d 4dbd c663 5bbc
000001b0: a329 fa3c ec5a 02bd 359b 38be 8d20 d5b9
000001c0: 4a81 5fbd d623 04bd 5d6f f4bc a57b 273d
000001d0: 2ab9 70bd 19b2 c23d 4fc8 48bd 6cef a73c
000001e0: 7cd2 153d 919a ebbc 473d 4bbd b0fa 87bd
000001f0: 05e4 9d3b a8c0 4fbd 1be6 16bc 0cbe b43c
00000200: d1e7 49bd d176 40bd ae36 023c 01bb 07bd
00000210: eed7 32bc ed64 253b 6aaf babc 1000 1bbd
00000220: bf25 3bbd fca6 b83c 16a1 82bc 67dc 3abd
00000230: c52f 23bd 5cab 84bd cfbb 0ebd f159 293b
00000240: 5931 663c 542a 40bd 3bd5 b6bc 2a7b a6bd
00000250: dc5c 12bd 37c7 20bd 4159 6b3d f593 e1bc
00000260: 37de 1dbd 3b2f dc3b c3be 0ebd cdcf c0bd
00000270: eba0 b4bd 6b68 783c 6acd b43b 52be 03bd
00000280: 0bf9 08bd 5c0e 80bd 028f 913b d17d 6bbb
00000290: 5300 3fbd f064 91bd 1746 95bd 1d14 19bd
000002a0: a864 8bbd 7558 9ebc d4da dfbc 2663 e0bd
000002b0: eab4 373b a903 553d f337 3e3b 5c2a 65bc
000002c0: b37a 7ebd 7426 993c af48 9dbc 8170 8ebd
000002d0: 6443 1fbe c638 943d 2834 f6bd 9719 c1bc
000002e0: d89c 673c 478e 75bd 9d7b 1f3b 1cda a9bd
000002f0: 8da5 9fbb 377d 69bd 2d7d 5e3c c910 29bd
00000300: eb80 50bd 79a7 babd a2f9 16bd 38f4 6f3b
00000310: a7d7 edbd 5366 22bd 44ee 5ebc 0a36 15bd
00000320: 6145 bbbd 9f47 95bc 06ed 19bd 92fc edbd
00000330: d20e 793b f711 1d3d e104 833c 5245 f6bc
00000340: cb2c c8bc 1b67 8dbd 087e 26bd 4de9 e0bd
00000350: 7ed6 25bd d1a9 b0bd 89fd d2bb a939 3ebd
00000360: 3de0 cabd daae 393d 7b28 e8bc 35b2 04bc
00000370: 41e6 553d ed1a 993c 056b c6bc dc22 3c3e
00000380: 15ba 97bd 615e caba 4607 ffbc 285b bf3c
00000390: 1780 62bd ea94 b5bc ed32 6e3d b3ee cdbd
000003a0: af3e a8bd 7922 6fbd 1c55 4a3d 63b8 56bd
000003b0: b771 b4bc e9fa 2bbd ab78 2fbc e39c 68bd
000003c0: 73c2 96bd 7d53 89bd b337 abbb 2aa6 afbc
000003d0: 5b39 4e3d bf82 643a d723 4dbc ae42 26bd
000003e0: acf7 743d b53c 23bd d32b 67bd d5b1 54bd
000003f0: 4fe7 5ebd 8cc0 b0bd ae97 813c e624 d5bc
-0.04897452 -0.049496118 0.048848365 -0.009340059 -0.013502226 0.02898235 -0.0827423 -0.055348273
0.006805006 -0.089848414 -0.010999237 -0.09991764 -0.046962745 0.007816265 -0.06415155 -0.045707878
-0.013251054 -0.034992978 -0.0731679 -0.0009493769 -0.049584165 -0.03611677 0.010652045 -0.0659592
-0.03349422 -0.07417154 0.0015211536 -0.017871687 -0.0055760946 -0.012110065 -0.0059843375 -0.021168886
-0.034086533 0.008627793 -0.07033322 -0.05680926 0.002642553 -0.07037194 -0.04105554 -0.03703837
0.007833283 -0.047298096 -0.03989305 0.024214402 -0.081469715 -0.07867109 0.012514901 0.031888288
-0.06974851 -0.019325333 -0.081729315 -0.08312259 -0.0018000373 0.025175497 -0.06322662 0.0074138786
-0.042306513 -0.0019684958 -0.0049392255 -0.064917974 -0.08252297 0.051068254 0.014898988 -0.06434848
-0.075366616 -0.047966797 -0.05177074 -0.018578127 -0.01045224 -0.029462498 0.0134387985 -0.006415283
-0.080662355 -0.07291349 0.029426813 0.03075518 -0.0793991 -0.16657251 0.046897795 -0.07843432
-0.09923942 -0.0720981 -0.0623201 -0.016328324 -0.056321457 0.03837548 -0.010021794 -0.05870988
-0.047116883 0.0035306965 0.018279096 -0.029851275 -0.07908122 -0.09535044 -0.05374612 -0.07685566
0.007911581 0.09248871 0.004777241 -0.014343194 0.003541644 -0.055757955 0.011905027 0.0032270073
-0.039167847 0.01329765 -0.05015331 -0.013390487 0.030537432 -0.03182499 -0.18027957 -0.00040650778
-0.05456666 -0.03226074 -0.029838258 0.0408894 -0.058770336 0.09506626 -0.049019154 0.020499907
0.036577687 -0.028760226 -0.049618986 -0.06639612 0.004818442 -0.05072084 -0.009210135 0.022063278
-0.049293343 -0.046988312 0.007947607 -0.033137325 -0.010915739 0.0025237158 -0.022788722 -0.037841856
-0.045690294 0.022540562 -0.015945952 -0.04562035 -0.03984048 -0.06477997 -0.034847077 0.0025840963
0.014049851 -0.046915367 -0.022318473 -0.081289604 -0.03573309 -0.039252486 0.057458166 -0.027536372
-0.038542 0.0067194975 -0.034849893 -0.09414635 -0.08819755 0.015161614 0.0055176513 -0.032163925
-0.03344063 -0.06252739 0.0044420967 -0.0035933147 -0.04663117 -0.070993304 -0.07288759 -0.037372697
-0.06806308 -0.019329289 -0.027326025 -0.10956411 0.0028031417 0.052005444 0.0029025048 -0.01398715
-0.062128734 0.018695094 -0.019199697 -0.06955052 -0.15553051 0.07237391 -0.12021667 -0.023571773
0.014136516 -0.05995014 0.0024335154 -0.08293554 -0.00487203 -0.05700418 0.013579649 -0.041275773
-0.050904196 -0.09113974 -0.036859162 0.0036614072 -0.11613398 -0.039648365 -0.013606612 -0.03642849
-0.09144092 -0.018222628 -0.03757956 -0.116204396 0.0038003218 0.03834721 0.015993537 -0.030062351
-0.024435421 -0.069044314 -0.040647537 -0.109819986 -0.04048776 -0.0862614 -0.006438915 -0.046441708
-0.09906051 0.045332767 -0.028339615 -0.0080991285 0.05222154 0.018689597 -0.024220953 0.18372673
-0.07408539 -0.0015439504 -0.031131398 0.023358896 -0.055297937 -0.022165734 0.058154035 -0.10055294
-0.08215081 -0.058382485 0.049397573 -0.05242194 -0.02202688 -0.041987333 -0.010709922 -0.056790244
-0.07361307 -0.06705377 -0.0052251457 -0.021441538 0.050347667 0.00087169925 -0.012520752 -0.040590934
0.05980651 -0.039852817 -0.05643828 -0.051927406 -0.05441981 -0.086304754 0.015819397 -0.026018571

fc2.weight f4 [64, 256]
00000000: dd67 3fbd 6516 f03b aba9 b63d 31b0 0fbe
00000010: f5f7 283d 42ce 96bd 8e60 b83d 825a a23d
00000020: 42ab 0a3e f996 ffbd 37db dc3c 0a3f 1a3c
00000030: 3067 09be 7544 e3bd f052 803d 0e8b d63d
00000040: bedb 2f3d 19ba 53bd dae5 0c3c 1bce 20bd
00000050: 29f1 92bc c12b 843c 4430 ec3c 1d33 1e3c
00000060: 5226 efbd ed0e af3d 5cdb 90be 53e6 0a3d
00000070: 86b2 cabc 74e9 d23d 0f93 8dbd eb9f cc3b
00000080: 1dae 49be c88f 963c 2822 e43d b1f1 8d3d
00000090: edd1 d9bc 8aab 083d 8a0c 87bc 469a e1bd
000000a0: 9e6e 42be c8fd 1fbc 4a5c d83d cccf 773e
000000b0: 5e07 f1bb 15fb e33d bf8d ddbd 7d0f a23e
000000c0: 8ac7 bfbd 86d3 ff3d 54c8 0ebc 8f01 5dbd
000000d0: fa8a 49be ebdb 6f3e 8a03 bcbb be79 243e
000000e0: b3db 833d 577e 6a3e acd7 093e c17c 9fbd
000000f0: e10e a1bc e0cf 003e 462b e1bd ff9a cb3d
00000100: d452 25bd 52a2 693e 6982 863e 6a13 8c3d
00000110: 9ffe 4c3e 5e76 073e cb1e 3dbe a446 a7bd
00000120: e881 29be aa15 4fbe de33 b2bc 2178 4c3e
00000130: b320 e03b d6f7 8ebd c97b dc3d 44cb a13d
00000140: 0e74 cabb d45e d43d 1767 f73c 80ed 3a3e
00000150: ad4f 0c3d 4118 c13e 3a31 903a b2c2 0cbc
00000160: d0be 313e 6e1b 4b3d 4bff 6dbd 3e7c 7a3d
00000170: c061 0cbe 789e cd3b 5bb9 e9bc bd08 15be
00000180: 6c78 7cba 82cc 9e3e 548c 503e 49d1 243d
00000190: d462 53bd a7b2 a1bc d7b4 4e3e b8a0 1d3e
000001a0: bad8 aebd c45b 19be a80b c23d 27c0 d83d
000001b0: 1f19 6f3d 326e 213d 23f0 b03b a7bf 793c
000001c0: b488 67bd 76da 3ebd 3bd0 a93e f592 4cbe
000001d0: bdc7 503e 1271 3b3e 3a88 3ebd 36f8 293d
000001e0: c284 a23d c7ec aebd 7183 4d3d 6dd1 f53c
000001f0: be5f 633e d0fd 263e 7818 7fbe f29d 8b3e
00000200: deaa 03be 94a5 ec3d 2305 403e 4a6d 223e
00000210: a648 483e cc6e 86be 4898 0bbe 3414 3c3d
00000220: b82b d2bd 36f9 823d 7c6a 913c 648a 4f3e
00000230: 6601 323e 31a2 e93d d202 213e 14c5 c03b
00000240: d027 1f3c a7df e4bb 8fcf 14bd d90a f23c
00000250: cabf 19bd d7db 003e 50bd 8abe a4f4 28be
00000260: 10a7 e8bb ecf5 95bd 13e9 673b 788a c83d
00000270: 823b 39be 8674 4b3d 0318 853d 0f80 b43d
00000280: 7acd 44bd e573 273d f706 8c3d cc0c 28bb
00000290: 1071 a33d 9642 503d cdbc 44be 35b9 b8bd
000002a0: 0a4a 6a3d ec7d 1fbe e0b0 ddbc d1b4 013e
000002b0: 247c e8bd d085 7fbd f65d 66be fe15 cabc
000002c0: 5dc0 a3bd 6973 0b3c e4a5 4f3d aca9 b2ba
000002d0: fa79 f13c 2c68 ad3d 9dae 1dbe 55be 083e
000002e0: ec8a d23d ed72 9d3d 4314 f53d 69d8 acbd
000002f0: 1b49 0dbe 69e6 79be a49f abbd 090d 683d
00000300: bda1 00bd 80fc 03bd c451 913c 9244 dd3c
00000310: 13ad 0d3e 69f0 c93d 46dc 06be cae0 223e
00000320: 2c19 f8bc 5792 4a3e f304 c13d 60af 30bd
00000330: 291b 79bd 773e 373e 718f 363d f24b f73d
00000340: 8c5d 79be d925 223c 1d87 363e 30f5 843c
00000350: cd2a be3d c50d 4bbc 7898 23bd 2411 3cbe
00000360: fe0a 703d 65c2 d83e 3cdd 853e 24ec 323d
00000370: 61a8 7d3e 0c62 853e 33d9 363e 070a 6c3e
00000380: 8f97 c53d 2f0f 6b3d 45cb 913d 1ccc c83d
00000390: a601 aa3d d003 f2bc 8505 893e a54c 353d
000003a0: 7a9e 74bd b2c8 0bbe 2fc8 113e fb7e 41bc
000003b0: 91a4 c93d 984e 813d 10ba 43bd 54cf 2abd
000003c0: 389b 883d 5232 8f3e 9075 3abe b62e 10be
000003d0: d818 43bd c1f4 433c e756 363e 634c 853e
000003e0: 779e fe3a 489c c9bd c391 c3bc 4e72 d0bd
000003f0: 1578 dfbc a08c 65bc 7609 a3be 796f 413e
-0.04672991 0.0073268884 0.0891908 -0.14032055 0.041252095 -0.07363559 0.09002791 0.07927419
0.13541892 -0.124799676 0.026959999 0.009414444 -0.13418269 -0.110970415 0.06265819 0.10475741
0.04293417 -0.05169115 0.008599723 -0.039259057 -0.01793726 0.016134145 0.028831609 0.009655741
-0.11677231 0.08547769 -0.28292358 0.03391106 -0.02474333 0.10298434 -0.06912815 0.0062446496
-0.19695325 0.018379107 0.11139327 0.069308646 -0.026589358 0.033366717 -0.016485471 -0.110157534
-0.1898751 -0.009765096 0.10564478 0.24200362 -0.0073556146 0.111318745 -0.108180515 0.31652442
-0.09364231 0.12491517 -0.008714754 -0.053956565 -0.19681922 0.23423736 -0.0057377266 0.16062066
0.06438389 0.22899757 0.13461179 -0.07787467 -0.019660415 0.12579298 -0.10994582 0.099416725
-0.040362194 0.22815827 0.2627137 0.068396404 0.20019005 0.13228747 -0.18468778 -0.081677705
-0.16553462 -0.20223108 -0.021753248 0.199677 0.0068398356 -0.06980865 0.10765798 0.07900098
-0.0061783856 0.103696495 0.030200524 0.18254662 0.034255672 0.37713817 0.0011000999 -0.008591341
0.17357945 0.049586706 -0.058104794 0.061153643 -0.13709164 0.0062749945 -0.028530767 -0.14554115
-0.00096309814 0.31015402 0.20366031 0.040238652 -0.05160792 -0.019738508 0.20186172 0.1539334
-0.08537431 -0.14976412 0.094748795 0.10583525 0.058373567 0.03941173 0.0053997203 0.015243447
-0.056526855 -0.04659506 0.3316668 -0.19977935 0.20388694 0.18304852 -0.046516635 0.041496478
0.07935478 -0.085412554 0.05017418 0.030007089 0.22204491 0.1630776 -0.24911678 0.2726894
-0.1285815 0.11555019 0.1875196 0.15862003 0.19558963 -0.26256406 -0.1363231 0.045917705
-0.10262245 0.063951895 0.017750971 0.20267636 0.17383346 0.11407889 0.15723732 0.0058828685
0.009714082 -0.0069846692 -0.036330756 0.029546188 -0.03753642 0.12583862 -0.2709756 -0.16499573
-0.0070999935 -0.073222965 0.0035386726 0.09792036 -0.18089107 0.049671672 0.064987205 0.08813488
-0.04804752 0.04088201 0.06837266 -0.0025642393 0.07980549 0.05084475 -0.19212647 -0.090197004
0.057199515 -0.15575379 -0.02706188 0.12666632 -0.11351803 -0.062383473 -0.22496781 -0.02466869
-0.07995675 0.008511403 0.050695315 -0.0013630888 0.029477108 0.08467135 -0.15398641 0.13353856
0.102804035 0.07687936 0.11966755 -0.084397145 -0.13797419 -0.24404301 -0.083800584 0.056653056
-0.031404246 -0.032223225 0.017739184 0.027010236 0.13835554 0.09860308 -0.13169965 0.15906063
-0.03028544 0.19782387 0.09424772 -0.043136 -0.060816918 0.17894922 0.04457039 0.12075032
-0.24352092 0.009896719 0.17824979 0.016230196 0.09285507 -0.01239342 -0.039940327 -0.18365914
0.058604233 0.4233581 0.2614535 0.043682232 0.24771263 0.26051366 0.17856292 0.230507
0.09648048 0.057387527 0.07118849 0.09804556 0.08301096 -0.029542834 0.26762024 0.044262547
-0.059721448 -0.13650778 0.1423652 -0.01181006 0.09845842 0.06313819 -0.047784865 -0.04170163
0.066702306 0.2796808 -0.18208909 -0.14080319 -0.047631115 0.011960209 0.17806588 0.2603484
0.0019425888 -0.098442614 -0.023873216 -0.10178052 -0.02727894 -0.014010578 -0.31843156 0.1889018

fc2.bias f4 [64]
00000000: 9a3d 073c 6dc0 bdbb 839b 883c 714d 913a
00000010: c3fe a73a d789 ab3c 38a6 ac3c d0c0 493b
00000020: e793 373c 7a60 8ebc 7850 2ebb 9fd1 103c
00000030: 28fb ee3c 7b5e c0bb 18a8 a53c d01e f53c
00000040: 5d3f 133d 28cf 203c 2703 af3c f82f 953d
00000050: 6800 08bc ace2 913b d185 a33c 9645 5c3d
00000060: 88e7 7e3c 5bb1 db3c 3f77 c9bb bcdd cc3b
00000070: e137 373d d0a1 883c 9012 363b 0f2c 9fbb
00000080: 1590 6d3c bb39 8e3c 3ff6 563d 06c1 5b3c
00000090: bcc0 a63c 4d97 aebb 4070 46bc 4891 413c
000000a0: b48b 8d3b d1db 323d 0dff 163c f1e0 653b
000000b0: 9451 3d3c 62d4 4f3c 3523 123b fac7 3c3b
000000c0: 4af1 f73c bed8 cc3a 42f5 883d 6f56 9d3c
000000d0: 39f6 a5bb feb0 04bb f1a7 e13c 19ca 293c
000000e0: 3e21 353d 0ab6 bf3c 7fcd 083c 17a8 363c
000000f0: f739 a33c 7cac 05bb 4604 06bc 56e8 903d
0.008254433 -0.005790761 0.016675716 0.0011085701 0.0012817014 0.02093975 0.021075353 0.0030785091
0.011204696 -0.017379988 -0.0026598256 0.00883904 0.029172495 -0.005870638 0.020221755 0.02992192
0.0359491 0.009815015 0.021363808 0.0728454 -0.008300878 0.00445207 0.01996127 0.0537773
0.015558131 0.026817968 -0.0061482484 0.0062520187 0.044731025 0.01667872 0.002778206 -0.004857547
0.014499684 0.017361512 0.052480932 0.01341272 0.020355575 -0.005328095 -0.012111723 0.011814423
0.0043196324 0.043666665 0.009216082 0.0035076702 0.011555094 0.012684913 0.0022298817 0.0028805719
0.030266423 0.0015628559 0.06687404 0.019206254 -0.0050647524 -0.0020247097 0.027545901 0.010363125
0.044221155 0.023402233 0.008349775 0.011148474 0.0199251 -0.0020396998 -0.00817973 0.070755646

ln2.weight f4 [64]
00000000: d6ea 983f d9d0 913f f6ff 9f3f 6af0 9a3f
00000010: b8a9 bd3f 7a9d ae3f 1c15 8e3f eaea 873f
00000020: c800 a63f 016f 893f 9265 863f 2455 953f
00000030: 1597 903f 8cc1 783f af71 9b3f 9575 b93f
00000040: 3572 a33f 9e43 c43f 3116 883f e1d1 913f
00000050: 8e63 7f3f 2525 9b3f 5b47 a43f 72e8 953f
00000060: 3791 7e3f 546b 913f 671d 6d3f c49d 893f
00000070: 58f3 873f 4fab a23f e900 7a3f 1e41 853f
00000080: 31cb 833f fe90 963f d12d 8c3f e028 853f
00000090: f089 8c3f d59a 783f 3bb1 683f 1e4f a23f
000000a0: 08b6 8a3f 9072 8b3f 8a8e 783f 8647 943f
000000b0: 2f5f 903f 689e a53f 77f2 793f d74c a13f
000000c0: 3a87 963f 23b9 823f edf8 b93f 721b 8a3f
000000d0: e8c9 843f 937c 783f a1fd 883f 2750 7d3f
000000e0: 6d7d 973f 68a7 ad3f 42c7 863f cd47 833f
000000f0: c752 8b3f b11f 993f 6038 7f3f aff2 953f
1.1946666 1.139186 1.2499988 1.2104619 1.4817419 1.3641808 1.1100192 1.0618565
1.2968988 1.0737001 1.0499747 1.1666608 1.1296107 0.9717033 1.2144068 1.4489008
1.2769228 1.5333135 1.0631772 1.1392175 0.99761283 1.2120711 1.2834276 1.1711562
0.9944033 1.1360879 0.9262299 1.0751271 1.0621138 1.2708529 0.9765764 1.0410497
1.0296384 1.1762998 1.0951482 1.0403099 1.0979595 0.97111255 0.9089543 1.2680395
1.0836802 1.0894337 0.970925 1.1584327 1.1279048 1.2938967 0.97635597 1.2601575
1.1760018 1.0212749 1.4529091 1.0789626 1.0374117 0.97065085 1.0702401 0.9895043
1.1835152 1.3566713 1.0529559 1.0256287 1.0884637 1.1962796 0.99695396 1.1714686

ln2.bias f4 [64]
00000000: b0cc 0c3c f2e8 71bd d83c 87bc bdae 273d
00000010: 4f5b 13bd 1f81 d0bd 4b4a a0bd 1349 823c
00000020: 352c bbbd 06a0 c1bd deb2 20bc c078 52bb
00000030: 4b4b 173d 5963 13be 8828 a93d 5c67 823d
00000040: 0d76 1a3d 0ae1 013d 98d6 93bd b72d bc3d
00000050: acaa 97bd 8966 3cbb 19b6 33bd e07b 903d
00000060: a5a6 c03c 63c8 2fbc 18f5 50bd 2f38 7cbd
00000070: dbb1 9abb 94e0 34bd 7d66 f33a 72ef b4bd
00000080: 7ee4 543c 41e9 bebc 14bb 8f3d 0caa 343c
00000090: 3046 babb f7fc b8bd 0ba4 26be b5ea 0c3c
000000a0: ee79 93bc 8095 a13c c691 77bc 1672 75bd
000000b0: a5e3 923d b951 413d af8b 18bd bc5a 61bd
000000c0: 8a01 b83c 9175 1b3b e217 5f3d f740 193c
000000d0: 0ce7 17bc 4ceb 793c 0a54 0c3c e9ea 4e3b
000000e0: 31dd 743d 7122 0cbd cc70 993c 81a3 063d
000000f0: cc4a d0bd 5d16 11bd f06d b7bc 3317 303d
0.008593723 -0.059060045 -0.016508505 0.040938128 -0.03597575 -0.10180878 -0.0782667 0.015903985
-0.09139291 -0.0945435 -0.00980827 -0.003211543 0.03693704 -0.14393367 0.08259684 0.063673705
0.03771024 0.031708755 -0.07218665 0.09188407 -0.074056 -0.002874764 -0.043874834 0.07054877
0.023516962 -0.010728928 -0.05101499 -0.06157702 -0.004720909 -0.044159487 0.0018569973 -0.08834733
0.01299393 -0.023304584 0.07018104 0.01102687 -0.0056846365 -0.09032624 -0.16273515 0.00860088
-0.018002477 0.019724607 -0.015110439 -0.059923254 0.07172326 0.047197077 -0.037242588 -0.05501817
0.022461671 0.0023721198 0.054466136 0.009353868 -0.009271394 0.015253853 0.008564958 0.0031573123
0.059781257 -0.034212533 0.018730544 0.032870773 -0.10170516 -0.035421718 -0.02239129 0.042990874

action.weight f4 [4, 64]
00000000: 7c99 343d 3104 d7be ee89 293e 4e94 97be
00000010: 005f 323f bb6f 183f 80e3 d9ba c202 d93c
00000020: 87da 52bc 90f4 a9bd f347 623d f752 1b3d
00000030: 7490 b5bd fddc 3e3e 9837 803c 0708 94ba
00000040: f49f 893d 5f71 0ebf 7b44 b43e 0234 de3d
00000050: c90b b73e 054d 4d3e 929d 01bd cbb8 b7bc
00000060: f975 1b3e db77 cebd 8d0e 00be f4a4 42b8
00000070: a178 8bbd 1754 48be dcbf 9e3e 893e 013e
00000080: 2dd1 7fbd 7663 7e3d 9b20 a2be cd3b 033d
00000090: f2c7 203c cbbd c83d 82a8 0d3e f7b0 1d3d
000000a0: c1ea 8b3d 73a1 0a3d 9102 0ebc 0bad 123d
000000b0: 3b5a 703d 26e1 15bd c8b2 db3d 0012 713c
000000c0: 6dcf 0b3c 3341 14be dab6 853c 780e 933c
000000d0: ba79 48be 07bc 34be a873 093e c208 cfbd
000000e0: b771 d9bd 4b47 ba3c 7b37 3abe da05 0fbe
000000f0: e348 d83d ab2a e9bd a168 06be 6a1a a73b
00000100: c411 e03e 56de 803e 8d63 f53e 3a95 33bf
00000110: eff5 8a3e a657 773e d092 85be f542 943e
00000120: c32a 6bbe 6a54 143e 469d 083f d293 d43e
00000130: 87cf bb3e 3730 08be b32d b33e b15e 0fbe
00000140: e61e b03d f5d4 0d3f cc88 5cbe 1571 4dbe
00000150: d90a a9be 63f0 713e c788 203f 5c35 97bd
00000160: 1406 1e3e eb4d 52be 7341 c63e 2c77 a5be
00000170: bd4a c5bb 1430 913e 4829 8cbb 5bbf 50bd
00000180: d335 1bbf ec46 e5be e077 46be 3e5d 09bd
00000190: 5293 b23b 6715 b2bd 7444 0c3d 8662 9a3e
000001a0: 73e5 0b3e a106 9ebe d70b 39bb ff9c 37be
000001b0: fcbe c73e 451e 0abe f8c9 643e c245 aa3d
000001c0: aacc dfbd 4b7b e3bd 5d31 b0be 8141 5f3e
000001d0: 2b70 793c cb54 903e 178e a13e f580 e2be
000001e0: 0bb3 693e 3a1d 743e 507b 8b3e 8fad 80be
000001f0: 7088 0ebf e9a3 dd3e 3b9c 03be f9c4 6abe
00000200: 72f5 113f b881 a93d b5b8 533e 2885 c8be
00000210: e778 f8bd ff90 5cbe 24a2 083f addc 36be
00000220: 06b6 063d 61f5 303e c073 2fbe 68d6 31bd
00000230: 3b2d f03d 37f9 d73c 1fe5 04be 05be 1abf
00000240: 3707 593f 7301 b63e 3611 afbe 1905 073f
00000250: d63b 373e f7f7 04bf 4399 67be f6cc cd3d
00000260: 4c0d 813d aa99 04bf 5c91 943c 1178 afbe
00000270: 79a9 ba3e b8d7 973e 9ee8 893e ec86 cabe
00000280: 6184 3abd ed08 d5bd c5a3 6bbc 04d9 e2be
00000290: cbad 92be e957 8cbe 7b89 56bd 4fc4 82be
000002a0: 7c48 7bbe 754c b13d 2ff5 3dbe 6789 56be
000002b0: 22c9 563e 67cb 64bf f7f7 993d 5fd0 0f3f
000002c0: e309 afbe eaf5 143f 7ce5 2fbe 9d98 90be
000002d0: e8b0 1fbf 0217 bebe c4f4 bdbe 5447 b33c
000002e0: 4845 113e 87f3 2bbf 9e2a bc3d 350f f5bd
000002f0: 2f10 2f3e 681a 4f3e edba 3b3f 9869 883e
00000300: 48dc ffbd baa7 b33c 7170 3ebf abd1 603e
00000310: de4d 3b3e 86b8 5d3d 991e 013e d580 9a3b
00000320: 269c 2b3f 843a a53e ec73 aa3e 740f 563f
00000330: b0e7 82be dce1 38bd 09b6 88be 6fa2 ac3e
00000340: bba6 dfbe edea 2d3e 1823 1ebe 37b4 60be
00000350: a533 00be c49e a53c c254 033f b01c 18bf
00000360: c4c2 4cbe bacf 193f 5a93 afbc 543a 52bc
00000370: 69b4 923e e098 cb3e c111 84be 24e6 053d
00000380: 17e7 513e 1841 c73e 1412 5b3d c298 b9bd
00000390: af5b 663e fcb8 06be 5e89 d6bb e87d 22bf
000003a0: 9206 db3e 8e5e 8bbe 39f4 babc 686a e13e
000003b0: 69ce b2be 29ee e23e 7982 f23d 520d 94be
000003c0: 91f5 4e3e e76f 4a3d e37d 043f ee13 2abe
000003d0: eb47 553e bf74 9dbd b8bb da3e 5bcd 9bbe
000003e0: ec03 8c3e d037 1b3e 76c3 da3c 64b3 303f
000003f0: 31c4 4f3d d388 eb3d 457e c0be d957 39be
0.044091687 -0.41995385 0.16556522 -0.29605335 0.6967621 0.5954549 -0.0016623586 0.026490573
-0.012869484 -0.082986 0.055244397 0.03792092 -0.08865443 0.18638988 0.01565151 -0.0011293896
0.06719962 -0.5564174 0.35208496 0.108497635 0.3575118 0.20048912 -0.03164441 -0.022426983
0.15181722 -0.10081454 -0.1250555 -4.640683e-05 -0.068101175 -0.19563328 0.31005752 0.12621512
-0.062455345 0.062106572 -0.316655 0.032039452 0.009813296 0.09801825 0.13833812 0.038498845
0.06831885 0.033845376 -0.008667604 0.035809558 0.0586798 -0.03659167 0.10727459 0.014713764
0.008533341 -0.14477997 0.016322542 0.017951235 -0.19577685 -0.17649852 0.13423026 -0.10109092
-0.106173925 0.022739073 -0.18185227 -0.13967076 0.10560777 -0.113850914 -0.1312585 0.0050995843
0.43763554 0.2516963 0.47927514 -0.70149577 0.27140757 0.24154529 -0.26088572 0.28957334
-0.22965531 0.14485326 0.5336498 0.41519028 0.36681768 -0.13299643 0.34995803 -0.14000966
0.085996434 0.5540307 -0.21536559 -0.20062669 -0.3301609 0.23626857 0.62708706 -0.07383224
0.15432006 -0.20537536 0.3872181 -0.32317483 -0.0060208724 0.28356993 -0.004277382 -0.05096374
-0.60629004 -0.44780672 -0.19381666 -0.03353619 0.005449691 -0.086954884 0.03424497 0.30153292
0.13661747 -0.30864432 -0.0028235817 -0.17930983 0.39012897 -0.1348811 0.2234267 0.083140865
-0.109277084 -0.11107501 -0.3441266 0.21802332 0.015224497 0.28189692 0.31553718 -0.4423901
0.22822206 0.23839274 0.27242517 -0.25132415 -0.5567694 0.43289116 -0.12852566 -0.22926702
0.57015145 0.08276695 0.20675929 -0.3916409 -0.12132435 -0.21539687 0.53372407 -0.17857619
0.032888435 0.17281105 -0.17133999 -0.043417364 0.11727377 0.026363952 -0.12978028 -0.60446197
0.84776634 0.3554798 -0.34192818 0.52742153 0.1789392 -0.51940864 -0.22617058 0.10048859
0.06301364 -0.5179697 0.018135719 -0.3427129 0.36457422 0.29656768 0.26935285 -0.39556062
-0.045536403 -0.10402093 -0.014382307 -0.44306195 -0.2864822 -0.2741082 -0.052377205 -0.25540397
-0.2453937 0.08657161 -0.18550561 -0.20950852 0.20975164 -0.8937287 0.07517999 0.56177324
-0.3418723 0.58187735 -0.17177385 -0.28241435 -0.6237931 -0.3712693 -0.37100804 0.021884598
0.14186585 -0.6716847 0.09187816 -0.11965791 0.17096017 0.20224917 0.733321 0.26643062
-0.12493187 0.021930564 -0.7439032 0.21954982 0.18291423 0.054131053 0.12609328 0.004715065
0.6703514 0.32271206 0.33291566 0.8361733 -0.2556739 -0.04513727 -0.26701382 0.33717677
-0.43681893 0.16984148 -0.15443075 -0.21943747 -0.12519701 0.020217307 0.51301205 -0.59418774
-0.19996172 0.6008259 -0.021432567 -0.012831289 0.28653267 0.39765072 -0.25794795 0.032690182
0.2049831 0.3891685 0.053484038 -0.09062339 0.22495912 -0.13156503 -0.006547137 -0.6347337
0.4277845 -0.27220577 -0.022821533 0.44026494 -0.34923103 0.44322327 0.11841292 -0.28916413
0.20210864 0.049423125 0.5175459 -0.16609165 0.20828216 -0.07688283 0.42721343 -0.3043011
0.27346742 0.1515801 0.026704531 0.6902373 0.050724212 0.115007065 -0.37596336 -0.18099917

action.bias f4 [4]
00000000: 5500 5cbc 7802 133c 8887 77bc a482 5dbd
-0.013427814 0.008972757 -0.015107997 -0.054079667
