checkpoints/DDPG/Target_actor/DDPG_target_actor_1000.pth (torch, 183291 bytes, 10 tensors)

fc1.weight f4 [256, 41]
-0.119687356 0.3153001 0.18320702 -0.16151996 -0.1282452 -0.018372495 0.1118267 0.21113217
0.18140389 0.08902342 -0.010872921 0.21949506 0.04942278 0.07411002 0.20630032 -0.12474829
-0.2155105 -0.04665939 -0.08120257 -0.13389984 0.080336876 0.17209747 0.016784184 -0.07078413
0.0051777093 -0.022796264 0.24723504 0.01483966 0.304645 -0.06793107 -0.089348726 0.12976202
0.18890241 0.1551573 0.12296661 -0.4198047 0.2042496 0.23923923 0.046032652 0.1137202
0.020331368 -0.07952935 0.0788378 -0.1941204 0.07512393 -0.092222296 -0.0638111 -0.13283761
0.071152404 -0.00034689537 0.012642829 -0.11050955 -0.18052548 -0.11570211 -0.0143475495 0.02897846
-0.17943057 -0.07005783 -0.21665564 -0.20450243 -0.19613458 0.15763605 0.11669704 0.4041559
0.3374853 0.52837557 0.39877838 0.6413753 -0.20754695 0.312929 -0.13467072 0.16609497
0.0849001 -0.038898237 -0.13149424 -0.09680683 -0.7417066 0.17995311 -0.055020813 0.0140860295
-0.071772456 0.16301936 0.038620505 -0.24174976 0.012376688 -0.21874887 -0.21211375 -0.15896563
-0.18235448 -0.04099494 -0.14464583 -0.27183494 -0.043231335 0.13769297 0.141797 0.14221483
-0.02697413 -0.1321959 -0.09984914 0.008620031 0.019352099 -0.111300044 -0.15084316 0.0049076835
-0.16614708 -0.21889754 -0.2215767 -0.27743408 -0.26507854 -0.07898742 -0.12410682 0.06680907
0.069203235 -0.058902666 0.047038697 0.033259396 -0.075858645 0.12859865 -0.1730072 -0.18008418
0.019989477 -0.20656282 -0.056335185 0.099640846 -0.32293501 -0.13427745 -0.058056455 -0.024773328
0.013963131 -0.12933658 -0.14539447 -0.32685122 -0.20894687 -0.119380474 0.10796209 0.052406583
0.026742721 0.20188765 0.36862862 0.13281617 0.4281197 0.10018599 -0.08198981 -0.09252893
-0.24131452 -0.483756 -0.28538233 -0.20008783 -0.083584875 -0.24007279 0.023892557 -0.11198111
0.21366116 -0.07691565 -0.13398536 0.18873926 -0.06687958 -0.123118855 0.3879875 0.23380336
0.001332406 0.020663785 0.06169785 0.17326099 0.28983423 0.21316275 -0.44994953 0.029296644
-0.21785665 0.036421925 -0.11631766 -0.006485701 0.009332279 0.06863905 0.09781575 0.002123372
-0.21001995 -0.36233184 -0.5288759 -0.41480917 -0.4291769 -0.19568244 -0.37117442 -0.16467941
0.03181911 0.009721677 0.25528827 0.09928566 0.06675789 0.05783941 0.34613094 -0.0061877454
0.27546236 -0.037274048 0.016416159 -0.052026868 0.030233303 0.124160886 -0.048594862 -0.4769007
-0.23191486 -0.03834853 0.015937569 -0.22954103 0.068823725 -0.079509504 0.21747713 0.19072673
0.045981433 -0.012821685 0.06996155 0.07024294 0.19208649 0.13220596 0.19619404 0.21075153
0.07511035 -0.073269196 0.027346285 0.042761765 -0.025949452 0.018306497 -0.044027705 0.014973722
-0.083023585 -0.24632914 -0.04586786 0.04462577 0.0104057295 -0.16108496 -0.09669332 0.25985825
0.050558224 0.18048227 -0.044093125 -0.1476143 0.18648762 0.2773807 0.33727187 0.07012131
0.24595805 0.11652204 0.05114774 0.021472316 0.15186644 -0.12723869 0.33565646 -0.04142389
0.07072127 0.009588496 -0.073772475 -0.19789727 -0.07606253 -0.08566781 -0.09134773 -0.088930346
00000000: a51e f5bd 046f a13e 9f9a 3b3e 7d65 25be
00000010: b652 03be ea81 96bc 6605 e53d 0833 583e
00000020: f1c1 393e e951 b63d 5624 32bc 50c3 603e
00000030: 8a6f 4a3d ffc6 973d 6440 533e 087c ffbd
00000040: c9ae 5cbe eb1d 3fbd 884d a6bd 0a1d 09be
00000050: a987 a43d 523a 303e fc7e 893c 45f7 90bd
00000060: c6a9 a93b 3bbf babc 2f2b 7d3e 0c22 733c
00000070: 6efa 9b3e 721f 8bbd 77fc b6bd 56e0 043e
00000080: a26f 413e 8ee1 1e3e ebd5 fb3d a4f0 d6be
00000090: cf26 513e 21fb 743e bc8c 3c3d 23e6 e83d
000000a0: f88d a63c 49e0 a2bd b675 a13d 80c7 46be
000000b0: 93da 993d 0bdf bcbd 65af 82bd 9506 08be
000000c0: 5ab8 913d 82df b5b9 de23 4f3c d552 e2bd
000000d0: acdb 38be 3af5 ecbd fc11 6bbc 3c64 ed3c
000000e0: a6bc 37be 7b7a 8fbd fada 5dbe 1669 51be
000000f0: 81d7 48be 586b 213e dcfe ee3d 86ed ce3e
00000100: e0ca ac3e 9f43 073f ae2c cc3e 2c31 243f
00000110: 3087 54be 3b38 a03e 1fe7 09be cd14 2a3e
00000120: 1be0 ad3d c253 1fbd 6da6 06be a942 c6bd
00000130: 7ce0 3dbf a145 383e 815d 61bd 17c9 663c
00000140: 70fd 92bd 8cee 263e 8930 1e3d 408d 77be
00000150: 98c7 4a3c b4ff 5fbe 5934 59be e3c7 22be
00000160: 22bb 3abe 4fea 27bd 091e 14be f32d 8bbe
00000170: 5713 31bd 63ff 0c3e 3c33 113e c4a0 113e
00000180: daf8 dcbc 5d5e 07be b57d ccbd 083b 0d3c
00000190: 4b88 9e3c 47f1 e3bd a176 1abe a2d0 a03b
000001a0: 7622 2abe ad26 60be 01e5 62be d70b 8ebe
000001b0: 60b8 87be 28c4 a1bd b72b febd 32d3 883d
000001c0: 6dba 8d3d ec43 71bd a6ab 403d 013b 083d
000001d0: c75b 9bbd 5daf 033e cd28 31be fd67 38be
000001e0: f9c0 a33c 3485 53be b9bf 66bd 8010 cc3d
000001f0: bd57 a5be 0780 09be 9bcc 6dbd 6ff1 cabc
00000200: 9ec5 643c cf70 04be 4ae2 14be 0b59 a7be
00000210: 2bf6 55be c07d f4bd 3a1b dd3d 49a8 563d
00000220: 8d13 db3c a3bb 4e3e e4bc bc3e f600 083e
00000230: 8132 db3e 502e cd3d 46ea a7bd cf7f bdbd
00000240: 271b 77be deae f7be a21d 92be d3e3 4cbe
00000250: 8c2e abbd a4d5 75be 53ba c33c 5a56 e5bd
00000260: fec9 5a3e f485 9dbd 7533 09be dd44 413e
00000270: 29f8 88bd bd25 fcbd 4ca6 c63e 266a 6f3e
00000280: 20a4 ae3a 1947 a93c e2b6 7c3d 546b 313e
00000290: 2765 943e 5647 5a3e c95f e6be 84ff ef3c
000002a0: d015 5fbe 282f 153d f437 eebd 0186 d4bb
000002b0: 6ae6 183c a192 8c3d a053 c83d 4528 0b3b
000002c0: 780f 57be 8f83 b9be 6964 07bf de61 d4be
000002d0: 13bd dbbe fa60 48be 930a bebe b8a1 28be
000002e0: c154 023d ab47 1f3c 25b5 823e 4856 cb3d
000002f0: 5cb8 883d 04e9 6c3d 1338 b13e 92c2 cabb
00000300: 6709 8d3e acac 18bd 2e7b 863c 201a 55bd
00000310: d5ab f73c 1048 fe3d 680b 47bd 542c f4be
00000320: 177b 6dbe 5913 1dbd 818f 823c ce0c 6bbe
00000330: 74f3 8c3d e1d5 a2bd 53b2 5e3e de4d 433e
00000340: 0757 3c3d 0b12 52bc 0048 8f3d 88db 8f3d
00000350: 52b2 443e 0061 073e 17e7 483e 40cf 573e
00000360: 75d3 993d 290e 96bd 5105 e03c f626 2f3d
00000370: f293 d4bc 82f7 953c 6556 34bd 5854 753c
00000380: 4508 aabd b53d 7cbe f0df 3bbd 83c9 363d
00000390: cb7c 2a3c 75f3 24be 2607 c6bd 240c 853e
000003a0: 2416 4f3d 58d0 383e fe9a 34bd 3428 17be
000003b0: 9cf6 3e3e d804 8e3e e6ae ac3e c39b 8f3d
000003c0: 6ddc 7b3e 1ba3 ee3d 4b80 513d b6e6 af3c
000003d0: e082 1b3e dc4a 02be 2adb ab3e 19ac 29bd
000003e0: 50d6 903d 1119 1d3c 0616 97bd 95a5 4abe
000003f0: acc6 9bbd 9b72 afbd 8514 bbbd 1d21 b6bd

fc1.bias f4 [256]
0.111436956 -0.07684498 -0.13312267 -0.006684716 -0.08820448 0.18665694 0.10733226 0.114083834
-0.07244153 0.0548922 -0.13673382 -0.13466114 0.021302575 0.19061793 0.12954031 0.10422444
-0.017499829 0.109978 -0.06274329 -0.07285375 -0.08344992 0.19708179 0.12870494 0.12824568
0.15731615 0.20216517 -0.10299214 -0.073543146 -0.04637678 -0.1306702 0.09200442 -0.08434852
0.16687346 -0.13575235 0.116486706 -0.141588 0.12820463 -0.10849452 -0.12691583 -0.0081077255
0.09799172 0.031647272 0.18456733 -0.0695366 -0.081429675 -0.060271565 0.12290535 0.063767724
-0.13592416 -0.14290443 0.029585026 0.09669545 -0.13193154 0.11088597 -0.13099073 -0.10070396
-0.16211922 0.040354177 -0.009415852 -0.14866939 0.13781044 0.19414034 -0.014566143 -0.14279063
0.035905495 0.0616009 0.00919816 0.1417014 0.0018121776 0.227483 0.13367362 0.08734377
-0.018069603 0.14506283 -0.060431473 0.1099251 -0.077217184 -0.04375428 -0.052342962 -0.1477493
0.053176295 -0.0027056697 -0.0038795632 0.068149194 0.07005065 0.06957215 0.14659408 -0.056465242
-0.13014486 -0.0352478 0.023965787 0.034590386 -0.12740058 -0.030322382 -0.13556233 0.0062737498
-0.10681561 0.053726144 0.07623222 -0.0063143806 -0.1428888 0.17139891 -0.17975463 0.13694692
-0.06495481 -0.0884305 -0.030000875 0.065730825 0.06273449 -0.052397422 0.14399366 0.12762633
0.14090544 0.047201615 -0.14011694 0.12263121 -0.07714187 0.09411603 0.11664392 -0.034630127
0.11585346 -0.17142774 -0.101281404 0.02977737 0.1539285 -0.108548634 -0.12169514 -0.1217612
-0.13287419 -0.121309295 0.09593473 0.13638738 -0.12919751 0.17657259 0.12494785 -0.016683605
0.13899656 0.073223524 -0.12187247 -0.1144481 -0.008498323 -0.09661334 -0.13844934 -0.06329874
0.048996825 -0.077380694 0.09136749 -0.013035481 -0.13964884 0.13260566 -0.09394632 0.029527705
0.16090524 0.062707275 -0.010313156 0.081522524 -0.13704829 -0.1405326 -0.1467626 0.0235218
0.10584985 0.10704152 0.144117 0.084139235 0.12446606 -0.11312754 -0.021646535 -0.04563228
0.009066645 -0.12877657 -0.17657314 -0.12205686 -0.13728365 0.142683 0.077678785 -0.0884247
0.15149705 -0.022347217 -0.1260149 -0.02908819 0.06627587 0.11137762 -0.0931463 -0.09856993
0.0015826953 -0.0515536 -0.066685915 -0.20898426 -0.077149846 -0.029308595 0.123502776 -0.12219537
0.0042016204 0.08857365 0.07097739 0.19869746 -0.11727408 0.13210672 -0.1671494 0.08202629
-0.10566999 -0.07496954 0.14525166 0.09632251 -0.12383687 0.18143897 -0.0610727 -0.031331964
0.029874776 0.1676447 -0.03806417 0.15245447 0.020407902 -0.13068724 -0.10078568 -0.048250433
0.18916442 0.10365477 0.16744035 0.10102541 -0.15872952 0.12099321 0.08307454 0.18149869
-0.14555152 -0.019735971 -0.048786122 0.17794628 0.08831892 0.10961439 0.03817485 -0.13129775
-0.012779019 0.116401516 -0.09551071 0.14919893 -0.078023575 0.13407217 0.032781538 0.077679075
0.052398924 -0.015063799 -0.07761694 0.096824564 -0.067563534 -0.15584177 -0.04548783 -0.027497604
-0.15752476 -0.032642823 -0.06302001 0.121637404 -0.10155736 0.10234056 -0.043862484 0.16038826
00000000: 0f39 e43d e760 9dbd 4f51 08be 760b dbbb
00000010: 8da4 b4bd ff22 3f3e 04d1 db3d c9a4 e93d
00000020: 3a5c 94bd a5d6 603d f303 0cbe 9ce4 09be
00000030: bd82 ae3c 5931 433e 37a6 043e a073 d53d
00000040: cd5b 8fbc 253c e13d 8e7f 80bd 5934 95bd
00000050: cbe7 aabd cfcf 493e 3acb 033e d652 033e
00000060: 7c17 213e 6304 4f3e 8bed d2bd ca9d 96bd
00000070: 94f5 3dbd 69ce 05be d06c bc3d ebbe acbd
00000080: e0e0 2a3e aa02 0bbe 9590 ee3d 72fc 10be
00000090: 1348 033e 6032 debd 39f6 01be 44d6 04bc
000000a0: e2af c83d 92a0 013d 38ff 3c3e 3469 8ebd
000000b0: 9ac4 a6bd 51df 76bd cdb5 fb3d a798 823d
000000c0: b42f 0bbe 8a55 12be 4c5c f23c 4408 c63d
000000d0: 1019 07be 2f18 e33d 6f22 06be e13d cebd
000000e0: 9502 26be 6c4a 253d f244 1abc ca3c 18be
000000f0: 2e1e 0d3e bacc 463e d5a6 6ebc b537 12be
00000100: a411 133d 3a51 7c3d e1b3 163c 2c1a 113e
00000110: 9786 ed3a 4ef1 683e bde1 083e 4ae1 b23d
00000120: b406 94bc 5a8b 143e fe86 77bd 6920 e13d
00000130: 0b24 9ebd b037 33bd 9365 56bd 984b 17be
00000140: 63cf 593d 9b51 31bb 4540 7ebb ce91 8b3d
00000150: b776 8f3d d87b 8e3d c21c 163e 1948 67bd
00000160: b244 05be ff5f 10bd e653 c43c a6ae 0d3d
00000170: 4c75 02be a566 f8bc dad0 0abe 0794 cd3b
00000180: 24c2 dabd f20f 5c3d a31f 9c3d dde8 cebb
00000190: 7151 12be 3283 2f3e 9911 38be d03b 0c3e
000001a0: 0707 85bd 0d1b b5bd 65c4 f5bc e29d 863d
000001b0: f17a 803d ae9e 56bd 1373 133e 7ab0 023e
000001c0: 8449 103e 7b56 413d d17a 0fbe 1226 fb3d
000001d0: 8ffc 9dbd e8bf c03d 02e3 ee3d 52d8 0dbd
000001e0: 9444 ed3d c18a 2fbe a06c cfbd acef f33c
000001f0: 6f9f 1d3e bf4e debd 4d3b f9bd f05d f9bd
00000200: 2c10 08be 0271 f8bd 6d79 c43d 22a9 0b3e
00000210: 5a4c 04be 72cf 343e a9e4 ff3d 0eac 88bc
00000220: 1d55 0e3e 37f6 953d 4698 f9bd c463 eabd
00000230: 8d3c 0bbc 37dd c5bd aac5 0dbe c5a2 81bd
00000240: e5b0 483d c579 9ebd e11e bb3d c592 55bc
00000250: 1b00 0fbe c7c9 073e ee66 c0bd 16e4 f13c
00000260: 58c4 243e ac6c 803d 83f8 28bc 48f5 a63d
00000270: 6356 0cbe c7e7 0fbe ef48 16be cab0 c03c
00000280: cec7 d83d 9638 db3d 6893 133e 3151 ac3d
00000290: 10e8 fe3d 69af e7bd 1354 b1bc eae8 3abd
000002a0: 448c 143c 01de 03be 97cf 34be f2f8 f9bd
000002b0: 1694 0cbe 7e1b 123e 0e16 9f3d 0218 b5bd
000002c0: 0b22 1b3e 8311 b7bc 0d0a 01be 5b4a eebc
000002d0: a5bb 873d f319 e43d 7dc3 bebd 08df c9bd
000002e0: 7172 cf3a de29 53bd a092 88bd f8ff 55be
000002f0: bd00 9ebd 9418 f0bc 06ef fc3d 9141 fabd
00000300: bfad 893b 1a66 b53d 985c 913d 5977 4b3e
00000310: 652d f0bd fc46 073e 3629 2bbe 66fd a73d
00000320: 8269 d8bd a189 99bd dabc 143e bc44 c53d
00000330: 2f9e fdbd 23cb 393e 5e27 7abd f255 00bd
00000340: f2bb f43c 0dab 2b3e 2de9 1bbd 061d 1c3e
00000350: 792e a73c e0d2 05be b968 cebd 3fa2 45bd
00000360: 51b4 413e f448 d43d 7c75 2b3e 69e6 ce3d
00000370: fe89 22be 4acb f73d fc22 aa3d cbda 393e
00000380: 750b 15be 55ad a1bc f5d3 47bd 8d37 363e
00000390: 8de0 b43d 827d e03d 3b5d 1c3d eb72 06be
000003a0: 175f 51bc eb63 ee3d 1e9b c3bd 9bc7 183e
000003b0: d3ca 9fbd 374a 093e ef45 063d 3516 9f3d
000003c0: 41a0 563d 27ce 76bc a1f5 9ebd f54b c63d
000003d0: c05e 8abd fc94 1fbe 7251 3abd a842 e1bc
000003e0: 2c4e 21be 7bb4 05bd a310 81bd 081d f93d
000003f0: 4efd cfbd ed97 d13d 26a9 33bd d23c 243e

ln1.weight f4 [256]
0.8569079 1.2119479 0.7990847 0.87112474 1.0257894 1.1800517 1.290508 0.94499564
1.647141 1.2918279 1.1112766 0.9344879 0.9893644 1.1021335 1.2562684 0.99929684
1.286858 1.2234762 1.0097823 0.91619956 1.0369525 1.4496988 1.007452 1.0647693
1.132847 1.2881459 0.90474993 0.82276577 1.1400176 1.1940737 0.7910383 0.941434
1.0702373 1.0652467 0.86520356 1.1307007 1.0421902 1.0816565 1.0943664 0.895822
0.7689311 0.86179733 1.2949444 0.8813504 0.9464903 0.8994228 0.97158 0.8927267
0.9702784 0.90642476 0.9599192 1.0310435 0.9648881 0.78334427 0.9534224 0.9892822
1.4268601 1.1564453 1.0752527 0.92903745 0.91864204 1.7619325 0.8834183 1.0527809
1.8535973 0.9745173 0.89412206 0.9943997 1.0961231 1.1804203 1.1313493 0.8982253
0.99510074 1.0056622 0.7478296 0.99900764 0.88297856 1.6464204 0.8774753 0.9972419
0.9281204 1.0603794 1.3809568 1.000223 0.9041466 0.88329893 1.0825111 0.91711617
1.1966884 0.84571296 0.81384677 1.1290928 0.98033327 0.9764968 0.9715666 1.0854678
1.0580386 1.2339488 1.9577124 0.9272365 1.0714816 1.1567507 1.0653266 1.0076251
1.0446603 0.81603116 0.9101842 1.4120846 0.9566915 1.1034945 1.0431193 1.4159883
1.076862 0.7999335 1.0148925 1.0830603 1.3984214 1.0045391 1.177717 0.8877682
1.1097465 1.1486841 0.97223306 1.6344379 1.0281229 1.4905834 1.4361396 1.0791177
0.99913025 1.0866729 1.4448754 1.0390598 1.0497658 1.2591711 0.99366766 0.8593172
1.1083899 0.9698751 0.9682561 1.136613 0.682668 1.1640481 1.0820388 1.5667019
0.7102349 1.1369679 0.89309955 0.6066207 0.99736005 1.0405957 1.3842391 1.0174258
1.0486004 0.62833256 1.0589868 0.8521417 0.9309417 1.0061831 1.0005882 1.1052109
1.4521779 0.9466345 0.8635849 1.3433532 0.97650725 0.80129397 1.0519633 1.2295812
1.3595228 1.1033946 0.9708833 0.9650389 1.0099466 0.9512105 1.253179 1.2678219
0.9180007 1.0943862 1.037027 0.8621077 0.98805195 1.430379 0.9092105 1.1587071
1.1671838 1.0127913 1.1501715 1.3649651 1.3244181 1.1764069 1.3649975 0.8133731
1.0744841 1.9697504 1.4428236 1.1424435 0.868077 1.7508109 0.9685392 0.8340066
1.1165738 0.9701968 1.0354095 0.813712 1.0340694 1.1802537 1.4025668 1.0053726
1.2826524 1.612842 0.8249864 1.4289005 1.4462799 0.88576275 0.7899802 0.7447144
1.1144457 1.2188331 1.0753547 0.960141 1.2147841 1.3003712 1.5721198 1.1907005
1.1727148 1.1959095 0.80907977 1.2011949 0.86507946 0.9837874 0.94479036 0.9800018
1.6658334 0.96868265 0.93946505 0.9216936 1.0495596 1.958152 0.73819983 2.3591678
1.2181932 1.8390759 0.8554826 0.9513415 0.8927378 0.92668664 1.0390252 0.7987976
0.8798047 1.5036942 1.2854884 0.75870526 1.080365 1.2335727 1.1018392 1.3905648
00000000: 515e 5b3f 1c21 9b3f d190 4c3f 0802 5f3f
00000010: 114d 833f ef0b 973f 5e2f a53f 3ceb 713f
00000020: 84d5 d23f 9e5a a53f 503e 8e3f 993a 6f3f
00000030: fc46 7d3f b612 8d3f 67cd a03f ebd1 7f3f
00000040: c3b7 a43f de9a 9c3f 8c40 813f 0e8c 6a3f
00000050: dcba 843f bb8f b93f 30f4 803f 5c4a 883f
00000060: 2101 913f f7e1 a43f b19d 673f c7a0 523f
00000070: 19ec 913f 68d7 983f 7c81 4a3f d201 713f
00000080: 89fd 883f 015a 883f fb7d 5d3f cdba 903f
00000090: 7d66 853f b873 8a3f 3314 8c3f 9754 653f
000000a0: abd8 443f c09e 5c3f bdc0 a53f 2ea0 613f
000000b0: 304d 723f 9340 663f 78b9 783f bd89 643f
000000c0: 2a64 783f 740b 683f 44bd 753f 3cf9 833f
000000d0: e802 773f 4089 483f 7e13 743f 9941 7d3f
000000e0: 5aa3 b63f 6606 943f e1a1 893f 66d5 6d3f
000000f0: 202c 6b3f 0187 e13f b427 623f 86c1 863f
00000100: ad42 ed3f f779 793f 2fe5 643f fb90 7e3f
00000110: c34d 8c3f 0318 973f 0ed0 903f 18f2 653f
00000120: ecbe 7e3f 8ab9 803f c371 3f3f f7be 7f3f
00000130: e20a 623f e7bd d23f 39a2 603f 3f4b 7f3f
00000140: 4c99 6d3f 83ba 873f 31c3 b03f 4f07 803f
00000150: 2776 673f e11f 623f b98f 8a3f 20c8 6a3f
00000160: 162d 993f a580 583f 4358 503f 1d86 903f
00000170: 1ff7 7a3f b2fb 793f 97b8 783f 9cf0 8a3f
00000180: cf6d 873f 09f2 9d3f 5296 fa3f 5f5f 6d3f
00000190: 4f26 893f 6810 943f 9f5c 883f dcf9 803f
000001a0: 6eb7 853f 6be7 503f d501 693f 30bf b43f
000001b0: bce9 743f 4f3f 8d3f ef84 853f 1b3f b53f
000001c0: 9dd6 893f 71c8 4c3f ffe7 813f b8a1 8a3f
000001d0: 79ff b23f bd94 803f 6ebf 963f c744 633f
000001e0: 2c0c 8e3f 1508 933f 44e4 783f 4335 d13f
000001f0: 8899 833f 70cb be3f 6cd3 b73f 8720 8a3f
00000200: 00c7 7f3f 1918 8b3f adf1 b83f e9ff 843f
00000210: ba5e 863f 852c a13f 0161 7e3f 36fc 5b3f
00000220: b8df 8d3f bc49 783f a2df 773f 897c 913f
00000230: 54c3 2e3f 87ff 943f 3f80 8a3f b089 c83f
00000240: f4d1 353f 2a88 913f 2ca2 643f 7f4b 1b3f
00000250: fd52 7f3f 3d32 853f bf2e b13f 023b 823f
00000260: 8a38 863f 67da 203f e18c 873f f525 5a3f
00000270: 3252 6e3f 9cca 803f 4613 803f 8d77 8d3f
00000280: f7e0 b93f a356 723f e613 5d3f fff2 ab3f
00000290: 61fc 793f 9a21 4d3f bca6 863f eb62 9d3f
000002a0: d804 ae3f 093c 8d3f cf8b 783f ca0c 773f
000002b0: ee45 813f 8882 733f 2b68 a03f fd47 a23f
000002c0: 1802 6b3f d914 8c3f 4dbd 843f 17b3 5c3f
000002d0: f9f0 7c3f a916 b73f 05c2 683f 8450 943f
000002e0: 4766 953f 25a3 813f d238 933f 2db7 ae3f
000002f0: 8886 a93f 8094 963f 3db8 ae3f 3839 503f
00000300: b288 893f c820 fc3f 72ae b83f 973b 923f
00000310: 4b3a 5e3f 921a e03f 2ff2 773f 7581 553f
00000320: e4eb 8e3f d15e 783f 4c88 843f 6e4f 503f
00000330: 635c 843f 8e12 973f 4f87 b33f 0db0 803f
00000340: f42d a43f 9b71 ce3f 4f32 533f 36e6 b63f
00000350: b31f b93f 59c1 623f 243c 4a3f 9aa5 3e3f
00000360: 28a6 8e3f b902 9c3f 39a5 893f cdcb 753f
00000370: 0c7e 9b3f 9072 a63f 393b c93f e068 983f
00000380: 851b 963f 9013 993f da1f 4f3f c1c0 993f
00000390: d975 5d3f 7ed9 7b3f c8dd 713f 66e1 7a3f
000003a0: 073a d53f 96fb 773f c880 703f 1df4 6b3f
000003b0: f857 863f baa4 fa3f aafa 3c3f 9bfc 1640
000003c0: c1ed 9b3f d766 eb3f e800 5b3f 1e8b 733f
000003d0: 778a 643f 563b 6d3f c7fe 843f 007e 4c3f
000003e0: e13a 613f 0d79 c03f e28a a43f 823a 423f
000003f0: 6649 8a3f b6e5 9d3f 1109 8d3f 07fe b13f

ln1.bias f4 [256]
-0.13745978 -0.047145307 -0.15282628 -0.109491564 -0.13948207 0.042829607 -0.033281915 -0.1325578
0.0413277 -0.09420164 -0.08266926 -0.04197415 -0.09895576 0.025705116 0.07207498 -0.008680703
-0.003845643 -0.05090463 0.022247363 -0.09461903 -0.017320704 -0.04331439 0.04100186 0.011579956
0.045454722 0.1792621 -0.09059774 -0.18876196 0.09308871 0.013967018 -0.107946716 -0.0831989
0.00054236216 -0.010392699 -0.15626295 0.000772333 -0.08391547 0.010772586 -0.017461251 -0.05166658
-0.2605528 -0.10860455 0.23912318 -0.21354173 -0.18481688 -0.038116258 -0.072166026 -0.12044777
-0.03440396 -0.127019 -0.045902744 -0.07554387 -0.025903044 -0.25980285 -0.10400982 0.028700436
0.0073890765 -0.10498157 0.04028401 -0.07464092 -0.024813192 0.028376512 -0.08903745 -0.0006515995
0.062310144 -0.10926014 -0.19823168 -0.06715093 -0.09623844 0.11155281 -0.22813663 -0.07128253
-0.003745844 -0.030520016 -0.22227165 -0.12691125 -0.107241236 0.08229766 -0.15561537 -0.052047923
-0.14617707 -0.046018057 -0.012960879 -0.14077047 -0.17807965 -0.22275943 0.025982196 -0.1337549
-0.107215576 -0.17718235 -0.19565737 0.03719025 -0.040857997 -0.04210387 -0.058487635 0.021382613
-0.116989575 -0.057920545 0.08265852 -0.13799202 -0.025939718 0.11607088 -0.0295859 0.052026905
0.07842428 -0.2498207 -0.20338653 -0.011985181 -0.18031198 -0.058102246 -0.112564966 -0.042712085
-0.0685094 -0.15305708 4.191984e-05 -0.07050036 -0.031536 -0.02696096 -0.066095375 -0.115909465
0.014849383 -0.12336835 -0.045595627 -0.12964523 -0.020737166 -0.11966222 0.020382173 -0.034149602
0.0084862355 -0.03331085 -0.093099646 0.019222766 -0.02197702 0.03291743 -0.18840693 -0.15797831
-0.11005992 -0.036682114 -0.03820218 0.027106311 -0.31114513 0.037567142 -0.02603311 -0.10740149
-0.27518237 -0.1775064 -0.12655348 -0.40651593 0.0014831736 -0.033185106 0.028134044 -0.33030376
-0.004853976 -0.3701656 0.041786987 -0.17106767 -0.054457568 -0.041945968 -0.05969905 -0.005650218
0.09985263 -0.09914497 -0.16434585 -0.06894589 -0.038817037 -0.15127937 -0.0649458 -0.08568281
-0.10950909 -0.011561485 -0.040209267 -0.045413848 -0.001039988 -0.08747274 -0.092121646 -0.014498822
-0.18942274 -0.06711795 -0.02079627 -0.09489647 -0.075902164 -0.11402423 -0.072392054 0.038111478
-0.1686832 -0.16938315 -0.007418029 -0.019285755 -0.09758115 -0.048077997 0.0010556085 -0.09165771
-0.07492531 0.028696021 0.053356983 0.0076096617 -0.097422324 0.17709315 -0.009951803 -0.1916653
-0.06070907 -0.1428928 -0.05368338 -0.2095669 -0.017979464 0.017786397 0.002218043 -0.062150806
-0.026660291 0.016731149 -0.12696016 -0.06810388 -0.057938974 -0.11927248 -0.21409905 -0.29670402
0.085853815 -0.04296126 -0.01573006 -0.12871748 0.011285012 0.042790465 -0.018058129 -0.07587914
0.00019036986 -0.13111432 -0.18142901 0.116550215 -0.14657111 -0.018002292 -0.11271024 -0.050419573
-0.005428264 -0.055935007 -0.055690706 -0.087376 -0.13458581 0.013239926 -0.22996955 0.11623886
-0.0014543282 -0.01636952 -0.30462518 -0.28701 -0.118660055 -0.070476815 -0.07693893 -0.19231339
-0.11331653 -0.016555332 -0.017537873 -0.153079 -0.033516504 0.16747576 -0.07853709 0.043357696
00000000: 42c2 0cbe 701b 41bd 7e7e 1cbe 1d3d e0bd
00000010: 63d4 0ebe 196e 2f3d 9e52 08bd 3bbd 07be
00000020: 3c47 293d caec c0bd 804e a9bd 16ed 2bbd
00000030: 51a9 cabd 8993 d23c 0c9c 933d 8239 0ebc
00000040: 2f07 7cbb 6081 50bd 1a40 b63c 9fc7 c1bd
00000050: 26e4 8dbc 6e6a 31bd 91f1 273d dbb9 3d3c
00000060: bb2e 3a3d 7c90 373e 4f8b b9bd d14a 41be
00000070: 4ba5 be3d ebd5 643c 2b13 ddbd 2f64 aabd
00000080: 4f2d 0e3a 2446 2abc 6503 20be 6476 4a3a
00000090: e0db abbd 807f 303c e60a 8fbc 56a0 53bd
000000a0: 2d67 85be 106c debd b5dc 743e afaa 5abe
000000b0: a340 3dbe cb1f 1cbd c8cb 93bd 52ad f6bd
000000c0: 2beb 0cbd 4511 02be 8404 3cbd bfb6 9abd
000000d0: 9f32 d4bc e104 85be 1a03 d5bd 2d1d eb3c
000000e0: 1120 f23b 9400 d7bd d900 253d 57dd 98bd
000000f0: 0945 cbbc dc75 e83c 4459 b6bd 1ad0 2aba
00000100: ec38 7f3d c8c3 dfbd 3ffd 4abe 6d86 89bd
00000110: a918 c5bd cd75 e43d a69c 69be 93fc 91bd
00000120: d57c 75bb 1d05 fabc 2e9b 63be 06f5 01be
00000130: 4ba1 dbbd ad8b a83d a359 1fbe 3430 55bd
00000140: 71af 15be 6e7d 3cbd de59 54bc 2226 10be
00000150: 835a 36be 0c1b 64be 9dd8 d43c 0bf7 08be
00000160: d793 dbbd 4a6f 35be 685a 48be ce54 183d
00000170: b75a 27bd 1c75 2cbd bb90 6fbd 972a af3c
00000180: 3b98 efbd 183e 6dbd df48 a93d c84d 0dbe
00000190: 887f d4bc 92b6 ed3d 215e f2bc 2a1a 553d
000001a0: e99c a03d ffd0 7fbe 8f44 50be 7e5d 44bc
000001b0: b4a3 38be 9ffc 6dbd 7688 e6bd def2 2ebd
000001c0: a84e 8cbd ffba 1cbe 16d3 2f38 7e62 90bd
000001d0: e52b 01bd 3bdd dcbc 035d 87bd f161 edbd
000001e0: d44a 733c 8ca8 fcbd 7bc2 3abd b8c1 04be
000001f0: fde0 a9bc 7711 f5bd 84f8 a63c 74e0 0bbd
00000200: da09 0b3c f570 08bd 07ab bebd 1079 9d3c
00000210: 2709 b4bc 6dd4 063d bfed 40be 11c5 21be
00000220: 1867 e1bd fc3f 16bd e479 1cbd 0e0e de3c
00000230: 6a4e 9fbe 01e0 193d 6443 d5bc 50f5 dbbd
00000240: b4e4 8cbe 3dc4 35be 3c97 01be db22 d0be
00000250: 0c67 c23a 1bed 07bd 5e79 e63c 931d a9be
00000260: 1a0e 9fbb 5886 bdbe d528 2b3d 5d2c 2fbe
00000270: e60e 5fbd 89cf 2bbd fe86 74bd 7725 b9bb
00000280: 897f cc3d 850c cbbd 474a 28be 8133 8dbd
00000290: 9dfe 1ebd fbe8 1abe 4e02 85bd 787a afbd
000002a0: 4d46 e0bd 626c 3dbc 79b2 24bd df03 3abd
000002b0: 3550 88ba e824 b3bd 46aa bcbd 788c 6dbc
000002c0: 09f8 41be 2375 89bd f05c aabc 1559 c2bd
000002d0: 9872 9bbd 8985 e9bd 4942 94bd c81a 1c3d
000002e0: 4abb 2cbe c772 2dbe f012 f3bb 29fd 9dbc
000002f0: a0d8 c7bd 6fed 44bd 585c 8a3a 0ab7 bbbd
00000300: 7172 99bd eb13 eb3c da8c 5a3d 785a f93b
00000310: 5b85 c7bd e857 353e e30c 23bc e943 44be
00000320: 13aa 78bd 7d52 12be 1be3 5bbd b598 56be
00000330: ab49 93bc c7b4 913c 965c 113b d891 7ebd
00000340: af66 dabc c30f 893c d801 02be 0c7a 8bbd
00000350: 6b51 6dbd 2145 f4bd c83c 5bbe 97e9 97be
00000360: 20d4 af3d 25f8 2fbd 54dc 80bc 84ce 03be
00000370: c5e4 383c 0e45 2f3d a4ee 93bc 8666 9bbd
00000380: 059e 4739 d542 06be 87c8 39be e1b1 ee3d
00000390: bd16 16be 8b79 93bc a0d4 e6bd c184 4ebd
000003a0: 94df b1bb 1b1c 65bd f01b 64bd 30f2 b2bd
000003b0: ddd0 09be 46ec 583c 237d 6bbe a40e ee3d
000003c0: 289f beba 5f19 86bc d5f7 9bbe faf2 92be
000003d0: 0b04 f3bd 2656 90bd 2892 9dbd cded 44be
000003e0: 7f12 e8bd 0c9f 87bc 96ab 8fbc bec0 1cbe
000003f0: 9a48 09bd c47e 2b3e 0ed8 a0bd d797 313d

fc2.weight f4 [128, 256]
-0.03829336 0.011058215 0.033271965 -0.040909793 -0.0028567316 0.01505007 0.01952425 0.11063016
0.13299379 0.30858135 0.024047768 0.0141672045 -0.07510112 -0.14166547 -0.017157307 0.049103256
0.16290542 0.13516806 -0.05124124 0.08522799 0.07553902 -0.18405595 -0.068114415 -0.030887468
0.07749642 -0.3509486 0.06260397 0.08673928 0.051275052 -0.0016542788 -0.08817278 0.09454325
-0.17484291 0.037372123 -0.03737946 -0.03923328 -0.096073754 0.027764138 0.028408846 0.1697777
-0.001040845 -0.043361597 -0.13577285 0.0023523655 0.14917628 0.033572465 0.09918643 -0.006486145
0.0896944 0.067450106 0.116546884 -0.18938243 0.13502274 -0.017146423 0.049889658 0.12242384
-0.30208072 0.2693159 0.16783884 -0.037282497 -0.010622668 -0.7213313 0.02017487 0.019113947
-0.5497941 0.03981552 0.08222985 0.049087483 -0.08279481 0.15386738 0.33669558 -0.032731727
0.18330662 -1.1859836e-05 0.19547546 0.13961174 0.05795582 -0.13013615 0.11392296 -0.033074263
0.10979862 0.095468774 0.3141828 0.022093838 -0.028158387 0.051187612 0.02068723 0.02937059
0.09830016 0.13524158 0.2643883 0.01749555 0.09042373 0.085582644 0.01804129 0.08630656
-0.025278958 0.26415935 0.2687631 0.19845043 0.12799393 0.2934747 -0.14666334 -0.14748712
0.06408971 0.038930975 0.1178447 -0.037669554 0.034455825 0.27754185 -0.22980271 -0.25253248
0.11578936 0.046843074 -0.12176168 0.16382508 0.15313388 0.14631744 0.025453335 0.26925966
0.064298585 0.18066524 -0.1711402 0.43625772 -0.06726871 0.25568897 0.008702131 0.022599582
-0.00039060967 0.039486837 0.122902565 0.1279345 0.103063054 0.26603952 0.0006850689 -0.12903316
0.17524299 -0.06346083 0.033344466 0.09333101 0.11562019 -0.25041935 0.08471631 0.376367
-0.038260993 -0.07029502 0.047566816 0.031913467 0.08237097 -0.018784136 0.112779215 0.22412539
0.02494972 -0.014563309 0.083264306 0.041409377 -0.016076455 0.07115192 -0.08579494 0.052532434
1.0269516 0.06495934 0.15527281 0.27640334 0.0536601 -0.033309713 -0.05142598 0.06594584
-0.042726126 0.04411744 0.12019816 0.06498825 0.10216016 0.037354402 0.08450554 0.0031454668
-0.16661371 0.10431911 0.07622841 0.055987388 0.16776124 -0.11156006 -0.004678188 0.033061955
0.23478363 0.10614594 0.08296807 0.15190354 0.2548254 0.11516582 0.1761905 0.09136814
0.250583 1.242679 0.17555298 0.09195736 0.15934975 1.0958941 -0.0068654637 0.16564335
0.15098616 0.06069826 0.005844328 -0.023023162 -0.0016908703 0.09447794 0.1465647 0.16878186
0.34091568 0.24874301 -0.065484166 0.08241768 0.20430702 0.045458052 0.12525132 -0.0118044205
0.17747086 -0.18933152 -0.07083475 0.15569319 -0.0470991 0.16642219 -0.040269352 0.050890855
0.16864714 0.058349922 0.017105058 0.023682533 0.1917069 -0.032515645 -0.008473944 0.030956691
0.48999664 0.06508076 0.05208181 0.1446407 -0.010522786 0.3498936 0.12738833 0.4750965
0.3040011 -0.50255436 0.00049046 0.2310934 0.081259795 -0.037785895 0.14701775 0.07597055
0.047108904 -0.07058094 -0.04522359 0.11677972 -0.06430696 0.08259869 0.011157157 0.37437543
00000000: 80d9 1cbd 842d 353c 2f48 083d 0791 27bd
00000010: 0138 3bbb 9294 763c 52f1 9f3c 1192 e23d
00000020: 862f 083e 60fe 9d3e d3ff c43c 901d 683c
00000030: 9ece 99bd c110 11be 7b8d 8cbc 7f20 493d
00000040: aed0 263e 7f69 0a3e 56e2 51bd 038c ae3d
00000050: 34b4 9a3d 2a79 3cbe 927f 8bbd b707 fdbc
00000060: 71b6 9e3d 89af b3be 8336 803d 5da4 b13d
00000070: ca05 523d 63d4 d8ba ee93 b4bd e49f c13d
00000080: 050a 33be 8313 193d 341b 19bd 13b3 20bd
00000090: 51c2 c4bd 9e71 e33c abb9 e83c 35da 2d3e
000000a0: f66c 88ba ee9b 31bd 0a08 0bbe 252a 1a3b
000000b0: abc1 183e 4883 093d 4122 cb3d ba89 d4bb
000000c0: b3b1 b73d 4823 8a3d 22b0 ee3d 78ed 41be
000000d0: 6743 0a3e a876 8cbc 1959 4c3d 5ab9 fa3d
000000e0: 53aa 9abe c6e3 893e f2dd 2b3e 88b5 18bd
000000f0: b30a 2ebc 2ba9 38bf c545 a53c da94 9c3c
00000100: 4ebf 0cbf 9915 233d 2068 a83d f50f 493d
00000110: 5390 a9bd 698f 1d3e 5d63 ac3e b411 06bd
00000120: bbb4 3b3e 9cf9 46b7 b82a 483e 61f6 0e3e
00000130: 1563 6d3d 6942 05be 7150 e93d e178 07bd
00000140: 19de e03d 2285 c33d 91dc a03e 23fe b43c
00000150: 6bac e6bc 1aaa 513d 4478 a93c 979a f03c
00000160: 9851 c93d c57c 0a3e e75d 873e d452 8f3c
00000170: 1430 b93d f445 af3d 54cb 933c 7ec1 b03d
00000180: d115 cfbc e53f 873e 519b 893e 9736 4b3e
00000190: d710 033e 5142 963e ea2e 16be dd06 17be
000001a0: 7741 833d 1676 1f3d 9058 f13d 644b 1abd
000001b0: 8d21 0d3d f719 8e3e 6751 6bbe f04b 81be
000001c0: f922 ed3d 86de 3f3d 305e f9bd c3c1 273e
000001d0: 21cf 1c3e 3dd4 153e 8383 d03c 67dc 893e
000001e0: faae 833d 4f00 393e 603f 2fbe 2c5d df3e
000001f0: 2dc4 89bd aae9 823e 6293 0e3c c222 b93c
00000200: beca ccb9 f3bc 213d 57b4 fb3d 4301 033e
00000210: b912 d33d 5536 883e 3296 333a 4521 04be
00000220: e672 333e c0f7 81bd 3594 083d 5424 bf3d
00000230: 47ca ec3d f736 80be bf7f ad3d 2db3 c03e
00000240: 8fb7 1cbd d6f6 8fbd 6cd5 423d b2b7 023d
00000250: 1cb2 a83d 30e1 99bc caf8 e63d 2081 653e
00000260: 5b63 cc3c f29a 6ebc 7a86 aa3d e19c 293d
00000270: c5b2 83bc 19b8 913d 42b5 afbd 402c 573d
00000280: 2673 833f 6709 853d d6ff 1e3e bd84 8d3e
00000290: b1ca 5b3d c46f 08bd 0ca4 52bd 9d0e 873d
000002a0: 9701 2fbd 7db4 343d 742a f63d 8f18 853d
000002b0: 5939 d13d ee00 193d 3e11 ad3d 2d24 4e3b
000002c0: c99c 2abe 42a5 d53d a41d 9c3d 0853 653d
000002d0: 9ac9 2b3e 9a79 e4bd 7c4b 99bb f96b 073d
000002e0: 1f6b 703e 0b63 d93d 2aeb a93d 9a8c 1b3e
000002f0: 7a78 823e 0fdc eb3d 486b 343e 381f bb3d
00000300: 6a4c 803e 1b10 9f3f 29c4 333e 2454 bc3d
00000310: 952c 233e 4246 8c3f aff7 e0bb 699e 293e
00000320: 1e9c 1a3e bd9e 783d c781 bf3b 129b bcbc
00000330: 31a0 ddba a67d c13d 0f15 163e 27d5 2c3e
00000340: 808c ae3e 7db6 7e3e 901c 86bd 9aca a83d
00000350: dc35 513e 3932 3a3d e241 003e 5467 41bc
00000360: ecba 353e 1fe0 41be cf11 91bd 096e 1f3e
00000370: fcea 40bd 946a 2a3e 7af1 24bd ee72 503d
00000380: d6b1 2c3e 5400 6f3d e81f 8c3c df01 c23c
00000390: d04e 443e 202f 05bd 4cd6 0abc e398 fd3c
000003a0: d7e0 fa3e 1049 853d bc53 553d b11c 143e
000003b0: c367 2cbc 4125 b33e 1672 023e d93f f33e
000003c0: 08a6 9b3e 67a7 00bf 3792 003a c0a3 6c3e
000003d0: 896b a63d 62c5 1abd d28b 163e 7396 9b3d
000003e0: 44f5 403d bd8c 90bd 5f3c 39bd 352a ef3d
000003f0: 5eb3 83bd 8129 a93d 82cc 363c 23ae bf3e

fc2.bias f4 [128]
0.056730237 -0.035688628 -0.19922432 -0.006892877 0.0162155 0.022617195 0.0015060779 -0.0013887696
0.0755191 -0.00021464814 0.035941444 0.02412388 0.0038892806 -0.010640285 0.017700695 -0.0026041858
0.012933182 0.024698498 0.41599903 0.047731213 0.029870408 -0.0027534678 0.016795233 -0.013974235
0.020643359 0.060124233 0.016111149 0.08455462 0.061082173 0.005635079 0.034787618 -0.0045266054
0.016334007 0.024608549 0.023824418 0.028068867 -0.007715459 0.015879877 0.01506447 0.012920996
-0.03009539 0.031909596 0.013680924 0.0014877785 0.0064370283 0.044290394 0.07244587 0.03381912
0.05319097 0.06860917 0.025466505 0.023479948 0.003275126 0.004707277 0.017330475 0.035537716
0.06255178 0.0133863315 0.01986899 0.059187748 0.020580059 0.021786898 -0.0015225544 0.048828427
0.041391164 0.01810353 -0.0011135153 0.011756865 0.0008852267 0.01646778 0.0030787182 0.047715176
0.0009748823 0.04804496 0.043690614 0.015829353 0.046366367 0.010323574 0.0259273 0.01037959
0.0048104054 -0.6471634 0.05691176 0.035486598 0.03238773 0.035380285 0.026558114 0.031032069
0.053537447 0.008961362 0.05412294 0.028550645 0.017609416 0.06215537 0.018008836 -0.0054801893
-0.06818189 0.026924023 0.051058307 0.015409145 0.038372967 0.01276537 0.015169632 0.0147942575
0.0048506353 0.030100355 0.03723083 0.017983418 0.034770243 0.16673413 0.04734396 0.0065195444
0.031128585 -0.80068886 -0.067705005 -0.018935887 0.04688076 -0.0014598282 0.050799154 0.022856936
0.054654587 -0.593533 0.020298619 0.018458294 -0.01705531 0.025552563 0.026862612 0.027879255
00000000: f75d 683d 3d2e 12bd 7601 4cbe a5dd e1bb
00000010: 5ed6 843c b247 b93c 9767 c53a 6007 b6ba
00000020: c2a9 9a3d 2c13 61b9 5637 133d 719f c53c
00000030: 4de3 7e3b 9754 2ebc 0c01 913c fdaa 2abb
00000040: b2e5 533c 8154 ca3c d3fd d43e ce81 433d
00000050: c9b2 f43c 8673 34bb 2896 893c 31f4 64bc
00000060: 431c a93c d444 763d 87fb 833c f92a ad3d
00000070: 4d31 7a3d 78a6 b83b 767d 0e3d eb53 94bb
00000080: e5ce 853c de97 c93c 6d2b c33c aef0 e53c
00000090: f6d1 fcbb 8416 823c f7d0 763c 96b2 533c
000000a0: 9b8a f6bc a3b3 023d f425 603c 9001 c33a
000000b0: b5ed d23b d869 353d 805e 943d eb85 0a3d
000000c0: c6de 593d f782 8c3d 229f d03c 0559 c03c
000000d0: 7fa3 563b 803f 9a3b a4f8 8d3c ff8f 113d
000000e0: 261b 803d 5852 5b3c 4bc4 a23c da6e 723d
000000f0: 8397 a83c 707a b23c 7390 c7ba 5100 483d
00000100: c889 293d db4d 943c 60f3 91ba de9f 403c
00000110: 8f0e 683a 70e7 863c 52c4 493b fd70 433d
00000120: 3e8f 7f3a cbca 443d eef4 323d 8fac 813c
00000130: a9ea 3d3d 3524 293c 7d65 d43c 280f 2a3c
00000140: 9ba0 9d3b 80ac 25bf 4e1c 693d 655a 113d
00000150: ffa8 043d ebea 103d 6790 d93c f736 fe3c
00000160: 154a 5b3d add2 123c 04b0 5d3d 0be3 e93c
00000170: 9f41 903c a196 7e3d 4487 933c 2993 b3bb
00000180: f2a2 8bbd c58f dc3c 8422 513d a376 7c3c
00000190: f92c 1d3d d825 513c 0c8a 783c 9d63 723c
000001a0: 14f2 9e3b 0595 f63c 5b7f 183d f651 933c
000001b0: 3e6b 0e3d 5abc 2a3e bdeb 413d e7a1 d53b
000001c0: 6001 ff3c f2f9 4cbf eca8 8abd 6f1f 9bbc
000001d0: 0a06 403d b557 bfba c612 503d 783e bb3c
000001e0: 7ddd 5f3d c7f1 17bf 4a49 a63c d935 973c
000001f0: 94b7 8bbc 9c53 d13c fb0e dc3c 0963 e43c

ln2.weight f4 [128]
0.90308183 1.5135745 0.99496335 0.9642767 1.23395 0.8639813 0.92201376 1.3752357
0.7985832 0.94145244 0.79278344 0.903529 0.9555984 1.1671139 0.94740903 1.136775
1.1055863 0.9499339 0.68938017 0.8964182 1.0090903 2.0274556 0.862001 0.9822932
1.2597039 1.1208187 0.9656722 0.8737936 0.8028891 1.1349981 0.9184348 1.8587569
0.8380064 0.9385242 0.92545736 0.8572495 0.9167553 1.1479579 1.2032907 0.93758094
1.2568898 0.9404023 0.94641215 1.0651425 0.81913304 0.8138176 0.9938637 0.93766505
1.2299052 0.72437686 0.9880653 1.2395755 1.5334105 0.9544536 0.88334835 1.215537
1.0807729 0.989386 1.1195433 0.7196261 0.94459 0.99755704 0.9046793 0.9352522
0.8856717 0.9880277 0.841169 1.496006 1.1893283 0.9244369 1.1546259 1.038327
0.91419363 0.9570656 0.9042502 0.917882 0.81824917 0.8479874 0.9422907 0.8319119
0.8568616 1.0781894 1.3074353 0.75012785 0.99005556 1.0456302 1.0074792 0.8739082
0.93759906 0.9609235 0.91859466 1.128327 1.0171758 0.9603579 1.135049 1.2639674
1.0777364 1.348554 0.9096741 1.4864728 1.3261336 1.170931 0.95961183 0.88599765
0.94910324 0.98172635 0.9553468 0.9257404 0.93692297 0.80325097 0.97838646 0.9484449
1.0602751 1.0212313 1.1742193 0.9430957 1.0227504 1.0244448 1.0969018 1.070447
1.063301 0.9540865 1.0895382 0.94131595 1.1114563 2.1386285 0.9787006 0.9567385
00000000: 5f30 673f cfbc c13f ebb5 7e3f d6da 763f
00000010: 13f2 9d3f e12d 5d3f 1809 6c3f b907 b03f
00000020: f36f 4c3f 0703 713f dbf3 4a3f ad4d 673f
00000030: 19a2 743f fd63 953f 6689 723f d881 913f
00000040: da83 8d3f de2e 733f 387b 303f aa7b 653f
00000050: df29 813f d5c1 0140 19ac 5c3f 9177 7b3f
00000060: fa3d a13f fd76 8f3f 4b36 773f f0b0 5f3f
00000070: 248a 4d3f 9e47 913f 8b1e 6b3f bfeb ed3f
00000080: 9687 563f 1f43 703f c6ea 6c3f b474 5b3f
00000090: 7ab0 6a3f 49f0 923f 6e05 9a3f 4e05 703f
000000a0: c4e1 a03f 35be 703f 1148 723f 9756 883f
000000b0: b4b2 513f 5a56 503f da6d 7e3f d10a 703f
000000c0: 896d 9d3f c370 393f d9f1 7c3f 69aa 9e3f
000000d0: cc46 c43f 1257 743f 1e23 623f b796 9b3f
000000e0: c456 8a3f 6748 7d3f 324d 8f3f 6b39 383f
000000f0: a6d0 713f e65f 7f3f 1099 673f b06c 6f3f
00000100: 61bb 623f 62ef 7c3f da56 573f 207d bf3f
00000110: e93b 983f e6a7 6c3f c8ca 933f e6e7 843f
00000120: 9808 6a3f 4002 753f f17c 673f 51fa 6a3f
00000130: c778 513f b415 593f f739 713f 2ef8 543f
00000140: 485b 5b3f 1c02 8a3f 0a5a a73f 6108 403f
00000150: 4874 7d3f 36d7 853f 14f5 803f 73b8 5f3f
00000160: 7e06 703f 15ff 753f 0529 6b3f 056d 903f
00000170: d132 823f 04da 753f 4949 913f afc9 a13f
00000180: 44f3 893f 6b9d ac3f 67e0 683f be44 be3f
00000190: bfbe a93f 11e1 953f 1fa9 753f bed0 623f
000001a0: 6ef8 723f 6b52 7b3f 9c91 743f 53fd 6c3f
000001b0: 2fda 6f3f dba1 4d3f 8977 7a3f 49cd 723f
000001c0: 18b7 873f b5b7 823f d14c 963f b86e 713f
000001d0: 7ce9 823f 0221 833f 4767 8c3f 6804 893f
000001e0: 3f1a 883f 033f 743f fd75 8b3f 15fa 703f
000001f0: 3344 8e3f 4adf 0840 1f8c 7a3f d0ec 743f

ln2.bias f4 [128]
-0.074978694 -0.07083986 -0.008909134 -0.035236616 -0.14605364 -0.2074314 -0.0038522172 -0.023802733
-0.27137697 -0.052194078 -0.24682269 -0.1827912 -0.10877818 -0.04177711 -0.03153867 -0.022519255
-0.08488781 0.02373212 -0.34834766 -0.16262595 -0.08034854 -0.025123198 -0.19437468 -0.016700799
-0.093392536 0.058526866 -0.0074046594 -0.20180961 -0.2488312 -0.04015995 -0.280588 -0.08378121
-0.15864828 -0.066007376 -0.038891792 -0.17586762 -0.017632889 -0.053581603 -0.08715296 -0.033560053
-0.060485076 -0.029222427 0.003341067 -0.1106353 -0.20986302 -0.22231099 0.0077299033 -0.13674611
0.027548641 -0.36415562 -0.086155355 -0.004679236 -0.09925138 -0.03266897 -0.16581784 -0.08544773
0.036570583 -0.040585004 0.04502311 -0.3620866 -0.003684752 0.009284661 -0.04935119 -0.16713613
-0.13460772 -0.009723197 -0.12159371 0.049679503 -0.026802849 -0.095578514 -0.076537274 0.05250421
-0.02114815 0.03064939 -0.1453346 -0.24103643 -0.29313874 -0.17471918 0.00033972933 -0.1998935
-0.18060996 0.02031384 -0.01020928 -0.20518063 0.017291853 -0.17963615 -0.078075394 -0.16515604
0.0033146252 -0.002790279 -0.08413208 -0.24516788 -0.13281432 -0.21695688 -0.09072336 -0.0680705
0.011071294 -0.10828562 -0.14149623 -0.06552266 -0.01616501 -0.08180491 -0.0051360317 -0.15410426
-0.16078314 0.020766886 -0.21859702 -0.05112452 -0.020307897 -0.22681202 0.015716286 0.0041004443
0.024830634 0.0207836 0.079059765 -0.021997731 0.0026649158 -0.028797021 -0.08697081 -0.040121887
0.039426073 -0.015139874 -0.12788883 -0.02567129 -0.033735853 -0.07948367 -0.001413131 0.010830421
00000000: 6e8e 99bd 7d14 91bd 9ef7 11bc 4554 10bd
00000010: 168f 15be e668 54be 7b75 7cbb f3fd c2bc
00000020: ecf1 8abe 75c9 55bd 16bf 7cbe 9e2d 3bbe
00000030: 18c7 debd 7a1e 2bbd b12e 01bd 4d7a b8bc
00000040: a9d9 adbd dd69 c23c a05a b2be 6b87 26be
00000050: c68d a4bd 2acf cdbc 280a 47be 1dd0 88bc
00000060: 9644 bfbd deb9 6f3d c9a2 f2bb 2ea7 4ebe
00000070: 9bcd 7ebe c27e 24bd 3ba9 8fbe 7c95 abbd
00000080: b274 22be e02e 87bd 004d 1fbd a416 34be
00000090: d972 90bc 6278 5bbd 407d b2bd 4476 09bd
000000a0: 33bf 77bd df63 efbc cdf5 5a3b c394 e2bd
000000b0: 55e6 56be 7ea5 63be 214b fd3b 2c07 0cbe
000000c0: b0ad e13c 9b72 babe 3872 b0bd 4754 99bb
000000d0: 4f44 cbbd e6cf 05bd 27cc 29be 38ff aebd
000000e0: 09cb 153d 763c 26bd 276a 383d 6a63 b9be
000000f0: e17b 71bb b11e 183c 7924 4abd bc25 2bbe
00000100: 9bd6 09be 0b4e 1fbc 1f06 f9bd bc7c 4b3d
00000110: a691 dbbc abbe c3bd 93bf 9cbd a80e 573d
00000120: e33e adbc 6e14 fb3c 98d2 14be 41d2 76be
00000130: 4816 96be 96e9 32be b31d b239 e2b0 4cbe
00000140: d1f1 38be 3669 a63c d344 27bc df1a 52be
00000150: a5a7 8d3c 8af2 37be fee5 9fbd aa1e 29be
00000160: 2f3a 593b 1ddd 36bb 714d acbd 4a0d 7bbe
00000170: 7a00 08be f229 5ebe 2bcd b9bd 8c68 8bbd
00000180: 5f64 353c dac4 ddbd 63e4 10be bf30 86bd
00000190: 7c6c 84bc 5589 a7bd 284c a8bb 82cd 1dbe
000001a0: 56a4 24be 511f aa3c e6d7 5fbe f267 51bd
000001b0: bf5c a6bc 6941 68be 71bf 803c 055d 863b
000001c0: 9d69 cb3c 5e42 aa3c 16ea a13d 9634 b4bc
000001d0: dea5 2e3b bbe7 ebbc c11d b2bd d956 24bd
000001e0: 3c7d 213d 3c0d 78bc 4af5 02be 994c d2bc
000001f0: 9b2e 0abd 56c8 a2bd cf38 b9ba 1472 313c

action.weight f4 [4, 128]
-0.004408305 -0.014154161 -0.13432068 -0.053057183 -0.010903063 0.0051644426 -0.3109827 -0.06355753
-0.002597288 -0.056802265 -0.0069811535 -0.021193122 -0.15618506 0.012712512 0.015183558 0.060880937
0.18050028 -0.090868905 -0.004024116 -0.006341367 -0.0026088932 -1.6328235 0.22900496 -0.052610017
0.0030074387 -0.039398093 0.062175322 -0.0057846345 -0.0019394701 -0.15123728 -0.0013378053 0.7336625
-0.05033428 0.0029483365 -0.0005443299 -0.0536731 -0.10977333 -0.29260385 -0.29836607 0.018829936
-0.40394923 -0.004786855 0.19228749 -0.044456962 -0.17418565 -0.007880554 0.02614467 -0.011657691
0.017505776 -0.007039741 -0.012031456 -0.6685044 0.74956757 -0.015991502 0.16725652 -0.00635681
0.071567476 -0.14909229 -0.1823952 -0.008122145 0.05356456 0.12546049 0.012664586 0.0029883245
-0.004903632 -0.026469925 -0.23826367 -0.40086457 0.029128779 0.0005299331 -0.007899225 -0.11570795
-0.07295215 -0.017681014 -0.0006277038 0.033793584 -0.0071046962 -0.024615226 0.04303239 0.026720705
0.24677573 -0.05775807 0.010668559 -0.006637484 0.07815467 -0.0010339454 0.007180956 0.06475554
-0.008217368 -0.07376127 0.0015087485 -0.0005291537 -9.761721e-05 0.18587157 0.09989441 0.0388387
-0.03750812 0.0020567046 -0.00051016104 -0.0148018785 0.011398803 -0.038703825 0.09100869 -0.01922581
0.23492114 0.30809447 0.0007624742 0.0046943263 0.0070206705 -0.0034907085 0.07865201 -0.16457616
-0.15360278 0.025680872 -0.036740497 -0.18466063 -0.006555384 0.058471475 -0.0035324325 -0.020989358
0.073165156 -0.13493164 -0.007860827 -0.1561442 -0.15454003 1.2498436 0.023908991 0.23584923
0.04164798 -1.6213132 0.0047338703 -0.21711275 0.32208857 0.18712237 -0.19211084 0.19626737
0.00081597856 -0.1934214 0.13883367 -0.16530822 -0.92018807 -0.42056787 0.07007102 0.788081
-0.95917064 0.030445362 -0.06785144 -0.073234595 -0.30279472 -0.49234417 0.11109001 -0.031205742
-0.9278575 -0.1411948 0.0140558835 0.03485283 0.014990648 -0.3966568 0.445802 -1.3021758
-0.055710685 0.45474696 0.06507041 0.020331021 -0.16474965 -0.41513643 -0.4292442 -0.07896977
-0.792267 -0.0803424 -0.10112838 -0.27111125 0.21233657 -0.08306429 -0.03552278 -0.49037674
-0.47322536 -0.028886488 -0.10420088 -1.2401229 -0.25231776 0.1301754 0.21507344 0.22175206
-0.20129585 -0.086305894 -0.16329452 -0.07761931 0.03730851 0.01578815 -0.09683538 -0.37058505
-0.043922514 0.0017160556 -0.14331008 0.119551666 -1.610909 0.069999956 0.028945846 -0.1650756
-0.18655512 -0.13773495 0.20492886 -0.18323433 -0.004768212 -0.3516974 -0.18471108 -0.053967237
-0.02128785 0.0068006637 0.08154805 0.0030453152 -0.11959834 0.23334727 0.13193505 0.13533199
-0.08041082 -0.26692688 -0.051005352 -1.0596355 -0.14101383 -0.24977489 -0.9750801 -0.7900173
-0.0049644667 -0.3655813 -0.115393996 -0.4504187 -0.3420346 0.0046715257 0.03722751 -0.415313
-0.6436496 0.0031501825 -0.4193271 -0.039442185 -0.11210827 0.28329846 -0.14157738 -0.08030511
-0.18724081 0.033875957 -0.42130765 -0.38802534 -0.26363385 0.7994039 -0.01257287 0.33154774
-0.15865384 0.2232211 -0.8346287 -0.14648943 -0.32707235 -0.76584697 -0.085547134 -0.05048204
00000000: 8b73 90bb dbe6 67bc 5c8b 09be 7d52 59bd
00000010: c3a2 32bc 7c3a a93b 2039 9fbe 732a 82bd
00000020: 4337 2abb 7ea9 68bd 29c2 e4bb 339d adbc
00000030: faee 1fbe 2448 503c 75c4 783c 4a5e 793d
00000040: 11d5 383e 7a19 babd bbdc 83bb 3ecb cfbb
00000050: f7f9 2abb 5c00 d1bf 4780 6a3e 9a7d 57bd
00000060: 7318 453b e55f 21bd 8dab 7e3d 088d bdbb
00000070: d135 feba f2dd 1abe 4c59 afba 4ed1 3b3f
00000080: 512b 4ebd e138 413b 5cb1 0eba 53d8 5bbd
00000090: d7d0 e0bd 2cd0 95be 70c3 98be 3d41 9a3c
000000a0: 6fd2 cebe 0ddb 9cbb 03e7 443e 8118 36bd
000000b0: b95d 32be 701d 01bc 592d d63c e6ff 3ebc
000000c0: 4668 8f3c a1ad e6bb 961f 45bc 1b23 2bbf
000000d0: a9e3 3f3f 9c00 83bc 4b45 2b3e ca4c d0bb
000000e0: f891 923d a6ab 18be cfc5 3abe bf12 05bc
000000f0: 8366 5b3d b778 003e 207f 4f3c c4d7 433b
00000100: a6ae a0bb 75d7 d8bc 64fb 73be 1f3e cdbe
00000110: 7a9f ee3c 35eb 0a3a c06b 01bc 4af8 ecbd
00000120: f067 95bd c6d7 90bc 7d8c 24ba 246b 0a3d
00000130: 83ce e8bb dfa5 c9bc bb42 303d 61e5 da3c
00000140: c7b2 7c3e ba93 6cbd 2ecb 2e3c 407f d9bb
00000150: 8e0f a03d 7385 87ba 3a4e eb3b 8d9e 843d
00000160: 24a2 06bc 2610 97bd 33c1 c53a e7b6 0aba
00000170: d7b7 ccb8 1e55 3e3e 7195 cc3d 5415 1f3d
00000180: 1da2 19bd c7c9 063b 54bc 05ba 9483 72bc
00000190: 0cc2 3a3c e787 1ebd c462 ba3d 727f 9dbc
000001a0: 2b8f 703e 8fbe 9d3e c7e0 473a ddd2 993b
000001b0: a70d e63b 5fc4 64bb 4e14 a13d a786 28be
000001c0: 0c4a 1dbe b160 d23c 347d 16bd ad17 3dbe
000001d0: 8cce d6bb c97f 6f3d 6280 67bb e0f1 abbc
000001e0: 9dd7 953d 852b 0abe b3ca 00bc 44e4 1fbe
000001f0: be3f 1ebe e0fa 9f3f cadc c33c 7682 713e
00000200: 1397 2a3d 3187 cfbf 951e 9b3b ce52 5ebe
00000210: cbe8 a43e 029d 3f3e b4b8 44be 50fa 483e
00000220: 65e7 553a 4210 46be 6a2a 0e3e 8f46 29be
00000230: 7291 6bbf ac54 d7be 6581 8f3d adbf 493f
00000240: 358c 75bf 8d68 f93c b2f5 8abd 05fc 95bd
00000250: e907 9bbe 8914 fcbe 2983 e33d 2fa3 ffbc
00000260: 1288 6dbf 5f95 10be a64a 663c d7c1 0e3d
00000270: 569b 753c 9a16 cbbe 2940 e43e b2ad a6bf
00000280: e330 64bd 98d4 e83e a343 853d 3e8d a63c
00000290: 22b4 28be c38c d4be e5c5 dbbe e7ba a1bd
000002a0: 03d2 4abf 8e8a a4bd 651c cfbd 18cf 8abe
000002b0: c26e 593e 9c1d aabd 5680 11bd a912 fbbe
000002c0: 984a f2be 5ba3 ecbc 4567 d5bd 59bc 9ebf
000002d0: cb2f 81be b34c 053e 363c 5c3e f912 633e
000002e0: 8020 4ebe 25c1 b0bd ae36 27be dff6 9ebd
000002f0: cfd0 183d 2656 813c a151 c6bd 53bd bdbe
00000300: 18e8 33bd 45ed e03a e1bf 12be 81d7 f43d
00000310: 4432 cebf 235c 8f3d d71f ed3c 9409 29be
00000320: 4e08 3fbe 640a 0dbe dfd8 513e c8a1 3bbe
00000330: a93e 9cbb ae11 b4be e724 3dbe c00c 5dbd
00000340: db63 aebc 1ad8 de3b aa02 a73d e993 473b
00000350: f9ef f4bd 96f2 6e3e fb19 073e 7894 0a3e
00000360: 6eae a4bd a4aa 88be fdea 50bd 23a2 87bf
00000370: ee65 10be fdc4 7fbe d99e 79bf 933e 4abf
00000380: f7ac a2bb 792d bbbe b053 ecbd 489d e6be
00000390: 291f afbe 9913 993b e07b 183d e8a3 d4be
000003a0: 38c6 24bf 4b73 4e3b 0bb2 d6be 218e 21bd
000003b0: 0599 e5bd 7f0c 913e a9f9 10be 0177 a4bd
000003c0: 0ebc 3fbe 84c1 0a3d a3b5 d7be 42ab c6be
000003d0: 04fb 86be bca5 4c3f 70fe 4dbc a0c0 a93e
000003e0: 2776 22be 1294 643e 3aaa 55bf 5301 16be
000003f0: 0776 a7be 8c0e 44bf 5633 afbd 41c6 4ebd

action.bias f4 [4]
0.007694886 -0.02383565 0.0045684 0.021797793
00000000: 6225 fc3b fb42 c3bc 84b2 953b 4991 b23c
