checkpoints/DDPG/Target_actor/DDPG_target_actor_200.pth (torch, 93359 bytes, 10 tensors)

fc1.weight f4 [256, 19]
00000000: c0e9 8abe 2fbb 7cbc 1530 d13c 77a7 89bd
00000010: 8d95 3bbd 6538 a5bc c09c 2cbd 4dc0 123d
00000020: 2f92 8d3b 8d2b e93c bd12 5b3d 2347 273e
00000030: 54f4 76bd 5dc4 543d 6c22 22be 3f20 90bd
00000040: f5b0 7bbd 8d5f 0c3e cb05 af3b ff58 fb3d
00000050: fb4e 063e 3d4d f63c 1ce6 f337 6aaf 3ebd
00000060: f3f6 3f3d 0a5f 483d ab8d 2b3c 23e0 563d
00000070: 39a6 033e 6cc3 c9bd 8081 2c3c cc61 783d
00000080: 1c0a 4ebb 2e3c aebd fb9d cc3d 6991 6e3d
00000090: eb63 e93c fbb7 9f3d 09a9 0abd 172c 92bd
000000a0: f4af 333b 1be2 c03d 277f 0a3e 3c9f 89bd
000000b0: 7750 293e c0c8 a7bd d76c fc3d 6892 b1bd
000000c0: 7ba6 c1bd d665 03bd 622c 79bc 624a 9fbd
000000d0: 0308 85bc 9fc4 aebd ba60 ca3c 0cc9 afb9
000000e0: 4c5b d73c cd0b 173d 7601 fa3d 05cd 02bd
000000f0: 2c7c f9bc 44f2 f23c c197 48bd acf1 80bd
00000100: bed4 493d 26c1 1c3c e2aa b3bd 5fe8 303c
00000110: 89b2 a2bd 2edb 0d3d 2aa2 72bd bcd8 8a3d
00000120: 1380 cdbd 9735 5a3d 4abb 51bc 7c65 a83d
00000130: 5f85 7abd a566 a4bc 093a 823d cb8d 6ebd
00000140: 480c 99bd 7219 1abd 7866 cb3d ae8e f63d
00000150: 8e2a 4ebe fd88 803d 19ee fd3c 373c b03d
00000160: a1b6 593d 7f47 b23d bd45 cdba f459 b6bb
00000170: af8b 5e3d 7537 ad3d 6815 5a3d 1242 7f3e
00000180: f367 eb3d e509 933c 9d80 273d 1cc7 ffbc
00000190: 1792 08be 705b 9e3d 4696 88bc 7528 e83d
000001a0: cb1e 70bc 0560 41bd 2690 90bd 691c 953c
000001b0: 5e65 20bd f31d b0bb 4aa1 b43d 1818 c23c
000001c0: cb69 b0bc 9447 2f3d 7a51 52bd b482 8c3d
000001d0: fb31 eabb bea1 d73c e38c 3f3d 850a 54be
000001e0: 8c15 84bd e1c5 53bd 4037 853d 73ce fa3c
000001f0: ac8c c5bc a072 a0bd 7af3 01be 1810 e43c
00000200: 7373 83bd db8b 9b3c 9768 0c3d 3aa7 073e
00000210: d5f4 46bd cb66 3dbe 6262 bcbb ce79 84bd
00000220: 8148 0f3e 3eea 173e e7b9 cabd e489 d33d
00000230: c297 273e 31bc 773d 83cc 34be 3584 40be
00000240: ab8f 38bd a1d4 74bd f754 4bbe 5480 c3bd
00000250: 34f0 cb3c 1b1f 303c 5d09 3d3d 8a79 d33c
00000260: a920 1c3d dcb6 01be d531 963d 56af 003c
00000270: 44d2 da3c 76a0 083d e68e 2f3e aeda 033e
00000280: e347 133a 770a 013e baf2 bcbd fb90 94bd
00000290: 158d 873d bbff 5c3c 67a3 07bd a47f a3bc
000002a0: 0c33 603c 0ed4 1abe 440f 733d 3771 803d
000002b0: 72a9 8dbc 6eb3 40be f530 19bd 834c 33bd
000002c0: 1cea 1ebe dd83 03bd 13a2 e53c 476e b83d
000002d0: 78e0 b93c 3450 2b3d 8a5d 403c b34f 4c3e
000002e0: 140d 37be a127 8abd 1add e53d 59a0 a43c
000002f0: 012c 7f3e 2c7f 84bd a505 26be 11d1 2cbe
00000300: 34a7 05be c77b a63d be8b eebb 3809 d7bc
00000310: fa58 e83d 80a3 1e3e f2fe 203d bebb 67bd
00000320: 20de 40be 2f38 9abd 8493 003c 2c9f ac3d
00000330: ed9d 133d 375c 15be 027e bf3c 619a b4bd
00000340: 6da8 53bd 5899 f9bd bd18 0bbe 65ab 293e
00000350: 2204 2e3e de92 b13d 8658 e8bd 77c0 0a3e
00000360: 42bd f83d d031 85bd 3496 b13c 033e 2d3b
00000370: de0c 3cbd 5545 383e c2ea c3bd ea01 453c
00000380: 1099 7b3d 3a9a ee3c 17d6 a2bd 8297 0bbe
00000390: 44c9 3e3c 5531 453d 3644 87bd a246 863d
000003a0: c18b b8bd f764 bd3d 0e7a 083d 3add 8bb9
000003b0: efb7 c0bb b6be 45be 6014 e43c b8d0 063e
000003c0: 0ff7 c93d 5c38 aa3e f265 223e 646e 133d
000003d0: ee4c 333d cf39 4bbb eecf 023e 5a18 123e
000003e0: ae7f 923e a863 e9bd 16f5 7a3e bc2f 113e
000003f0: 89c3 ba3c 6ae1 473e 4dfc 903d d500 babd
-0.27131462 -0.015425487 0.025535623 -0.067213945 -0.04579692 -0.020168493 -0.042141676 0.035827924
0.004320405 0.02846315 0.053484667 0.1633573 -0.060291603 0.05194508 -0.15833443 -0.070374005
-0.061448056 0.13708325 0.0053412667 0.12272834 0.13116066 0.030066127 2.907501e-05 -0.046554007
0.04686637 0.04891876 0.010470788 0.052459847 0.12856378 -0.09851727 0.010528922 0.06064014
-0.003143913 -0.08507572 0.0999107 0.058244143 0.028490027 0.07798763 -0.03385261 -0.07137316
0.0027418109 0.09418126 0.13525067 -0.06719825 0.16534601 -0.08192587 0.12325447 -0.08670503
-0.09455582 -0.03207954 -0.015208336 -0.07777859 -0.016239172 -0.08533596 0.024704326 -0.00033528393
0.02628865 0.03687649 0.1220731 -0.031933803 -0.030454718 0.029656537 -0.04897285 -0.06296095
0.049275152 0.009567535 -0.08772828 0.010797589 -0.07944209 0.034632854 -0.059236683 0.0677962
-0.10034194 0.053273764 -0.012801001 0.082224816 -0.06116235 -0.020068476 0.063587256 -0.058240693
-0.074730456 -0.037621923 0.09931654 0.12038933 -0.20133421 0.062761284 0.030997323 0.08605235
0.053152684 0.08705043 -0.0015661042 -0.0055649225 0.05433243 0.08457843 0.05324307 0.24927548
0.11494436 0.017949054 0.04089414 -0.031222872 -0.13336979 0.07732284 -0.016673218 0.113358416
-0.014655779 -0.047210712 -0.07058744 0.018202024 -0.03915917 -0.005374664 0.08819826 0.02369313
-0.021534821 0.04279287 -0.051347233 0.06860867 -0.0071470714 0.026322242 0.04676522 -0.20707138
-0.06449422 -0.051702384 0.06504679 0.03061602 -0.02411493 -0.07834363 -0.12690535 0.027839705
-0.064185046 0.018987587 0.034279432 0.13247386 -0.048573334 -0.18496244 -0.005749033 -0.06468545
0.13992502 0.1483545 -0.09898739 0.10329035 0.16366485 0.060482208 -0.1765614 -0.18800433
-0.045058887 -0.05977309 -0.1985663 -0.09545961 0.024894811 0.010749604 0.046151508 0.02581479
0.038117085 -0.12667412 0.073337235 0.007854303 0.02671159 0.033356152 0.17144355 0.12876388
0.0005618317 0.12601648 -0.09225984 -0.07254215 0.06618706 0.013488705 -0.033114817 -0.019958325
0.0136840455 -0.15119955 0.05934073 0.06271594 -0.017292712 -0.18818447 -0.037400205 -0.04377414
-0.15518993 -0.032108176 0.028031385 0.09005409 0.022690043 0.041824535 0.011741051 0.19952278
-0.17876083 -0.0674584 0.112238124 0.020095991 0.2491913 -0.064695686 -0.1621309 -0.16876628
-0.13052064 0.081290774 -0.007279842 -0.026249513 0.11345096 0.15492058 0.039305635 -0.05657553
-0.18834734 -0.075302474 0.0078476705 0.08428797 0.03603928 -0.14585958 0.023375515 -0.08818508
-0.051674295 -0.12187451 -0.13583656 0.16569288 0.16993764 0.08670591 -0.113450095 0.13549982
0.12145473 -0.065036416 0.021678068 0.0026434667 -0.04591071 0.17995198 -0.09566261 0.012024382
0.06142527 0.029126275 -0.07950991 -0.13632014 0.011644665 0.04814275 -0.06604807 0.06556441
-0.09011031 0.09247773 0.033319525 -0.00026676973 -0.0058813016 -0.19311032 0.027841747 0.13165557
0.09861576 0.33246124 0.15859202 0.03599395 0.043774538 -0.0031009798 0.12774631 0.14267102
0.28613037 -0.11395961 0.24507555 0.14178365 0.022798317 0.19519582 0.070793726 -0.0908219

fc1.bias f4 [256]
00000000: 0bac b2bb b08f 50bc 2009 04bd eaa2 c4bc
00000010: 10f0 103d 1342 eb3c f6d9 24bd f550 38bd
00000020: b802 883c 8282 ae3c c43a 6ebc 3c83 c635
00000030: 1f8a e43c eeb9 5f3d f742 cf3b c7bf 64bc
00000040: fbdd 4e3d c08d d23c 8212 d7bc 5875 343d
00000050: 113a 393c b634 1d3c b61d 013e ada9 883c
00000060: 6b25 523d a9b2 0d3d 1c46 b53c 8645 0fbd
00000070: 742f d23d 65f5 77bd 9a24 c23b fb8b 153d
00000080: 170b 333d 12a8 b93c e33f ac3c 3968 d73c
00000090: f3d3 eb3c c8a1 4fbc 8825 633d 59be 083d
000000a0: c2e0 2b3d 9f0e c7bc 4f2a 0bbd ede3 d43d
000000b0: ce2b a3bc f527 25bd 4774 b63d e48c 60bd
000000c0: f16c 9d3d 7798 7ebd 766e 68bc 1be7 8fbc
000000d0: 4c7a ed3d 14d2 5abd 123d 60bd 732b 373d
000000e0: 28e5 31bd 410e 49bd 6b57 2f3d f37b a93c
000000f0: a80e 673c 25f5 223d be93 a03d 7e9e e9bc
00000100: 4a00 9b3c 12a6 21bd d725 0f3c d3e3 1bbd
00000110: b290 32bc 8fb3 903c 7f2d 193e 8308 363d
00000120: 3508 e03c ce5b da3d 4e0e 623d 30af f43d
00000130: a01a e1bc 0a2e 923d 095e ac3c 9963 b03c
00000140: d39d 8b39 b7d4 533c 853d 013d 49f7 983b
00000150: 6cb6 523d ce59 fb3d 77d5 ff3c 8f38 4fbd
00000160: 8148 423c 7d08 3d3d 974f 123e 6d0d 723d
00000170: d42e ffbb f44c dfbc 903b 1dbb 236f 423d
00000180: 4000 ad3d 1fe8 bb3d 9453 873d 5428 f73d
00000190: d471 b93d c108 e73c db99 33bd 67ff 53bd
000001a0: 59f7 f1bb bfae bf3c 1e57 d8bc 5730 43bd
000001b0: 76fb 48bd 1435 a03d 4ae6 303d 0e12 303d
000001c0: 53fa 193e 862a b03b 5c53 ab3d 2d26 193d
000001d0: 8e2b 433d 94e0 fe3d 1a31 a6bc 15b0 053c
000001e0: 866f a23d aa7b 163d 3233 f33b 9ef2 533c
000001f0: 64b5 28bd e830 a83d 6609 ef3d 3de0 ffbc
00000200: 6daa b23d e95f e73c 4e89 c5bb c18e be3c
00000210: 6701 f7bc 2a4f 023e 4243 583c f605 b93d
00000220: 175c 603c 1012 283d 1c87 f33c 0e63 e4b9
00000230: d41c 82bd 217c 9b3d aa90 8cbb 0e08 d73d
00000240: 5382 943d eb5c 833d d254 513d e8f3 21bd
00000250: eeb4 aa3d edfd 023e aaca a43d f6e4 9d3d
00000260: 51e7 113d 6639 013e cee9 acbc 0e34 c2bc
00000270: 5cbb 673d 35e3 97bc 9e36 873d f042 433c
00000280: 6dec 33ba cee4 91bd fb63 08bd af40 6b3d
00000290: addf 1e3d 1094 e03b 7d2f b53b ca5f 3a3c
000002a0: 5467 01bd a769 2f3d 30b1 d3bc a1bd 1f3d
000002b0: 126b 923d 1ed5 993d e169 9f3d 63f2 07bd
000002c0: 2cee e53c b36c e9bc d3da ac3d 12b5 953b
000002d0: 1a6e 00bd 075f f03c 97ec fcbb d72b 9b3d
000002e0: 0821 ae3d e924 3b3c 631b 673d e160 263c
000002f0: 234e 0f3d fbca bebc 4880 f73b 918f 4abd
00000300: 56cb c43a c4bd 8a3b c2c8 a83c d7a2 a03d
00000310: 1572 203d 7daa d3bb 01d5 fd3c b257 8cbd
00000320: 9ccc a8ba 9bfc 62bc 5c1b ddbc c86c 45bc
00000330: e17f 043e 7abe 2bbd daaf e5bb 052a 5f3b
00000340: 0d44 843d bc2a da3c 9c58 913d beea 2fbb
00000350: c087 8dbd 836f 403c 00b3 253d be15 f9bc
00000360: 8037 b23c bcc1 de3d a538 0ebd 278f 13bd
00000370: 5f60 0abd c9e0 cf3d 75a0 5ebc f96b 0d3e
00000380: 6751 b23d 0e38 be3d c755 fabc 5bc1 aebb
00000390: 4190 81bd 0433 1bbd c737 063e f9b5 643d
000003a0: 516a a1bc 98f2 f23b d71a 503c 382b 2a3d
000003b0: 40e0 253d 2ee6 dcbb a689 193d f7e1 c53c
000003c0: b5bb aa3d ffe7 6d3d 5cf3 523d 9056 80bb
000003d0: d160 e03d c9b1 f53a d22a 80bb c1b4 0ebd
000003e0: 4b13 193e 4f63 bd3d 328e 9c3c d602 d23c
000003f0: f221 89bb 4776 ecbc 0214 843d 58d6 72bc
-0.005452638 -0.01272957 -0.032235265 -0.024003465 0.03538519 0.02871803 -0.040246926 -0.04499908
0.016602859 0.021302465 -0.014540378 1.4790344e-06 0.027897893 0.054620676 0.0063251215 -0.013961739
0.050504666 0.025702357 -0.026253942 0.04405722 0.011305348 0.009595087 0.1260899 0.01668247
0.051305216 0.03459421 0.022128157 -0.034978412 0.10262957 -0.06053676 0.0059247734 0.03651045
0.043711748 0.02266315 0.021026557 0.026294814 0.028787589 -0.012672849 0.055455714 0.033384655
0.041962393 -0.024298964 -0.033975895 0.10395036 -0.019918349 -0.04032131 0.08908897 -0.054821864
0.076867945 -0.06215712 -0.014186492 -0.017566254 0.11595592 -0.053423002 -0.05474574 0.04471917
-0.04343143 -0.04908586 0.042807978 0.020688986 0.014102615 0.03978457 0.078406796 -0.028517958
0.018921036 -0.039465018 0.008737049 -0.038059067 -0.010898756 0.017663745 0.14958762 0.04444171
0.027347663 0.106620416 0.055189423 0.11947477 -0.027478516 0.071376875 0.021040933 0.021531867
0.00026629734 0.012929133 0.03155281 0.0046681506 0.051443502 0.12272988 0.031229718 -0.050591048
0.011858107 0.046150673 0.14288174 0.059094835 -0.007787565 -0.027258374 -0.00239918 0.04746927
0.08447313 0.09175133 0.06607738 0.12068239 0.09054914 0.028202416 -0.0438479 -0.051757243
-0.0073842225 0.023398755 -0.026408728 -0.047653522 -0.049067937 0.07822624 0.04318837 0.04298597
0.15036897 0.005376163 0.08365509 0.037389923 0.04764896 0.12445179 -0.020287085 0.008159657
0.07931428 0.03673903 0.0074218744 0.012936262 -0.041188613 0.08212453 0.116717145 -0.031234855
0.087239124 0.028243976 -0.006028331 0.02326143 -0.030152036 0.12725511 0.013199629 0.0903434
0.013693831 0.04103285 0.029727511 -0.0004356135 -0.06353155 0.07592035 -0.0042897062 0.10499583
0.0725142 0.06414207 0.05110628 -0.039539248 0.08335291 0.12792177 0.080464676 0.077096865
0.03562099 0.12619552 -0.02110758 -0.023706462 0.056575164 -0.018540958 0.06602214 0.011917815
-0.00068635383 -0.07123719 -0.033298474 0.057434734 0.038787533 0.006853588 0.0055293427 0.011375377
-0.031592682 0.042825367 -0.025841326 0.038999204 0.07149328 0.07511352 0.07783867 -0.033190142
0.02806767 -0.028494215 0.08440175 0.0045687044 -0.031355 0.029342188 -0.0077186334 0.07576721
0.08502394 0.011422374 0.056422602 0.010154934 0.034986626 -0.023290148 0.007553134 -0.04945332
0.0015014212 0.0042340476 0.020603541 0.07843559 0.039171297 -0.006459533 0.030985357 -0.06852664
-0.0012878361 -0.013854171 -0.026990585 -0.012049861 0.12939407 -0.0419297 -0.0070094885 0.0034052145
0.06458292 0.026631705 0.07096979 -0.0026842798 -0.06910658 0.011745336 0.04045391 -0.030405875
0.02175498 0.10876796 -0.03472199 -0.036025193 -0.033783313 0.10150296 -0.013588061 0.1381072
0.087069325 0.09288035 -0.03055848 -0.0053331084 -0.063263424 -0.03789045 0.13107215 0.055837605
-0.019704016 0.0074141733 0.012701712 0.041545123 0.040497065 -0.0067413067 0.037484787 0.0241556
0.083365835 0.058082577 0.051501617 -0.003916569 0.10955966 0.0018745001 -0.0039113546 -0.03484035
0.14948766 0.09247457 0.019110773 0.025636118 -0.004184955 -0.028864993 0.06449129 -0.014821611

ln1.weight f4 [256]
00000000: 6360 7c3f 855a 763f 896d 933f bcf2 773f
00000010: f01d 833f 405b 8f3f 3734 813f 0917 723f
00000020: 3427 893f fda9 793f 9833 813f e9c6 8c3f
00000030: 3191 7b3f 926c a13f ece7 793f 67ee 773f
00000040: 5e8a 813f 08e5 803f 1086 743f a85f 873f
00000050: 6e2b 8e3f 2490 823f d0c4 8d3f a5dd 7c3f
00000060: 103e 8e3f 2518 723f a73b 9b3f 2dca 7f3f
00000070: 174d 863f 9bd5 8b3f c85c 8d3f 818a 8b3f
00000080: c24d 973f 45bd 913f 3a5c 793f 9975 7d3f
00000090: b4b6 8e3f 48cc 783f 3e69 7c3f 3dbc 7a3f
000000a0: eb08 9b3f 45e3 753f 7707 7a3f 6f4a a13f
000000b0: e4dc 743f 5a5f 723f dfab 9c3f 59e6 9a3f
000000c0: 2606 833f a242 843f 17ae 743f 8da8 763f
000000d0: 0770 8c3f 65ea 993f 520a 6e3f 12d1 963f
000000e0: 9b38 7b3f 6ce3 863f a9e1 8b3f 9f19 7b3f
000000f0: 197d 723f 4352 a03f 138e 933f 17c1 773f
00000100: abfe 8b3f 8cb6 813f 89ef 783f 9617 813f
00000110: 8a37 803f d3d9 7f3f e7e3 9e3f 51e4 863f
00000120: 4794 783f 86c0 723f 3ef7 853f a560 b23f
00000130: bc42 773f b98a 7c3f aa0c 883f b982 7a3f
00000140: 3cd7 703f abdb 783f f684 713f ffb0 833f
00000150: 70ce 733f 6b07 bc3f ab9b 8d3f ad24 753f
00000160: f4a2 763f 9114 9f3f 9e88 9f3f 2f1e 7e3f
00000170: f51e 763f dc8f 723f 16aa 843f d5b4 833f
00000180: 31fb 8f3f 1995 d63f 57d1 923f 4cc1 9f3f
00000190: d143 8d3f 17a3 803f d315 983f 9fb5 8b3f
000001a0: 0176 7f3f 35b2 923f c073 7b3f dd93 813f
000001b0: 12e8 863f 5033 803f c93d 603f cc19 823f
000001c0: 60c0 7c3f 7c23 7c3f 4d4a 943f 95fe a23f
000001d0: 494a 863f 9cf9 d83f 142c 783f 2dff 883f
000001e0: 4188 8f3f 9aef 823f 335f 773f f10f 7b3f
000001f0: 3a2c 8c3f 0cf6 863f 1535 a23f bbaa 913f
00000200: b013 8c3f 0683 7f3f 7a30 8e3f 7ba6 8c3f
00000210: 4465 873f 5dea 9b3f 7d4c 7c3f dc5f 8b3f
00000220: 9a39 813f f75f 9a3f 33fd 7d3f 1ba8 7c3f
00000230: 37b8 7a3f b986 7e3f 83ee 8b3f b7d3 9b3f
00000240: c605 7e3f 81e7 743f 1046 973f c4fd 733f
00000250: 1b39 783f 02ea 943f 4d8d 943f 8687 933f
00000260: 8f71 903f 993d 863f 0d64 7f3f 1898 763f
00000270: 42c8 803f 2397 803f f0b0 923f f36a 7e3f
00000280: 62c1 763f 269a 7c3f 87cc 933f 8bc6 883f
00000290: fef8 733f 0407 723f 1c6a 773f ebad 863f
000002a0: 5661 753f e488 803f 3aed 743f 053c 7c3f
000002b0: f165 943f 4a97 9d3f 239f 993f 04ab 7d3f
000002c0: 8bcc 833f c512 8d3f 1811 a33f 9d3c 6f3f
000002d0: 2d19 6d3f 4a54 8f3f 09ed 733f 3964 8d3f
000002e0: 8130 8b3f 55d3 7d3f 0864 963f f355 843f
000002f0: 574b 863f 09cd 803f 25f3 993f 714f 783f
00000300: d9b4 743f f80c 753f 7f2d 983f bad0 863f
00000310: c54c 713f f2e3 763f bc82 863f ef82 843f
00000320: d2ae 723f 903f 853f 0022 7e3f f5f3 783f
00000330: 9c83 a63f d9b9 8e3f b5ff 813f f4a4 7a3f
00000340: e4de 943f fd4f 8c3f 1577 953f 4b7f 703f
00000350: 9cb7 783f 1464 6e3f 4820 8b3f d3d8 763f
00000360: dcb4 6c3f 9d22 b83f a273 7f3f 24b3 7d3f
00000370: 52ed 913f a989 b03f 0a35 913f d13a e53f
00000380: 9c74 743f 8056 863f 4449 793f edf0 873f
00000390: 64ea 743f a438 753f b0aa af3f ef99 753f
000003a0: d384 753f 37c8 803f edb6 8e3f 2143 743f
000003b0: 3c3f 823f 1d7e 833f fa55 803f af6b 7b3f
000003c0: d364 803f 1e87 773f 1632 923f c4b4 8f3f
000003d0: 2252 9a3f 7080 9b3f 60cd 7d3f 9e65 7c3f
000003e0: a17a b93f 9bba 843f bbd5 793f e423 7b3f
000003f0: a3c2 7a3f bea2 733f e1b7 ad3f 2223 7b3f
0.98584574 0.9623187 1.1517802 0.9685476 1.0243511 1.1199722 1.009406 0.945664
1.0715089 0.97525007 1.009387 1.0998203 0.9826842 1.2611258 0.9761951 0.9684815
1.0120351 1.0069895 0.95517063 1.0576067 1.1107004 1.0200238 1.1075687 0.987757
1.111269 0.9456809 1.212758 0.9991787 1.0492276 1.0924562 1.104394 1.0901643
1.1820605 1.1385885 0.9740635 0.99007565 1.1149507 0.9718671 0.98598087 0.9794348
1.2112097 0.9604991 0.9766764 1.260084 0.9564955 0.94676745 1.2239951 1.2101547
1.0236251 1.0332835 0.9557814 0.9635094 1.0971688 1.2024657 0.929845 1.1782553
0.9813325 1.0538154 1.0928241 0.9808597 0.94722134 1.2525104 1.1527733 0.96779007
1.0937093 1.0133834 0.972405 1.0085323 1.0016949 0.9994175 1.24133 1.0538427
0.97101253 0.9482502 1.0466077 1.3935744 0.96586204 0.98649174 1.0628865 0.97855717
0.9407842 0.97210187 0.9434351 1.028839 0.95236874 1.4689764 1.1063131 0.9575909
0.96342397 1.2428151 1.2463567 0.99264807 0.96140987 0.9475076 1.0364406 1.028956
1.1248533 1.6764251 1.1470135 1.2480865 1.1036321 1.0049771 1.188166 1.0914801
0.99789435 1.1460634 0.98223495 1.0123249 1.0539572 1.0015659 0.87594277 1.0164123
0.9873104 0.98491645 1.1585175 1.2733942 1.049142 1.6951175 0.9694226 1.0702873
1.1213456 1.022937 0.9662964 0.980712 1.0950997 1.0543838 1.2672449 1.1380228
1.0943508 0.998093 1.1108544 1.0988306 1.0577779 1.2180897 0.9855421 1.0888629
1.0095704 1.2060536 0.99214476 0.9869401 0.9793734 0.9942432 1.0932163 1.2173985
0.9922756 0.95665747 1.1818256 0.9530909 0.96962136 1.1633914 1.1605622 1.1525733
1.1284655 1.0487548 0.9976204 0.96325827 1.0061114 1.0046123 1.1460247 0.9938194
0.9638883 0.9867271 1.1546792 1.068559 0.95301807 0.94541955 0.96646285 1.0521826
0.9585165 1.0041776 0.9567448 0.9852908 1.159361 1.2311795 1.200169 0.99089074
1.0296797 1.1021353 1.2739592 0.93451864 0.9261654 1.1197598 0.9528356 1.104621
1.0874177 0.9915059 1.1749277 1.033873 1.0491742 1.0062572 1.2027327 0.9699622
0.9558845 0.95722914 1.1888884 1.0532448 0.94257766 0.96441567 1.0508647 1.0352458
0.94798005 1.0410023 0.9927063 0.9724725 1.3008914 1.1150466 1.015616 0.9790795
1.1630521 1.096191 1.1676966 0.93944234 0.97155166 0.9312146 1.0869226 0.964246
0.9246347 1.4385563 0.99785817 0.9910147 1.140055 1.379201 1.1344311 1.7908574
0.9549043 1.0495148 0.9737742 1.06204 0.9567015 0.9578955 1.3723965 0.9593801
0.959058 1.0061101 1.1149575 0.9541493 1.0175548 1.0272862 1.0026238 0.9821119
1.0030769 0.9669055 1.1421535 1.122704 1.2056315 1.2148571 0.991415 0.98592556
1.4490548 1.0369447 0.9759175 0.9810164 0.9795324 0.951702 1.357174 0.98100483

ln1.bias f4 [256]
00000000: 3416 ebbc 1277 eabc b9a4 423d 6ddf 4b37
00000010: 4864 2cbc e7f3 033d 77c7 3ebd 8e7a 26bd
00000020: e97b a03c 54d1 05bd 383d febb fe23 24bd
00000030: 5d76 f8bc 4025 c13c 6f48 e3bc 5108 c9bc
00000040: 8205 b6bb 84c2 79bc 42e0 28bd b3fb 923c
00000050: 238a 16bd 4aed 04bd aeec 523c 6f0b debc
00000060: e151 a53c 819c 61bd 6a01 73ba 1f6d 62bc
00000070: 8b52 c73c c0d2 bf3b d8e8 dbbb dcba 93bb
00000080: 95b3 77bc c8f3 423c 7828 1dbd 64be 1abd
00000090: aadc 433c d8cb 30bd d93e b9bc 6ece 4fbc
000000a0: e006 9a3c cb7b c2bc c07b c5bc 0da8 5a3d
000000b0: aa91 36bd 8130 50bd 3214 063d c6e4 b63c
000000c0: 7213 2dbd 9e42 60bc 51de dbbc 9c98 23bd
000000d0: 7440 453c 07a7 753c 3b58 31bd 0432 a93c
000000e0: 100c f9bc 2993 8ebb 94f2 e1ba 8f1f 80bc
000000f0: 08ba 3dbd 8409 6b3d b104 353d 5c69 4dbd
00000100: bf83 33bd c694 02bd 0e2c bebc caa7 10bc
00000110: f317 dabb 1d26 33bc 2d22 b63c 4e56 6fb8
00000120: fcdc 52bd 3240 37bd 75be 203d 42b0 d83c
00000130: 26a3 40bd b602 b8bd 90a6 343d 640a 08bd
00000140: 4f9d 85bd 0b8d 24bd a306 3cbd a36c 08bc
00000150: 43e1 45bd a33e 3a3d ab32 903b 3c28 29bd
00000160: d6b4 07bd 7563 ca3c 3f4b b73c f08b 6abc
00000170: dab8 eebc 5f4d 78bd feaf 87bc 59db 12bd
00000180: 9170 313c 3579 be3d 59e7 503c 6c5f 57ba
00000190: 22fd 323c 6a59 e8bc acd7 9d3c 9ca0 5dbb
000001a0: 6a4f 57bc 3915 c63c 23d1 01bd 57c0 3cbc
000001b0: 40ea fa3c ce7e 06bc 3f23 edbd 1639 0e3c
000001c0: 36e0 2abd 367d 8fbc 8e1b adbb 00cd 1e3d
000001d0: 2372 39bd a5d5 ba3d 5b85 0cbd d9ed af3c
000001e0: 0ae0 293d fcb5 85bc 3ebc 37bd c00d f4bc
000001f0: 6449 af3a f574 6dbc bd8f a63b d229 d73c
00000200: d23b f3bc 8ff3 90bc 8b24 ae3c a2fc c7bc
00000210: a365 24bb 39a6 813c da03 40bc da27 d4bc
00000220: 1be0 17bd 819c ea3c d059 4c3b 922b 1abc
00000230: 4e55 98bc 3362 58bd afd3 0cbd 2a1c a33c
00000240: 718f fe3c dc0b 07bd d724 6bbc a5fd 37bd
00000250: 553d f8bc ce1d f03b da43 633d e3f1 aabc
00000260: dba9 9dbc 9206 2f3c a7d9 adbc a278 14bd
00000270: d3e2 21bd c4ef 5c3c 455b 533c 61b4 1fbb
00000280: 9af8 d1bc 2b8c 3bbd 71b8 43bb aa4d 483b
00000290: 65c8 c0bc ca13 64bd afed 05bd 748e fabc
000002a0: e16c cfbc e4da 7f3b c988 31bc 857f 66bd
000002b0: 5901 d33b e6df 603d 00bc 993c 71ae aebb
000002c0: 58ec 26bd 8bee e33c 8507 d5bb 7e92 28bd
000002d0: e005 c5bd da35 993d e882 80bd 3128 80bb
000002e0: 3cb7 7e3c ffe5 e1bc 35f1 383c ab45 0ebd
000002f0: 5b62 813b d6f7 cdbc 0597 c13c caee 16bd
00000300: 1665 0cbd 2de2 19bd 8dcf b3bc 6ce6 ad3b
00000310: 49ab a1bd 4a33 a9bc 38b7 423c d623 cbbc
00000320: 81fa 89bd c83e d0bb d2c0 06bd 8660 88bd
00000330: 16c6 143d 2a28 e73c f850 983c 34df 6dbc
00000340: b784 45bc 5d5c babc f347 fcbc cc75 a3bd
00000350: e3db febc 45e7 65bd 55fb 4d3b 7293 b7bc
00000360: dd52 8ebd f9ab 363d 9b07 8ebc f65d 1ebc
00000370: b05a 263d 4eb4 623c 24f6 3abc 19e9 3e3e
00000380: 8f6e 46bd 87d4 f6bb 0211 acbc 1cc4 823c
00000390: cc2a 07bd a433 a1ba 0a7a 8f3d d234 9abd
000003a0: b71b 6bbd 8f07 edbc a202 473d fc33 27bd
000003b0: c859 f93b f3e1 c7bc c789 283c c09c 8abc
000003c0: 0a1d 56bd 5d27 3abd bc9f 6a3c 847c 243c
000003d0: d244 4b3d 1c1f 7b3c c8e9 a7bb d7a5 3dbc
000003e0: 6eca a43d a7c8 d0bc fd73 a8bc 0399 9fbc
000003f0: 3b1d 3abd a98f 22bd 02b3 c03c d292 b8bc
-0.02869711 -0.02862123 0.047520373 1.2151763e-05 -0.010521956 0.032215025 -0.046576943 -0.04064422
0.019590335 -0.032670334 -0.0077587627 -0.040073387 -0.030329878 0.023577332 -0.0277445 -0.024540098
-0.005554856 -0.01524413 -0.041229494 0.017942285 -0.03675283 -0.03245286 0.012873812 -0.027105061
0.020180644 -0.055080894 -0.0009269925 -0.013819962 0.024331352 0.005853981 -0.0067111067 -0.0045083594
-0.015118499 0.011898942 -0.038368672 -0.037779227 0.011954466 -0.04316315 -0.022612976 -0.012683494
0.018802106 -0.02374067 -0.02410686 0.053382922 -0.04457251 -0.050827507 0.032734104 0.022325885
-0.042254873 -0.013687758 -0.026839407 -0.03994046 0.012039293 0.014993436 -0.043297034 0.020653732
-0.03040126 -0.004351039 -0.0017238432 -0.015640048 -0.04631999 0.05738212 0.044193927 -0.050149307
-0.043826815 -0.031880163 -0.023214366 -0.0088290665 -0.006655687 -0.01093438 0.022233093 -5.7062418e-05
-0.05148028 -0.044738956 0.039244134 0.026451234 -0.04703059 -0.08984892 0.04410416 -0.033213034
-0.06524145 -0.04017357 -0.045904767 -0.008326682 -0.04831053 0.04546989 0.0044005713 -0.041298136
-0.033131443 0.024705628 0.022374747 -0.01431559 -0.029140878 -0.06062066 -0.016563412 -0.035853717
0.010830061 0.09300462 0.01275047 -0.0008215818 0.010924609 -0.028362948 0.01926788 -0.0033817654
-0.013141492 0.024180042 -0.03169359 -0.011520467 0.030629277 -0.0082089435 -0.11578988 0.008680603
-0.04171773 -0.01751576 -0.005282826 0.038769722 -0.045274865 0.09122781 -0.034306865 0.02147572
0.041473426 -0.016322128 -0.044857256 -0.029791713 0.0013373313 -0.014493217 0.005083053 0.026265059
-0.02969161 -0.017694263 0.02125766 -0.024412457 -0.0025084994 0.015826331 -0.011719668 -0.025897909
-0.037078958 0.02863908 0.0031181462 -0.009409802 -0.018595364 -0.052828025 -0.034381565 0.01991089
0.031074258 -0.032970294 -0.014352045 -0.04491963 -0.030302683 0.0073277717 0.05548463 -0.020867294
-0.019246032 0.010682719 -0.021221949 -0.036247857 -0.039522957 0.013484899 0.012900178 -0.0024368989
-0.025631238 -0.04578797 -0.0029864574 0.003056387 -0.023533056 -0.055682935 -0.032697376 -0.030585505
-0.025320472 0.003904038 -0.010835835 -0.056273956 0.0064393696 0.054901026 0.018766403 -0.0053308536
-0.04075274 0.027823707 -0.0065011405 -0.04115533 -0.09620261 0.074809745 -0.062749684 -0.003911041
0.015546616 -0.027575491 0.011287977 -0.03473441 0.0039484925 -0.025142591 0.023631582 -0.03684882
-0.03427609 -0.037569214 -0.021949554 0.0053070094 -0.07893998 -0.02065434 0.011884503 -0.024797361
-0.06737233 -0.0063551404 -0.03289873 -0.066590354 0.036321722 0.028217394 0.018593296 -0.014518548
-0.0120555675 -0.02274912 -0.030796027 -0.07981452 -0.03111071 -0.05612876 0.0031430323 -0.022409175
-0.06949399 0.0445976 -0.017337611 -0.009665957 0.04061383 0.013836933 -0.011411224 0.18643607
-0.04844528 -0.0075326595 -0.021004204 0.015962653 -0.0329998 -0.0012298715 0.07005699 -0.07529606
-0.057399478 -0.028934268 0.048586495 -0.04082106 0.0076095797 -0.024399733 0.010286755 -0.016920447
-0.052273788 -0.045447696 0.01432031 0.010039452 0.04962618 0.015327241 -0.0051243044 -0.011575184
0.08046423 -0.025486303 -0.02056312 -0.019482141 -0.045438033 -0.039687786 0.023522858 -0.022530947

fc2.weight f4 [64, 256]
00000000: 6c09 c4bd 943d a13c efbc 133d 849d 01be
00000010: 4f1e 653d 0737 82bd 1452 973d b130 863d
00000020: bbcb b23d 6dcd 06be ffdd 3abc 4be0 54bd
00000030: b200 1abe 369c a53b bd03 173d 8ab4 c73d
00000040: cfc4 883d 3f20 46bd bbf7 96bb 1d84 bdbd
00000050: 74da 13bd 944b c43d 3746 963d e766 30bc
00000060: 26ab c6bd fceb 893d ba2d c5be 4b98 2e3c
00000070: 098a 10bd 0cc7 9b3c 6385 0dbd db93 e33b
00000080: 974f 81be f3b8 f03d 6438 ca3d 1d7d 4d3d
00000090: 9148 9c3d 3cea 0ebc 805a 31bc e5ea e5bd
000000a0: 6bc3 c8bd 9d9c 91bd cd5f ed3d e2b1 4b3e
000000b0: c8b0 2cbc 055f f13d 3c3f 1739 e664 753e
000000c0: f45b 06bc e86d 053e a878 a0bb a137 25bd
000000d0: abf3 18be cdd9 103e 46e5 173c d505 253e
000000e0: 4fcb 863d b242 543e 67f3 093e d9d1 b6bd
000000f0: c2bd edba 611e 3abc 208b 03be c5d5 c73d
00000100: ea73 64bd 7143 2b3e 6dcd 833e 991d d53c
00000110: 065b 213e d480 c23d 9ddd 31be 0997 b1bd
00000120: 45d4 2fbe d690 2ebe 83d5 66bd 3251 493e
00000130: 5c9d a43b 9ff9 adbd 3824 ca3d 2d7f a13d
00000140: 6556 dabc ab0b a43d 8833 443c 4445 133d
00000150: 601a e53c 771d b23e 8b4f 973b e618 58bc
00000160: f241 1d3e 6078 613d 0b24 9cbc 0217 9b3d
00000170: c5c5 1dbe 3e9a 1f3d 75e6 49bc 3b50 8fbd
00000180: bd96 1fbd db04 8e3e 41ff 293e 2b40 bb3d
00000190: c987 1dbe 9e09 10bd 1a1e 223e 7185 f53d
000001a0: 2813 8d3c 586d 05be 331f 383d 4255 903d
000001b0: a2b9 613d 78ac 263d d453 2b3c 0f6b 983d
000001c0: bc1f 1ebc 1cf2 f3bc cf82 ab3d 333e 69be
000001d0: d477 383e ed96 453e be67 13bd 6eec 423d
000001e0: 18c5 543d 0e35 18bd a5c3 543d 3d7b 8a3d
000001f0: 98bf 203e b077 7c3d 6e2a aebe db24 433e
00000200: c6c4 fc3c 8272 cb3d 7bf8 a93d 12c2 91bc
00000210: 2c1d fe3d 3681 0fbe abc1 bebd 3408 823d
00000220: b696 1cbb 77ef ee3d 7b6b c93c 6df3 ec3d
00000230: 1e99 243e 5480 063e 058e e73d 55f1 f83c
00000240: 3bb8 8b3c 26b6 1a3c 230a 2cbd 6212 0e3d
00000250: df9b b1bc c5c7 6a3d 6250 96be d981 89bd
00000260: 66b5 a23c 21ee 91bd 15a4 98bd a330 8f3d
00000270: 9016 a7bd f3c4 cd3c c4ec b23d cce5 793d
00000280: c1fd 60bc 4a82 1e3c ebc3 5b3d 2971 3cbd
00000290: 2d04 ad3d c762 5b3d 65e6 40be 87e6 393c
000002a0: b08b 343d 6f1f 2ebe f01d 41bb 44a3 1b3e
000002b0: 1bd2 d3bd 38b7 b93c ebe0 4abe 0398 a4bc
000002c0: 9644 29bd 0de0 853b c163 163e 16db 063a
000002d0: afcf 0e3d b93a 933d ffdd b2bd 1502 f3bb
000002e0: 9a3b fe3d 5e4d 973d d974 e13d c782 9abd
000002f0: 12c9 f4bd a089 51be 17a1 02be 35f4 393d
00000300: 36d4 7bbc 5b2a cabc dfb9 5abd 3e15 1a3d
00000310: 856b 2d3e b8db e23d e009 cebd 1aa2 0c3e
00000320: 0cdc f5bc d461 b03d e5e4 533d 0b6a 013d
00000330: 8604 06be ea12 413e b7ea 3a3c ca17 863d
00000340: 2125 56be ce00 6fbd a99f b83d a12d 163c
00000350: fd87 9b3d 5f8c 1fbc ae19 9cbc 9865 29be
00000360: 3518 933c b379 bb3e 5c42 683e 177e 6c3d
00000370: 6464 2b3e 6aea c43e 6f48 0f3e 2cd5 863e
00000380: 6fc8 143d 5d5c a03c be83 5b3d 0f16 423d
00000390: 361d a03d 918d 95bd 991a 873e 7cd2 7c3d
000003a0: ea9a 2abd e90c a53c 9c57 1d3e 1067 a6bc
000003b0: 1550 dd3d 57be 12bd c36e f8bc 40f1 5ebd
000003c0: d124 9d3d 853b 823e 9b10 33bc 7e00 e3bd
000003d0: e792 08bd fe55 d8bd 71a0 013e 93b8 3f3e
000003e0: d237 63bd aff0 85bd b566 0437 fc13 c0bd
000003f0: 0871 bfbb 3dfc 4ebc 423c 63be 6e5c 433e
-0.095721096 0.019682683 0.036068853 -0.12657744 0.055937108 -0.06358152 0.07388702 0.06552256
0.08730265 -0.13164301 -0.011405467 -0.051971715 -0.15039328 0.005054022 0.0368688 0.09751232
0.06678163 -0.048370596 -0.0046071685 -0.09253714 -0.036097005 0.09584728 0.07337611 -0.010766721
-0.09700613 0.067344636 -0.3851145 0.010656427 -0.03528789 0.019015811 -0.034551036 0.006945116
-0.25256035 0.11754026 0.09874037 0.050168145 0.076310284 -0.008722838 -0.0108248 -0.11226443
-0.09802898 -0.0710995 0.11590538 0.19892076 -0.010540195 0.11785702 0.00014424039 0.23964271
-0.008200634 0.13030207 -0.004897196 -0.040336255 -0.14936702 0.14145584 0.009270972 0.16115506
0.06581747 0.20728567 0.13471757 -0.08926744 -0.0018138217 -0.011359782 -0.1284604 0.0975757
-0.055774607 0.16724946 0.25742665 0.02601509 0.15757379 0.09497228 -0.17369695 -0.08671386
-0.17170818 -0.17047438 -0.056355964 0.1965988 0.0050236415 -0.08494877 0.098701894 0.07885585
-0.026652524 0.08010038 0.011975177 0.03595473 0.027966678 0.34788105 0.0046176366 -0.01318953
0.15357187 0.05504644 -0.019060155 0.07572748 -0.15407474 0.038965456 -0.012323012 -0.069977246
-0.038962115 0.2773808 0.16601278 0.091430984 -0.15383829 -0.03516542 0.15831795 0.119883426
0.017221048 -0.13029993 0.04495163 0.07047512 0.055108674 0.040691823 0.010456998 0.07442295
-0.009651121 -0.029778533 0.08374559 -0.22777633 0.18014461 0.19295855 -0.035987608 0.04758876
0.051945776 -0.037159972 0.051944394 0.06761787 0.15698087 0.06163758 -0.34016746 0.19057028
0.030855548 0.0993395 0.08299347 -0.017792735 0.12407908 -0.14014134 -0.09314283 0.06349221
-0.0023893542 0.11666768 0.024587383 0.11569867 0.16074035 0.13134891 0.11306385 0.030388514
0.017055621 0.009442842 -0.042001855 0.0346855 -0.02168077 0.05731942 -0.29358202 -0.067142196
0.019861888 -0.071254976 -0.07453171 0.069916986 -0.081586 0.025118327 0.08736566 0.061010167
-0.013732375 0.009674618 0.05365364 -0.046006355 0.08448062 0.053561 -0.18837889 0.011346466
0.04407853 -0.17004178 -0.0029467307 0.15199 -0.10342809 0.022670373 -0.19812362 -0.020092016
-0.041325174 0.004085547 0.1468649 0.00051443407 0.03486603 0.07188935 -0.08733749 -0.0074160197
0.12413712 0.073878035 0.11008615 -0.07544475 -0.119524136 -0.20462656 -0.12756763 0.04539891
-0.015370419 -0.0246784 -0.053399917 0.037617914 0.16935547 0.11077064 -0.10060477 0.13733712
-0.030012153 0.08612409 0.051731963 0.03159527 -0.13087663 0.18854871 0.011408499 0.06547506
-0.20912601 -0.058350377 0.09014828 0.009166152 0.07594297 -0.009738057 -0.019055214 -0.16542661
0.017955879 0.36616287 0.22681564 0.057737436 0.16737515 0.38460094 0.13992475 0.26334512
0.03632396 0.019575292 0.053592436 0.047384318 0.078180715 -0.07302392 0.2638748 0.06172417
-0.041651644 0.020147758 0.15365452 -0.020312816 0.1080629 -0.035826053 -0.030326253 -0.054429293
0.07673038 0.25436035 -0.010929252 -0.11084078 -0.033343222 -0.10563277 0.1265886 0.18722753
-0.055473156 -0.065400474 7.891726e-06 -0.09378812 -0.005842332 -0.0126333805 -0.22190955 0.19078228

fc2.bias f4 [64]
00000000: 11c2 ab3b 7202 53ba 02e2 753c 3e6c ac3b
00000010: eb90 d33b 1b34 b33c 957a 303c acfc c1bb
00000020: 9a0a 5f3c 5fea 1cbc a927 7d3b 64aa ba3b
00000030: 46b3 0a3d c46c 86bc 83ba 883c 9f2e ca3c
00000040: aea8 023d 3d3a a23c 7f26 e13c 5e04 9e3d
00000050: 39b4 34bc 284b 1b3b 8b24 c43c 39c6 2d3d
00000060: 0bbd 333c ec89 c53c 3c53 813b 6646 923b
00000070: 8dd4 3a3d 0a55 cf3c 8041 063b 0546 8bbc
00000080: 55cc e63b bacf ad3c 4581 613d ae24 2c3c
00000090: cb80 ab3c 9c85 21bc 2c01 56bc bbca cc3b
000000a0: 156e ee3a 8612 fc3c 811d 3b3c c8d2 8e3b
000000b0: 785c 9e3c 01c1 533c 43e3 a8bb bc5c 063b
000000c0: ced7 be3c 3085 093b 1be0 503d 0ff6 683c
000000d0: d07a 94ba 251f 9bba 3050 c83c 8540 8f3b
000000e0: c7d8 313d 8032 a53c 7852 4d3c 1ccd 1c3c
000000f0: 13b1 9d3c 9c29 9fba 7bd5 ffbb 5299 523d
0.0052416404 -0.00080493756 0.015007498 0.005261927 0.0064564846 0.021875432 0.010771413 -0.0059200134
0.013613367 -0.009577363 0.0038628376 0.0056965817 0.033862375 -0.016409285 0.016690498 0.024680434
0.031899147 0.01980316 0.027484177 0.07715677 -0.011029297 0.002369592 0.023943206 0.042425368
0.010970364 0.024113618 0.00394669 0.0044639586 0.04561286 0.025309104 0.0020485818 -0.017001161
0.0070434012 0.021217216 0.05505492 0.010506792 0.020935437 -0.009858515 -0.013061803 0.0062497533
0.0018190766 0.030770551 0.0114206085 0.004358623 0.019331202 0.012924434 -0.005154045 0.0020502051
0.023296263 0.0020983927 0.050994974 0.014218821 -0.0011328105 -0.0011834843 0.024452299 0.004371705
0.043419626 0.020165682 0.012531869 0.009570386 0.019249475 -0.0012143138 -0.0078074313 0.05141575

ln2.weight f4 [64]
00000000: b68a 8d3f 99c2 883f 0d49 953f e4c5 9f3f
00000010: 3431 aa3f f07f 953f ca31 8a3f 2700 8a3f
00000020: 5ebf a43f 6ac9 873f a2de 813f 1c4f 8c3f
00000030: 0d42 923f 3289 7d3f a0f8 983f 5b12 b23f
00000040: d1e7 9c3f 2ab7 b63f 5f8e 863f 0d65 913f
00000050: e487 803f 23db 893f 3403 9b3f 764c 933f
00000060: e3c5 823f de8b 8f3f de4a 6d3f 34e2 843f
00000070: da8e 893f f6e7 953f cd1e 803f 4b0a 803f
00000080: 88c8 813f efe1 993f 04f3 903f 6f5a 853f
00000090: b5e2 893f a6fe 7e3f 5c41 7a3f 3c44 973f
000000a0: f81c 893f 4883 8a3f acf9 7f3f 922a 953f
000000b0: bd09 903f 31c6 9d3f 81bc 753f a122 943f
000000c0: 164f 983f 28f7 853f 38a9 b93f c40b 883f
000000d0: 3dac 8b3f 6703 823f 3aad 893f 8b5c 803f
000000e0: 36ed 8e3f cb90 953f 937a 873f fbfe 833f
000000f0: 8e06 903f 8dc9 8f3f 86e6 713f 115e 903f
1.1057956 1.0684386 1.1662918 1.2482266 1.3296266 1.1679668 1.0796444 1.0781296
1.2870901 1.0608342 1.0146067 1.0961642 1.1426407 0.9903747 1.1950874 1.3911852
1.2258245 1.4274647 1.0512198 1.1358963 1.004147 1.077 1.2110353 1.1507709
1.021664 1.1214559 0.92692363 1.0381532 1.074672 1.1711414 1.00094 1.0003141
1.0139322 1.2022074 1.1324162 1.0418223 1.077231 0.9960731 0.9775598 1.1817698
1.0711966 1.0821314 0.99990344 1.1653616 1.1252972 1.2326108 0.9599076 1.1573068
1.1899135 1.0466051 1.4504766 1.062859 1.0911938 1.0157288 1.075599 1.0028242
1.1166141 1.1684812 1.0584282 1.0312189 1.1252 1.1233383 0.94492376 1.1278707

ln2.bias f4 [64]
00000000: f62a 513c c687 48bb cd21 05bb 667c 373d
00000010: 9d46 a5bb c609 78bd a162 19bd 11c9 023c
00000020: 4594 19bd 6c9a 2fbd a20a 4c3a bc59 d63b
00000030: 5ad8 0e3d f5b0 50bd 04d4 6e3d 720f 933d
00000040: de12 3c3d 6a56 9b3d 7739 a03b 269a da3d
00000050: 05e9 a8bc 684f af3b 9a4b 37bd 6505 613d
00000060: be25 e73c 1c20 48ba 2072 30bd 84e5 86bc
00000070: ef7d 053d 5d5f 8d3b 7945 ca3b bd68 22bd
00000080: 9fe0 b83c 2cfc da3b 08af 963d 8cc0 a43c
00000090: 0a5c 593d da5d b9bc 9332 a0bd e144 553c
000000a0: 6ac3 b1bb 2fe3 b83c 9e6d 083c 8518 04bd
000000b0: 88db a63d 09df 653d b88d 98bc 6433 d4bc
000000c0: 557a 1d3d d095 0a3c e212 983d d4be ab3b
000000d0: 2471 713c 53a9 b23c 1398 ae3c 6c03 f039
000000e0: eeee ba3d d0df 80bb 7785 093d 7ebc 113d
000000f0: ff34 e13c d635 1abc 348b afbc ea85 6d3d
0.01276659 -0.0030598505 -0.0020314336 0.04479637 -0.005043818 -0.060556196 -0.037447575 0.007982508
-0.037494916 -0.042871878 0.0007783567 0.006541459 0.034874298 -0.05095001 0.058307663 0.0718068
0.04591643 0.075848415 0.004889663 0.10673933 -0.020618925 0.005350042 -0.044749834 0.054936785
0.028216239 -0.0007634179 -0.043077588 -0.016466863 0.032590803 0.0043143467 0.0061728326 -0.039650667
0.022568045 0.0066828933 0.07357603 0.020111345 0.05306629 -0.02262776 -0.07822146 0.01301691
-0.0054249065 0.022569267 0.008326916 -0.032249946 0.08147341 0.056120906 -0.018622264 -0.025903411
0.038446743 0.00845857 0.074254766 0.0052412543 0.0147364475 0.021809256 0.021312749 0.00045778917
0.091276035 -0.0039329305 0.033574548 0.03558015 0.02749109 -0.00941225 -0.021428682 0.05798904

action.weight f4 [4, 64]
00000000: 85eb 163d c845 c0be 39f9 543e 5b36 a5be
00000010: b300 0f3f 12bf b03e fb9a c939 a731 8f3c
00000020: b88a 353c 4e8e 71bd 8c77 7f3d 66b2 763d
00000030: 7f56 e2bd 7cf4 423e 0b2d f73b 04ce ac3b
00000040: cfc6 bd3d 3e20 01bf cb62 ab3e 594b e43d
00000050: b719 ba3e 2267 133e a3aa 7dbd 324a 0abd
00000060: 9265 363e 2e75 e0bd 09e9 0ebe 2f5b f83c
00000070: e7e2 bbbd b7d2 66be d27f ab3e a05b 193e
00000080: 170b aabd f033 d53d 119f b4be a19b 3c3d
00000090: ec1d b63d a59a ec3d aed5 363e 1e91 2b3d
000000a0: 9c5f 8c3d 2e21 293d 25a8 43bc f724 493d
000000b0: 1b21 8e3d 5b52 26bd 1c2a bd3d 6f25 483c
000000c0: aa0f ac3c dde6 2fbe 63f2 d33c 1c9d 633c
000000d0: 80f1 83be 90fc 6bbe 2de4 183e 60ef 0abe
000000e0: 3a5d a9bd 2ef2 723c ae40 44be 437d 1ebe
000000f0: 371e fd3d 49fa 00be dc72 1abe 19bf 553c
00000100: b274 bf3e 5f6f 373e 736e cb3e 7bbb 51bf
00000110: 9807 713e 05c7 813e 9b2b 85be 9368 9c3e
00000120: 001f 80be 3600 be3d aea8 eb3e 48bd 9e3e
00000130: c744 b63e 5910 d5bd afec ad3e aa78 02be
00000140: 51cd 983d 2c3d ee3e 2486 82be 0c4b 21be
00000150: 98d6 a8be 0dd6 663e e931 d03e 0101 82bd
00000160: 5b26 163e ffb1 3cbe 0ec3 903e 3622 82be
00000170: e06b 8a3c 46e7 3d3e a7f7 d13a a6f0 c1bc
00000180: ecd2 bcbe 5182 bfbe 45b4 92bd 3df4 f8bc
00000190: d5be aebd f910 cbbd 581d e43c a0ee 793e
000001a0: 9f59 8c3d bd6b 8bbe 2fba f23b c25b 57be
000001b0: 3e33 b93e 79b5 fbbd d5cc 243e 448f 1f3d
000001c0: 09ed edbd cb46 673c ac33 9fbe 5c4a 613e
000001d0: 84d3 853c 7f55 8d3e 15a3 6e3e 5dc4 9bbe
000001e0: 90fc b93d b808 623e c5b2 823e 33af 52be
000001f0: 6231 17bf fd3f a93e e7b3 28bd f244 21be
00000200: b0df ff3e 72fa a83d fdc0 313e b07e a4be
00000210: 0a2d 43bd 0b1b 123d 28b9 d43e 1ab1 19bc
00000220: 70cc f03b b85d 323e 443f 1fbe 4497 ffbd
00000230: 0e2a 073e 1f51 6f3d 87f2 1abc 6bf9 febe
00000240: 4f27 193f 12ef b93e 556b acbe 7d51 033f
00000250: b1a2 223e 6d32 a2be 7a10 38be f246 c03d
00000260: 9246 913d 58bd aebe aa38 263e c8f0 8dbe
00000270: 1aac 3e3e d071 833e c7d3 513e f960 6ebe
00000280: 2075 95bd aefe a7bd 0896 0f3e da5e b1be
00000290: 7094 1cbe d912 8abe 73f9 69bd 3b80 dbbd
000002a0: 7422 5fbe 6078 6b3d f5d0 12be 4368 80be
000002b0: 3a4a 733e 132d 29bf ded9 563e 9315 df3e
000002c0: c9a7 98be 2f66 093f 81a5 76be a265 2ebe
000002d0: 78be 1bbf 0f20 bdbe b4d7 afbe 22e0 7c3c
000002e0: d588 5e3c 5ad9 82be e1be cdbb 3b35 1abe
000002f0: b67a 3a3e 7898 553e 5285 fe3e 83fd 4d3e
00000300: a83e 0dbd 1bbb ec3c 4538 0fbf 8b30 573e
00000310: 802a 0c3e 9a2c a73e b47f 0e3e 0678 393d
00000320: 80c3 1a3f 5cf6 a13e a119 9d3e f4a0 363f
00000330: 099d 58be 6cf1 713c 8e7c 6ebe 3dcc a43e
00000340: 2e8f 88be 8b4e 063e f4ab a3bd 7208 3dbe
00000350: 260e a7bd 941c 8cbd 8e15 d93e e21a 0bbf
00000360: 30af 67be 3962 0f3f bcaf 373d a4bb 9dbd
00000370: 4890 b63e a370 853e 768e 97be 4d4a 93bd
00000380: 5d70 8d3e 802c be3e 98b9 aa3d c0d6 84bd
00000390: 1fa0 263e b4ed c0bd 8464 243d dc1e 10bf
000003a0: 755b b73e 2d50 75be 154d 4abc b1eb c63e
000003b0: 9d86 a9be c8e1 cf3e 4060 203e 3b2d 66be
000003c0: a162 393e 3633 723c 0657 003f f3a2 1abe
000003d0: 9559 623e 19ee a1ba 58ac dd3e 3432 5bbe
000003e0: 1266 8f3e 0e86 423e f11b 263b 0463 283f
000003f0: 8102 363d 74e1 d1bb d6f5 b7bd a0e3 01be
0.036845703 -0.3755324 0.20798196 -0.32268032 0.5586044 0.34520775 0.00038453177 0.01747973
0.011080436 -0.058973603 0.06236987 0.060228728 -0.11051654 0.19038576 0.0075432113 0.0052735824
0.09266435 -0.5043982 0.3347381 0.11147184 0.36347744 0.14394811 -0.06193031 -0.033762164
0.17812183 -0.1095985 -0.13956083 0.030316917 -0.091741376 -0.22541319 0.33495957 0.14976358
-0.083028965 0.10410297 -0.35277608 0.046046857 0.08892426 0.115529336 0.1785495 0.04188644
0.068541735 0.04129141 -0.011941944 0.049107518 0.06939908 -0.040605884 0.09236547 0.012215956
0.021003563 -0.17177911 0.025872415 0.013892438 -0.25770187 -0.23045564 0.14930792 -0.13567877
-0.08269735 0.014828248 -0.19165298 -0.15477471 0.12359279 -0.12595476 -0.15082878 0.0130460495
0.3739372 0.17913578 0.39732704 -0.819267 0.23538053 0.25347152 -0.2600983 0.30548534
-0.2502365 0.09277384 0.4602713 0.31003785 0.35599348 -0.10403509 0.33969638 -0.12741342
0.07461036 0.46531045 -0.25492966 -0.15751284 -0.32976222 0.22542591 0.40663078 -0.06347848
0.14663069 -0.18427275 0.28273815 -0.25416726 0.016897142 0.18545255 0.0016019241 -0.02367432
-0.3687967 -0.3740411 -0.0716329 -0.0303899 -0.08532492 -0.09915347 0.027846023 0.24407434
0.06853031 -0.27230635 0.0074074487 -0.21031097 0.36171907 -0.122904725 0.16093762 0.038954988
-0.116174765 0.014115999 -0.3109411 0.22001022 0.01633621 0.2760429 0.23304398 -0.3042325
0.090813756 0.22073638 0.25527015 -0.20574646 -0.5905973 0.33056632 -0.041187193 -0.15748957
0.49975348 0.08250894 0.17358775 -0.32127905 -0.047650374 0.03567032 0.41547513 -0.009380603
0.0073485896 0.17418563 -0.15551478 -0.124800235 0.13199636 0.058426972 -0.009457237 -0.49799666
0.59825605 0.3631521 -0.33675638 0.51296216 0.15882374 -0.31679097 -0.17975035 0.09388532
0.07093538 -0.34128833 0.16232553 -0.27722764 0.18620339 0.2567277 0.20490943 -0.2327918
-0.072977304 -0.08202873 0.14022076 -0.34642678 -0.15291 -0.26967505 -0.05712266 -0.107178174
-0.21790487 0.057487845 -0.14337523 -0.25079545 0.23758784 -0.660844 0.20981547 0.43571147
-0.2981551 0.53671545 -0.24086572 -0.17030957 -0.6083751 -0.3693852 -0.34344256 0.015434297
0.013582428 -0.2555645 -0.006278858 -0.15059368 0.18210873 0.20858943 0.4971109 0.20116238
-0.03448358 0.028897813 -0.55945235 0.21014611 0.13688087 0.32651216 0.13915902 0.04528048
0.6045456 0.3163327 0.30683616 0.71339345 -0.21153654 0.014767032 -0.23289701 0.3218707
-0.26671737 0.131159 -0.07991782 -0.18460253 -0.081569955 -0.06841388 0.42399257 -0.54337895
-0.22625422 0.5600925 0.044845328 -0.07701805 0.35656953 0.26062497 -0.29600877 -0.07191906
0.2762479 0.37143326 0.083361804 -0.06486273 0.16272019 -0.09420338 0.04013492 -0.5629709
0.35811964 -0.23956366 -0.012347479 0.38851693 -0.33110514 0.40601945 0.15661716 -0.22478192
0.1810403 0.014782717 0.5013279 -0.15101223 0.22104485 -0.0012354284 0.4329555 -0.2140587
0.2800756 0.1899645 0.0025346244 0.65776086 0.04443598 -0.00640505 -0.08982436 -0.12684488

action.bias f4 [4]
00000000: 4222 39bc 4e4e 303c bd78 263b 5710 cebc
-0.011299672 0.010760857 0.0025401555 -0.025154276
