checkpoints/DDPG/Target_actor/DDPG_target_actor_200.pth (torch, 183215 bytes, 10 tensors)

fc1.weight f4 [256, 41]
0	0xbdf462b4	-0.119328886
1	0x3dbe91b2	0.09305133
2	0x3d918d41	0.0710702
3	0xbdf8952f	-0.121378295
4	0xbe1d72f5	-0.15375884
5	0xbd2595d9	-0.04042611
6	0x3c797066	0.015224552
7	0x3dcb4b4c	0.09926471
8	0x3dc7d9fc	0.09758374
9	0xbd82fa2d	-0.063953735
10	0xbe23e400	-0.16004944
11	0x3d0f90b3	0.035050105
12	0xbe06d1c3	-0.13165955
13	0x3bb4b7f1	0.0055150916
14	0x3e16eac7	0.14737998
15	0xbdec45c5	-0.11536745
16	0xbde76e30	-0.113003135
17	0x3d081e90	0.03323227
18	0xbd5a421f	-0.053285714
19	0xbe0a6d99	-0.1351837
20	0x3d112f4a	0.03544549
21	0x3d785861	0.06063116
22	0xbdcd54b0	-0.100259185
23	0xbe2258ab	-0.15854137
24	0x3c148f85	0.009067421
25	0x3cdd4c8d	0.027014041
26	0xbb91c757	-0.004448812
27	0x3cc3585e	0.023845848
28	0x3d5a8230	0.053346813
29	0xbe0751a4	-0.13214737
30	0xbe17a152	-0.14807633
31	0x3c230bce	0.009951545
32	0xbc58e463	-0.013238045
33	0x3c8a390f	0.01687291
34	0x3b4ed76c	0.0031561507
35	0xbd460947	-0.04834869
36	0x3d6e3429	0.058155213
37	0x3df496fe	0.11942862
38	0x3dd1a3b8	0.10236305
39	0xbbc78fdc	-0.0060901474
40	0xbe01e344	-0.12684351
41	0x3d331df3	0.043729734
42	0x3b8a2f25	0.004217046
43	0x3c129289	0.0089460695
44	0x3e004ce4	0.12529331
45	0xbd83d91d	-0.064378954
46	0x3dbb73ff	0.09152984
47	0xbd033658	-0.032034248
48	0x3db24c7c	0.087059945
49	0xbd0fc019	-0.035095308
50	0x3d1b6a1e	0.037942998
51	0xbe04279f	-0.12905739
52	0xbe0fbcd8	-0.14036882
53	0xbc887092	-0.01665524
54	0x3d204c54	0.039135292
55	0x3dbb5520	0.09147096
56	0xbdd6963e	-0.10477875
57	0x3d63408a	0.05548147
58	0xbdc20e1c	-0.094753474
59	0x3d4f2b0b	0.05057816
60	0xbda16844	-0.07881215
61	0x3e1f40cc	0.15552062
62	0x3d7ad007	0.061233547
63	0x3e696a02	0.22794345
64	0x3d481b68	0.04885426
65	0x3df8698c	0.121295065
66	0x3d40f77e	0.047111027
67	0x3e88c3a3	0.2671176
68	0xbbbfe858	-0.005856555
69	0xbd79e80c	-0.061012313
70	0xbe07a018	-0.13244665
71	0x3dda95d3	0.10673108
72	0x3e187ee0	0.14892149
73	0x3c41a606	0.011819368
74	0xbd5ac96c	-0.053414747
75	0xbd0649f2	-0.032785363
76	0xbdd7a38c	-0.10529241
77	0x3dde74ac	0.10862097
78	0x3c137ae9	0.009001472
79	0x3b6782b2	0.0035325703
80	0xbbfdfaba	-0.007750836
81	0x3deec22d	0.1165813
82	0x3dc3b3d4	0.09555784
83	0xbd3c23d0	-0.04593259
84	0xbd5a65da	-0.05331979
85	0xbdf8effe	-0.1215515
86	0xbe1701bc	-0.14746755
87	0xbd28b945	-0.04119231
88	0xbd37fb82	-0.04491759
89	0x3da2e39d	0.0795357
90	0x3d88ad4d	0.066736795
91	0xbde07c90	-0.109612584
92	0x3db7ae10	0.08968747
93	0x3e54b191	0.20770861
94	0x3e3fa5c3	0.18715577
95	0x3e26cfc4	0.16290194
96	0x3c871f17	0.016494317
97	0xbdd34de8	-0.10317594
98	0xbda9b569	-0.08286554
99	0x3d27a270	0.040926397
100	0x3d963b6e	0.07335554
101	0x3b63da88	0.0034767706
102	0xbd2e6f2c	-0.04258649
103	0x3d8554af	0.06510293
104	0xbdaa0c3c	-0.08303115
105	0xbde586a7	-0.112073235
106	0xbe05826d	-0.13038035
107	0xbe044ccb	-0.12919919
108	0xbda09f49	-0.07842881
109	0x3c7e7f60	0.015533298
110	0x3d7ea544	0.06216933
111	0x3d90c4bb	0.07068773
112	0x3db9b6eb	0.09068092
113	0x3d6b19b0	0.057397544
114	0x3ca7ecd9	0.02049868
115	0x3d31980b	0.04335789
116	0x3d25a602	0.04044152
117	0x3e1e75e2	0.15474656
118	0xbc781616	-0.015141984
119	0xbd82a083	-0.063782714
120	0xbc033c3a	-0.008009965
121	0xbdb8dacf	-0.090261094
122	0x3b4520c2	0.003007934
123	0x3d02dcc7	0.03194883
124	0xbe64b9fb	-0.22336571
125	0xbd8f74ac	-0.07004675
126	0x3d177ab9	0.03698227
127	0xbd8e29be	-0.069415554
128	0xbc964b35	-0.018346408
129	0xbd6a585c	-0.057213172
130	0x3d3f9a03	0.046777736
131	0xbdbe7979	-0.09300513
132	0x3dbe4d5d	0.092920996
133	0x3d4a7d38	0.049435824
134	0x3e65e30e	0.22449896
135	0x3dfabb9a	0.122428134
136	0x3ce9191c	0.028454356
137	0x3c8312b5	0.016000131
138	0x3e1a46dc	0.15066093
139	0xbe060803	-0.13088994
140	0x3e513906	0.20431909
141	0x3d6d722c	0.05797021
142	0xbcee757f	-0.02910876
143	0x3c63b72a	0.01389865
144	0x3c9438a8	0.018093422
145	0xbe2e37fb	-0.17013542
146	0x3bee79dc	0.0072777104
147	0xbdbbb15b	-0.09164687
148	0xbd2ec82d	-0.04267137
149	0xbd9f64de	-0.07782911
150	0xbc59fdea	-0.013305167
151	0x3d4cf273	0.050035905
152	0x3e4f2186	0.20227632
153	0xbda144f1	-0.07874478
154	0xbd9956f1	-0.07487286
155	0x3e249013	0.16070585
156	0xbd084b9a	-0.033275224
157	0xbd8315f8	-0.064006746
158	0x3e8d4efd	0.27599326
159	0x3e70e8a7	0.2352625
160	0x3d779493	0.060444426
161	0x3d181a38	0.03713438
162	0x3df76b28	0.12080985
163	0x3d2d0a8e	0.042246394
164	0x3b8ca823	0.0042925044
165	0x3e1443f1	0.14479043
166	0xbe159c06	-0.146103
167	0xbb708200	-0.003669858
168	0xbe3a8e1a	-0.1821827
169	0x3de4a9b7	0.11165183
170	0xbdb97f1e	-0.09057449
171	0xbdab875f	-0.08375429
172	0xbd038fa9	-0.032119427
173	0x3c4ff3ea	0.012692431
174	0x3d989fb8	0.07452339
175	0xbcc6df13	-0.024276292
176	0xbe10df7f	-0.14147757
177	0xbe39e80d	-0.18154927
178	0xbe4df059	-0.20111217
179	0xbdec31c5	-0.1153293
180	0xbdeced22	-0.11568667
181	0x3da48706	0.08033566
182	0xbe47a265	-0.19495542
183	0xbe16f435	-0.14741595
184	0xbd3960fe	-0.045258515
185	0xbdb1d06c	-0.086823314
186	0x3e4eb783	0.20187192
187	0x3d3cddcf	0.04610997
188	0x3d65963f	0.05605149
189	0x3d030174	0.031983808
190	0x3d10c3e7	0.035343077
191	0x3e3e70eb	0.18597762
192	0xbd0ecdac	-0.034864113
193	0x3c4b1cbb	0.012396987
194	0x3d9317ce	0.07182275
195	0xbb63cddd	-0.0034760155
196	0x3dbd07aa	0.092299774
197	0x3e2376be	0.15963265
198	0xb8387616	-4.3978995e-05
199	0xbd75bf42	-0.05999685
200	0xbdc1c038	-0.09460491
201	0x3c2728f8	0.010202639
202	0x3b47bb0b	0.0030476477
203	0xbe39558e	-0.18099043
204	0x3ce81556	0.028330486
205	0xbd252e25	-0.04032721
206	0x3e06b75d	0.13155885
207	0x3e32dce0	0.1746707
208	0x3d7350b6	0.059403144
209	0x399f53f7	0.00030389402
210	0x3d9cacf6	0.07650177
211	0x3dbf579f	0.09342884
212	0x3e80fca2	0.25192744
213	0x3e3f0993	0.18655996
214	0x3e2f8812	0.1714175
215	0x3e11f026	0.14251766
216	0x3cfd212e	0.03089961
217	0xbdaab581	-0.083354004
218	0x3da7e136	0.081972525
219	0x3dbbbd1e	0.091669306
220	0x3c0a06eb	0.008424501
221	0x3da0daa1	0.078542
222	0x3d130b52	0.035899468
223	0x3d9c10ec	0.07620415
224	0xbd01fad9	-0.031733368
225	0xbe362085	-0.17785843
226	0xbb72312d	-0.003695558
227	0x3d7affd5	0.061279137
228	0xbc5895d5	-0.0132193165
229	0xbdecd524	-0.11564091
230	0xbcc15db4	-0.023604251
231	0x3e37311c	0.17889827
232	0x3c3d0868	0.011537649
233	0x3dcbd736	0.099531576
234	0xbccd4aa0	-0.025059998
235	0xbdff024a	-0.124516085
236	0x3db581c0	0.088626385
237	0x3e1ad0fc	0.15118784
238	0x3e5e9e6a	0.21740118
239	0xbce33fdb	-0.02774041
240	0x3e50d8f0	0.20395255
241	0x3d0e44fc	0.034733757
242	0xbd3f574b	-0.04671411
243	0x3cca4c9f	0.024694739
244	0x3d5d33fa	0.054004647
245	0xbe7a3aaf	-0.24436449
246	0x3e2f0996	0.170935
247	0x3cad82fd	0.021180624
248	0x3d83789e	0.0641949
249	0xbde7e93e	-0.11323784
250	0xbe0529c2	-0.1300421
251	0xbe6a0bad	-0.22856016
252	0xbd8edb60	-0.06975436
253	0xbd869173	-0.06570711
254	0xbe09a02c	-0.13440007
255	0xbe0e952b	-0.1392409

fc1.bias f4 [256]
0	0xbc09305d	-0.008373347
1	0xbc5219ff	-0.012823581
2	0xbc89cefa	-0.016822327
3	0x3d56bde0	0.052427173
4	0xbd226bf0	-0.03965372
5	0x3db5da8b	0.088795744
6	0x3cc4f600	0.024043083
7	0x3d5ce811	0.053932253
8	0x3bca3180	0.0061704516
9	0x3d070a68	0.03296891
10	0xbcbdceeb	-0.023169955
11	0xbd112e3a	-0.035444476
12	0x3cc4a7bc	0.024005763
13	0x3dcd384f	0.10020506
14	0x3e04e270	0.12977004
15	0x3d4b93b7	0.04970142
16	0xbc7010c0	-0.014652431
17	0x3cebedcd	0.028799916
18	0x3d057b5f	0.03258836
19	0xbd631c9e	-0.055447213
20	0xbc19fd92	-0.009398835
21	0x3d1bea24	0.03806509
22	0x3d686d89	0.056745086
23	0x3d864a79	0.06557173
24	0x3d96d2ff	0.07364463
25	0x3deaad78	0.11458868
26	0xbd94462a	-0.07239945
27	0xbcb67992	-0.022274766
28	0x3d3964f8	0.045262307
29	0xbceb5083	-0.028724914
30	0x3cff5164	0.03116674
31	0x3a18bc26	0.0005826376
32	0x3d769656	0.060201965
33	0xbd619fe5	-0.055084128
34	0x3cd2dde4	0.025740571
35	0xbd271ebb	-0.04080079
36	0x3c8f77d3	0.017513191
37	0xbcd0eaf7	-0.025502665
38	0xbd223426	-0.039600514
39	0xb5b4b288	-1.3463005e-06
40	0x39e34f24	0.00043355778
41	0x3cb3673b	0.02189981
42	0x3dcd84a6	0.10035066
43	0xbcad6661	-0.021166982
44	0xbc1f5b3b	-0.009726341
45	0x3d334ad1	0.043772522
46	0x3d97b100	0.07406807
47	0x3d215930	0.039391696
48	0xbd3f9e74	-0.046781972
49	0xbd08dd04	-0.033413902
50	0x3c12d12b	0.008961002
51	0x3c8b5079	0.017006146
52	0xbd669971	-0.056298677
53	0x3c132ad3	0.008982378
54	0xbd8e3710	-0.06944096
55	0xbc127914	-0.00894
56	0xbd3a8ba8	-0.045543343
57	0x3cfd678f	0.03093317
58	0x3d4858b8	0.048912734
59	0xbd4ed49d	-0.050495733
60	0x3d93ca9a	0.072163776
61	0x3d110fa0	0.03541529
62	0x3dc7955b	0.09745284
63	0xbd54ce64	-0.051954642
64	0x3cef1530	0.029184908
65	0x3c98aa45	0.018635878
66	0xbc321db2	-0.010871338
67	0x3d48799c	0.0489441
68	0xbd65260e	-0.055944495
69	0x3e1aed20	0.15129519
70	0x3d3518ed	0.044213224
71	0x3d587170	0.052842557
72	0x3daede2c	0.0853847
73	0x3d51a9fe	0.051187508
74	0xbc065184	-0.008198146
75	0x3ccf9412	0.02533916
76	0xbcd4250d	-0.025896573
77	0x3c427740	0.011869252
78	0x3c844701	0.016147139
79	0xbd11cd1f	-0.03559601
80	0xbc1a68ca	-0.009424398
81	0xbd18b2fc	-0.037280068
82	0x3cac1ca3	0.021009749
83	0x3a7d8fec	0.000967263
84	0x3b3d3d40	0.002887562
85	0xbcb5c014	-0.022186317
86	0x3d901e5e	0.07037042
87	0xbd55a06b	-0.05215494
88	0xbd8a25a8	-0.067454636
89	0xbcd90b60	-0.026494682
90	0xbc76039c	-0.015015509
91	0x3dd38217	0.10327547
92	0xbd3fc2b1	-0.04681653
93	0x3c8eaa56	0.017415207
94	0xbd7a51d3	-0.06111319
95	0x3da5f528	0.081034005
96	0xbd36c4bb	-0.04462121
97	0xbba66e57	-0.0050790715
98	0x3d07ad44	0.033124223
99	0xbd0222d4	-0.031771496
100	0xbd2abb30	-0.041682422
101	0x3daf7696	0.0856754
102	0xbdbb82ba	-0.091557935
103	0x3dc6e00d	0.09710703
104	0x3dcdb0aa	0.100434616
105	0xbd824f0c	-0.06362733
106	0xba73792d	-0.0009287771
107	0xbd306f0c	-0.043074653
108	0xbcc40566	-0.023928355
109	0xbcee5331	-0.029092403
110	0x3d12e47f	0.035862442
111	0x3d8bc8f7	0.068254404
112	0x3d0a2b87	0.033732917
113	0xbc53f61a	-0.012937093
114	0xbd51300f	-0.051071223
115	0x3d882ab7	0.06648772
116	0x3d0d2959	0.03446326
117	0x3d17a395	0.03702124
118	0x3c8e42df	0.017365871
119	0x3cd0cd55	0.025488535
120	0x3d80c45f	0.06287455
121	0xbd7460f6	-0.05966278
122	0xbcac45b5	-0.021029333
123	0x3c869973	0.016430592
124	0x3d5ab3db	0.05339418
125	0xbd781736	-0.06056901
126	0xbd0ec6f0	-0.03485769
127	0xbd65b2ca	-0.05607871
128	0xbd27dae9	-0.040980253
129	0xbd0979f3	-0.033563565
130	0x3d9dc845	0.07704214
131	0x3d4d6edf	0.050154563
132	0xbd708475	-0.05872007
133	0x3d96958a	0.07352741
134	0x3c7c359c	0.015393641
135	0xbcbc5029	-0.022987442
136	0x3cd50641	0.026003959
137	0x3d20c461	0.03924978
138	0xbd42039b	-0.04736672
139	0xbcefa89d	-0.029255206
140	0xbbf65e83	-0.007518591
141	0xbcca9e56	-0.024733704
142	0xbc65cb5f	-0.014025538
143	0x3c8a8fab	0.01691421
144	0xbd5bb08f	-0.053635176
145	0xbd98b5b4	-0.07456532
146	0x3bbe7d50	0.0058132783
147	0xbd338417	-0.043827143
148	0xbd19e089	-0.03756765
149	0x3d8cd2ef	0.0687617
150	0xba80b0eb	-0.0009818351
151	0xbd40380f	-0.04692846
152	0x3d988d3a	0.07448812
153	0xbd0224d1	-0.031773392
154	0x3d46587e	0.048424236
155	0x3d5e1511	0.05421931
156	0xbd030172	-0.0319838
157	0xbcd195a9	-0.025584059
158	0xbd4b0b05	-0.049571056
159	0xbd253e16	-0.040342413
160	0x3bde1848	0.006777797
161	0x3d28e6ad	0.041235615
162	0x3b63425e	0.003467701
163	0x3d3a2c89	0.04545263
164	0x3d3ba882	0.045815
165	0xbd02e019	-0.031951997
166	0xbce60c58	-0.028082058
167	0xbb63ac02	-0.0034739976
168	0xbbae9779	-0.0053281155
169	0xbd2d5e0a	-0.04232601
170	0xbd5e9c35	-0.05434819
171	0xbd24c332	-0.040225215
172	0xbd179761	-0.0370096
173	0x3d19b9e8	0.03753081
174	0x3c8d4053	0.017242586
175	0xbc4ae4f2	-0.012383686
176	0x3d0b53a2	0.034015305
177	0x3bbde3df	0.0057949866
178	0xbc198f48	-0.00937254
179	0x3b0fd5d7	0.0021947527
180	0xbcd9aa54	-0.026570477
181	0x3cc6e6f6	0.024280053
182	0xbaf8bbfb	-0.0018976921
183	0xbccf1700	-0.025279522
184	0x3cc5236e	0.024064746
185	0xbcdc7fdc	-0.026916437
186	0xbb59d01f	-0.0033235622
187	0xbd916890	-0.07100022
188	0xbd7944b9	-0.060856555
189	0xbba2e6a0	-0.0049713403
190	0x3d28b96f	0.04119247
191	0xbc5b1b2b	-0.013373177
192	0x3d47be1d	0.04876529
193	0x3cd2194a	0.025646824
194	0x3d900587	0.07032304
195	0x3dda989c	0.10673639
196	0xbcf70011	-0.030151399
197	0x3d28647a	0.041111447
198	0xbd26d8bc	-0.040734038
199	0xbcc34359	-0.023835825
200	0xbd79d5a3	-0.060994755
201	0xbc9142b6	-0.017732006
202	0x3db839da	0.08995409
203	0x3d33a81a	0.043861486
204	0xbd210ae2	-0.03931702
205	0x3d77f0d0	0.06053239
206	0xbd554268	-0.052065283
207	0xbd12b943	-0.03582121
208	0x3ce99e78	0.028517947
209	0x3da80fb3	0.082061194
210	0x3c0c9e11	0.008582608
211	0x3c7e2e52	0.015513973
212	0x3c602b20	0.013682157
213	0xbd521d1e	-0.0512973
214	0xbd74965a	-0.0597137
215	0xbdbf5533	-0.09342422
216	0x3de1bf9a	0.11022873
217	0x3bf9ba3b	0.0076210774
218	0x3d7c1a69	0.061548624
219	0x3d6c58c8	0.057701856
220	0xbd998bf2	-0.074973956
221	0x3cde792e	0.027157392
222	0xbcc63f90	-0.02420023
223	0x3c342c23	0.010996851
224	0xbd873bfa	-0.066032365
225	0xbc71067d	-0.01471102
226	0xbd655e38	-0.055998057
227	0x3dd0c219	0.10193271
228	0x3d1dd7a8	0.038535744
229	0x3d22fac7	0.03978994
230	0x3a542eec	0.000809415
231	0xbd0d324e	-0.034471802
232	0xbd18c95c	-0.037301406
233	0x3bda0e5a	0.006654543
234	0xbcd23f7b	-0.025665035
235	0x3d51edeb	0.051252287
236	0x3b4d22a0	0.0031301156
237	0x3d3b3709	0.045706782
238	0x3cca6437	0.02470599
239	0x3d0aba6f	0.033869203
240	0x3c7fb77e	0.015607713
241	0xbbeb2cf3	-0.007176989
242	0xbd478690	-0.048712313
243	0x3c084ff8	0.008319847
244	0x3b930dd5	0.004487733
245	0xbd12bd3c	-0.035825
246	0x3ce433ae	0.027856674
247	0xbd37801e	-0.044799916
248	0xbd89285c	-0.06697151
249	0x3c800d18	0.015631244
250	0xbcc97a5f	-0.024594484
251	0x3d0f2797	0.034949865
252	0xbd0de130	-0.034638584
253	0x3e4d0186	0.20020112
254	0xbc482b05	-0.012217288
255	0x3d55f8b1	0.052239124

ln1.weight f4 [256]
0	0x3f73574c	0.9505508
1	0x3f8b336d	1.0875069
2	0x3f788182	0.97072613
3	0x3f83c0b5	1.0293185
4	0x3f790e77	0.97287697
5	0x3f8d98a1	1.1062204
6	0x3f96858b	1.1759504
7	0x3f865af3	1.0496505
8	0x3f9906d1	1.1955205
9	0x3f86763c	1.0504832
10	0x3f865f48	1.0497828
11	0x3f7b2da5	0.98116523
12	0x3f801379	1.0005943
13	0x3f96c0b1	1.1777555
14	0x3f9cbbbc	1.2244792
15	0x3f84ae6e	1.0365732
16	0x3f824c2e	1.0179498
17	0x3f8b1316	1.08652
18	0x3f8bad09	1.0912181
19	0x3f784695	0.969827
20	0x3f867376	1.0503986
21	0x3f8c415e	1.0957448
22	0x3f8fbf8e	1.1230333
23	0x3f8a72ed	1.0816323
24	0x3f8bd497	1.0924252
25	0x3fa3f7b4	1.2809968
26	0x3f77e27e	0.96829975
27	0x3f769c87	0.9633259
28	0x3f95a1b7	1.1689976
29	0x3f95ec03	1.171265
30	0x3f7e6a83	0.99381274
31	0x3f7fe4a4	0.9995825
32	0x3f863bad	1.0486962
33	0x3f84f873	1.0388321
34	0x3f85e43e	1.0460279
35	0x3f851830	1.0398006
36	0x3f7be2ea	0.9839312
37	0x3f8e7679	1.1129905
38	0x3f84af0c	1.036592
39	0x3f8600a3	1.0468944
40	0x3f6de4b9	0.9292713
41	0x3f7e0092	0.9921962
42	0x3fa62fed	1.2983376
43	0x3f811db0	1.0087185
44	0x3f75929d	0.9592684
45	0x3f8e66fe	1.1125181
46	0x3f85afed	1.0444313
47	0x3f7e87e6	0.99426115
48	0x3f7f1110	0.9963541
49	0x3f75dfc8	0.9604459
50	0x3f8bc368	1.0919008
51	0x3f82f897	1.0232114
52	0x3f8149db	1.0100664
53	0x3f708999	0.9395996
54	0x3f71f0de	0.9450816
55	0x3f820706	1.0158393
56	0x3fa778b4	1.3083711
57	0x3f81cece	1.0141237
58	0x3f8e04d6	1.1095226
59	0x3f784bd7	0.9699072
60	0x3f87440b	1.056764
61	0x3faaa076	1.3330219
62	0x3f8bfe01	1.0936891
63	0x3f846732	1.0343993
64	0x3f8f030d	1.1172806
65	0x3f819150	1.0122471
66	0x3f70fb2c	0.9413326
67	0x3f834fd9	1.0258743
68	0x3f7601a0	0.9609623
69	0x3f9905f6	1.1954944
70	0x3f7fa6dc	0.9986398
71	0x3f85bc52	1.0448096
72	0x3f8d5753	1.1042274
73	0x3f830ce5	1.023831
74	0x3f75f56f	0.96077627
75	0x3f8bfd83	1.0936741
76	0x3f7604cd	0.96101075
77	0x3f99b07f	1.2006987
78	0x3f80b5a9	1.0055438
79	0x3f800f3b	1.0004648
80	0x3f7afa27	0.9803795
81	0x3f8d87c1	1.1057054
82	0x3f892d28	1.0716906
83	0x3f8b8917	1.0901212
84	0x3f7bdab7	0.9838061
85	0x3f6cfd19	0.92573696
86	0x3f8ca1b2	1.0986845
87	0x3f79a5f3	0.97518843
88	0x3f80b525	1.0055281
89	0x3f6bba86	0.9208149
90	0x3f7dface	0.9921082
91	0x3f8e284f	1.1106051
92	0x3f7b42f1	0.9814902
93	0x3f890fdb	1.0707964
94	0x3f7b378c	0.9813163
95	0x3f8fdf0f	1.1239947
96	0x3f7ff584	0.99984
97	0x3f82342f	1.0172175
98	0x3fa65a66	1.2996337
99	0x3f7e4296	0.9932035
100	0x3f812d64	1.0091977
101	0x3f94dbe0	1.16296
102	0x3f83f273	1.0308365
103	0x3f8f8721	1.1213113
104	0x3f90bbb8	1.1307287
105	0x3f6bc515	0.920976
106	0x3f8087b5	1.0041414
107	0x3f929baf	1.1453761
108	0x3f73e4bd	0.952709
109	0x3f7f40e4	0.9970839
110	0x3f8d2205	1.1026007
111	0x3f9e0329	1.2344714
112	0x3f776b73	0.9664833
113	0x3f8267eb	1.0187963
114	0x3f812051	1.0087987
115	0x3f8a15e6	1.0787933
116	0x3f8db945	1.1072165
117	0x3f81ad26	1.0130966
118	0x3f8a6baa	1.0814106
119	0x3f8811b0	1.0630398
120	0x3f931cba	1.1493142
121	0x3f80331c	1.0015597
122	0x3f81dd7c	1.0145717
123	0x3f7c1864	0.9847472
124	0x3f85a8db	1.0442156
125	0x3f7dfa7f	0.9921035
126	0x3fa2bce4	1.2713895
127	0x3f878deb	1.0590185
128	0x3f821de8	1.0165377
129	0x3f7ccf3b	0.9875371
130	0x3f8ea9c8	1.1145563
131	0x3f880321	1.0625955
132	0x3f814bc6	1.0101249
133	0x3f97cbdb	1.1859087
134	0x3f808983	1.0041965
135	0x3f7020f8	0.93800306
136	0x3f865a3e	1.049629
137	0x3f82e54b	1.0226225
138	0x3f805293	1.00252
139	0x3f8f9e59	1.1220199
140	0x3f70930d	0.9397438
141	0x3f98d9a2	1.1941416
142	0x3f7af4ae	0.980296
143	0x3f889b97	1.0672482
144	0x3f74f7bc	0.9569051
145	0x3f9b73ce	1.2144716
146	0x3f7a1235	0.9768403
147	0x3f72cb3e	0.9484137
148	0x3f80ecfc	1.0072322
149	0x3f859db4	1.0438752
150	0x3f94dfe2	1.1630824
151	0x3f748fe2	0.9553205
152	0x3f8595b4	1.0436311
153	0x3f62d4e3	0.8860609
154	0x3f8d6653	1.1046852
155	0x3f773222	0.9656087
156	0x3f7d5320	0.98954964
157	0x3f81bab5	1.0135103
158	0x3f8120c6	1.0088127
159	0x3f864aed	1.0491616
160	0x3f9fd1b1	1.2485868
161	0x3f835783	1.0261081
162	0x3f75c790	0.96007633
163	0x3f93df8d	1.1552597
164	0x3f800398	1.0001097
165	0x3f7c5f96	0.9858335
166	0x3f82f624	1.0231366
167	0x3f93ba73	1.1541275
168	0x3f77844c	0.96686244
169	0x3f850733	1.0392822
170	0x3f80f88e	1.0075853
171	0x3f7d7e6b	0.99021024
172	0x3f80c7f9	1.0061027
173	0x3f7ee123	0.9956228
174	0x3f831f15	1.024386
175	0x3faa3401	1.329712
176	0x3f6e94c2	0.93195736
177	0x3f9b438c	1.2129989
178	0x3f7b8abe	0.9825858
179	0x3f7c8944	0.9864695
180	0x3f7b76ab	0.9822795
181	0x3f823864	1.0173459
182	0x3f7e417a	0.9931866
183	0x3f92c878	1.1467428
184	0x3f8339a4	1.0251966
185	0x3f824ba8	1.0179338
186	0x3f847b2f	1.0350093
187	0x3fa5fa80	1.2967072
188	0x3f8b6f62	1.0893366
189	0x3f84dbc8	1.0379572
190	0x3f93c116	1.15433
191	0x3f7b6a54	0.9820912
192	0x3f83733f	1.0269545
193	0x3f9432fe	1.1578062
194	0x3fa326e5	1.2746245
195	0x3f9084bc	1.1290507
196	0x3f7ac64a	0.97958815
197	0x3f9a4ed8	1.2055311
198	0x3f7e9f28	0.99461603
199	0x3f7c04b7	0.98444694
200	0x3f85c1b1	1.0449735
201	0x3f77b88e	0.96765983
202	0x3f8bb38a	1.0914166
203	0x3f743024	0.95385957
204	0x3f7e8702	0.99424756
205	0x3f8fac20	1.1224403
206	0x3f93c3c3	1.1544117
207	0x3f7e1dfb	0.99264497
208	0x3f963e0d	1.1737686
209	0x3fa478b5	1.2849337
210	0x3f825b60	1.0184135
211	0x3f8d777f	1.1052092
212	0x3f7c5dab	0.98580426
213	0x3f748cdb	0.9552743
214	0x3f71ea52	0.9449817
215	0x3f746ea4	0.95481324
216	0x3f90eaac	1.1321616
217	0x3f8c4b5b	1.0960497
218	0x3f851249	1.0396205
219	0x3f8446b7	1.033408
220	0x3f94c502	1.1622622
221	0x3f8c6159	1.0967208
222	0x3f9aec93	1.2103447
223	0x3f788135	0.97072154
224	0x3f8af597	1.0856198
225	0x3f90dc4d	1.131723
226	0x3f728be9	0.94744736
227	0x3f9cfe20	1.2265053
228	0x3f7b5c59	0.98187786
229	0x3f82129a	1.0161927
230	0x3f7f617c	0.99758124
231	0x3f80e540	1.0069962
232	0x3fb13aec	1.3846107
233	0x3f7f40f2	0.99708474
234	0x3f7e03d9	0.9922462
235	0x3f7dd895	0.991586
236	0x3f86d870	1.0534801
237	0x3fb775d5	1.4332834
238	0x3f7806d7	0.96885437
239	0x3fb39ab3	1.4031585
240	0x3f86ce20	1.0531654
241	0x3f89e934	1.0774293
242	0x3f7933d4	0.9734471
243	0x3f798ea5	0.97483283
244	0x3f7b5987	0.9818348
245	0x3f7bf3d2	0.98418915
246	0x3f86acd0	1.0521488
247	0x3f7aca27	0.9796471
248	0x3f78e485	0.97223693
249	0x3f9cd405	1.2252203
250	0x3f95780d	1.1677262
251	0x3f75ad22	0.95967305
252	0x3f7f30d2	0.9968387
253	0x3fa5f022	1.2963908
254	0x3f7f6317	0.99760574
255	0x3f9944de	1.1974142

ln1.bias f4 [256]
0	0xbd3781d2	-0.04480154
1	0x3cd8f412	0.02648357
2	0xbd0dc075	-0.03460737
3	0xbad92a3e	-0.0016568375
4	0xbcb3e6b4	-0.021960594
5	0x3d4359d3	0.047693085
6	0xbc57fb9f	-0.01318255
7	0x3bce53c0	0.006296605
8	0x3d65a7bc	0.056068167
9	0xbd48c1ca	-0.049012937
10	0xbd1fcec4	-0.039015546
11	0xbc393b7e	-0.011305688
12	0xbbf1cf22	-0.0073794285
13	0x3d601bd7	0.05471405
14	0x3dc2db65	0.095145024
15	0x3cb12d4e	0.021628048
16	0xbace143c	-0.0015722583
17	0x3bf88317	0.0075839865
18	0x3d8de90b	0.06929215
19	0xbd21a173	-0.03946061
20	0x3c511754	0.0127619095
21	0x3b217612	0.0024637026
22	0x3daa3e9b	0.08312722
23	0x3cc81e04	0.024428375
24	0x3d5ca78e	0.05387073
25	0x3e3ead9f	0.18620919
26	0xbcfcb20b	-0.030846616
27	0xbd313f9b	-0.04327355
28	0x3dd7c569	0.105357
29	0x3b80fb4a	0.003936206
30	0x3bd4690d	0.0064822496
31	0xbb37ccbf	-0.0028045622
32	0x3ca58b6b	0.020208081
33	0xbc76bbca	-0.015059421
34	0x3cd3134e	0.025766041
35	0x3bc5e84a	0.006039654
36	0xbd0aac27	-0.033855584
37	0x3c5648ae	0.013078852
38	0xbc9af135	-0.018913845
39	0xbc163fc6	-0.009170478
40	0xbd92b565	-0.071635045
41	0xbbe04f34	-0.0068453792
42	0x3e73c990	0.23807359
43	0xbc5829f2	-0.013193594
44	0xbd4b11a3	-0.049577367
45	0x3d458638	0.048223704
46	0x3ba293f6	0.004961486
47	0xbce63ff3	-0.028106665
48	0xbc1abf89	-0.00944508
49	0xbd82e4fb	-0.06391331
50	0x3d7f5228	0.06233421
51	0xbd16dee3	-0.036833655
52	0x3c1b0823	0.009462389
53	0xbd6f2fbe	-0.05839514
54	0xbd7aa865	-0.06119575
55	0x3cf1c4e5	0.029512832
56	0x3c10003b	0.008789117
57	0xbc368892	-0.011140959
58	0x3d9d429f	0.076787226
59	0xbd125783	-0.03572799
60	0x3d94dbbb	0.07268473
61	0x3cce5548	0.02518715
62	0x3c8bfb1b	0.01708751
63	0xba9aa19a	-0.0011797429
64	0x3d00b145	0.031419057
65	0xbc2d2201	-0.010567189
66	0xbd82b9b3	-0.063830756
67	0xbc88dce8	-0.016706899
68	0xbd0a7d27	-0.03381076
69	0x3df8cb4e	0.12148152
70	0xbdb95228	-0.09048873
71	0x3cc88570	0.02447769
72	0x3d0ccfcb	0.034377854
73	0xbbc0bbbd	-0.005881755
74	0xbd142fc1	-0.036178354
75	0xbc521365	-0.012822007
76	0xbcf25798	-0.029582784
77	0x3dbbe0da	0.091737464
78	0xbca2d0d0	-0.01987496
79	0xbd02a446	-0.031894945
80	0xbd7050c5	-0.058670778
81	0xbc6e1f3f	-0.014533817
82	0x3cca3dca	0.024687666
83	0xbc73f220	-0.01488927
84	0xbd5a5b3a	-0.053309657
85	0xbdae48d8	-0.085099876
86	0x3d0ccfae	0.034377746
87	0xbd1773ec	-0.036975786
88	0xbd506be3	-0.05088414
89	0xbda415d9	-0.080119796
90	0xbd25e26c	-0.040499136
91	0x3db272d7	0.0871331
92	0xbd03cda4	-0.032178536
93	0x3d086a99	0.033304784
94	0xbd0a2d1b	-0.033734422
95	0x3dbb7ca1	0.091546305
96	0xbd3e164e	-0.04640799
97	0xbc609224	-0.013706718
98	0x3dffae7a	0.12484451
99	0xbc4c1083	-0.012455109
100	0xbc9bad92	-0.019003663
101	0x3decde2c	0.115658134
102	0xbcfb4da9	-0.03067668
103	0x3df13c20	0.11779046
104	0x3ddefde6	0.10888271
105	0xbd70158b	-0.058614295
106	0x3be847b7	0.007088627
107	0xbc832911	-0.016010793
108	0xbd3f4ee4	-0.046706095
109	0xbcb7d7ce	-0.02244177
110	0xbc8e3fc3	-0.017364388
111	0xbc2f4427	-0.010697401
112	0xbd31083e	-0.04322075
113	0xbd45d344	-0.04829718
114	0x3b0d955b	0.0021603915
115	0x3d084c2a	0.03327576
116	0xbcaa1a98	-0.020764634
117	0x3c31e42b	0.010857622
118	0xbcf15c77	-0.029463036
119	0x3d88fb61	0.06688572
120	0x3cff3c7e	0.031156775
121	0xbd716e40	-0.058943033
122	0xbc03e361	-0.008049817
123	0xbd20fbd3	-0.03930266
124	0x3925a9ae	0.00015798837
125	0xbd4596e2	-0.048239596
126	0x3c050f50	0.008121327
127	0xbc6d99ff	-0.014502048
128	0x3c7dcb8f	0.015490427
129	0xbd098c9e	-0.03358137
130	0x3c0c8b38	0.008578114
131	0x3c9b91d5	0.018990437
132	0xbccebd09	-0.025236623
133	0x3d0ee0aa	0.034882225
134	0xbcc5b7c4	-0.024135478
135	0xbcecaea3	-0.028891867
136	0xbd2b84bf	-0.041874643
137	0x3c76990a	0.015051136
138	0xbc362591	-0.011117355
139	0x3cbdd3ae	0.023172226
140	0xbd4e226f	-0.050325807
141	0x3d3e9da1	0.046537045
142	0xbc327c88	-0.010893948
143	0xbc5bac9b	-0.013407852
144	0xbd32999b	-0.04360352
145	0xbcfd878b	-0.030948421
146	0xbcb83110	-0.022484332
147	0xbd9fd2dc	-0.0780389
148	0x3bcc486e	0.00623422
149	0x3bb2fcac	0.0054622497
150	0xbb8c028c	-0.0042727645
151	0xbda63705	-0.08115963
152	0x3b837d90	0.004012771
153	0xbdd79658	-0.10526723
154	0x3d97d20d	0.07413111
155	0xbcc96cd8	-0.024588034
156	0xbc45b20c	-0.012066375
157	0xbc228a65	-0.009920691
158	0xbc82f2bc	-0.015984885
159	0xbcac325c	-0.021020107
160	0x3da19415	0.078895725
161	0xbc32112a	-0.01086835
162	0xbd191830	-0.037376583
163	0xbc177018	-0.009243034
164	0xbbac2303	-0.005253197
165	0xbc990c63	-0.018682664
166	0xbb651a07	-0.003495814
167	0xbc81c6b3	-0.015841817
168	0xbd241140	-0.040055513
169	0xbc355013	-0.011066454
170	0xbcc9c2cb	-0.024629017
171	0xbcd0c0c0	-0.025482535
172	0xbb136a49	-0.002249377
173	0xbcbddd8e	-0.023176935
174	0xbd308693	-0.04309709
175	0xba846c42	-0.0010103064
176	0xbe0445d2	-0.1291726
177	0x3bce217f	0.006290614
178	0xbc30b6e7	-0.010785795
179	0xbb413198	-0.0029479023
180	0xbd3f927c	-0.046770558
181	0xbd0359ef	-0.03206819
182	0xbcdd49b2	-0.02701268
183	0x3d1140ee	0.035462312
184	0x3aafddc4	0.0013417532
185	0xbccf3f4f	-0.025298743
186	0x3c1800af	0.009277507
187	0xbc897726	-0.016780447
188	0x3b19985e	0.0023436765
189	0x3c9d98f6	0.019237977
190	0xbb02186a	-0.0019850978
191	0xbc4f43e6	-0.012650466
192	0x3bb1da10	0.0054276064
193	0x3cddc81f	0.027072964
194	0x3d88c275	0.06677715
195	0x3cc11a5e	0.023572143
196	0xbc9dbe31	-0.01925573
197	0x3e2da673	0.16958027
198	0x3bd7bb96	0.0065836413
199	0xbcad40e2	-0.021149103
200	0xbcea87e8	-0.028629258
201	0xbd17f9ba	-0.037103392
202	0x3d3aafe9	0.045577917
203	0xbd2c4dae	-0.04206627
204	0xbcb6de79	-0.02232288
205	0x3cb3306b	0.021873673
206	0xbc0dbf4e	-0.008651568
207	0xbc3e80e5	-0.011627411
208	0x3d814013	0.06311049
209	0x3cd516e8	0.0260119
210	0x3bf45b8e	0.007457203
211	0xbd378362	-0.04480303
212	0xbbfe8fbc	-0.0077685993
213	0xbd21a791	-0.039466444
214	0xbd700be4	-0.05860509
215	0xbd989deb	-0.074519955
216	0x3dc0622e	0.09393726
217	0xbd16c59e	-0.036809556
218	0x3be0e44b	0.006863152
219	0x3c6074b5	0.0136997
220	0xba8e67a9	-0.0010864633
221	0x3d548fb8	0.051894873
222	0xbc13bea8	-0.009017624
223	0xbd30c3af	-0.04315537
224	0xbb94bc76	-0.004539068
225	0xbc18ae79	-0.009318941
226	0xbd616d5f	-0.055035945
227	0x3e072067	0.13195954
228	0xbc95187e	-0.018200155
229	0x3b15334d	0.0022766173
230	0xbcda18f5	-0.026623229
231	0xbc5a0e7d	-0.013309118
232	0x3ac89acf	0.0015304926
233	0xbd0a25f6	-0.03372761
234	0xbc43d1f6	-0.011951914
235	0xbc78efd9	-0.015193903
236	0xbb6a4317	-0.0035745555
237	0x38b8697a	8.79345e-05
238	0xbce79e09	-0.0282736
239	0x3d632c09	0.055461917
240	0x3bc9eac7	0.006162021
241	0xbd47be51	-0.048765484
242	0xbd580f40	-0.05274892
243	0xbe0e9d4c	-0.13927191
244	0xbc44cac4	-0.012011234
245	0xbcb27866	-0.021785926
246	0x3d324e56	0.04353174
247	0xbd0d340e	-0.03447347
248	0xbcaaf20d	-0.020867372
249	0x3c12bbb7	0.0089558875
250	0xbc934040	-0.017974973
251	0xbce9b25d	-0.028527433
252	0xbd02f9de	-0.031976573
253	0x3e5bae30	0.21453166
254	0xbbba54ff	-0.005686402
255	0x3cffe052	0.031234894

fc2.weight f4 [128, 256]
0	0xbdabe71d	-0.08393691
1	0xbd4b5766	-0.049643897
2	0xba803ce6	-0.0009783774
3	0xbc2adb8b	-0.01042832
4	0xbd89f85c	-0.06736824
5	0x3cf06305	0.029344091
6	0xbd22eedc	-0.039778575
7	0x3e12d6cb	0.1433975
8	0x3c94f1ed	0.018181765
9	0x3d512110	0.05105692
10	0xbd09b1fd	-0.03361701
11	0xbc83cfcd	-0.016090298
12	0x3bed160f	0.0072352956
13	0xbd79d6db	-0.060995918
14	0x3d617f78	0.055053204
15	0x3dac5fb9	0.08416695
16	0x3dfecef7	0.12441819
17	0x3db3bbe9	0.087760754
18	0xbd859e36	-0.06524317
19	0x3c78f51a	0.0151951555
20	0x3c944a2f	0.01810178
21	0xbdf9cb2c	-0.12196955
22	0xbd45a262	-0.048250563
23	0x3d12a97a	0.035806157
24	0x3e064fd0	0.13116384
25	0xbe943461	-0.28946212
26	0x3d07336e	0.03300803
27	0x3d401924	0.046898976
28	0x3d283d3f	0.041074034
29	0xbd9a30d8	-0.075288475
30	0xbd6741b9	-0.056459162
31	0x3d9a856d	0.0754498
32	0xbd93edec	-0.07223114
33	0xbd7c054c	-0.06152849
34	0xbd419c4e	-0.047268204
35	0xbe1be878	-0.15225399
36	0x3c78be48	0.015182085
37	0xbd4ccdc0	-0.050000906
38	0xbca5780f	-0.02019885
39	0x3e0e5306	0.13898858
40	0xbca0df21	-0.019637646
41	0xbd457999	-0.048211668
42	0xbdf8a7cd	-0.121413805
43	0xbc7ecc13	-0.015551585
44	0x3e02c29a	0.12769547
45	0x3d27b9a8	0.04094854
46	0x3df67771	0.120345004
47	0xbcafde82	-0.021468405
48	0xbbf27349	-0.007398997
49	0x3bb7c03f	0.0056076343
50	0x3c858fa8	0.016303852
51	0xbdeba641	-0.1150632
52	0x3def0e8c	0.116726965
53	0xbd12905c	-0.035782203
54	0xbd19b1df	-0.037523147
55	0x3dfa4d8f	0.122218244
56	0xbea0237b	-0.3127707
57	0x3e019b0c	0.12656802
58	0x3dcdefa0	0.100554705
59	0xbd58a391	-0.052890364
60	0xb9f0dca7	-0.00045940766
61	0x3cfe56e2	0.031047288
62	0x3ca386e0	0.019961774
63	0x3cfbffd1	0.030761631
64	0x3cfbc053	0.030731356
65	0x3cd5b20d	0.026085878
66	0x3c134d74	0.008990634
67	0x3d17cb17	0.037058916
68	0xbde8d3aa	-0.11368497
69	0x3e315cf5	0.17320617
70	0x3bbe32f2	0.005804413
71	0xbc81ed9e	-0.015860375
72	0x3e2dfcf1	0.1699102
73	0x3d84a466	0.06476669
74	0x3e2eea06	0.1708146
75	0x3e080dc4	0.13286501
76	0xbb9556c5	-0.004557463
77	0xbdd30287	-0.103032164
78	0x3e0bf711	0.13668467
79	0xbd8f4b8d	-0.06996832
80	0x3dda65d5	0.10663954
81	0x3d294dce	0.041333966
82	0x3dc36a39	0.09541745
83	0xbdd6ee6f	-0.10494696
84	0xbc24fbf7	-0.010069839
85	0x3cadfbb4	0.021238185
86	0x3d3c41f1	0.045961324
87	0x3c82be50	0.015959889
88	0x3d564d6e	0.052319936
89	0x3db538fe	0.08848761
90	0x3e2c37ff	0.16818236
91	0x3d8f6c2c	0.07003054
92	0x3d8dd5f7	0.06925576
93	0x3c855cf2	0.016279671
94	0xbba1d9c8	-0.0049392916
95	0x3d045be1	0.032314185
96	0xbdc875ec	-0.09788117
97	0x3da78817	0.08180254
98	0x3ddf5356	0.10904567
99	0x3dd76a16	0.10518281
100	0x3d8f708c	0.070038885
101	0x3e8c7041	0.27429393
102	0xbe6309ae	-0.22171661
103	0xbdb542eb	-0.08850654
104	0x3d71fa48	0.059076577
105	0x3c4d4526	0.012528693
106	0x3da3f746	0.08006148
107	0xbe3a9fce	-0.18225023
108	0xbd3f7e93	-0.04675157
109	0x3d6c3a4d	0.057672787
110	0x3b0b8f97	0.0021295303
111	0x3d3a0368	0.045413405
112	0x3dc274bd	0.09494922
113	0xbc008644	-0.007844511
114	0xbdd62394	-0.10456005
115	0x3de54ffc	0.111968964
116	0x3d39e32f	0.045382675
117	0x3dcf9940	0.10136652
118	0xbdcbcee3	-0.0995157
119	0x3e67ec25	0.22648676
120	0x3d00a01b	0.03140269
121	0xbc094ec8	-0.008380599
122	0xbe08bbc4	-0.13352877
123	0x3c258c25	0.010104214
124	0xbd7fc8c6	-0.06244733
125	0x3e252404	0.1612702
126	0xbdbf6f13	-0.093473576
127	0xbe00e3a6	-0.12586841
128	0xbd09ef00	-0.033675194
129	0x3c9a6d3b	0.018850913
130	0xbd139a33	-0.036035728
131	0x3e338a7a	0.17533293
132	0x3d6fa39b	0.058505636
133	0x3e6773d4	0.22602779
134	0x3c96597b	0.018353214
135	0xbda52731	-0.08064116
136	0x3e4cdfad	0.200072
137	0xbcf2ef9e	-0.029655274
138	0x3cbce912	0.023060355
139	0x3cf78103	0.030212885
140	0x3dbc7f9f	0.09204029
141	0xbea2fc80	-0.31833267
142	0x3c613b25	0.013747011
143	0x3d94861f	0.07252144
144	0xbd173332	-0.036914058
145	0xbc08b062	-0.008342834
146	0x3d96ce8e	0.07363616
147	0x3c4113ae	0.011784477
148	0x3da06ece	0.07833634
149	0xbcbe4f41	-0.02323115
150	0x3e479a2f	0.1949241
151	0xbb2a0306	-0.0025941744
152	0xbc83ea37	-0.016102893
153	0xbd01da64	-0.031702414
154	0x3cd55385	0.026040802
155	0x3cec8eb0	0.028876632
156	0xbc6a378c	-0.01429547
157	0x3d9b4da2	0.07583167
158	0xbdd0c342	-0.101934925
159	0x3dc7928a	0.09744747
160	0x3e34ac75	0.17643912
161	0x3d6edea5	0.0583178
162	0x3df1c165	0.11804465
163	0x3e1e6d0e	0.15471289
164	0x3cfe0028	0.031005934
165	0xbcdfd782	-0.027324442
166	0xbdf3f57e	-0.11912058
167	0xbe662df7	-0.22478472
168	0xbc14c294	-0.009079594
169	0x3cb047fc	0.0215187
170	0x3d830b45	0.06398634
171	0x3d5cdd53	0.05392201
172	0x3dc73d8a	0.097285345
173	0x3d96c54a	0.07361849
174	0x3e0d1b24	0.13779885
175	0xbe1c0962	-0.15237954
176	0x3dd0a660	0.101879835
177	0xbdc78187	-0.09741502
178	0x3d7ce23a	0.061739184
179	0xbcc173e1	-0.023614826
180	0x3d2d000a	0.042236365
181	0x3d2b636a	0.041842856
182	0xbd2d4f07	-0.042311694
183	0xbe03f100	-0.12884903
184	0x3df9ef4a	0.12203844
185	0x3bc4923e	0.0059988787
186	0x3d8f883e	0.07008408
187	0xbcf843c7	-0.030305756
188	0x3d376bca	0.04478053
189	0x3ced3dea	0.028960187
190	0x3daae81f	0.08345055
191	0x3d878653	0.06617417
192	0x3e6edbb8	0.23326004
193	0x3e79a7a1	0.24380352
194	0x3dbfcbc5	0.09365038
195	0x3dba4a68	0.09096223
196	0x3e1fc6e6	0.15603217
197	0x3ebfe73f	0.37481114
198	0xbc8f25d4	-0.017474093
199	0x3e2c8e7e	0.16851231
200	0xbb86e131	-0.0041162004
201	0x3d5495e9	0.051900778
202	0xbd36518b	-0.04451136
203	0x3c351b23	0.011053833
204	0xbcc3f4b7	-0.0239204
205	0x3e46bd31	0.19408108
206	0x3b408064	0.0029373402
207	0x3d9f8f74	0.077910334
208	0x3dc56f4b	0.09640368
209	0x3df45866	0.11930923
210	0xbd2b1412	-0.041767187
211	0x3d9e58b6	0.07731764
212	0x3c4eb891	0.012617246
213	0x3c622e42	0.013804974
214	0x3dd7a74e	0.10529958
215	0xbd5fbb3f	-0.05462193
216	0x3e3f8a81	0.18705179
217	0xbc196de6	-0.009364581
218	0xbba35f08	-0.004985694
219	0x3da9c8b2	0.08290233
220	0xbe4d7bde	-0.20066783
221	0x3e2fa88f	0.17154144
222	0xbd5810a5	-0.05275025
223	0x3c5eed05	0.013606315
224	0x3c062511	0.008187548
225	0x3d6b57cc	0.057456776
226	0xbb9f1e33	-0.004855895
227	0x3c84ce5f	0.016211687
228	0x3e3f7a33	0.18698959
229	0xbce89822	-0.028392855
230	0xbd190f38	-0.03736803
231	0x3d177535	0.03697701
232	0x3eb4cc6d	0.35312214
233	0x3da4891c	0.08033964
234	0x3c898664	0.016787715
235	0x3e1752b3	0.14777641
236	0xbc22e7fb	-0.009943004
237	0xbddee020	-0.10882592
238	0x3dc4bf4a	0.09606798
239	0x3dff6c9d	0.12471888
240	0xbbe8f43b	-0.0071091927
241	0xbd26696d	-0.040627886
242	0xbd37509f	-0.04475462
243	0xbd562395	-0.052280027
244	0x3dfc71c5	0.12326387
245	0xbd0b5d56	-0.03402456
246	0x3dc6bace	0.09703599
247	0xbb31dbaf	-0.0027138998
248	0x3d053a93	0.032526564
249	0xbcdb9e05	-0.026808748
250	0xbe35483e	-0.1770334
251	0x3d6155fa	0.055013634
252	0xbd0027c4	-0.031287923
253	0x3da44733	0.08021393
254	0x3c518cd4	0.012789924
255	0x3e19535c	0.14973205

fc2.bias f4 [128]
0	0x3d14b9f5	0.036310155
1	0xbc58f6ec	-0.0132424645
2	0xbd641d80	-0.055692196
3	0x3be0850e	0.006851799
4	0xbb0eab18	-0.002176946
5	0xbc377206	-0.011196619
6	0x3b2acf28	0.0026063416
7	0x3cc39426	0.023874354
8	0xbbb5e05b	-0.005550427
9	0xbca95870	-0.020672053
10	0xbba652d8	-0.0050757937
11	0xbbf15083	-0.007364334
12	0x3b8083f6	0.003921981
13	0xbbcd3ee0	-0.006263599
14	0x3baee369	0.005337168
15	0xbc15b551	-0.0091374675
16	0x3a83b675	0.0010048883
17	0x3d16987b	0.03676651
18	0x3dcd8fa2	0.100371614
19	0x3c8017fb	0.015636435
20	0x3af09c8f	0.0018357205
21	0x3ca5026a	0.020142753
22	0xbba86701	-0.005139232
23	0xbd351bf2	-0.044216104
24	0x3bab1b7b	0.005221782
25	0x3d6c6b9e	0.05771982
26	0x3c46689e	0.012109904
27	0x3d160a33	0.03663082
28	0xbb1e0266	-0.0024110316
29	0x3af11c6d	0.0018395312
30	0xb9a26f85	-0.00030982136
31	0xbb8a7077	-0.0042248326
32	0xbbe5ef7d	-0.0070170746
33	0xbb90b8be	-0.0044165542
34	0x3c2bee1a	0.01049378
35	0xbc76d652	-0.015065746
36	0xbbc3a515	-0.005970607
37	0x3c70d958	0.014700256
38	0x3ca30ae6	0.019902658
39	0x3c004e17	0.007831118
40	0xbc6ac5b1	-0.01432936
41	0x3cf52ab3	0.029927587
42	0x3c2ca651	0.0105377
43	0xbc0d44bc	-0.008622345
44	0xbc9647d6	-0.0183448
45	0xbb3a6158	-0.002843937
46	0x3d64e260	0.05587995
47	0x3b049ddf	0.00202357
48	0x3cd6ada0	0.026205838
49	0xbc3ecebc	-0.011645969
50	0x3a09838b	0.00052457367
51	0x3cd53208	0.026024833
52	0x3ad8fdf9	0.0016555182
53	0xba3e2420	-0.0007253308
54	0xbb5f01da	-0.0034028203
55	0x3c4d6c3c	0.012538012
56	0x3d51bb76	0.051204167
57	0xbc1ea487	-0.009682781
58	0x3ca9cfe8	0.02072902
59	0xbc0baf28	-0.008525647
60	0x3cacacd2	0.0210785
61	0x3c911a25	0.017712662
62	0xbb948125	-0.004531997
63	0x3c46b7ed	0.012128812
64	0xbbbdef9f	-0.0057963873
65	0x3cc57f42	0.024108533
66	0xbc00a10f	-0.007850899
67	0x3c76741e	0.015042333
68	0x3b3fd8ad	0.0029273436
69	0xbbad0aa8	-0.0052808113
70	0x3a939a0c	0.001126112
71	0x3d3d01dd	0.046144355
72	0x3b1e60ce	0.0024166587
73	0x3d66e299	0.056368444
74	0x3c129829	0.008947411
75	0xbb863878	-0.004096087
76	0xbc822a7f	-0.015889404
77	0xbc559fff	-0.013038634
78	0x3c49d33e	0.0123184305
79	0xbcde52dc	-0.02713912
80	0xbc40bf74	-0.011764396
81	0xbd4f5360	-0.050616622
82	0x3ccf2512	0.025286231
83	0xbc39de52	-0.011344509
84	0x3cd260b8	0.025680885
85	0x3c385e5a	0.011252964
86	0x3c079195	0.008274456
87	0xba544aca	-0.00080983026
88	0x3d61a40e	0.055088095
89	0x3c24a521	0.010049135
90	0x3be3a1f2	0.0069467956
91	0xbc145d6a	-0.009055475
92	0xbc13a644	-0.009011809
93	0x3c2609ae	0.010134144
94	0xb9a16921	-0.0003078664
95	0xb999e52a	-0.00029353175
96	0xbc96e7f5	-0.018421153
97	0xbaa8bd7b	-0.0012873852
98	0x3c81d930	0.015850633
99	0x3d0f4bd1	0.034984414
100	0x3c7bb8b8	0.015363865
101	0xbbc1061b	-0.0058906204
102	0x3c243047	0.010021276
103	0xbc68b8a5	-0.014204179
104	0xbc578872	-0.01315509
105	0x3cde1423	0.027109211
106	0x3c3be5a9	0.0114683295
107	0x3c2f992d	0.010717672
108	0x3cd3838c	0.025819562
109	0x3d6f6868	0.05844918
110	0x3d2f4632	0.042791553
111	0x3bda7070	0.0066662356
112	0x3d0690ad	0.032852817
113	0xbda93311	-0.08261693
114	0xbd12b7b3	-0.03581972
115	0xbc1eae06	-0.009685045
116	0x3d420af7	0.04737374
117	0xbc82f8ef	-0.015987841
118	0x3d10b980	0.035333157
119	0x3bed09b6	0.0072338236
120	0x3d59cfbd	0.05317663
121	0xbd3b18d1	-0.045677964
122	0x39f45bb0	0.0004660762
123	0x3cb07ca2	0.021543805
124	0xbb972849	-0.0046129567
125	0x3cbb5782	0.022868875
126	0x3c9845d9	0.018587993
127	0x3cc91221	0.024544777

ln2.weight f4 [128]
0	0x3f8382e2	1.0274317
1	0x3f798068	0.9746156
2	0x3f7eb5eb	0.99496335
3	0x3f81acfd	1.0130917
4	0x3f7da875	0.9908517
5	0x3f7dc7ba	0.99132884
6	0x3f7e9a43	0.99454135
7	0x3f8d3b8a	1.1033795
8	0x3f80f8d4	1.0075936
9	0x3f7a1e23	0.97702235
10	0x3f80bf62	1.0058405
11	0x3f7a68ac	0.97815967
12	0x3f808f3e	1.0043714
13	0x3f937c88	1.1522379
14	0x3f7ce3df	0.98785204
15	0x3f874b6b	1.0569891
16	0x3f7e4709	0.9932714
17	0x3f831f53	1.0243934
18	0x3f79ebd9	0.976255
19	0x3f80a0be	1.0049055
20	0x3f8164e2	1.0108912
21	0x3fc0c95c	1.506145
22	0x3f7bce06	0.9836124
23	0x3f7b2f93	0.9811947
24	0x3f84df0d	1.038057
25	0x3f93b491	1.153948
26	0x3f8117e3	1.0085415
27	0x3f819f63	1.0126766
28	0x3f7fcf70	0.999259
29	0x3f955d94	1.1669183
30	0x3f7c0f3a	0.98460734
31	0x3f93e84f	1.155527
32	0x3f7d213c	0.98878837
33	0x3f7554ec	0.95832705
34	0x3f7e0425	0.99225074
35	0x3f8171ed	1.0112892
36	0x3f77d880	0.9681473
37	0x3f8bf119	1.0932952
38	0x3f99b467	1.200818
39	0x3f7ecc80	0.9953079
40	0x3f8376d5	1.027064
41	0x3f85f723	1.0466045
42	0x3f7faa5e	0.99869335
43	0x3f7f32eb	0.9968707
44	0x3f7a8589	0.9786001
45	0x3f80a003	1.0048832
46	0x3f84990f	1.035921
47	0x3f7ffcae	0.99994934
48	0x3f8552d4	1.0415902
49	0x3f7c41ff	0.985382
50	0x3f872b88	1.056016
51	0x3fa6e9d9	1.3040115
52	0x3f95c131	1.1699582
53	0x3f788831	0.9708281
54	0x3f806b1a	1.0032685
55	0x3f800a84	1.0003209
56	0x3f8d0fa3	1.1020397
57	0x3f7dcc49	0.9913984
58	0x3f966a81	1.1751252
59	0x3f7aefda	0.98022234
60	0x3f851c13	1.0399193
61	0x3f8480bc	1.0351787
62	0x3f7b572e	0.981799
63	0x3f85b235	1.044501
64	0x3f73f97b	0.9530255
65	0x3f895b87	1.0731057
66	0x3f71eaf4	0.94499135
67	0x3f8e5380	1.1119232
68	0x3f7c034f	0.9844255
69	0x3f7b0a57	0.9806265
70	0x3f7fc9da	0.99917376
71	0x3f8a40da	1.0801041
72	0x3f7906a7	0.97275776
73	0x3f872223	1.0557293
74	0x3f7f1c27	0.9965233
75	0x3f7d5585	0.9895862
76	0x3f7d0b47	0.9884533
77	0x3f7d97fb	0.9906003
78	0x3f7ec8e4	0.99525285
79	0x3f7e870b	0.9942481
80	0x3f7bb3a5	0.9832099
81	0x3f8a021c	1.0781894
82	0x3f9c8226	1.2227218
83	0x3f7e07b3	0.992305
84	0x3f834afe	1.0257261
85	0x3f8277d1	1.0192815
86	0x3f8a4c51	1.080454
87	0x3f7e40bc	0.99317527
88	0x3f86a4a5	1.0518996
89	0x3f81fc45	1.0155112
90	0x3f7ec265	0.9951537
91	0x3f7f07f3	0.99621505
92	0x3f7fb7f8	0.9989009
93	0x3f87cf9d	1.0610234
94	0x3f7f7557	0.9978842
95	0x3f798dba	0.9748188
96	0x3f89f344	1.0777364
97	0x3f8c8bbb	1.0980142
98	0x3f875044	1.057137
99	0x3f92403f	1.1425856
100	0x3f92bd00	1.1463928
101	0x3f7cffdd	0.98827916
102	0x3f7e6a15	0.9938062
103	0x3f7ad477	0.97980446
104	0x3f75d506	0.9602817
105	0x3f843fa6	1.0331924
106	0x3f8497ab	1.0358785
107	0x3f8066d4	1.0031381
108	0x3f801683	1.000687
109	0x3f6a4e3a	0.91525614
110	0x3f8544be	1.0411603
111	0x3f8103c7	1.0079278
112	0x3f8eeb6a	1.1165593
113	0x3f82b7b5	1.0212313
114	0x3f7f73c4	0.9978602
115	0x3f7bb29c	0.9831941
116	0x3f88d42b	1.0689749
117	0x3f81390d	1.0095536
118	0x3f7fd320	0.99931526
119	0x3f7d0649	0.98837715
120	0x3f8d1047	1.1020592
121	0x3f743f03	0.9540865
122	0x3f81511c	1.0102878
123	0x3f7ff7a0	0.9998722
124	0x3f8bad34	1.0912232
125	0x3fa712a2	1.3052561
126	0x3f843917	1.0329922
127	0x3f80d3e6	1.0064666

ln2.bias f4 [128]
0	0x3ca1eeb3	0.019767141
1	0xbd24974f	-0.04018336
2	0xbc11f79e	-0.008909134
3	0xbb712f0d	-0.0036801726
4	0xbcdf7e16	-0.027281802
5	0xbd5233c1	-0.051318888
6	0x39240bbc	0.0001564463
7	0x3d70b12c	0.058762714
8	0xbb344030	-0.002750408
9	0xbc3d21a0	-0.011543661
10	0xbc7a0a4c	-0.015261244
11	0xbc862bfb	-0.016378393
12	0xb99cd4cb	-0.00029913182
13	0xbca59cf9	-0.020216452
14	0xbb5f78b6	-0.003409905
15	0xbaec9259	-0.0018048986
16	0xbb5f9c1d	-0.003412015
17	0x3d3c7275	0.046007592
18	0xbd569157	-0.0523847
19	0xbca02301	-0.019547941
20	0xbb798787	-0.0038075165
21	0x3c63d6c7	0.013906187
22	0xbca41c2e	-0.020032968
23	0xbc9e9eae	-0.019362774
24	0xbc3ab7d5	-0.011396368
25	0x3da8c163	0.082400106
26	0x3be44ace	0.006966925
27	0xbc827e60	-0.0159294
28	0xbcb0592f	-0.021526901
29	0xbcec5d88	-0.028853193
30	0xbd6d016d	-0.057862688
31	0xbcf3d3bf	-0.029764054
32	0xbc7e4e67	-0.015521622
33	0xbc7de7da	-0.015497172
34	0x3c005a8b	0.007834087
35	0xbb95ffa6	-0.004577595
36	0xbbe533ab	-0.0069946847
37	0x3d107733	0.035269927
38	0x3ccc097e	0.02490687
39	0xba60981d	-0.00085675885
40	0xbc0071d0	-0.007839635
41	0x3cf419ac	0.029797398
42	0x3bf545b7	0.0074851173
43	0xbb16edee	-0.002303
44	0xbcd813f1	-0.026376696
45	0xbb792ae8	-0.003801996
46	0x3d2338b0	0.039848983
47	0xbc2e238a	-0.01062859
48	0x3cf0808c	0.02935817
49	0xbcd3b166	-0.025841426
50	0x3d52e9aa	0.05149237
51	0xbc1660bd	-0.009178338
52	0xbc9b89bb	-0.018986573
53	0xbc17d1b2	-0.009266304
54	0xbcbf5e8f	-0.023360519
55	0xbbbae91f	-0.0057040597
56	0x3d3f17da	0.046653606
57	0xbc8ece63	-0.017432397
58	0x3d521481	0.051289085
59	0xbd7f678b	-0.062354606
60	0x3c37a494	0.011208672
61	0x3c84f93a	0.016232122
62	0xbca0c8c8	-0.01962699
63	0x3cdfaef1	0.027305098
64	0xbd500bd2	-0.050792523
65	0x3d2cbfac	0.04217498
66	0xbc9dcf39	-0.01926385
67	0x3d7699a9	0.060205135
68	0x3bcc1330	0.0062278733
69	0xbc93c47a	-0.018038023
70	0xbc9e5684	-0.019328363
71	0x3d72c8d5	0.05927356
72	0xbbf0d6b3	-0.007349813
73	0x3d85aa13	0.0652658
74	0xbca1f937	-0.019772155
75	0xbc7608d4	-0.015016753
76	0xbcba8a5e	-0.022771057
77	0xbc97a116	-0.018509429
78	0x3c42bf59	0.011886441
79	0xbbfe72bc	-0.0077651422
80	0xbcad6d7f	-0.021170376
81	0x3ca66936	0.02031384
82	0x3c45fe5e	0.012084572
83	0xbb06bc9d	-0.00205592
84	0x3cdf8fce	0.027290251
85	0xbdd473fe	-0.10373686
86	0xbb1ffe09	-0.0024412891
87	0x395b199a	0.00020895005
88	0x3d471af6	0.048609696
89	0x3c4bdcf8	0.01244282
90	0x3b23c8b5	0.0024991457
91	0xbbb43b80	-0.005500257
92	0xbcd1aaca	-0.025594134
93	0x3ccd3090	0.02504757
94	0xbc117538	-0.008878045
95	0xbc5a09ca	-0.013307998
96	0x3c35645f	0.011071294
97	0xbd9790a2	-0.074006334
98	0x3c74d2ab	0.014942805
99	0x3c96fa6c	0.018429957
100	0x3c6b6e95	0.0143696265
101	0xbcce1428	-0.025156096
102	0x3ba55db5	0.005046571
103	0xbd0fd152	-0.035111733
104	0xbd34e1c4	-0.04416062
105	0x3cbae949	0.022816317
106	0xbc5a304e	-0.013317181
107	0x3bcdc56d	0.0062796385
108	0x3ccf6bb7	0.025319917
109	0xbd825a74	-0.06364909
110	0x3cb40bb8	0.021978244
111	0x3c33191c	0.0109312795
112	0x3d03f68c	0.032217547
113	0x3caa425e	0.0207836
114	0x3b396880	0.0028291047
115	0xbc62e09a	-0.0138474945
116	0x3d787567	0.06065884
117	0xbc954027	-0.018219067
118	0x3bfabeb8	0.00765213
119	0xbaa1239a	-0.0012293935
120	0x3d5af5bc	0.053457007
121	0xbc780d3c	-0.015139874
122	0x3be625a2	0.007023529
123	0xbc83fe4d	-0.016112471
124	0xbb58d697	-0.003308689
125	0xbc2ce829	-0.010553398
126	0x3ca42dac	0.02004131
127	0x3c6beebd	0.014400181
