checkpoints/DDPG/Target_actor/DDPG_target_actor_800.pth (torch, 93359 bytes, 10 tensors)

fc1.weight f4 [256, 19]
00000000: 6d21 c9be 9140 1b3c 2a17 5a3e cc5c 18bb
00000010: ae4a 1c3d b036 183b 6f3a 2b3d ee82 003d
00000020: d33c 35ba 0e50 843d 65ac b13c 312c 5d3e
00000030: 25d4 c5bc 70de 913d afc8 bcbd 3836 0cbd
00000040: 4eed 953c f261 313e 1318 543d 66a0 0f3e
00000050: 88d7 e13d b13c ac3d 54d2 a2bc 95fd abbd
00000060: 6818 ac3d 3265 3c3c eb05 ed3a ea43 5a3d
00000070: ceca ca3d 527a f0bd cff5 91bc 62be fe3c
00000080: d49e cebc 3574 b5be 811c 903d d680 363d
00000090: ba15 8aba 55ab 183e 9361 81bd d9ee f0bc
000000a0: 2741 aebd 62ea 283d 528e 2bbb 2498 1abc
000000b0: 583a e13c 120b a4bd 3c1a 103e f020 b6bd
000000c0: 7c32 82bd 477a 91bc 10d0 8ebc 879f 8f3c
000000d0: 01e7 5a3d 2c53 b3bd fa37 1a3d dcc7 27bb
000000e0: c6bc d63d 6a58 073e 4755 313e 012e c33c
000000f0: 4bec bcbd be8c c93d e3d7 28bc a44f bd3b
00000100: 61a2 7a3d 1050 953c 9c69 08be 5a3f 18bd
00000110: 07a5 e3bd eed6 31bc b0a0 c4be f421 85bd
00000120: 4554 15be bd04 193d d2bf 6ebd d3c7 fe3d
00000130: b6a3 03be f3c6 713c c0de 2b3d 606d 1fbd
00000140: eb5a 0d3d 17e5 9b3b 0c8d 553e 01f1 d33d
00000150: 8e1d 59be ba36 073e 43d6 043e 10c9 343e
00000160: ebbf fa3d 7e68 003f f28e 9c3d e97e 823d
00000170: 0714 4d3d 108e 1d3e a11b 663d 38f7 9a3e
00000180: 8d88 003e d98d bc3d 7832 c8bb 97be d5bd
00000190: 8767 bebd 6f57 893b 5476 91bc 647e e83d
000001a0: e695 92bd 854b b8bd 6f2a f1bd 5196 1ebd
000001b0: 7637 8ebe 210b b8bd 381e 003d ae1e 893c
000001c0: 7dac a0bd 644d 333c d8c4 8fbb 1d7c c73d
000001d0: 67b9 cabd 76ce 96bc 6d6e 1abe 7427 8dbe
000001e0: 1f26 86be 9dfb d3bc edac bb3d 9a4f af3b
000001f0: 66a4 eebb 7890 eabd efd2 1bbe cce2 733e
00000200: ee07 5abd 04bb cdbb 3aaf 1d3d 8f8f db3d
00000210: 29df 5cbc ad3a 63be 33be 97bc b172 923c
00000220: 930f ad3d c217 453d 923a 0abe dbd4 493b
00000230: a5ee 243e 70e6 643d 5199 75be 8c41 66be
00000240: 49e7 dabd 3b04 fcbd ea0b 7cbe 9b50 05be
00000250: a43b 1dbd 6bae da3c e454 8cbc 3013 48bb
00000260: 794c a23d 7e94 33be e7e0 1f3d af7f fc3b
00000270: 95c7 2fbe 7fab 4b3e 7650 dcbc 8444 053e
00000280: d567 4439 3ea1 a53d f96d 0cbe 56f0 b7bd
00000290: ed65 ac3c 05a2 563c 427f d9bc 9853 85bd
000002a0: 0fa6 403d e30d 49be 9733 2d3e dabb b8bd
000002b0: c446 a2bd a372 06be 1a98 e3bc b9c4 2ebe
000002c0: 1be3 7fbe b7c9 22be b40c 0b3d 735c aa3d
000002d0: db19 2f3a 14a9 663d 5015 88bc b6c2 353e
000002e0: 31c8 e03b b678 dfbd 51c3 b83d 01d3 093d
000002f0: fb9e 683e 2deb 22be 74c7 28be 60e3 75be
00000300: 5f41 6bbd e286 cf3d 7af8 0cbe 9285 193c
00000310: 796e 8abc 7a4b 293e 0464 203d 645d fabd
00000320: 47ce 6abe a947 08be fad9 6cbd 0139 e9bc
00000330: ee83 6c3d d79b 58be 5d0c 2e3d de8c 1dbe
00000340: 130a 96bd 5707 82be 1e0c 39be eece 903e
00000350: 8520 6d3e df68 12bd c148 063c a28c 563c
00000360: c7e6 f33d 8d13 03bd 76e5 033d e13c 72bc
00000370: 57b8 98bc c60b 433e 0338 2cbd c336 863d
00000380: c059 933d a90b 2b3d f248 8dbd da5c 02be
00000390: 62c9 073c b43f f03d a8ca 0ebe 7d97 1c3e
000003a0: 73af 0cbe b3e5 8c3d 1673 64bc d99a 7abc
000003b0: 2a9a e2bc 0059 14be a944 ad3d 6a23 3f3e
000003c0: 3261 163e dff4 113f 51fa 983e 8f82 ac3d
000003d0: 2560 363d 25e3 383d 51f4 4f3e 1d95 873d
000003e0: 6e9c a43e c116 a2bd cf75 913e 41b6 d93e
000003f0: 007f 0dbe 120c f53e 05ae ac3d 484d febd
-0.39283314 0.009475843 0.21297899 -0.002324867 0.038157158 0.0023225956 0.041803773 0.031374864
-0.00069136656 0.06460582 0.02168865 0.21598889 -0.02414901 0.07122505 -0.09217965 -0.034231395
0.018301632 0.1732252 0.05178077 0.14026031 0.110274374 0.084100135 -0.019875683 -0.08397976
0.084030926 0.011498736 0.0018083429 0.053287424 0.09901963 -0.11742081 -0.017817406 0.031096641
-0.02522222 -0.3544022 0.07036687 0.04455646 -0.001053504 0.14909108 -0.06317439 -0.029410766
-0.085085206 0.04123915 -0.0026177359 -0.009435687 0.02749364 -0.08009924 0.14072508 -0.08893001
-0.063572854 -0.017758502 -0.017433196 0.017532123 0.05344296 -0.08756098 0.03765104 -0.0025601303
0.104852244 0.13217321 0.17317687 0.023825647 -0.09224757 0.098412976 -0.010305378 0.005777316
0.061190013 0.018226653 -0.13321537 -0.03716979 -0.11115461 -0.010854466 -0.38403845 -0.06500617
-0.14582928 0.037358034 -0.058288403 0.12440457 -0.1285542 0.014756906 0.041960478 -0.038922668
0.034510534 0.0047575342 0.20854586 0.10348702 -0.2120268 0.1320447 0.1297236 0.17654824
0.12243637 0.5015944 0.07644452 0.063718624 0.050067928 0.15386224 0.056178693 0.30266738
0.1255209 0.09206743 -0.006109532 -0.10436743 -0.0929709 0.004191331 -0.017756619 0.11352232
-0.07157497 -0.08998779 -0.11775672 -0.03871757 -0.27776688 -0.08986498 0.03127882 0.016738262
-0.078453995 0.010943744 -0.0043874793 0.097404696 -0.09898644 -0.018408995 -0.15081187 -0.27569163
-0.2620096 -0.025876814 0.09163842 0.0053500654 -0.0072827814 -0.114533365 -0.15217184 0.23816985
-0.05323022 -0.0062783975 0.038497187 0.10720741 -0.01348094 -0.22190352 -0.018523311 0.017876955
0.08450236 0.04811836 -0.13498905 0.0030797038 0.1610666 0.055883825 -0.23984267 -0.22485942
-0.106886454 -0.123054944 -0.2461392 -0.1301903 -0.038386956 0.026694497 -0.017130323 -0.0030529015
0.07924742 -0.17537114 0.039032843 0.0077056508 -0.17165978 0.1988964 -0.026893836 0.13014418
0.00018730697 0.08087395 -0.13713826 -0.08981387 0.021044696 0.013100152 -0.026549939 -0.06510085
0.047033366 -0.19634204 0.16914211 -0.09020205 -0.07923654 -0.13129668 -0.027782489 -0.17067231
-0.24988978 -0.1589726 0.03394766 0.083184145 0.0006679573 0.05631359 -0.016611725 0.17750058
0.006859802 -0.10911696 0.09021629 0.033648495 0.22716896 -0.15910025 -0.16482335 -0.24012518
-0.05743539 0.10133149 -0.13766661 0.009370225 -0.01689838 0.16532698 0.039157882 -0.12224844
-0.22930251 -0.13308586 -0.057825066 -0.028469564 0.057743005 -0.21153198 0.04249226 -0.15385768
-0.0732614 -0.25396225 -0.18071029 0.28282875 0.23156936 -0.035744544 0.008196057 0.013095053
0.11909252 -0.032001067 0.032201253 -0.0147850225 -0.018642588 0.1904746 -0.042045604 0.06553414
0.07194853 0.041759167 -0.06898679 -0.12730733 0.0082877595 0.117309004 -0.13944495 0.15292163
-0.13738804 0.06879749 -0.013943454 -0.015295708 -0.027661402 -0.14487076 0.084603615 0.18665853
0.14685515 0.5701427 0.29878476 0.084233396 0.044525284 0.045138497 0.20308043 0.06620238
0.32150596 -0.07914496 0.28410193 0.4252186 -0.13817978 0.4786077 0.08431629 -0.12417084

fc1.bias f4 [256]
00000000: 9469 fb3c 7226 2dbd fa25 0dbd 1951 8ebd
00000010: 8d5c d63d a706 e7bc 952b 86bd 64c2 ddbd
00000020: f6cb e9bc 56a2 3cba b246 a4bd 976f 2c3c
00000030: ebed 9b3d 83ee 8f3d 58d1 723c d693 52bd
00000040: 2e3e 0e3e 022d 713d 2db3 7dbd c5d9 8f3d
00000050: 79c4 843c 99c1 113d 9eeb 653e 50b7 0d3c
00000060: 524e 543d 8471 36bd 529f 5e3d 7b52 d4bd
00000070: e419 233e e5ee 78bd 3b85 7cbc 541a b2bb
00000080: 1de8 553d d6d2 c53c c5c5 4f3d 23df 86bd
00000090: 8700 d93d 1e31 3bbd b53b c53d e080 903c
000000a0: 3d18 923d 3de4 fabc ee77 aebd ac1f b43d
000000b0: 6f40 57bc 6ce2 43bd b829 bf3d c123 dabd
000000c0: f78c 1d3e d5c3 21bd 3436 a0bd 8b8f 5bbd
000000d0: 46e4 183e 12fb 06be 8e30 edbd f489 0d3e
000000e0: 16ed d8bd 12df e1bd 9f45 723d 22ba 123c
000000f0: 9925 b9bb d3a2 113d 1639 543d f7bb d5bc
00000100: 82bb b43d 0458 3bbc d234 73bc 1155 c8bd
00000110: a668 78bd 2ae2 843c c747 2c3e c63f a03d
00000120: 0ce9 6b3d 5f85 f93d c48b 8c3d 3b31 083e
00000130: 173a 1dbd 1874 b23d 1bf0 7dbc 242e 593c
00000140: 5f3b 0a3c f729 05bd 7842 cebc 26da 0a3d
00000150: 6277 c33d ef9b 043e 103a bc3d f88e d9bd
00000160: 09ae 9c3c c969 033d b631 6f3e f7b0 db3d
00000170: 7d59 eabc 1905 c7bc f19b f13a a4fd a63d
00000180: b079 1a3e 481a 273e 16ec 833d fd2f 193e
00000190: 7c22 f83d 49f1 833c 5177 d3bd fac6 0dbe
000001a0: 67ae 093c 9cbb 6d3d 67e1 43bd 8b32 f7bd
000001b0: 078f d7bd 9040 953d 4fed 663d b31a 9c3d
000001c0: 4cc4 763e 042d febc 5310 c43d 1ffa 893d
000001d0: 00fc 183e c42d 5e3e fbc3 8ebd 01fe 42bd
000001e0: 2707 003e 30e9 5f3d 9a25 9d3d e1f4 893d
000001f0: 9a82 85bd 5d0f 0b3e 3eb6 043e fded ccbc
00000200: 3ffe d13d b426 983b e252 9cbc 35b2 753d
00000210: b5c2 5ebd 5c06 4e3e dd5a 173d c17f 0a3e
00000220: d173 753b fb85 923c 6774 863c c0c4 963c
00000230: 1720 42be 251c 083e c620 2abd 856f fe3d
00000240: 2c12 dc3d 6db5 123e e7a5 d63d 7c4b 72bd
00000250: 91cc 113e 634b 283e b2cd e43d 11a1 ec3d
00000260: b646 b93d 70a4 e23d 48b4 40bd a12a 23bd
00000270: fb29 cb3d f0a7 c6bd 4a5d c53d 3d47 3cbc
00000280: ca14 83bd ca17 acbd e12b 00be 3f63 a23d
00000290: 9c01 253d 8e4f fa3c f2e3 0cb9 dffb 873d
000002a0: 9278 d0bd 445a 523d bc7d 9bbd 06bd 643d
000002b0: c0dc 073e 79c7 d83d 3659 e33d af7a bbbd
000002c0: 0588 413d a71a 0ebd 3963 213e d208 24bd
000002d0: 7d7d 973b 6a81 18bd 54c4 26bd 726a f53d
000002e0: 4892 173e a1d2 04bd f7ae 1e3d acd3 c7bb
000002f0: 5b39 c83d 10b9 03bd fc22 0d3d 8d23 e5bd
00000300: 267b e73c 8fc5 69bd 851f 7f3c b26b 243e
00000310: cc25 b73d 7a7e 20bd 5676 143d 70c3 0cbe
00000320: 244c 383d 11a4 d9bc 4e5b c1bd 69be d53c
00000330: cda2 173e ed74 c1bd 54f9 3d39 5cd5 92bc
00000340: b2f4 d93d cf63 103d dd64 a63d cc25 83bc
00000350: 0ee5 0cbe f6be fabc af1f 633d 99ee d5bc
00000360: a2eb 573d 61f7 233e 6fce 84bd d484 b9bd
00000370: 26cb 87bd 1b5d 0a3e 13b1 ebbc de8e 5d3e
00000380: 3b38 1a3e 9813 503e 6bdb c8bd c478 13bd
00000390: 7fb3 dbbd 3fc2 e4bb a7ca 343e ce01 da3d
000003a0: d5c5 89bc f068 d13c 63a3 80bd b137 f3bb
000003b0: d9ba 183d 0eb4 78bb dfea 983d f938 3d3b
000003c0: 65a2 f23d b31e d93b 3a76 be3d 2a95 a13c
000003d0: 5e2c 423e 810e a03c 6962 00bd 9175 76bd
000003e0: e94a 1b3e 00c8 113e 0901 9b3b 8cfd 923c
000003f0: 2352 1e3d bb11 5bbd 42f2 d53d 800a 5ebd
0.030689992 -0.042272992 -0.034460045 -0.06949062 0.104668714 -0.028201414 -0.06551281 -0.10828093
-0.028539639 -0.0007195821 -0.080212966 0.010524652 0.076137386 0.070279144 0.014820419 -0.05141052
0.13890907 0.058880813 -0.061938453 0.07023958 0.016206967 0.03558502 0.22453162 0.008649662
0.051832505 -0.04454185 0.05435116 -0.103672944 0.15927845 -0.060774703 -0.015412624 -0.0054352675
0.052223314 0.024148386 0.050725717 -0.06585529 0.10595804 -0.04570114 0.09630529 0.017639577
0.07133529 -0.03062641 -0.085189685 0.087951034 -0.013137921 -0.047823355 0.09334129 -0.10651351
0.15385805 -0.0394934 -0.078228384 -0.05360369 0.1493083 -0.13181713 -0.11581527 0.13822156
-0.105920956 -0.110288754 0.059148427 0.00895551 -0.005650234 0.035555672 0.051812254 -0.026090605
0.08824827 -0.011434559 -0.014844136 -0.0978185 -0.060646676 0.016221125 0.16824256 0.07824664
0.057595298 0.12183642 0.06862596 0.1330003 -0.038385477 0.087135494 -0.01549914 0.01325563
0.008437007 -0.032510724 -0.02517818 0.03389945 0.09544255 0.12950109 0.09190762 -0.10622972
0.019125955 0.032083306 0.23358807 0.10727113 -0.028607124 -0.024294423 0.0018433315 0.08153847
0.15085483 0.16318619 0.06441514 0.14959712 0.121159524 0.016106265 -0.10325492 -0.13845435
0.008403397 0.058040246 -0.047822382 -0.12070187 -0.10525327 0.07287705 0.05637866 0.0762228
0.24098319 -0.031027324 0.09573426 0.0673716 0.1493988 0.21697146 -0.06970974 -0.04760552
0.12502728 0.054665744 0.076731876 0.0673616 -0.06519051 0.1358008 0.12960145 -0.025015825
0.10253572 0.0046432856 -0.01908249 0.059984405 -0.054384906 0.20119613 0.03695189 0.13525297
0.0037453065 0.017886152 0.016412927 0.018404365 -0.18957554 0.13291986 -0.04153516 0.124236144
0.107456535 0.14327021 0.10480862 -0.05915402 0.14238192 0.16435008 0.11172046 0.115541585
0.0904669 0.1106652 -0.04704693 -0.039835576 0.099201165 -0.097 0.09636934 -0.011491594
-0.064004496 -0.08402975 -0.12516738 0.07929086 0.040284738 0.030555513 -0.00013436357 0.066398375
-0.10179247 0.051355615 -0.07592341 0.05584433 0.13267803 0.105849214 0.11101 -0.091542594
0.04724886 -0.034693386 0.15760507 -0.040047474 0.0046231137 -0.037232794 -0.040714577 0.119831935
0.14801896 -0.032427434 0.03874108 -0.0060982313 0.09776565 -0.03215891 0.03445719 -0.111884214
0.028256964 -0.057073172 0.01557148 0.16056708 0.08942756 -0.039183117 0.036245666 -0.13746428
0.04499449 -0.02656749 -0.09441243 0.026091771 0.14808197 -0.0944613 0.00018117327 -0.017924003
0.10642375 0.035251435 0.08124707 -0.016009234 -0.13759252 -0.030608635 0.055450138 -0.026114749
0.05271495 0.16012336 -0.064846866 -0.09058538 -0.06630544 0.1351208 -0.028770959 0.21636531
0.15060513 0.20319974 -0.09807476 -0.036003843 -0.107275955 -0.0069811638 0.1765543 0.106448755
-0.016817966 0.025562733 -0.062811635 -0.0074224104 0.037287567 -0.0037949118 0.07466673 0.002887307
0.118473805 0.006625974 0.09299894 0.019724447 0.18962237 0.019538166 -0.03134385 -0.060170714
0.15165295 0.1423645 0.004730348 0.017943166 0.03865255 -0.053483706 0.10446598 -0.054209232

ln1.weight f4 [256]
00000000: 23bc 903f 3f6a 723f ddb1 8f3f a3e3 733f
00000010: a8c9 7d3f ba2d 8e3f c1f5 813f bdcc 663f
00000020: a7da 803f fa65 5e3f a38b 833f 074a 993f
00000030: b365 763f 2b5f b43f 9ef0 6a3f 2860 673f
00000040: c0ce 803f fcd7 713f 1fe0 6e3f f6bb 983f
00000050: 0bc0 9a3f 21e4 913f 51fc aa3f 8c03 793f
00000060: ac9a 943f c8e8 823f d387 a83f ae4f 833f
00000070: 3486 873f f0cc 903f 3267 b73f 71fc a43f
00000080: 9b59 9d3f 8ab1 9a3f 9455 653f fb5c 8a3f
00000090: e772 8e3f 05ee 673f e1a6 6c3f 3431 6c3f
000000a0: fe72 c83f e0e1 653f 8fdc 683f b75f ad3f
000000b0: 8daa 633f 9315 603f 4940 a53f c3ce b03f
000000c0: 2aa6 873f c06d 8a3f ed4e 573f 17dc 8d3f
000000d0: 7f77 863f 63a3 a03f ad2a 673f 3aeb 953f
000000e0: 58d7 713f 52ad 883f 1c06 993f 1968 643f
000000f0: e994 553f e127 a33f b6d2 a23f a139 7f3f
00000100: fa1f 913f 789f 893f b7b3 673f 0dc2 803f
00000110: a3d3 7d3f 32b5 703f 1d92 a53f a167 ad3f
00000120: 3592 753f a40e 663f cbfb 7c3f 11b8 b63f
00000130: 4593 773f ac57 4a3f ee81 863f d4cd 603f
00000140: e814 873f e557 6c3f 6d6b 793f e7b3 9b3f
00000150: 291b 7d3f 81aa c03f d298 a93f a8e4 6a3f
00000160: 5529 693f 0f95 953f bc57 9d3f 2b1c 783f
00000170: d5fb 663f dc05 443f 968d 7c3f 9219 963f
00000180: 5170 8c3f 7981 de3f ae6b 893f ca30 a73f
00000190: 9ce3 9b3f f8ea 7f3f 1847 c73f dd1a a03f
000001a0: 306a 8c3f ecac 933f 4a86 693f 4248 873f
000001b0: d27d 873f 4b2e 723f be96 433f d649 8a3f
000001c0: 7108 913f 4b6a 773f c836 bf3f b671 b03f
000001d0: f686 943f 1625 e93f ccef 683f 5716 843f
000001e0: 4b9b 8d3f b356 933f 8697 713f 0ffb 7b3f
000001f0: 156e 903f ff66 863f d9c7 943f ccc2 993f
00000200: 5b79 9e3f 2cfa 843f a48b bc3f c44c a73f
00000210: 71d7 873f fb6b 983f b11f 833f fab5 893f
00000220: 53fd 6e3f e736 a53f 482e 783f d58b 7e3f
00000230: d6e8 7f3f bae3 8f3f d230 af3f 3779 a83f
00000240: d5b0 673f 42b5 6f3f 2cfc 9c3f dd3b 6e3f
00000250: 4ee1 723f 6817 a83f b269 9e3f 97ff 9a3f
00000260: aa9d d73f 237c 8c3f a326 803f 330c 6e3f
00000270: 7014 863f 9833 823f ba32 a23f 46ea 6e3f
00000280: 8931 693f 1825 853f 7645 ae3f deb4 7d3f
00000290: 5c21 543f 45af 5a3f e8eb 5d3f 2d0f a73f
000002a0: bae5 593f dd87 883f 3062 853f 8d20 723f
000002b0: 8e97 953f 2b3c 933f b10c 9b3f bcc7 773f
000002c0: f30c 963f b5bc 8b3f 965a aa3f 7c9a 573f
000002d0: d44d 473f 5b6d 8b3f 7ccb 6d3f 74de 913f
000002e0: 9c07 813f 5627 843f 810b 8f3f c2e4 8d3f
000002f0: aaba 813f 5f51 853f f311 af3f 8aa6 713f
00000300: 3ae8 653f 91fc 563f a356 993f 5fc2 843f
00000310: 6596 633f 49c5 5e3f 4f37 833f 2ced 893f
00000320: 3417 633f 38a8 973f 6130 843f c5c9 853f
00000330: 78a5 b23f a836 933f b048 943f d500 8e3f
00000340: df19 a83f 8020 8f3f de9e a43f 2a46 713f
00000350: d77e 733f 68ee 773f a2d4 8f3f 401c 843f
00000360: 976e 953f 9eb0 be3f bec7 633f 1903 7f3f
00000370: 2b71 9d3f d659 af3f 3079 b63f 64b5 fd3f
00000380: 2028 793f e9e8 933f 70c5 8e3f f741 9a3f
00000390: ffec 583f afc6 733f f686 b93f 2f07 743f
000003a0: 77da 6d3f 125f 943f 2728 8c3f 5478 713f
000003b0: 8253 713f 40d6 7a3f 7518 793f 5d1a 703f
000003c0: 7611 883f 271b 8a3f c708 9d3f f3e0 a43f
000003d0: 0ecb 973f 1e4c b13f c13e 6e3f 9ba3 843f
000003e0: 7554 e13f 51aa 853f e1b9 8e3f 3c53 5e3f
000003f0: 4023 993f 4f98 5c3f a24f c53f 6b9f 693f
1.1307415 0.9469337 1.1226155 0.9526922 0.9913583 1.1107705 1.0153123 0.90156156
1.0066727 0.86874354 1.0276989 1.1975716 0.9624893 1.4091543 0.917734 0.903811
1.0063095 0.9447019 0.9331073 1.1932361 1.2089857 1.1397744 1.3358251 0.9727104
1.1609702 1.0227289 1.316645 1.0258691 1.058783 1.1312542 1.4328368 1.2889539
1.229297 1.2085431 0.89583707 1.0809625 1.1128815 0.90597564 0.92442137 0.9226258
1.5660093 0.8979778 0.90961546 1.3544835 0.88932115 0.8753292 1.2910243 1.3813099
1.0597584 1.0814743 0.84104806 1.1082791 1.0505217 1.2549862 0.90299493 1.171241
0.94469213 1.0677893 1.195499 0.8922134 0.83430344 1.2746545 1.2720554 0.9969731
1.1337883 1.0751791 0.905086 1.005922 0.99151057 0.9402648 1.2935215 1.354725
0.9592622 0.8986609 0.98821706 1.4274923 0.9670909 0.79040027 1.0508401 0.8781407
1.0553255 0.92321616 0.97429544 1.2164277 0.9886957 1.5052034 1.3249762 0.9175515
0.9107869 1.1686114 1.22924 0.9691798 0.90228015 0.7657144 0.98653543 1.1726553
1.0971776 1.7383262 1.0735986 1.3061764 1.2178836 0.9996791 1.5568571 1.2508198
1.0969906 1.1537147 0.91220534 1.0568926 1.0585272 0.9460189 0.7640189 1.0803783
1.1330701 0.96646565 1.4938593 1.3784702 1.1603687 1.8214443 0.909909 1.0319318
1.1063017 1.1510834 0.9437183 0.9842996 1.1283594 1.0500182 1.1623489 1.2012572
1.2380785 1.0388846 1.4730115 1.3070302 1.0612622 1.1907953 1.0244046 1.075866
0.9335529 1.290738 0.9694562 0.99432117 0.99964654 1.1241372 1.3686774 1.3161992
0.905042 0.9363595 1.2264457 0.93060094 0.9487504 1.3132143 1.2376006 1.210925
1.684499 1.0975384 1.0011791 0.92987365 1.0474987 1.0171995 1.267173 0.9332622
0.9109121 1.0401945 1.3614948 0.99104106 0.828634 0.8542369 0.8668809 1.3051506
0.8511616 1.0666462 1.042059 0.9458092 1.1686876 1.1502737 1.2113248 0.96789145
1.1722702 1.0916964 1.3308895 0.842201 0.7785313 1.0892748 0.9288862 1.1396012
1.0080447 1.0324504 1.1175386 1.1085436 1.013509 1.0415457 1.3677353 0.94394743
0.89807475 0.83979136 1.1979564 1.0371817 0.8890136 0.87019783 1.0251254 1.0775504
0.8870728 1.1848211 1.0327264 1.04522 1.3956747 1.1501055 1.1584682 1.1094004
1.3132895 1.1181793 1.2860982 0.94247687 0.9511542 0.96848154 1.1236765 1.0321121
1.1674374 1.4897649 0.8897666 0.996141 1.2300161 1.3699291 1.4255733 1.9820981
0.9732685 1.1555454 1.1154003 1.2051381 0.8473663 0.9522504 1.4494312 0.9532346
0.92911476 1.1591513 1.0949754 0.9432423 0.9426805 0.9798317 0.97302943 0.9379023
1.0630329 1.0789536 1.2268304 1.2881149 1.1858842 1.3851354 0.93064505 1.0362428
1.7603899 1.0442601 1.1150476 0.86845756 1.1963882 0.86169904 1.5414927 0.9125888

ln1.bias f4 [256]
00000000: 0c2f 4ebd 888b cabd 39fb 0f3d 03de 28bd
00000010: 3e16 c4bc c78b 4d3b 0b78 e6bd e238 bbbd
00000020: 3040 493b e1b8 16be d863 91bc 55c5 34be
00000030: 7e77 85bd 7a7e 70bc b3e2 fabd db87 05be
00000040: 9d69 c0bc d816 95bd ecc9 07be b82f 74bc
00000050: 43a1 09be 1717 73bd 0ab3 ca3b adff 07be
00000060: 9fe8 10be 0dc3 a3bd 1567 e1bc 007e 94bc
00000070: 6f64 d1bc bc3c d5bc 92f6 ef3b 9704 03bd
00000080: 3b99 95bd 23b7 12bd 7102 1dbe 3052 81bd
00000090: 0b90 cfbb 37b0 ecbd 40f9 a3bd 8e82 6cbd
000000a0: 21b1 f0bb 16c4 d6bd 7d4e bbbd 4e28 bfbd
000000b0: 7e99 3dbe 8530 0abe cda2 d9bd 8dfd 2f3d
000000c0: 242e c1bd 2b86 5ebd 0c95 21be 3c39 c5bd
000000d0: 257a 3ebd be7e ff3c 01a3 c9bd 9d1e 67bd
000000e0: 55f5 8fbd 3dd1 31bb 8c05 d8bc c9e3 02be
000000f0: e9d1 1dbe f267 da3c e2c0 dabd fb68 bebd
00000100: 7719 e9bd ae34 b2bd 5db0 fbbd 3d17 86bc
00000110: 1856 1dbc 8d93 8cbd 81cc 1e3c 01a6 21bc
00000120: e6d6 d9bd 0067 f8bd 450f 6cbc 07b3 dfbc
00000130: 0e71 a8bd a3c6 85be 517a a93c aeb5 0ebe
00000140: 215b 0bbe fa03 f9bd 9f73 b5bd 413b 41bd
00000150: f1aa 82bd 7c73 93bd df93 9ebb b840 b3bd
00000160: 93e4 08be 0d64 bbbc b89e fb3b df41 49bd
00000170: 0e16 08be c76c 5bbe b795 c0bd 86b5 08be
00000180: 2e37 23bb 2d47 9c3d 1c86 84bd 4168 58bd
00000190: e94f 2abc 5955 d6bd 76c5 1cba 0620 333b
000001a0: 2b60 95bd 9b26 70bc b237 e6bd 74c6 2dbc
000001b0: 5ee3 d03c 8180 90bd c52e 85be 669b efba
000001c0: 4bdd 84bd aa58 43bd 03ee 3fbd ab77 b93c
000001d0: 1e79 99bd a027 883d b05e 90bd 77b9 aa3c
000001e0: 5850 393d 3e77 7abd dfe1 8fbd 3869 20be
000001f0: 1a33 56bc 2557 95bd 2ec9 3abd cd82 d33c
00000200: f954 a7bd 163a bcbd d2d0 93ba 61e7 2dbd
00000210: 75bb 98bd 7f11 c739 a089 66bd fa05 a7bd
00000220: 816b cebd 24ba cc3c d6a5 63bd 43e4 9abd
00000230: 89ac 50bd e1a0 85bd 6d89 cdbc f5d7 00bd
00000240: 5447 a9bc b9d9 8cbd 8bce efbc 27c8 32be
00000250: 2027 5ebd 47de 64bd 250f 333d 3d4e 6abd
00000260: 62bc 8ebd 7f70 023b d2db 8cbd 96f1 0dbe
00000270: 3d14 13be c9ff 0b3c e575 063c e8da eabd
00000280: f070 77bd 2c27 9cbd a404 6e3b a15a 9ebc
00000290: 2bfc 12be a40d fabd 6054 04be 85a0 5ebd
000002a0: 57e7 01be d197 adbc 1441 40bd 247a 19be
000002b0: 5c32 a6bb fe53 1d3d c4ff dfbc 1017 0bbd
000002c0: 0580 acbd 3c03 693c 6abb d0bc 18e4 cabd
000002d0: d23d 85be c7ea 8b3d aac7 47be e484 20bd
000002e0: 8cec 4f3b b0b2 87bd 415d f8bc 9d8f 2fbe
000002f0: 7059 f1bc 1794 ccbd 20ae 48bc de46 14bd
00000300: 6ec5 debd 3f2b 1bbe 2c71 64bd bcc5 debb
00000310: 5641 17be 853c bbbd 3108 a2bd b635 4dbd
00000320: e840 1dbe 760f d2bc 038f f3bc 4598 33be
00000330: 2734 45bb 3acc 633c 3927 3e3b 12d6 c3bc
00000340: 0175 0ebd 5867 e5bd 4565 95bd 8f89 09be
00000350: 14a7 34bd deb0 0fbe 0b02 c0bc 9f1e c3bd
00000360: 7ce8 f4bd 1296 4cbb 2c3f 5cbd cc63 823b
00000370: e00a 683d 0952 a33c e5b7 fabc 6b3e 453e
00000380: f26f b5bd dcbe 9dbc 0636 65bd 1b2f b13c
00000390: 569f f7bd 5590 9fbd 0f6f 8a3d 85d8 12be
000003a0: 18c3 15be 7cf2 a9bd c995 2e3d 6217 63bd
000003b0: df37 93bd 0399 cfbd 18a9 39bd f895 e3bd
000003c0: c7b8 c6bd b508 b2bd c96b 15bc efdd 6dbd
000003d0: 4973 2c3d ddad 3fbd dcb4 8ebd 7bb6 6ebd
000003e0: 92f3 593d a4e2 97bd 4798 a5bd 9d29 d2bd
000003f0: 0a52 6abd 4898 1bbe e76d 7ebc 78a4 5bbd
-0.050337836 -0.09889895 0.035151694 -0.041227352 -0.023936387 0.0031363831 -0.11253365 -0.09141709
0.0030708425 -0.14718963 -0.017747805 -0.17653401 -0.06516932 -0.014678592 -0.12250271 -0.13040106
-0.02348786 -0.07279748 -0.13260621 -0.014903955 -0.13440423 -0.059348192 0.006185894 -0.13281126
-0.14151238 -0.07996187 -0.027514974 -0.018126488 -0.025560586 -0.026029937 0.0073230946 -0.0319868
-0.07304617 -0.035819184 -0.15332963 -0.06314504 -0.00633431 -0.11557048 -0.08006525 -0.057741694
-0.007345334 -0.10486619 -0.0914583 -0.093338594 -0.18515584 -0.13495071 -0.10626755 0.042966414
-0.09432629 -0.05432717 -0.15779513 -0.09630057 -0.046503205 0.031188365 -0.09845544 -0.05642568
-0.07029215 -0.0027132772 -0.026369832 -0.12782206 -0.15412106 0.026660893 -0.10681321 -0.09297367
-0.1138181 -0.08701454 -0.12289498 -0.016368503 -0.009603046 -0.068640806 0.009692312 -0.009866239
-0.10636692 -0.12129021 -0.014407937 -0.027307047 -0.082246885 -0.2612811 0.020688208 -0.13936493
-0.13608982 -0.121589616 -0.088599436 -0.04717565 -0.06380261 -0.07199761 -0.004839405 -0.087525785
-0.13368444 -0.022874856 0.007678833 -0.049135085 -0.13289663 -0.21428214 -0.09403556 -0.13350496
-0.0024904716 0.07630763 -0.06470892 -0.0528338 -0.010395029 -0.104654975 -0.00059803517 0.002733232
-0.07293733 -0.014657642 -0.11241092 -0.010606397 0.025499042 -0.0705576 -0.26012245 -0.0018280565
-0.06487521 -0.04769198 -0.046857845 0.02264007 -0.074938044 0.06648183 -0.0704931 0.02084039
0.045242637 -0.061148874 -0.07025503 -0.15665138 -0.013073707 -0.07292012 -0.045602016 0.025819207
-0.08170504 -0.091907665 -0.0011277443 -0.04245699 -0.074576296 0.00037969273 -0.056283593 -0.08155437
-0.100790985 0.024991103 -0.055578075 -0.07563069 -0.050945792 -0.06524826 -0.025089944 -0.031455953
-0.020663895 -0.06877465 -0.029273292 -0.17459165 -0.05423653 -0.055876043 0.043715615 -0.05720352
-0.06969525 0.0019903479 -0.06877865 -0.13861689 -0.14363189 0.008544871 0.008206819 -0.11467534
-0.06041044 -0.07624659 0.0036318684 -0.019330325 -0.14354007 -0.12209633 -0.12922812 -0.054352302
-0.12685905 -0.021190556 -0.046937063 -0.14987999 -0.0050719213 0.03841018 -0.027343638 -0.03395754
-0.08422855 0.014221963 -0.025479991 -0.09906787 -0.26023728 0.068318896 -0.1950976 -0.039189234
0.0031726686 -0.06625879 -0.030317904 -0.17144628 -0.029461592 -0.099891834 -0.012248546 -0.036200397
-0.108775005 -0.15153216 -0.05577199 -0.006798474 -0.14771017 -0.091424026 -0.07911719 -0.05010005
-0.15356791 -0.025642138 -0.02973128 -0.17538555 -0.00300909 0.013903672 0.0029015078 -0.023905788
-0.034779552 -0.11201352 -0.07294706 -0.1343138 -0.04410465 -0.14032313 -0.023438474 -0.09527325
-0.119584054 -0.0031217379 -0.053771183 0.003979182 0.056650996 0.019936578 -0.030605266 0.19262092
-0.088592425 -0.019256048 -0.055959724 0.021628907 -0.12090938 -0.07791201 0.06759464 -0.14340408
-0.14625204 -0.08298203 0.042623315 -0.05544222 -0.07188391 -0.101366065 -0.045327276 -0.11112589
-0.09703212 -0.08693067 -0.009119936 -0.05807298 0.042102132 -0.04679667 -0.0696809 -0.058279496
0.053210802 -0.07416275 -0.08085685 -0.10261843 -0.057207145 -0.1519481 -0.015529132 -0.053623646

fc2.weight f4 [64, 256]
00000000: 57bb a5be 68ad b63d 1b7b f53d 07d9 dabd
00000010: 6297 943d 878e 1cbd 2b89 103e 8574 a4bc
00000020: 9e74 c13d d33b 51be 7394 1abd 7143 4fbe
00000030: 5107 cbbd 7aba c1be 655d b53d a975 cd3d
00000040: e4a6 ba3d 3a20 9abd adf5 403c 3e51 04be
00000050: 49e8 81bd 1996 703d f545 ec3c 61be 903c
00000060: 24d3 653d 3a98 0d3e e0c7 acbe 9ec4 893d
00000070: c5ad 353e ce31 5b3e b1d8 02be 7944 773d
00000080: 4d33 84be 5c6e df3c 1d8d 603d 3dca 273e
00000090: 695d 2bbd bae9 dd3c 8e5e be3c 2adf 29be
000000a0: 14df ecbe 1bbf 2ebd a052 ef3d 6d43 673e
000000b0: 326a 8b3d 01ea 0d3e abba 9ebd 0c6d a23e
000000c0: 770f bdbd 5bb3 2f3e 7870 40bd 197d 5cbd
000000d0: 7c1f 59be 673d 6e3e 09af b93c 0139 803e
000000e0: b7fe b23d 6e40 8c3e 672c babb 319a a2bd
000000f0: 1e1b 52bb cd08 0f3e 51ce 3cbe 763b 393e
00000100: 8f4b ffbd 87f5 203e 13fd 923e 5192 953d
00000110: 736e 223e bb00 1e3e 825c c6be 45ab 8abe
00000120: aee2 fabd 8bc1 15be 9658 72bc 5205 3b3e
00000130: 7d44 323d 9177 9e3c 087a f43d 6b39 603d
00000140: 1ac3 073e 448c 593c c5ba bd3d 47db 973e
00000150: fd6e d03d 6102 c33e 6f97 38bd b701 873c
00000160: 13a7 5d3d b1ee aa3d 2458 c9bd 186e 3f3b
00000170: a11c 8abe 136c b73c 6b4b 2ebe cf4c 61be
00000180: 3b8c 8bbd 6178 c13e 715c 043e 4cd3 92bd
00000190: c9db a8bd 33fc 653d d205 913e 9f46 873e
000001a0: f376 82bd 5317 c5bc 48a5 a03d 3d84 ec3d
000001b0: 8e4d b93d b72e 9d3d d96e 1c3d 1ee6 24be
000001c0: 94c8 eb3d 0f78 873d c569 b23e dfa1 a2be
000001d0: 346b d53c f47d 743e 9c38 0e3c d388 a23d
000001e0: 6ba2 a53d a9f4 33be 09a1 ab3d 44f9 3fbd
000001f0: dd36 593e 52d5 953e dab7 6dbe 44fb 7b3e
00000200: 960f 4dbd 3140 b6bd 5b7d a03e caff 7dbd
00000210: d162 813e dbcc 39be 56da 3fbe 32ba 0c3d
00000220: d7ef 1cbe dc7a be3d 2b31 b7bd 7ad2 0e3e
00000230: 3fbc 5e3e 4167 343e 4266 623e e68d 9c3d
00000240: 64a5 34bd 2dd2 c5bc 908a 203c a2aa 9b3d
00000250: 1731 0abc f631 ef3a 0ff1 71be ea50 efbd
00000260: 2d3e 90be 0bf0 d23b 0fd8 c0bd ba04 21be
00000270: 9e7e dfbc d7ce d23d 1d00 363e 463d 6c3d
00000280: b292 28bd 8584 d6bc b48c 453e e27c 71bd
00000290: 3598 373d 78d0 013e 8083 64be cbaa 8dbd
000002a0: 19dd 7e3d d7eb e5bd 9e15 073d c2a6 2e3e
000002b0: 4725 45be b43c 9cbb e574 50be 5127 6c3b
000002c0: 3657 8ebe d5ee fdb8 fe08 343d 4cbb 3cbd
000002d0: c334 843d f717 dd3d 11e0 31be 3331 6c3e
000002e0: a0d9 d93d 1e6c 9dbd 5081 e03d f0d0 49be
000002f0: f5c2 b5bd 623b b0be e002 01be 0479 553d
00000300: 05e6 83bb c8a7 14bd 6cf7 cc3a 8e6c 903d
00000310: 3d1c 393e adce 003e 5900 32bd bbba 723e
00000320: 84cd 9c3a 31a1 13be 4150 223e f02b 13be
00000330: 8502 19be 8659 7d3e d407 823d c40d ac3d
00000340: e439 e2be a66c c93d 8082 3dbd 5e9d 513d
00000350: 98eb a43d 9e92 5f3d fdc9 6bbc e509 82be
00000360: e357 38be b1a0 ba3e 2f53 8c3e 84be b63d
00000370: 8360 743e 8887 5c3e 6495 963e a63a 263e
00000380: 29da 1b3e ed3a ad3d 8e2c 223e 9ed7 dd3d
00000390: 9cd5 bd3d 3503 e7bd 2b54 a13e ca8a 0a3d
000003a0: f13b d63c 0d75 12be 96f3 223e bb8e b33c
000003b0: 133a 0a3e cf06 063d 844d 67bc 7758 b7bd
000003c0: 0bcf ff3d f83c b73e ea86 46be b542 f7bc
000003d0: 3fe2 63bd 2c17 bcbd 30cd 073e cb7c 8d3e
000003e0: 0f72 dabb 8402 2cbe 3a1f 9c3d ffb4 23be
000003f0: 6776 c2be 0a34 a83c 368a b0be e9ac 403e
-0.3236949 0.08919793 0.11986371 -0.10685926 0.072554365 -0.038221862 0.14114825 -0.020075092
0.09446071 -0.20432977 -0.03773923 -0.2024057 -0.09913505 -0.37837583 0.08855704 0.100322075
0.09113863 -0.07525678 0.011777324 -0.12921616 -0.06343133 0.058736894 0.028841952 0.017668905
0.056109563 0.13827601 -0.33746243 0.06726955 0.17742069 0.21405718 -0.12777974 0.060368035
-0.2582039 0.027274303 0.054822076 0.16385742 -0.04183713 0.027088989 0.023238447 -0.16589037
-0.46263945 -0.04266272 0.11685681 0.22584315 0.068073645 0.13858797 -0.07750448 0.3172382
-0.09231465 0.17158262 -0.04698226 -0.05383024 -0.21203417 0.2326561 0.022666471 0.2504349
0.08739989 0.27392906 -0.0056815627 -0.07939566 -0.003205962 0.13968201 -0.18438078 0.18089089
-0.124655835 0.15718661 0.28708705 0.07303298 0.15862446 0.15429966 -0.38742453 -0.27083793
-0.12250267 -0.14624612 -0.014791628 0.18263748 0.043522347 0.019344123 0.11937338 0.054742258
0.13258019 0.013278071 0.09264139 0.29659483 0.10177419 0.38087752 -0.045066293 0.01648031
0.054114413 0.08346308 -0.098312646 0.0029209908 -0.26974967 0.022390401 -0.17020957 -0.22001956
-0.06813856 0.37787154 0.12925889 -0.07169208 -0.08245046 0.05614872 0.28324753 0.26421067
-0.06370344 -0.024058973 0.07844025 0.1154866 0.090479955 0.07674926 0.03819165 -0.16103408
0.115128666 0.06614696 0.3484632 -0.31764123 0.026052095 0.23876172 0.008680489 0.079362534
0.080876194 -0.17573799 0.083803244 -0.046868578 0.21212335 0.29264313 -0.23214665 0.24607569
-0.050063692 -0.08898962 0.3134564 -0.062011518 0.25270703 -0.18144552 -0.18735632 0.034357257
-0.15325867 0.09300777 -0.08944925 0.13947478 0.21751498 0.17617513 0.22109321 0.076442525
-0.04410304 -0.024148071 0.009798661 0.07600905 -0.0084345555 0.0018249142 -0.23627113 -0.11685355
-0.28172436 0.0064373068 -0.0941621 -0.1572446 -0.027282055 0.10293358 0.1777348 0.057675622
-0.041155525 -0.026186237 0.19291955 -0.05895699 0.04482289 0.12677181 -0.22315788 -0.06917342
0.062222574 -0.112266235 0.0329796 0.170558 -0.19252501 -0.0047679786 -0.20357092 0.0036034177
-0.27800912 -0.00012108466 0.043953888 -0.046077058 0.06455376 0.107955866 -0.17370631 0.23065643
0.10637212 -0.07686637 0.109621644 -0.1970861 -0.08875076 -0.34420305 -0.12598753 0.052117363
-0.004025223 -0.03629282 0.0015637702 0.07051955 0.18077178 0.1257884 -0.043457363 0.23704045
0.0011963104 -0.14416958 0.15850927 -0.1437223 -0.14942367 0.24741182 0.06349149 0.08401063
-0.44184792 0.09835176 -0.046267033 0.051175468 0.080527484 0.054583184 -0.0143914195 -0.25398174
-0.18002276 0.36450723 0.27407214 0.08923057 0.23864941 0.21536076 0.2941085 0.1623331
0.1521994 0.08458505 0.15837309 0.10832141 0.092692584 -0.112799086 0.31509528 0.033823766
0.02615163 -0.14302464 0.15913233 0.021918645 0.13498716 0.032721337 -0.014117602 -0.0895242
0.12490662 0.35788703 -0.19387403 -0.030183176 -0.055635687 -0.09184107 0.13261867 0.27634272
-0.006666429 -0.16797835 0.076231435 -0.15987013 -0.3798096 0.020532627 -0.34480447 0.1881596

fc2.bias f4 [64]
00000000: de9d d03c b554 ddbc c5e4 66bb 887e 05bb
00000010: e343 a4bb f6ca 763c 2a9c c23c d164 833c
00000020: 4749 f23b f5ec 55bd ea17 223c c865 b53c
00000030: 5c65 e53c e74e f9bb 110e fc3c 389e c23c
00000040: f964 623d 8d6d 89ba a798 a9ba 78e0 a73d
00000050: 92c6 28bc 5811 3dbb 149e b03c 0f6c 7d3d
00000060: 655f 9b3c 6a2a 843c f1af d5bb ecbe 503c
00000070: a89f 1b3d 5728 c13b 4d27 593b 7835 bdbb
00000080: 35ef 823c d498 d33c 543e 403d 9a3d 1d3c
00000090: 1a8c 933c 44ff 79bc d72e 2ebb 060d 663c
000000a0: 1ea3 843c 7dd3 543d 6762 f33c 9bc1 713c
000000b0: 487e 4b3c 4d57 283b 3175 1b3b c78d 523b
000000c0: 6c59 1a3d 3008 d33b 5e45 853d 55ce c53c
000000d0: 6cb0 c5ba 4b09 1eb9 6012 e13c 0a12 ad3c
000000e0: af81 153d 2643 803c 0d8c 5bbb ca32 0d3c
000000f0: 4d88 b43c ada4 51bc 0eb7 98bc d74d 103e
0.025465902 -0.02701793 -0.0035231572 -0.0020369608 -0.0050129755 0.015063038 0.023756105 0.016039284
0.0073939892 -0.052227933 0.009893397 0.02214326 0.028002433 -0.007608283 0.030768426 0.023757085
0.055272076 -0.0010484919 -0.0012939171 0.08197111 -0.010301249 -0.002884945 0.021559753 0.06187063
0.018966386 0.016133506 -0.006521218 0.012740832 0.037994057 0.0058947015 0.0033134997 -0.0057741962
0.015983203 0.02582971 0.04693444 0.0095972065 0.018011142 -0.015258614 -0.0026578212 0.014041191
0.016191062 0.051959503 0.029710008 0.014755632 0.0124202445 0.00256868 0.0023720975 0.0032127963
0.037682936 0.006440185 0.06507371 0.024146238 -0.0015082485 -0.00015071516 0.027474582 0.021126766
0.03650063 0.015657019 -0.0033500225 0.008618066 0.02203765 -0.012795609 -0.018641975 0.14092194

ln2.weight f4 [64]
00000000: 4216 a13f 3478 863f 4032 9c3f eb0d 963f
00000010: cc56 b63f 3593 ab3f 6f21 903f b7ec 803f
00000020: 52fd af3f 7785 833f 9e05 7f3f 0117 923f
00000030: b833 8c3f 9b2f 5b3f b835 943f c918 c93f
00000040: e3e4 b73f d04c bb3f 2688 793f 8855 903f
00000050: 43dc 6c3f 7538 9a3f 6130 ab3f 6fd2 8d3f
00000060: bc49 6f3f d363 913f 4ca3 5b3f ef88 a13f
00000070: 4d44 8f3f 3a85 9d3f 4a03 5e3f 6739 8a3f
00000080: 4e10 803f acad 9b3f 7165 7e3f cc34 853f
00000090: 8089 be3f 4382 5e3f 70df 363f 0411 9f3f
000000a0: 2993 883f 11b0 883f c0ee 713f a462 923f
000000b0: 36af 8e3f 874e a73f aab9 813f c323 a03f
000000c0: 7114 933f 137a 7f3f 1281 ba3f 8af3 893f
000000d0: 87b5 833f 7d03 863f 702f 863f fbe4 733f
000000e0: 23ce 9c3f 150c b13f 5a86 863f f81a 823f
000000f0: ad5a 943f ffe2 a43f 84a9 833f 8dbb 973f
1.2584918 1.0505433 1.2202835 1.1722997 1.4245238 1.3404299 1.1260203 1.007224
1.3749182 1.0275105 0.99617946 1.141327 1.0953283 0.85619515 1.1578894 1.5710689
1.4366726 1.4632816 0.9747337 1.1276102 0.9252359 1.2048479 1.3374139 1.1079844
0.93471885 1.1358589 0.85796046 1.2619914 1.1192719 1.2306283 0.8672377 1.0798768
1.0004976 1.2162375 0.9937354 1.0406737 1.4885712 0.86917514 0.7143469 1.2427068
1.066991 1.0678731 0.9450493 1.1436353 1.114722 1.307084 1.0134785 1.2510914
1.1490613 0.99795645 1.4570639 1.0777447 1.0289773 1.0469815 1.0483227 0.9527127
1.2250408 1.3831812 1.0509751 1.016448 1.1590172 1.2881774 1.0286107 1.1854111

ln2.bias f4 [64]
00000000: cc17 b1bb 06d7 1cbe 6d81 ccbd 5b63 ff3c
00000010: afe5 f1bd 3e66 46be 8301 f1bd 5e30 c3bb
00000020: 9fb3 47be 4940 33be 39a9 05bd 3ac1 5cbb
00000030: 5430 0c3d ea63 8abe b366 8b3d 23ed fc3c
00000040: 2a61 943c 0f5a 32bd 7d78 48be 2a4d b03d
00000050: 794a 0cbe fb76 f0bc 524b 66bd ad9b 3d3d
00000060: f4ba 7b3c 8467 20bd b39d 08be cf1a abbd
00000070: 9858 51bd a68f d5bd 8ab4 31bc f2a9 d6bd
00000080: 5f77 e1bb 2b14 97bd 221c 823d bb29 b6bc
00000090: ef76 b2bd 2114 7bbe c1a5 afbe 996e 0bbc
000000a0: c379 bdbc 1648 5639 d6b6 e9bd f9fa 8dbd
000000b0: f624 653d 29d5 043d 89e8 80bd ad6d bbbd
000000c0: b1a8 b0bb 0509 4cbb 7aca e83c e1ee debc
000000d0: 777f c3bc efef 313b 1af7 8839 9a6a 69bb
000000e0: 57eb 4d3d 287a 8dbd 889f 87bc 88e6 bb3c
000000f0: 26b4 2cbe f021 edbd 95b8 00bd ac58 1dbc
-0.005404448 -0.153164 -0.099856235 0.031175306 -0.11811387 -0.1937494 -0.117678665 -0.0059566936
-0.19502114 -0.17504992 -0.032632086 -0.0033684508 0.034225777 -0.27029353 0.06806698 0.030874794
0.018112738 -0.043542918 -0.19577213 0.08608468 -0.13700284 -0.02935361 -0.056224175 0.046291042
0.015364397 -0.03916122 -0.13341407 -0.08354723 -0.05110988 -0.104277894 -0.0108462665 -0.10481633
-0.006880685 -0.073768936 0.06353022 -0.022236696 -0.08714091 -0.24519397 -0.34306148 -0.008510255
-0.02312935 0.00020435484 -0.11411826 -0.06932635 0.05594345 0.032429848 -0.062943526 -0.09151778
-0.0053912033 -0.0031133306 0.02841686 -0.027213516 -0.02386449 0.0027151068 0.00026124046 -0.0035616518
0.050273266 -0.06908065 -0.016555563 0.022937074 -0.16865596 -0.11578739 -0.03142603 -0.009603661

action.weight f4 [4, 64]
00000000: 0d8a 823c 21f4 a9be 3920 6a3d 212b 80be
00000010: b2d3 2a3f e486 123f e9df a6bc c56b 9d3c
00000020: 30be a2bc c271 3bba f387 1f3d 5a98 8fbb
00000030: b1bc 7dbd f278 0f3e 054c 0e3c f410 d5ba
00000040: f279 ee3c 02f4 efbe 0bcf 663e 53c7 be3d
00000050: 573c 8d3e aef5 573e 1a1a aebb a405 56bc
00000060: a423 d63d 9768 dbbd 95a0 7ebd 7986 0f3c
00000070: 3304 11bd f456 55be 44e7 403e cd76 f43d
00000080: ba19 0ebd d6d3 51bc 8122 64be 59a8 a23c
00000090: dcae a83c 93f5 733d d100 0abc dcf2 453d
000000a0: 7b63 883d e327 e53c 9e5f 87bc f983 863c
000000b0: 6308 0a3d 26b2 f9bc 548a 163e 5cb0 7b3c
000000c0: 163b a43b 080f e1bd b4af 0a3c f41f 493b
000000d0: 2d32 0cbe 6116 42be d7d0 e83d 344a 80bd
000000e0: 0162 bdbd 7caf d03c ea8d 26be a893 ccbd
000000f0: 122d 293d e44c 82bc 584e 19be f2bd 8abb
00000100: b412 163f 7ddd 983e b188 203f c294 3fbf
00000110: 55a7 7f3e 5601 8b3e 8d21 84be 5db0 853e
00000120: 5605 9cbe 3179 503e 39de 013f c3f9 cd3e
00000130: 5acd b63e bc72 2cbe 4604 b43e 4fe3 90bd
00000140: c22f e93d f9ff 183f 0e87 08bf 1fd6 65be
00000150: d9e6 d4be cf18 8f3d e831 2b3f 1ffd 6bbd
00000160: f43e 9f3d 23a2 debd 3e3a a83e c3f3 25bf
00000170: cd63 2e3e 7aa7 8e3e 3498 4abe 4566 40be
00000180: ed15 2dbf 4418 80bf b44f 59be fb57 dbbd
00000190: 6808 38be 6642 4bbe bfc2 583d 14f9 a53e
000001a0: bdd9 f83d 037f a9be 3646 a73c cd2f 92be
000001b0: 9be0 cd3e e423 0dbe 5c15 1a3e c01d 743e
000001c0: b237 f9bd ad62 50be d93a d5be a807 573e
000001d0: ea4b e03d afc0 ea3e 5756 873e e0a4 0ebf
000001e0: b8c8 173f f0b5 893e a5f3 083f b66d 64be
000001f0: 9ab5 d8bf 7ecc 6d3f 7725 8abd 37ef aebe
00000200: 1edb 443f a6fb c33c acef ad3e 59e0 2abf
00000210: e9c3 cdbd 9db6 89be 9756 293f 6dfb 3dbe
00000220: ef64 c03d d722 8e3e 7dc7 7abe 9f61 cdbb
00000230: 898a 523e 8fc1 7abd 9123 efbd c5a1 49bf
00000240: 41cb 973f cd2c b63e 54e3 ecbe 3ad8 253f
00000250: cccf 323e d237 08bf 8a42 a9be ebca 1a3e
00000260: 02a3 de3d c3bc 1ebf b266 efbc a74c c8be
00000270: f86d 7d3e 7b42 a13e c687 943e be0a 2ebf
00000280: 796a 363c ec38 e53c 8a75 4d3d 0934 06bf
00000290: 6f99 20bf 6094 94be 8055 e1bc 3983 cabd
000002a0: bafb 92be 67c8 043e 747d 87be 5b0c 77be
000002b0: 5490 903e c9fd 86bf b95a dcbc 3410 1d3f
000002c0: 1e56 b8be 8e6a 4d3f 15c2 27be 91fc fdbe
000002d0: e0d4 60bf 8821 d2be a7e4 2fbf 4e92 1e3d
000002e0: 2e67 363e 300b 46bf 847b b13b ef95 11be
000002f0: 1b03 8b3e 46e9 403d 9ab5 513f 3cda ae3e
00000300: d462 3cbe cfb9 113d 8f3e 41bf a692 253e
00000310: 31ed 253e 1961 bc3b 7f0c 003e 5d6f 9b3c
00000320: a395 4c3f d7b2 923e 628f 823e 38c3 5a3f
00000330: 2033 69be 12f1 58bd 1781 6cbe ac52 c63e
00000340: 9653 58bf 165c 253e 8e38 8cbd 98f6 76be
00000350: 0219 e6bd 9ae2 aabc d9a6 293f 8a06 0dbf
00000360: 4b51 13be 3d5e 1a3f 920c 32bd 73bf e93c
00000370: 089b fb3e 25ef 773e 4b7f a5be 6979 da3d
00000380: 4669 803e 890b be3e 326a 9d3d af6e 72bd
00000390: 58c6 053f 0a58 febd c87b 18bd a286 1cbf
000003a0: 6b2d b93e 5047 84be b103 a33b 3895 c63e
000003b0: 3242 bfbe 7b9f c23e 6120 3b3e 4a80 53be
000003c0: 9126 4d3e 363b 953d 0e27 063f ccee 2dbe
000003d0: c41f 083f f9bc c5bd 7b9d bd3e 9563 b0be
000003e0: c3a5 4cbe f311 063e 7124 ad3c f716 503f
000003f0: 05aa 643e f777 4a3e 6456 dbbe 3a1f 41be
0.015934968 -0.33194068 0.057159636 -0.25032905 0.6672927 0.57237077 -0.02037044 0.019216428
-0.01986608 -0.0007150435 0.03894801 -0.0043821754 -0.06194753 0.1401098 0.008685117 -0.0016255663
0.029110882 -0.4686585 0.22539918 0.09315362 0.27585098 0.21089813 -0.00531317 -0.013062868
0.10456017 -0.10713308 -0.06216486 0.008760088 -0.035404395 -0.20833951 0.18838221 0.11936722
-0.034692504 -0.012806853 -0.22278787 0.019855665 0.020591192 0.05956037 -0.008423046 0.048327312
0.066595994 0.027973121 -0.016525086 0.016420351 0.033699404 -0.030480456 0.14701205 0.015361872
0.0050119264 -0.10989195 0.008464742 0.0030689212 -0.13691016 -0.1895385 0.11367958 -0.06264153
-0.092472084 0.025474302 -0.16265073 -0.09989101 0.041302748 -0.015905805 -0.14971292 -0.004234069
0.5862229 0.29856482 0.62708575 -0.7483636 0.24966176 0.27149457 -0.25806847 0.26111117
-0.3047282 0.20358731 0.5072971 0.40229616 0.35703546 -0.16840643 0.3515951 -0.07074606
0.11386062 0.59765583 -0.5333108 -0.22444962 -0.41582373 0.06987154 0.66873026 -0.057614442
0.07775679 -0.10870769 0.32856935 -0.64825076 0.17030258 0.2786215 -0.19784623 -0.18789013
-0.6761158 -1.0007405 -0.2122181 -0.1071014 -0.17971957 -0.19849548 0.0529201 0.32416594
0.12150905 -0.33104715 0.020419221 -0.28552094 0.40210423 -0.13783222 0.1504721 0.23839474
-0.12168826 -0.20350142 -0.4164646 0.20999014 0.109519795 0.4585013 0.2643306 -0.5572033
0.5929065 0.2689662 0.5349677 -0.22307476 -1.693042 0.92890155 -0.06745427 -0.3416688
0.76896846 0.023923706 0.33971918 -0.6674858 -0.100471325 -0.26897135 0.6614775 -0.18552943
0.093942516 0.27760956 -0.24490161 -0.006267741 0.2056066 -0.061219748 -0.11676706 -0.78762466
1.1858903 0.35581055 -0.46267188 0.6478306 0.1746208 -0.53210175 -0.33058578 0.1511647
0.10870935 -0.6200678 -0.029223774 -0.3912098 0.24748981 0.31496033 0.29009837 -0.6798514
0.0111337835 0.027981244 0.050160922 -0.5242315 -0.6273412 -0.2901945 -0.02750659 -0.0988831
-0.28707677 0.12967072 -0.264629 -0.24125807 0.28235114 -1.0546199 -0.026898729 0.6135285
-0.36003202 0.80240715 -0.1638263 -0.49606755 -0.8782482 -0.41041207 -0.6870827 0.038713746
0.17812797 -0.7736082 0.0054163355 -0.14217351 0.27150807 0.047097467 0.81917727 0.34150875
-0.18397075 0.03557759 -0.7548608 0.16169223 0.16203763 0.0057488796 0.12504767 0.018974
0.7991583 0.2865207 0.25500017 0.8545413 -0.22773409 -0.052964278 -0.23096119 0.3873495
-0.8450254 0.16148409 -0.068467245 -0.24117506 -0.112352386 -0.020860005 0.66270214 -0.550881
-0.1438648 0.60300046 -0.04346902 0.028533673 0.49141717 0.2421232 -0.3232368 0.106676884
0.25080317 0.37118176 0.07686271 -0.059187587 0.52255774 -0.12419136 -0.037227422 -0.61142933
0.36167464 -0.25835657 0.0049748053 0.3878572 -0.3735519 0.380123 0.1827407 -0.20654407
0.20034243 0.07286684 0.5240334 -0.16985625 0.5317347 -0.09655184 0.3703421 -0.34450975
-0.19985108 0.13092785 0.02113554 0.8128504 0.22330482 0.19772325 -0.42839348 -0.18859568

action.bias f4 [4]
00000000: a91a 86bc 8efc 1b3c eee9 8d3c 9c4c 54bd
-0.016370134 0.009520663 0.01732346 -0.051830873
