checkpoints/DDPG/Actor/DDPG_actor_800.pth (torch, 93275 bytes, 10 tensors)

fc1.weight f4 [256, 19]
000000 f8 6a cb be 61 5c e7 3b fd fc 5b 3e b5 20 f4 bb
       -0.39730048 0.007060573 0.21483226 -0.007450188
000010 8b 1a 1e 3d 51 ca f5 3a 45 0a 2d 3d f9 d7 02 3d
       0.038599532 0.0018752312 0.042246122 0.03194425
000020 6c ff 62 b9 23 41 86 3d b9 d2 b5 3c 89 97 5e 3e
       -0.00021648192 0.065553926 0.022195207 0.21737494
000030 22 11 be bc 9c 2d a0 3d 34 6b b6 bd c3 54 08 bd
       -0.023201529 0.07821199 -0.08907166 -0.03328396
000040 21 c7 9e 3c ae 5a 32 3e df 4a 66 3d b3 b9 17 3e
       0.019382061 0.17417404 0.056223746 0.14816932
000050 17 13 e1 3d a2 c9 b5 3d cf 40 29 bc a7 35 a6 bd
       0.10989969 0.08876349 -0.010330393 -0.08115702
000060 9f 86 ac 3d df a2 6a 3c 59 2f 1f 3b 50 cb 5e 3d
       0.084241144 0.014321058 0.0024289696 0.054393113
000070 aa 83 cc 3d 9c 7f ee bd 67 9f 8c bc 7b d0 02 3d
       0.099860504 -0.11645433 -0.017165853 0.031937104
000080 c0 91 d3 bc da 57 b6 be 45 d5 91 3d 17 84 2d 3d
       -0.025826335 -0.356139 0.07120756 0.0423623
000090 1a 9b 5f b9 84 86 1c 3e e0 c1 7b bd 89 47 d6 bc
       -0.00021324717 0.15285689 -0.06146419 -0.026157157
0000a0 cd f4 ae bd ae a0 3a 3d ee b5 f8 bb 8e e1 5c bb
       -0.08542786 0.045563392 -0.007590047 -0.0033703777
0000b0 bd 81 b8 3c bb 55 a5 bd 57 0e 10 3e 13 a1 b6 bd
       0.022522802 -0.080729924 0.1406797 -0.08917441
0000c0 66 d4 83 bd 80 a8 94 bc 62 cf 90 bc 83 ed 83 3c
       -0.06436996 -0.018146753 -0.017677013 0.016104465
0000d0 38 6d 5a 3d 50 d3 b3 bd 6f 77 1c 3d ad c0 37 bb
       0.053326815 -0.08780539 0.03819984 -0.0028038428
0000e0 7d 5e d7 3d 0c 67 10 3e a6 c7 32 3e 21 4a dc 3c
       0.10516069 0.1410181 0.17458972 0.026890816
0000f0 52 e8 9a bd af d3 cd 3d 89 28 a8 bb 0d d7 00 3c
       -0.07563843 0.10050141 -0.0051317853 0.007863772
000100 98 7a 7d 3d d1 f7 a3 3c 9a 06 07 be bb 8d 14 bd
       0.061884493 0.020015629 -0.13186112 -0.036267977
000110 8d c0 e0 bd 82 a3 1b bc 0d e9 c6 be 55 b9 8b bd
       -0.10974226 -0.0094994325 -0.3884968 -0.06822459
000120 4b f1 13 be b9 91 1a 3d 4e 33 69 bd 93 96 03 3e
       -0.14447515 0.03773663 -0.056933694 0.12850408
000130 20 5e 07 be 49 ad 81 3c 08 84 37 3d a7 b6 25 bd
       -0.132195 0.0158297 0.04480365 -0.040457394
000140 a7 65 0e 3d 38 d8 98 3b 01 d0 55 3e 9e 6d d1 3d
       0.034764912 0.004664447 0.20880128 0.10225986
000150 9f 17 5a be 56 3e 07 3e 9d ec 04 3e 44 e7 34 3e
       -0.21298073 0.13207373 0.12980886 0.17666346
000160 26 cf fa 3d f5 c5 fc 3e 15 e4 9c 3d ec 8d 82 3d
       0.12246542 0.4936978 0.07660691 0.06374726
000170 1d 48 4f 3d b2 95 1d 3e f3 4a 67 3d 56 e4 9d 3e
       0.050605882 0.15389135 0.05646796 0.3083827
000180 86 2e fd 3d 8d 31 c1 3d 61 a2 80 3b cf f1 de bd
       0.12362389 0.09433279 0.003925607 -0.10885965
000190 0f 80 b9 bd 5a 74 9c b9 ef 19 a2 bc ed 15 e8 3d
       -0.09057628 -0.00029841327 -0.019787757 0.11332307
0001a0 b3 b3 94 bd 25 67 ba bd 25 bb f2 bd b3 d1 22 bd
       -0.072608374 -0.091017045 -0.11852101 -0.039750766
0001b0 ed 29 90 be 53 62 b7 bd aa c6 f7 3c 86 89 53 3c
       -0.28156987 -0.08954301 0.030246098 0.012911206
0001c0 52 ca a2 bd ad a9 ef 3b 1f d2 bc bb 6d 41 c7 3d
       -0.07948746 0.007313928 -0.005762353 0.09729276
0001d0 e9 e7 cc bd b7 cb b0 bc 27 69 1e be 80 16 8d be
       -0.10005171 -0.021581514 -0.154698 -0.2755623
0001e0 48 23 88 be 74 6d d7 bc ab 3b bb 3d 0f 6d 9b 3b
       -0.26589417 -0.026297309 0.0914224 0.0047432254
0001f0 f0 d5 f2 bb cf 2d ec bd 46 72 1c be 98 52 73 3e
       -0.0074107572 -0.11532175 -0.15277967 0.23761976
000200 e7 fb 4c bd 39 9e e1 bb 79 05 1e 3d c8 51 da 3d
       -0.05004492 -0.0068853167 0.038579438 0.1066013
000210 38 1a 47 bc b4 b5 62 be 7a d6 a2 bc ca 5c 9c 3c
       -0.012152247 -0.22139627 -0.019877661 0.019087214
000220 20 1e af 3d 3f b1 38 3d 5b bb 08 be 59 7c 5f 38
       0.08550668 0.04509091 -0.1335272 5.328315e-05
000230 30 dc 24 3e 65 63 63 3d a5 85 76 be 2f 7e 66 be
       0.1609962 0.055514712 -0.24074419 -0.22509073
000240 cc 6d dd bd 72 dc fd bd d4 c2 81 be 09 ae 02 be
       -0.10811958 -0.12395562 -0.25343955 -0.12761702
000250 67 eb 20 bd f7 26 d6 3c 0c b4 93 bc 8d 85 71 bb
       -0.039286997 0.026141627 -0.018030189 -0.0036853284
000260 51 15 a7 3d 24 e3 36 be 5e 53 27 3d bd 6f 40 3c
       0.08158363 -0.17860085 0.04085099 0.0117453905
000270 26 43 39 be 68 06 53 3e e6 12 14 bd b5 d9 03 3e
       -0.18092021 0.20607913 -0.036150835 0.12876017
000280 bd 93 90 b9 ac 7a a3 3d 0c a7 0d be 6c 6d b9 bd
       -0.00027575894 0.07982382 -0.13833255 -0.09054074
000290 b4 ca a3 3c a0 31 55 3c 4f 11 bc bc b5 7a 87 bd
       0.019994117 0.01301232 -0.022957472 -0.066152014
0002a0 8f 53 3e 3d b8 21 4a be 1d 04 2e 3e 25 97 c3 bd
       0.046466406 -0.19739425 0.16993757 -0.09550313
0002b0 de f1 aa bd ab d2 08 be a3 19 1a bd 32 0a 2e be
       -0.08346914 -0.13361613 -0.037622105 -0.16996077
0002c0 52 85 83 be 4f 0f 22 be 34 93 0a 3d 62 fb a8 3d
       -0.25687653 -0.15826152 0.03383179 0.082510725
0002d0 c0 c3 15 ba ad d0 66 3d 90 78 96 bc 2d 7e 34 3e
       -0.0005713068 0.056351352 -0.018368036 0.17626257
0002e0 8f b1 25 3c 17 b2 e5 bd e3 39 b6 3d e5 f8 0a 3d
       0.010113134 -0.112156086 0.0889776 0.03392877
0002f0 83 5a 67 3e 69 12 23 be d6 22 26 be aa bb 76 be
       0.22593121 -0.15924992 -0.16224226 -0.24095026
000300 10 79 68 bd d6 42 e4 3d 66 b0 12 be 80 dc 87 3c
       -0.05675608 0.111455604 -0.14325103 0.016584635
000310 91 28 b8 bc 71 69 2a 3e 48 97 26 3d f1 83 f9 bd
       -0.022480281 0.16641785 0.040671617 -0.12183369
000320 5b 34 6a be 95 79 07 be 9a 26 6b bd 1b a7 f3 bc
       -0.22871535 -0.13229974 -0.05740986 -0.029742768
000330 18 6f 79 3d 48 2f 58 be 38 61 2d 3d 33 20 1d be
       0.060896963 -0.21111786 0.042329043 -0.15344314
000340 b6 b9 99 bd cc cf 82 be bc da 35 be 43 e8 90 3e
       -0.07506125 -0.2554916 -0.17759222 0.28302202
000350 13 e5 69 3e 26 6f 1f bd 76 8a 27 3c d9 7b 22 3c
       0.22841291 -0.03892436 0.010225883 0.009917223
000360 12 f9 f0 3d 12 b6 0a bd 3a 02 f6 3c 58 5a 8a bc
       0.117662564 -0.033865042 0.030030359 -0.016888782
000370 bf 88 a8 bc fb d2 40 3e 2b 2e 3e bd 37 c9 84 3d
       -0.020573018 0.18830483 -0.046430748 0.06483691
000380 cc e7 8e 3d 5f c0 43 3d 7a bb 91 bd b7 fd 04 be
       0.069778055 0.04779088 -0.071158364 -0.1298741
000390 f8 8f 64 3c 7c df f4 3d 27 0e 04 be 3a bd 1e 3e
       0.01395034 0.11956689 -0.12896024 0.15501872
0003a0 a3 76 0e be ba f8 8f 3d bb 6f 80 bc 7f 48 68 bc
       -0.13912444 0.07029863 -0.015678277 -0.014177441
0003b0 66 cc d4 bc 00 11 12 be 6e 03 b1 3d 6d 6c 41 3e
       -0.025976371 -0.14264297 0.08643232 0.18889017
0003c0 b7 a9 18 3e 4c f2 12 3f d2 5b 99 3e 73 13 b1 3d
       0.14908491 0.57400966 0.29952866 0.08646288
0003d0 62 7d 3b 3d 93 04 42 3d 55 60 53 3e 6e 74 86 3d
       0.04577387 0.047367644 0.20642217 0.06565176
0003e0 c7 7f a6 3e ca 36 97 bd f6 5a 94 3e 62 de de 3e
       0.3251936 -0.07383497 0.28975648 0.4352904
0003f0 3e d6 11 be 1c 34 fa 3e 64 58 af 3d 8b 0f fb bd
       -0.14241883 0.4886788 0.08561781 -0.12258824

fc1.bias f4 [256]
000000 b5 96 01 3d b7 b5 29 bd ba 25 0e bd ea 8a 8b bd
       0.031637866 -0.041433062 -0.034703948 -0.06813605
000010 af 6b d6 3d 2a 7d ef bc ff 69 87 bd 8c 9a df bd
       0.10469758 -0.029234488 -0.06612014 -0.10918149
000020 e6 67 f2 bc 2d 60 00 bb 1d 6d a3 bd b9 dd 08 3c
       -0.029590558 -0.0019588575 -0.07979796 0.008353644
000030 ca 7e a0 3d 62 fb 93 3d 3e 80 51 3c 4b 61 68 bd
       0.07836683 0.07225682 0.012786923 -0.05673341
000040 2e 10 0f 3e e9 a6 6f 3d b4 b4 7e bd f7 50 90 3d
       0.13971016 0.058508787 -0.06218405 0.07046693
000050 50 36 ac 3c 88 85 22 3d e9 60 66 3e f8 4c a9 3b
       0.021021992 0.039678127 0.22497906 0.005166646
000060 03 07 65 3d 99 1a 33 bd d8 c1 69 3d 2a 5d d5 bd
       0.05591489 -0.043726537 0.05706963 -0.1041816
000070 e2 29 23 3e 64 d4 7a bd 58 5a 61 bc 0a e1 b9 bb
       0.15933946 -0.061237708 -0.01375445 -0.0056725787
000080 48 cc 59 3d ff b7 9c 3c 16 7c 44 3d e6 48 85 bd
       0.053173333 0.019130705 0.0479699 -0.06508045
000090 aa 18 d8 3d 24 8f 3a bd da 9d c3 3d 8d a5 81 3c
       0.10551579 -0.045546666 0.09551592 0.015826011
0000a0 dc 63 96 3d a1 77 fa bc 70 da b3 bd 1d 96 a8 3d
       0.073432654 -0.030574622 -0.08781898 0.08231757
0000b0 8f e1 5e bc de 04 35 bd 2b 55 c0 3d 00 e3 db bd
       -0.013603582 -0.044194095 0.093912445 -0.10736656
0000c0 97 d4 21 3e 59 32 2a bd 34 ea a0 bd 8f 52 5a bd
       0.15803753 -0.04155192 -0.07857171 -0.05330139
0000d0 c2 6a 18 3e 7a d3 06 be fe 41 ee bd aa e1 0d 3e
       0.14884475 -0.1316661 -0.11633681 0.13855615
0000e0 80 40 db bd ff ee e2 bd 6c bd 6e 3d c6 52 21 3c
       -0.10705662 -0.11080741 0.058286116 0.009846395
0000f0 c1 44 e7 bb ec 51 19 3d 06 d6 4c 3d 3f 1b dc bc
       -0.0070577567 0.037431642 0.050008796 -0.02686846
000100 94 2f bb 3d d6 2f 10 bc b9 4e 7a bc 39 c3 cb bd
       0.09139934 -0.0088004675 -0.015277558 -0.09949345
000110 49 6f 75 bd f9 48 a0 3c 8d 08 28 3e 57 3c 9b 3d
       -0.059920583 0.019566046 0.16409512 0.07579868
000120 63 e6 72 3d 7b 14 fa 3d a9 74 85 3d 0e 5c 07 3e
       0.059301745 0.122109376 0.06516392 0.1321871
000130 f9 aa 1f bd d1 72 b5 3d 1b f6 80 bc 9d 7a 5a 3c
       -0.03898141 0.0885979 -0.015742352 0.013334897
000140 a8 9e 22 3c 67 21 07 bd a3 07 c0 bc cb 7f 15 3d
       0.009925522 -0.03299084 -0.023441141 0.036498826
000150 f6 6c c3 3d d4 a1 04 3e 82 8c bd 3d bc b5 da bd
       0.09542267 0.12952358 0.09255315 -0.10679194
000160 36 b5 a3 3c a0 cf 06 3d 48 35 73 3e a6 3f db 3d
       0.019983869 0.03291285 0.23750794 0.10705499
000170 1c e1 f1 bc 44 ec cd bc aa 74 cb 39 1a e5 ac 3d
       -0.029526286 -0.025137074 0.000388061 0.08442135
000180 c7 ab 19 3e 14 ea 26 3e 21 d9 8c 3d f1 45 11 3e
       0.15006934 0.16300231 0.068773516 0.14186837
000190 47 8d fc 3d c1 3e 69 3c 63 23 d8 bd b2 e6 0e be
       0.12331634 0.014236153 -0.105536245 -0.13955191
0001a0 d9 00 3d 3c b1 28 70 3d 0a b1 42 bd 7b a1 f8 bd
       0.011535847 0.058632556 -0.04753212 -0.12140175
0001b0 3b cc dc bd 54 d5 8f 3d db c7 69 3d dd ea 9c 3d
       -0.10781141 0.07023111 0.057075363 0.07661984
0001c0 92 56 7c 3e af a3 f0 bc d6 06 c3 3d 22 6b 8d 3d
       0.24642399 -0.029374925 0.09522788 0.069051996
0001d0 73 86 17 3e 8f 7d 5e 3e 0e 30 8d bd 2e 07 46 bd
       0.14797382 0.21727584 -0.06893931 -0.04834669
0001e0 98 50 fe 3d 5a df 5e 3d b6 d3 94 3d ed 0a 8c 3d
       0.12417716 0.054412223 0.07266943 0.068380214
0001f0 0c e8 87 bd f2 97 0b 3e 11 5a 07 3e c7 55 c6 bc
       -0.06636056 0.13632181 0.13217951 -0.024210824
000200 e9 ce ce 3d 1c 26 bc 3b 94 6c c4 bc 46 7a 7c 3d
       0.10098059 0.0057418477 -0.023977555 0.061640047
000210 db 66 59 bd 3e 71 4e 3e 35 76 30 3d fd df 07 3e
       -0.053076606 0.20160386 0.04308148 0.13269038
000220 6c 81 29 3b 28 74 92 3c 97 33 77 3c 62 c3 89 3c
       0.0025864495 0.017877653 0.015087984 0.016816799
000230 d1 28 41 be de 09 0c 3e b3 86 2f bd 49 ed fa 3d
       -0.18863226 0.13675639 -0.04285307 0.1225229
000240 08 30 dc 3d bf fd 14 3e 2d 86 d4 3d f2 93 65 bd
       0.10751349 0.14549921 0.103771545 -0.056049295
000250 6b 54 11 3e 6c ee 28 3e 78 b4 e7 3d 81 96 e5 3d
       0.14192359 0.164972 0.113137186 0.11210347
000260 42 f8 b3 3d b8 37 e0 3d dc d0 43 bd a8 07 1e bd
       0.08787586 0.109481275 -0.047806606 -0.03858152
000270 8d 03 c9 3d d7 ae c8 bd 61 74 c2 3d 3d 23 d4 bb
       0.098151304 -0.09798973 0.09494854 -0.0064739273
000280 7b 97 7f bd d5 87 ac bd fd 9a 01 be b3 a9 9c 3d
       -0.062400322 -0.084243454 -0.1265678 0.07649555
000290 12 e7 18 3d d7 24 fb 3c 9b 78 8e bb 09 86 8d 3d
       0.03732974 0.030657215 -0.0043478734 0.06910331
0002a0 60 85 d0 bd 41 4a 47 3d 31 6c 94 bd 57 92 66 3d
       -0.10181689 0.0486548 -0.072471984 0.056291904
0002b0 0c ad 08 3e 04 ae db 3d 1d 04 e6 3d e8 0f c0 bd
       0.13347262 0.1072655 0.11231253 -0.09378034
0002c0 d0 60 42 3d b5 23 0f bd d0 de 20 3e fa c9 21 bd
       0.04745561 -0.034946162 0.15709996 -0.03949926
0002d0 44 60 8b 3b fa d9 19 bd a3 b4 22 bd 99 76 f8 3d
       0.004253419 -0.037561394 -0.03972305 0.12131996
0002e0 50 de 15 3e 39 f9 07 bd a5 00 22 3d 90 86 e6 bb
       0.14635587 -0.03319666 0.039551396 -0.007035084
0002f0 09 a7 ca 3d a1 dc 03 bd b9 2a 14 3d 88 e1 e6 bd
       0.09895141 -0.03219283 0.036173556 -0.112734854
000300 3a 2b f3 3c 11 de 79 bd a2 26 80 3c 0d ae 26 3e
       0.029683698 -0.061002795 0.015643422 0.16277333
000310 e4 e9 b7 3d f2 b1 1e bd f2 17 0d 3d 82 72 0b be
       0.08980158 -0.03874392 0.034446664 -0.136179
000320 4c 0b 44 3d 12 3f e1 bc b2 4e ba bd 0b 62 d5 3c
       0.047862336 -0.027495895 -0.09097041 0.026047727
000330 d8 29 15 3e a5 dc c1 bd ed 2b 5a bb 3b 1b 9e bc
       0.14566743 -0.09465913 -0.0033290342 -0.019300094
000340 26 72 da 3d fd 68 0f 3d 37 b6 a3 3d e4 14 36 bc
       0.10666303 0.035012234 0.07993739 -0.011113379
000350 e3 5b 0d be a5 15 f5 bc d9 f3 59 3d 36 1a e7 bc
       -0.13804583 -0.029917547 0.053211067 -0.02821074
000360 38 e8 53 3d ec 2c 27 3e 17 f3 86 bd 7b 66 b8 bd
       0.051735133 0.1632573 -0.065893345 -0.090039216
000370 10 65 85 bd fd b1 0a 3e ef c3 e7 bc 76 bf 5f 3e
       -0.06513417 0.1354446 -0.02829167 0.2185038
000380 19 f9 1b 3e 31 ff 50 3e 53 ae c5 bd 11 e7 11 bd
       0.15231742 0.20409848 -0.0965239 -0.035620753
000390 7e 04 db bd 75 a9 c7 bb db 30 35 3e 54 86 d3 3d
       -0.10694216 -0.006093199 0.17694418 0.103283554
0003a0 dc ea 48 bc 54 1e df 3c d6 81 76 bd 17 cc d9 bb
       -0.012263026 0.027236141 -0.060182415 -0.006646644
0003b0 40 d2 1d 3d 24 6e ae bb 09 c7 97 3d 65 a0 50 3b
       0.03853059 -0.0053231884 0.0741101 0.0031833884
0003c0 0f 0f f4 3d 2d 39 de 3b 0a bf c1 3d 0e 4b a9 3c
       0.11916935 0.006781718 0.09460266 0.020665672
0003d0 ed 08 42 3e aa d0 a3 3c ef 37 06 bd e5 ed 77 bd
       0.18948717 0.01999696 -0.032768186 -0.06052961
0003e0 98 a5 20 3e 80 14 12 3e 88 f9 ab 3b 90 d3 9d 3c
       0.15688169 0.14265633 0.0052482523 0.01926592
0003f0 c5 e6 1c 3d 1c 83 56 bd c4 b9 d6 3d 66 6f 5a bd
       0.038306016 -0.05237113 0.10484651 -0.053328894

ln1.weight f4 [256]
000000 47 28 91 3f ef e3 72 3f 0d c8 8e 3f 8a 94 73 3f
       1.1340417 0.9487905 1.1154801 0.9514853
000010 81 eb 7d 3f 7c ca 8e 3f 0b 03 82 3f e4 0c 66 3f
       0.99187475 1.1155543 1.0157179 0.8986342
000020 92 9e 80 3f 46 a7 5e 3f e1 99 83 3f fd 46 99 3f
       1.0048392 0.8697399 1.0281335 1.1974789
000030 bb f8 75 3f 57 08 b5 3f b1 97 69 3f 41 57 66 3f
       0.9608266 1.414317 0.9124709 0.8997689
000040 ad 98 80 3f ed 7b 71 3f d2 71 6f 3f 06 ee 98 3f
       1.0046593 0.9432972 0.9353305 1.1947639
000050 d4 4f 9a 3f 3f 30 92 3f 24 f3 aa 3f fa 3e 78 3f
       1.2055612 1.1420974 1.3355451 0.96971095
000060 4f 46 94 3f 89 02 83 3f bc f2 a8 3f 80 25 83 3f
       1.1583956 1.0235149 1.3199077 1.0245819
000070 4a 6c 87 3f ac 8b 91 3f 45 28 b8 3f 7a a3 a5 3f
       1.0579922 1.137075 1.4387289 1.2940514
000080 10 85 9d 3f 16 2e 9a 3f 83 24 64 3f 82 5f 8a 3f
       1.2306232 1.2045314 0.8911821 1.0810397
000090 db 4e 8e 3f 4d 29 66 3f f0 19 6c 3f 57 66 6b 3f
       1.1117815 0.8990677 0.9222708 0.91953033
0000a0 4f f5 c9 3f 13 07 65 3f c2 63 68 3f a8 d5 ab 3f
       1.5777987 0.8946392 0.9077722 1.3424578
0000b0 d8 ec 61 3f ed 93 60 3f 92 b8 a4 3f da b4 b0 3f
       0.8825202 0.87725717 1.2868826 1.3805192
0000c0 20 c0 87 3f 7f 6a 8a 3f fe 5b 55 3f d8 09 8e 3f
       1.0605507 1.081375 0.83343494 1.1096754
0000d0 ec 75 86 3f da 1f a0 3f b0 d8 66 3f 1e 53 95 3f
       1.0504737 1.250972 0.9017439 1.166599
0000e0 d0 91 71 3f 1e ba 88 3f 1e f0 99 3f 86 23 64 3f
       0.9436312 1.0681798 1.2026403 0.89116704
0000f0 90 d6 54 3f 2b 42 a3 3f 81 80 a2 3f 90 f8 7f 3f
       0.83139896 1.2754568 1.2695466 0.9998865
000100 a0 63 91 3f 2a d6 89 3f a5 d5 66 3f 46 4f 80 3f
       1.1358528 1.0768483 0.90169746 1.0024192
000110 c0 cc 7d 3f cf c3 70 3f 29 dc a3 3f 90 8e ac 3f
       0.9914055 0.9404878 1.2801563 1.3481007
000120 6e 3f 75 3f 90 d5 65 3f 4f 21 7c 3f 55 82 b6 3f
       0.9579991 0.89778996 0.98488325 1.4258524
000130 d6 35 77 3f 0f 2a 4a 3f 36 7e 85 3f 08 c8 60 3f
       0.9656652 0.78970426 1.0429142 0.87805223
000140 22 5b 87 3f ee bc 6b 3f df 3d 79 3f fc b7 9b 3f
       1.0574687 0.9208516 0.9736003 1.2165523
000150 60 7f 7d 3f ad 07 c0 3f 55 52 aa 3f ca fb 6a 3f
       0.99022484 1.5002342 1.3306376 0.9179045
000160 56 3b 6a 3f 3f 2c 95 3f 72 95 9d 3f 27 f4 77 3f
       0.9149679 1.1654128 1.2311232 0.9685692
000170 57 35 67 3f 9d 2e 43 3f 83 d0 7b 3f 12 4b 96 3f
       0.90315765 0.76243 0.9836504 1.174166
000180 8a 05 8c 3f ac d2 dd 3f 11 9b 8a 3f c4 6c a6 3f
       1.093919 1.7329917 1.0828573 1.3001943
000190 42 9c 9c 3f ae bb 7f 3f dd 38 c8 3f cf 63 a0 3f
       1.2235186 0.9989575 1.5642353 1.2530459
0001a0 11 32 8d 3f 09 dc 93 3f b7 c8 69 3f b7 3b 87 3f
       1.1030904 1.1551524 0.9132189 1.0565099
0001b0 83 74 87 3f 47 b6 71 3f 88 9e 43 3f bc 28 8a 3f
       1.0582432 0.9441876 0.76413774 1.0793681
0001c0 1e a8 92 3f 0e 0e 78 3f 9f 08 bf 3f 01 b8 b1 3f
       1.1457555 0.96896446 1.4924506 1.3884279
0001d0 fc 91 94 3f e5 29 e7 3f 0c a1 69 3f 63 3a 84 3f
       1.1607051 1.805966 0.91261363 1.0330318
0001e0 69 2a 8d 3f 4d a7 93 3f a9 b4 71 3f cf 9d 7b 3f
       1.1028568 1.1535431 0.9441629 0.9828767
0001f0 6d 2d 90 3f 7f ed 86 3f 5d 12 95 3f 9b 2b 9a 3f
       1.1263863 1.0541228 1.1646229 1.2044557
000200 61 6c 9e 3f 86 78 86 3f fc 22 bd 3f 07 91 a7 3f
       1.2376825 1.0505531 1.4776301 1.3091134
000210 13 6d 87 3f 43 5f 98 3f 04 c4 82 3f ff 7f 89 3f
       1.0580162 1.1904072 1.0216069 1.0742186
000220 ff 6d 6e 3f 5f d1 a5 3f 68 67 78 3f 12 b9 7d 3f
       0.9313659 1.295452 0.97032785 0.9911052
000230 e3 8d 7f 3f c9 71 90 3f 21 04 b0 3f 47 47 a8 3f
       0.99825877 1.1284724 1.375126 1.3146752
000240 13 fe 67 3f 12 54 70 3f 7f f6 9c 3f 13 d7 6e 3f
       0.9062206 0.9387828 1.2262725 0.9329693
000250 e9 64 72 3f 1d e8 a7 3f 95 0d 9f 3f 4a 87 9a 3f
       0.94685227 1.311771 1.242602 1.2072537
000260 3c 5b d8 3f 30 0b 8c 3f 2e 08 80 3f 3e 17 6f 3f
       1.6902843 1.0940914 1.0002496 0.9339484
000270 9f 97 86 3f c4 1f 82 3f e7 e1 a2 3f 50 2b 6e 3f
       1.0515021 1.0165944 1.272519 0.9303484
000280 3c 50 68 3f 91 7f 85 3f b7 7f af 3f b1 a4 7c 3f
       0.9074743 1.0429555 1.371085 0.986888
000290 14 05 53 3f eb c2 5a 3f 9a 87 5c 3f 74 d8 a6 3f
       0.82429624 0.8545367 0.8614441 1.3034806
0002a0 6d d1 59 3f b1 aa 88 3f 2c 77 85 3f 4b 57 72 3f
       0.85085183 1.0677091 1.0426993 0.9466445
0002b0 89 b5 95 3f 0d 34 93 3f 42 47 9b 3f cc 90 77 3f
       1.1696025 1.150026 1.2131121 0.9670532
0002c0 18 90 96 3f 85 b0 8b 3f 56 86 a9 3f da b0 57 3f
       1.1762724 1.0913244 1.3244121 0.8425423
0002d0 a6 6c 46 3f bd 86 8b 3f 8a c1 6c 3f 66 31 91 3f
       0.77509534 1.0900494 0.9248282 1.13432
0002e0 c2 c1 80 3f 55 71 84 3f 7c 71 8f 3f 45 50 8d 3f
       1.005913 1.0347086 1.1206508 1.1040121
0002f0 d2 ac 81 3f d7 6b 85 3f 19 e2 af 3f d7 37 71 3f
       1.0130866 1.0423535 1.3740875 0.9422583
000300 38 96 65 3f b5 b2 55 3f 35 4a 99 3f 2f e1 84 3f
       0.8968234 0.8347581 1.1975771 1.038122
000310 30 c7 62 3f 6f b2 5e 3f c5 8b 82 3f d6 23 8a 3f
       0.88585186 0.8699102 1.0198904 1.0792186
000320 2a f8 62 3f ff a3 97 3f d3 f8 83 3f eb 7c 85 3f
       0.8865992 1.1846923 1.031031 1.0428747
000330 e2 b4 b2 3f 8b c2 92 3f d1 12 94 3f 47 f5 8d 3f
       1.3961451 1.146562 1.1568242 1.1090478
000340 4d ca a8 3f c3 ea 8e 3f e8 fe a3 3f 80 b0 71 3f
       1.3186737 1.1165394 1.2812166 0.9440994
000350 11 05 73 3f f3 1a 79 3f cf f0 8f 3f f2 e6 83 3f
       0.94929606 0.97306746 1.1245364 1.0304854
000360 7d 9f 96 3f 52 d0 bc 3f 8a c4 62 3f c2 0a 7e 3f
       1.1767422 1.4751074 0.88581145 0.99235165
000370 c5 8f 9d 3f ea 1d af 3f b0 be b7 3f 44 5c fd 3f
       1.23095 1.3681004 1.4355068 1.9793782
000380 1d 1d 7a 3f 94 d4 93 3f a9 d2 8e 3f b2 43 9a 3f
       0.97700673 1.1549249 1.1158038 1.2051909
000390 be 5e 58 3f 14 a8 73 3f a5 57 b9 3f d0 2c 73 3f
       0.84519565 0.9517834 1.4479872 0.94990253
0003a0 85 7e 6e 3f d1 51 95 3f f2 14 8c 3f 96 94 71 3f
       0.93161803 1.1665593 1.0943892 0.9436735
0003b0 e1 46 70 3f e2 d6 79 3f 93 26 79 3f c3 54 70 3f
       0.9385815 0.9759351 0.97324485 0.93879336
0003c0 14 74 88 3f 88 b7 8a 3f dd 79 9d 3f 79 b2 a5 3f
       1.0660424 1.0837259 1.2302815 1.294509
0003d0 8f fd 97 3f b2 df b1 3f 74 12 6e 3f 56 ad 84 3f
       1.1874255 1.3896391 0.9299691 1.0365398
0003e0 88 9c e0 3f 74 92 85 3f c0 2d 8f 3f 7c bf 5e 3f
       1.754777 1.0435319 1.1185837 0.8701093
0003f0 9c 4a 99 3f df b6 5c 3f cc f1 c5 3f cf 10 69 3f
       1.1975894 0.8621654 1.5464416 0.9104127

ln1.bias f4 [256]
000000 c6 db 4b bd 3d e2 ca bd 6a a6 10 3d ea 1f 27 bd
       -0.04977014 -0.09906433 0.035314955 -0.04080192
000010 5e 16 c1 bc 17 81 69 3a 3b 6d e9 bd 41 bc bd bd
       -0.023570236 0.00089074805 -0.11397787 -0.09264422
000020 d8 74 e2 3a 5a 85 1a be 95 8f 92 bc 2c c4 36 be
       0.0017277254 -0.15089932 -0.01789073 -0.17848271
000030 71 2e 81 bd c8 cf 5f bc 2d 2c 01 be 7d 6b 0d be
       -0.06307686 -0.013660379 -0.12614508 -0.13810535
000040 d4 a6 b4 bc a8 e1 9a bd b1 da 0a be 06 99 70 bc
       -0.022052206 -0.07562572 -0.13559987 -0.014684921
000050 73 40 07 be b8 d1 65 bd ec c0 c1 3b b0 6e 0a be
       -0.13208179 -0.056108207 0.0059128907 -0.13518786
000060 91 08 12 be 93 45 a2 bd c1 27 da bc dd 8a 99 bc
       -0.1426108 -0.079234265 -0.026630284 -0.018742973
000070 5f 09 c9 bc ee 10 e5 bc 0e 4d 36 3c 4f 39 f3 bc
       -0.024540601 -0.027962174 0.01112677 -0.029690413
000080 e8 78 97 bd 1c 30 27 bd 5c 85 23 be d3 dc 80 bd
       -0.07396108 -0.040817365 -0.15968841 -0.06292119
000090 3a cc d3 bb 86 62 f0 bd 9d 0d a7 bd 70 e9 78 bd
       -0.0064635547 -0.11737542 -0.081568934 -0.0607695
0000a0 19 2d bb bb 07 53 da bd 52 d5 c2 bd b5 24 d2 bd
       -0.005712163 -0.106603675 -0.09513344 -0.102609076
0000b0 20 64 41 be fa b5 07 be f9 11 df bd 68 01 2c 3d
       -0.18885851 -0.13253012 -0.108921 0.04199353
0000c0 59 c7 bd bd 55 b4 69 bd f1 6c 25 be 87 93 c4 bd
       -0.09266538 -0.057056744 -0.16154839 -0.09598451
0000d0 ef 33 44 bd 3c 57 fb 3c ef 71 cb bd c7 13 73 bd
       -0.04790109 0.030681245 -0.099338405 -0.059345033
0000e0 65 d5 91 bd ff cc 45 bb 54 e8 dd bc ba 70 04 be
       -0.0712078 -0.0030182002 -0.027088322 -0.12933627
0000f0 4c 9e 21 be 89 cf dc 3c 00 e2 df bd 99 e6 c1 bd
       -0.15783042 0.02695443 -0.10931778 -0.09467811
000100 d0 8f e7 bd 81 ab ae bd f4 5d ff bd 2c 89 95 bc
       -0.11306727 -0.085288055 -0.12469092 -0.018253885
000110 97 e9 23 bc 65 20 88 bd ed c1 8c 3b d1 dd 44 bc
       -0.010004423 -0.06646804 0.0042955787 -0.012015776
000120 dd 32 d7 bd 26 d4 fb bd 58 e0 92 bc 42 2a e8 bc
       -0.10507748 -0.122963235 -0.017929241 -0.028340463
000130 b9 93 a9 bd 1d c8 86 be 29 46 9e 3c e9 75 11 be
       -0.08280129 -0.2632455 0.019320564 -0.14205135
000140 72 e6 09 be dd b8 fa bd 21 b6 b6 bd 5f 8b 41 bd
       -0.13466814 -0.12242291 -0.08921457 -0.047252055
000150 23 c8 81 bd 9f f3 97 bd de 71 35 bb e4 7e b4 bd
       -0.06337001 -0.07419514 -0.0027686278 -0.08813265
000160 78 f8 0b be 2b 3e ce bc 23 18 d1 3b 28 45 4a bd
       -0.13669002 -0.025176128 0.006381051 -0.04938236
000170 c9 55 0b be ff 27 5f be 36 a4 c4 bd 9b 2b 09 be
       -0.13606943 -0.21792601 -0.09601633 -0.1339554
000180 8c 00 5c bb e8 7c 96 3d 9c 0c 81 bd 85 15 67 bd
       -0.0033569662 0.07348043 -0.06301233 -0.056417007
000190 42 f7 12 bc 07 73 d7 bd b2 f5 30 3a 57 4e f9 3a
       -0.008970084 -0.105199866 0.00067504786 0.001902054
0001a0 af 09 8f bd 3f 86 68 bc 87 19 e8 bd 56 9d 3c bc
       -0.06984269 -0.014192163 -0.11332994 -0.011512121
0001b0 c0 13 c5 3c 2a 3e 96 bd a6 92 85 be fc b4 ed ba
       0.02405727 -0.073360756 -0.26088446 -0.0018135603
0001c0 e0 b2 7b bd bf af 3c bd ea ed 40 bd 75 dc c5 3c
       -0.061449885 -0.046066042 -0.047101893 0.024152974
0001d0 d7 85 9d bd 73 fd 80 3d 9b 2d 90 bd be f1 a5 3c
       -0.076915435 0.062983416 -0.070399486 0.020256873
0001e0 b3 01 38 3d f6 ff 80 bd 36 08 91 bd f7 fd 20 be
       0.044923496 -0.06298821 -0.07081644 -0.1572188
0001f0 21 2c 73 bc cc 66 95 bd 1e 2a 36 bd f5 8c d1 3c
       -0.014842064 -0.072949976 -0.04447376 0.025579909
000200 21 90 aa bd 01 82 c0 bd 74 64 52 bb 07 51 25 bd
       -0.08328272 -0.09399796 -0.0032103332 -0.040360477
000210 19 0d 9b bd e9 01 68 3a e0 b1 5a bd 01 b8 ad bd
       -0.075708576 0.00088503823 -0.05339229 -0.084823616
000220 43 fb d4 bd 68 41 ce 3c f4 9b 6a bd 7b b5 a1 bd
       -0.10399487 0.025177673 -0.057277635 -0.07895943
000230 17 7b 55 bd 65 a0 83 bd 3e 4e d6 bc 3e fd 0b bd
       -0.05211934 -0.06427077 -0.026160356 -0.034177057
000240 84 d2 b4 bc 63 fd 89 bd 37 5d f2 bc 49 2b 35 be
       -0.022073038 -0.06737783 -0.029585464 -0.17692293
000250 ee 4a 63 bd 04 4c 65 bd af 1d 3e 3d 32 9b 72 bd
       -0.05549138 -0.055980697 0.046415027 -0.059230037
000260 5c ad 97 bd 7f e9 06 3a 9b 5a 8e bd 27 43 0e be
       -0.074061126 0.0005146488 -0.06950875 -0.13892804
000270 dc 2e 15 be 5f 93 fd 3b 95 82 f5 3b 43 6f e3 bd
       -0.14568657 0.0077385153 0.007492373 -0.11105206
000280 0b 0b 78 bd 16 1c 9f bd 91 61 64 3b 1b 25 b4 bc
       -0.060557406 -0.07769029 0.0034848193 -0.02199035
000290 5d e7 17 be e8 40 fb bd a3 ea 06 be 2f 9c 5a bd
       -0.14834352 -0.12268239 -0.13175444 -0.053371605
0002a0 c3 73 03 be ae 2f ba bc 42 86 39 bd e1 45 1a be
       -0.12837128 -0.022727814 -0.045294054 -0.15065719
0002b0 70 ba bb bb d7 1d 22 3d dd 97 da bc 68 51 11 bd
       -0.005729012 0.03957924 -0.026683742 -0.035478026
0002c0 3a f8 b0 bd 35 99 57 3c d8 38 de bc 1b cc cd bd
       -0.086410955 0.013159086 -0.027126715 -0.10048696
0002d0 d4 f7 86 be 32 1e 8c 3d b6 fe 4a be 1b e8 1a bd
       -0.26360953 0.06841697 -0.19823727 -0.03781901
0002e0 af a3 19 3b 5a 2a 8d bd b0 a4 f9 bc 25 35 35 be
       0.002344351 -0.068928435 -0.030474037 -0.17696054
0002f0 a7 61 ec bc 5c 2e cd bd 0f da 2b bc 76 02 16 bd
       -0.028855158 -0.10018608 -0.010489001 -0.03662344
000300 98 54 e2 bd 68 f4 20 be 29 56 67 bd 41 c1 9c bb
       -0.11051291 -0.15718234 -0.056478653 -0.00478378
000310 ad c2 19 be 6b 69 c0 bd ad d5 a6 bd ff 74 4f bd
       -0.15015669 -0.09395107 -0.08146224 -0.050648686
000320 65 24 1e be b1 1d db bc a6 0f ef bc 93 d1 34 be
       -0.15443571 -0.026747556 -0.029182266 -0.17658071
000330 16 6f ac bb 2e 05 46 3c 6c 8c 91 b8 ca 1b d1 bc
       -0.005262266 0.012086196 -6.9402944e-05 -0.025525946
000340 20 47 12 bd cc 30 e9 bd 49 99 99 bd 5a 15 07 be
       -0.03571236 -0.113862604 -0.0749994 -0.13191739
000350 99 6b 36 bd 99 c1 0f be 80 27 cf bc e6 68 cc bd
       -0.044536207 -0.14038695 -0.02528739 -0.09980945
000360 c6 1b fb bd 8f 9e fa ba 45 8b 63 bd 55 69 92 3b
       -0.12261157 -0.001912074 -0.05555274 0.004468123
000370 b4 87 69 3d 6f cf a4 3c 59 98 fb bc a1 46 48 3e
       0.057014182 0.020118443 -0.030712293 0.19558193
000380 83 16 b2 bd f9 b4 a6 bc 61 e3 63 bd 3c 81 b1 3c
       -0.086957 -0.020349966 -0.055636767 0.021668069
000390 cf b9 ff bd d9 ff a0 bd 34 57 8c 3d 2d 96 17 be
       -0.12486612 -0.07861299 0.0685257 -0.14803381
0003a0 29 39 13 be 98 cb a4 bd 24 27 30 3d 85 46 60 bd
       -0.14377274 -0.08046645 0.043006077 -0.054754753
0003b0 c4 5e 96 bd bd 2f d7 bd 22 ce 3c bd de 7a e4 bd
       -0.07342294 -0.10507152 -0.04609502 -0.111562476
0003c0 7a 52 c3 bd 32 b2 af bd 7a d4 03 bc 6f 8e 6b bd
       -0.095372155 -0.0857891 -0.008046264 -0.057508882
0003d0 81 30 2e 3d 8a ea 3d bd b4 43 95 bd ae 2f 74 bd
       0.042526726 -0.046366252 -0.07288304 -0.059615783
0003e0 99 fd 65 3d cf 64 9b bd 01 c4 a3 bd 42 ed d1 bd
       0.056150053 -0.07587587 -0.07996369 -0.102503315
0003f0 3e 82 73 bd 0b fb 1b be 21 ef 65 bc 9c e9 5a bd
       -0.05945038 -0.15232484 -0.014034064 -0.053445444

fc2.weight f4 [64, 256]
000000 4a c8 b7 be bc 82 c8 3d c8 43 f0 3d 8e cb cd bd
       -0.35894996 0.097905606 0.11731678 -0.100485906
000010 9c 21 92 3d 9c 7e 1d bd de 3d 0d 3e 75 6e 7d bc
       0.07135317 -0.038450822 0.13793132 -0.01546823
000020 de d7 cc 3d 12 ae 5e be 87 54 12 bd 89 d6 5c be
       0.10002111 -0.2174609 -0.035725143 -0.21566214
000030 f5 3b c4 bd 39 6a c7 be 7a 95 aa 3d 18 4d c9 3d
       -0.095817484 -0.3894823 0.08329292 0.098291576
000040 db 7b c8 3d 73 8a 9a bd 05 d6 e6 ba d6 0d 0c be
       0.097892486 -0.07545938 -0.001761139 -0.13677153
000050 54 8a a0 bd 0d d8 6b 3d 03 83 e1 3c 22 3f d8 3c
       -0.07838884 0.05757909 0.027528292 0.026397292
000060 ad ce 44 3d 72 79 0b 3e e6 42 ac be 67 36 8f 3d
       0.048048664 0.13620546 -0.3364479 0.06992798
000070 76 9a 39 3e 05 16 51 3e 87 0a 08 be 33 41 77 3d
       0.18125328 0.20418556 -0.13285266 0.060364913
000080 7f 2b 88 be f2 05 f3 3c 7e 58 5d 3d 04 78 29 3e
       -0.26595685 0.02966592 0.05403947 0.16549689
000090 4f 9d 47 bd 2c 35 c8 3c 54 26 c7 3c 33 c9 27 be
       -0.048734006 0.024439417 0.024310268 -0.16385345
0000a0 f8 4e f5 be 53 57 11 bd 16 cd f9 3d aa 68 60 3e
       -0.4791181 -0.03548367 0.1219732 0.21914926
0000b0 f8 07 84 3d 5e 61 0f 3e 57 25 8f bd d2 c7 a3 3e
       0.064468324 0.14001986 -0.06989544 0.31988388
0000c0 9b 8d c5 bd c1 6b 2f 3e bf 24 66 bd 01 ab 80 bd
       -0.0964615 0.17130949 -0.056187388 -0.062826164
0000d0 af 30 56 be 6a 76 6b 3e 71 8a bd 3c 28 23 88 3e
       -0.20917009 0.2299439 0.023137303 0.26589322
0000e0 ab 96 b6 3d c0 d5 8d 3e 9a 28 e1 bb 5f 5c 9d bd
       0.089154564 0.2770214 -0.006871295 -0.07683634
0000f0 fb 93 cb ba 04 50 10 3e fc 0e 3d be 7d 17 3c 3e
       -0.0015531773 0.14093024 -0.18462747 0.18368335
000100 3b 86 ef bd e2 e4 1a 3e 6e a4 93 3e e0 cd 9b 3d
       -0.11695524 0.15126374 0.28836387 0.07607627
000110 78 92 24 3e 45 44 23 3e ca cc c2 be e6 34 82 be
       0.16071498 0.15944012 -0.38046867 -0.25430983
000120 de b8 f4 bd 89 8f 15 be 4c 72 4c bc 8a 28 37 3e
       -0.11949323 -0.14605536 -0.012478422 0.17886558
000130 58 5a 4e 3d c5 77 11 3d 1a 96 da 3d c5 9a 6f 3d
       0.050379127 0.03551461 0.10673161 0.05849721
000140 61 b7 08 3e 8c b7 2b 3c 44 d4 be 3d 9c 93 93 3e
       0.13351204 0.010480773 0.0931783 0.28823555
000150 f9 51 d3 3d 10 58 c5 3e 8b 7e 56 bd 60 85 87 3c
       0.103183694 0.3854375 -0.052366775 0.01654309
000160 04 9b 3e 3d 4a e2 a8 3d 1f 7d 93 bd 04 30 fd 3b
       0.046534553 0.08246286 -0.07201599 0.007726671
000170 58 d7 89 be 4a 25 d9 3c 6f 6c 31 be b5 7a 68 be
       -0.26922107 0.026507039 -0.1732652 -0.22703059
000180 50 fe 8f bd 3d f0 c3 3e 7b 10 f0 3d 2c ff a3 bd
       -0.07030928 0.38269225 0.117218934 -0.080076545
000190 f1 57 c8 bd 2a 44 74 3d 9e df 92 3e f8 0e 8a 3e
       -0.097823985 0.05963532 0.2868623 0.26964545
0001a0 6d 89 8e bd cb cd e1 bc 56 8d a7 3d 37 9b eb 3d
       -0.06959806 -0.02756395 0.081812546 0.11504214
0001b0 dc 41 bd 3d 88 d0 a1 3d a1 76 35 3d 69 e4 12 be
       0.09241077 0.07901102 0.044302586 -0.14344944
0001c0 c0 26 00 3e f6 ea 90 3d 4d cb b2 3e c0 e2 a8 be
       0.12514782 0.07076065 0.3492073 -0.32985497
0001d0 ce db 71 3c 7a 0d 6e 3e bf 72 31 3c 4d f9 a1 3d
       0.014761878 0.23247328 0.01083058 0.079088785
0001e0 11 96 a9 3d 1d 8c 2c be 0f 2a ae 3d e2 29 55 bd
       0.08280576 -0.16850324 0.08504116 -0.052041896
0001f0 2a d2 4b 3e f4 ef 99 3e e1 93 74 be d9 e6 73 3e
       0.1990439 0.30065882 -0.23884536 0.2381853
000200 f9 e1 5a bd 41 88 ba bd 34 96 a1 3e 91 47 7b bd
       -0.05343816 -0.091080196 0.31559908 -0.061347548
000210 2d 24 84 3e f3 e0 36 be 41 3b 46 be 9a 02 07 3d
       0.2580885 -0.17859249 -0.19358541 0.032961465
000220 6f 99 1c be d4 5e c3 3d 19 bc a5 bd 65 20 09 3e
       -0.15292905 0.095395714 -0.080925174 0.13391264
000230 7a d4 5d 3e 68 ef 33 3e 2b 9a 63 3e 58 b0 a1 3d
       0.21663085 0.17571795 0.22226779 0.07894963
000240 ab 05 1c bd 59 12 e4 bc 6d fc 17 3c ea b3 99 3d
       -0.038091343 -0.02784078 0.009276492 0.07505019
000250 f1 e4 e3 bb 4a 31 b2 3c 1c a4 77 be db ed ff bd
       -0.006954782 0.021752018 -0.24183697 -0.12496539
000260 9a 9a 93 be 46 18 dc 3b 67 17 b1 bd 72 2d 26 be
       -0.2882889 0.006716761 -0.08647042 -0.16228274
000270 19 49 6c bc cb 0a d2 3d 39 e9 37 3e 57 cc 5c 3d
       -0.014421725 0.10255965 0.17960061 0.05390581
000280 c6 7f 12 bd 68 87 2c bd ef e4 4a 3e 73 2d 6b bd
       -0.035766385 -0.04212132 0.19813894 -0.05741639
000290 7b 10 4a 3d 8f 5b 0d 3e 9c 89 61 be d1 8a 8d bd
       0.049332123 0.13804458 -0.2202515 -0.06911243
0002a0 2f ba 60 3d f5 3d e3 bd 6a f7 f1 3c e3 17 35 3e
       0.05486506 -0.11095802 0.029536922 0.17684893
0002b0 fc d2 48 be 6d dd 54 bb 63 f9 54 be f3 70 e5 3b
       -0.19611734 -0.0032480613 -0.20798258 0.00700199
0002c0 4d 32 8e be 7d f6 25 bc 70 9c 64 3d bd 13 34 bd
       -0.2777275 -0.010129568 0.055813253 -0.043964136
0002d0 76 4a 88 3d ee 91 de 3d a9 ec 32 be 09 86 6d 3e
       0.06654827 0.10867678 -0.17473091 0.23195662
0002e0 46 e7 df 3d 41 de b2 bd be d4 e7 3d 14 61 49 be
       0.10932784 -0.08733798 0.11319874 -0.19665939
0002f0 94 28 ac bd e1 7b ae be 1d 22 04 be da d1 5b 3d
       -0.08406177 -0.34078887 -0.12903638 0.053666927
000300 c4 17 8f bb e4 b3 09 bd f3 f5 03 bc 2c 4e 98 3d
       -0.0043668468 -0.033618823 -0.008054244 0.07436785
000310 04 5a 38 3e c6 95 03 3e 2b db 3f bd d1 83 73 3e
       0.18003088 0.12850103 -0.046839874 0.23780753
000320 ac 2e c5 3b 53 0a 1a be 35 3d 24 3e d2 ca 30 be
       0.0060175266 -0.15043001 0.16038974 -0.1726487
000330 30 b3 1f be 1e 05 71 3e 51 d3 82 3d 92 2e 97 3d
       -0.15595698 0.23537108 0.06387962 0.073819295
000340 22 d6 e0 be 02 4e cb 3d 98 a7 1a bd 38 cc 48 3d
       -0.4391337 0.09926988 -0.037757486 0.049022883
000350 9c ee ac 3d 3f 2a 65 3d f2 42 85 bc 9e 49 82 be
       0.084439486 0.055948492 -0.016267274 -0.2544679
000360 91 12 3a be 42 0f c2 3e 07 8d 8e 3e 04 1b b3 3d
       -0.18171145 0.37902266 0.2784197 0.08745387
000370 0a a1 79 3e 88 b0 62 3e 97 ba 97 3e 57 fe 1c 3e
       0.24377838 0.22137654 0.29634544 0.15331398
000380 e4 44 1d 3e 3f 72 ad 3d ae f9 21 3e 6f c4 d6 3d
       0.15358311 0.08469056 0.15817901 0.104866855
000390 be 2a c1 3d b2 bb e2 bd eb 26 a2 3e 76 8a 0c 3d
       0.094319806 -0.11070956 0.31670317 0.034311734
0003a0 0a ea f6 3c e8 cd 12 be f8 f0 22 3e 20 57 b8 3c
       0.030140895 -0.1433636 0.15912235 0.022502482
0003b0 d4 9a 09 3e d8 47 0b 3d 25 1b a6 bc dc 8c b9 bd
       0.13437968 0.034004062 -0.020276615 -0.0906007
0003c0 15 a4 fd 3d 83 8e b6 3e f0 fd 4c be bd ea 0a bd
       0.12384812 0.35655603 -0.20018744 -0.03391527
0003d0 95 ef 63 bd a1 5a b8 bd 3f df 0c 3e 22 e4 8f 3e
       -0.055648405 -0.09001661 0.13757037 0.2810374
0003e0 d2 51 f1 3a 4b b7 33 be 28 8c 9f 3d 44 ee 23 be
       0.0018411225 -0.1755039 0.077904046 -0.1600886
0003f0 c2 35 c3 be b0 d3 98 3c 88 f2 b4 be 5c 5b 3f 3e
       -0.3812695 0.018655628 -0.35341287 0.18687195

fc2.bias f4 [64]
000000 95 8d d4 3c a8 e5 e4 bc 4a 14 b8 bb 4f e3 dd ba
       0.025946418 -0.02794154 -0.005617653 -0.0016928705
000010 22 e9 b3 bb 35 39 6b 3c 90 4a c5 3c c4 21 81 3c
       -0.005490438 0.014356901 0.024083406 0.015763171
000020 eb 02 04 3c ba cb 4b bd e6 96 05 3c 98 1d c2 3c
       0.008057336 -0.049754836 0.008153653 0.023695752
000030 4c fe ef 3c a9 4d c0 bb 11 d3 f3 3c 42 fd bd 3c
       0.029296063 -0.005868633 0.02976373 0.023192052
000040 c3 7d 63 3d 35 fd 00 ba 6b 99 16 bb 45 38 a7 3d
       0.055539858 -0.0004920543 -0.0022979628 0.081650294
000050 fa 77 2f bc 56 0b a5 bb 0d 69 c4 3c 6f 2a 80 3d
       -0.010709757 -0.0050367517 0.023975873 0.062580936
000060 b5 d0 8f 3c 37 c2 71 3c 93 d7 eb bb c8 4f 53 3c
       0.017555574 0.014755777 -0.0071973293 0.012897439
000070 bc 45 18 3d b0 b1 fd 3a 0c e8 40 3b 19 38 94 bb
       0.03717588 0.0019355323 0.0029435186 -0.004523289
000080 25 db 79 3c 05 bd d1 3c 46 7f 41 3d d9 02 1f 3c
       0.015250002 0.025602827 0.047240518 0.009705269
000090 de de a8 3c b2 fa 84 bc 47 6a 7a ba 64 8b 68 3c
       0.020614084 -0.016232822 -0.000955258 0.01419339
0000a0 c8 78 68 3c 24 23 51 3d cc 35 fc 3c 76 0b 99 3c
       0.014188953 0.051058903 0.030787371 0.018682223
0000b0 32 21 41 3c 04 a9 ba 3b 84 ce 84 3a 8b c1 a4 39
       0.0117877 0.0056964178 0.0010132347 0.00031424718
0000c0 d1 fc 1c 3d 34 3a cf 3b 32 9a 89 3d dd f7 c2 3c
       0.038327042 0.006324077 0.067188635 0.023799831
0000d0 6d 73 4a bb 97 de 57 b9 0c c6 dc 3c 2b 17 bb 3c
       -0.0030891553 -0.00020586919 0.026949905 0.022838196
0000e0 46 9c 21 3d 7f 02 5f 3c 74 f1 8d bb 90 8a 0c 3c
       0.039455675 0.013611435 -0.004331762 0.008577958
0000f0 5a c9 9b 3c 87 96 79 bc 3c 37 90 bc 5c 75 11 3e
       0.01901691 -0.015233642 -0.017604463 0.14204925

ln2.weight f4 [64]
000000 ad 31 a1 3f f9 b9 86 3f 4d bd 9a 3f 14 04 96 3f
       1.2593285 1.0525504 1.208902 1.1719995
000010 78 bb b5 3f ab 45 ab 3f dd 4c 90 3f 5c a6 80 3f
       1.4197836 1.3380636 1.1273457 1.0050769
000020 a8 a8 b0 3f c2 da 82 3f d4 40 7f 3f 78 76 92 3f
       1.380147 1.022301 0.99708295 1.1442404
000030 3b 28 8c 3f 90 26 5b 3f 54 18 94 3f 47 7f c9 3f
       1.0949777 0.85605717 1.1569924 1.5741967
000040 8d 7d b8 3f 69 b1 ba 3f 1b a9 78 3f 47 19 90 3f
       1.4413315 1.4585391 0.97133034 1.1257714
000050 9f a8 6b 3f 6a df 98 3f 5c 15 ac 3f 1a 92 8d 3f
       0.9205417 1.194318 1.3444018 1.1060212
000060 c3 dd 6e 3f 48 41 91 3f 65 8f 5a 3f 25 78 a2 3f
       0.9330713 1.1348047 0.8537505 1.2692915
000070 5f da 8e 3f b1 27 9d 3f 68 59 5d 3f e1 fe 89 3f
       1.1160392 1.2277738 0.8646455 1.0780908
000080 14 98 7f 3f 71 ab 9b 3f 20 ca 7c 3f 6e 62 85 3f
       0.9984143 1.2161695 0.9874592 1.0420663
000090 20 2e bf 3f 68 48 5d 3f 98 80 35 3f 64 eb 9e 3f
       1.4935951 0.8643861 0.70899343 1.2415586
0000a0 a0 9a 88 3f 3e 67 88 3f 8d d2 71 3f 00 ea 92 3f
       1.0672188 1.0656507 0.944619 1.1477661
0000b0 3f 54 8e 3f bd 14 a8 3f 95 4b 81 3f 75 5c 9f 3f
       1.111946 1.3131329 1.0101191 1.2450091
0000c0 03 46 93 3f a0 55 7f 3f 6a d5 ba 3f cd fa 8a 3f
       1.1505741 0.9974003 1.4596379 1.0857788
0000d0 9f c6 83 3f ba f9 87 3f ae 15 86 3f 77 8b 73 3f
       1.0294989 1.0623085 1.0475366 0.9513468
0000e0 fa 97 9c 3f c2 3f b2 3f 25 7d 86 3f a8 1f 82 3f
       1.223388 1.3925707 1.0506941 1.0165911
0000f0 8a ac 94 3f 84 2a a6 3f 53 80 84 3f 27 50 97 3f
       1.1615155 1.2981725 1.0351661 1.1821336

ln2.bias f4 [64]
000000 18 b9 d2 bb 1e 00 1e be 3e 3d d6 bd 72 28 ff 3c
       -0.0064307563 -0.15429732 -0.104609 0.031147216
000010 e6 2b fa bd 74 5f 48 be 84 85 f1 bd d5 96 d1 bb
       -0.12215404 -0.19567662 -0.11793044 -0.0063961544
000020 80 1d 47 be b2 f4 36 be e8 2d 0a bd 60 3f e5 b9
       -0.19444847 -0.17866781 -0.033735186 -0.00043725502
000030 32 7a 11 3d b4 53 8b be de 12 8a 3d c5 e5 fd 3c
       0.035516925 -0.27212298 0.0674188 0.030993352
000040 4e f5 80 3c c9 e2 3d bd c3 54 4b be 63 bd ad 3d
       0.01574197 -0.046358857 -0.19856553 0.08483388
000050 33 dc 11 be 0f de 01 bd c5 af 5c bd 09 90 33 3d
       -0.14244156 -0.031705912 -0.053878564 0.043838535
000060 1f 81 52 3c 9f 51 29 bd a3 3e 0b be 8c c6 ae bd
       0.012848168 -0.041337606 -0.13598113 -0.085339636
000070 e6 be 5a bd 05 91 dd bd dc b3 44 bc 08 c8 d4 bd
       -0.05340471 -0.10818676 -0.012005772 -0.103897154
000080 0c 2c 10 bc 49 06 9c bd 79 88 82 3d 5a 0b be bc
       -0.008799564 -0.07618386 0.06373686 -0.023198772
000090 1e 08 b0 bd 9c 1d 7f be ac fa b1 be 43 32 12 bc
       -0.08595298 -0.24913639 -0.3476156 -0.008923116
0000a0 19 c1 c1 bc 45 67 14 bb 68 1e e7 bd 68 70 84 bd
       -0.023651646 -0.0022644561 -0.112850964 -0.06466752
0000b0 e0 5d 5f 3d bd d7 14 3d 9b d3 85 bd f8 04 c4 bd
       0.054532886 0.036338557 -0.06534501 -0.0957126
0000c0 ab b1 31 bb 7b 1f 5b bb 2b 46 00 3d ff 7e dd bc
       -0.0027113955 -0.0033435512 0.031316917 -0.027038096
0000d0 2b 64 d7 bc af 57 56 3b e1 83 07 38 1b 7a 44 bb
       -0.026292881 0.0032706072 3.230933e-05 -0.0029980007
0000e0 4d 0c 58 3d 46 8e 8e bd ae ed 95 bc 60 c6 b8 3c
       0.052746106 -0.0696073 -0.018301811 0.02255553
0000f0 14 61 31 be 2b 22 f4 bd 46 5e f8 bc 30 14 4a bc
       -0.17322189 -0.119205795 -0.03031839 -0.012333915

action.weight f4 [4, 64]
000000 43 82 6c 3c 26 97 ac be f0 cf 4a 3d d2 b6 7f be
       0.014435354 -0.33709067 0.04951471 -0.24972084
000010 9c ac 29 3f c2 c6 11 3f 38 8c b9 bc 2a f3 92 3c
       0.66279006 0.56943905 -0.02264987 0.017938215
000020 ea c3 8c bc 82 ce 4b 3a 74 d7 1d 3d 44 59 a1 bb
       -0.017183263 0.00077746075 0.03853555 -0.0049239714
000030 84 90 7e bd 8d 37 16 3e d5 40 d0 3b 99 f7 37 3b
       -0.06214954 0.14669628 0.006355385 0.0028071164
000040 b5 b5 d9 3c fc 89 eb be 6a 9d 62 3e 3e 40 bb 3d
       0.026575902 -0.4600371 0.22130361 0.091431126
000050 8a b1 8b 3e ff 75 4d 3e 18 e2 e0 bb b5 d0 62 bc
       0.2728389 0.20064543 -0.00686289 -0.013843705
000060 91 80 d3 3d de 16 d5 bd 14 33 6e bd f3 99 30 3c
       0.103272565 -0.10404752 -0.05815418 0.010778892
000070 85 48 fe bc 7b 2b 54 be 33 1b 3d 3e 08 c0 ee 3d
       -0.03104044 -0.20719711 0.18467407 0.11657721
000080 eb 4f 08 bd 60 cb 5b bc 44 91 5e be b2 8c a0 3c
       -0.03327934 -0.013415188 -0.21735102 0.019598339
000090 b6 6d 9b 3c 2c 6e 6a 3d a5 2d 30 bc 7a 7b 43 3d
       0.018973213 0.057233974 -0.01075307 0.04772518
0000a0 33 6e 86 3d 60 64 db 3c 77 9b 86 bc 68 c6 83 3c
       0.065639876 0.026781261 -0.016431553 0.016085818
0000b0 4d 00 f8 3c e5 4e fb bc e4 db 13 3e 19 b7 55 3c
       0.03027358 -0.030677268 0.1443935 0.013044142
0000c0 83 a6 92 3b 5d aa df bd 78 27 05 3c df 23 19 b9
       0.004475416 -0.10921166 0.008127086 -0.0001460458
0000d0 e3 3c 0a be 0f 7f 46 be f8 fe e2 3d 82 2d 81 bd
       -0.13499789 -0.19384407 0.11083788 -0.06307508
0000e0 bb 0a b6 bd 57 5a df 3c 31 9d 26 be ef 7b c9 bd
       -0.088887654 0.027264757 -0.16270901 -0.098380916
0000f0 75 a9 29 3d 06 7a 84 bc 20 92 1a be 22 dd ba bb
       0.041421372 -0.016171467 -0.15094805 -0.0057026306
000100 0d 7d 16 3f 16 9d 9b 3e a5 09 20 3f be 52 3e bf
       0.5878456 0.30393285 0.62514716 -0.74345005
000110 cb 25 7f 3e 34 4a 8b 3e a2 93 86 be c8 ca 85 3e
       0.2491676 0.2720505 -0.2628451 0.26131272
000120 c2 94 9b be 34 88 4e 3e 91 68 02 3f 06 93 ce 3e
       -0.3038693 0.20169145 0.50940806 0.40346545
000130 8a 6a b6 3e 0a 68 38 be ed d1 b4 3e f3 5d 8a bd
       0.35628158 -0.18008438 0.3531641 -0.06756201
000140 de 78 ea 3d 42 a2 1a 3f d2 60 08 bf 68 2c 64 be
       0.11448835 0.60403836 -0.53272736 -0.22282565
000150 eb e6 dd be 17 ba 97 3d 9a cb 2b 3f b5 12 6a bd
       -0.4334024 0.07408541 0.67107546 -0.057146747
000160 a0 41 87 3d 2b 60 c8 bd e7 b8 a2 3e 79 57 28 bf
       0.06604314 -0.097839676 0.31781694 -0.6575847
000170 60 85 34 3e 58 52 8b 3e ac 06 57 be ad ae 3e be
       0.17629004 0.2721126 -0.20998639 -0.18621321
000180 d7 8d 2c bf 41 fe 7f bf 83 83 58 be f8 f1 d9 bd
       -0.6740393 -0.99997336 -0.21143918 -0.10641855
000190 fb 71 48 be f4 b7 44 be c0 a8 42 3d 52 fb aa 3e
       -0.1957473 -0.19210798 0.047524214 0.33394867
0001a0 a7 38 02 3e c3 ac a8 be ac b8 78 3c 2e 74 90 be
       0.12716924 -0.32944307 0.015180748 -0.28213638
0001b0 ad 29 ce 3e 0a 35 07 be 48 ee 0f 3e 61 ee 68 3e
       0.4026617 -0.13203827 0.14055741 0.22747184
0001c0 b3 c2 f3 bd a9 66 50 be 21 6c d2 be 6e ef 5a 3e
       -0.1190237 -0.20351662 -0.4109812 0.21380398
0001d0 b0 62 ef 3d 80 da f4 3e fe 1b 89 3e e2 07 0e bf
       0.11688745 0.47822952 0.2677917 -0.5548078
0001e0 5e 18 19 3f 4a ae 8b 3e 28 c8 07 3f 95 4a 62 be
       0.59802806 0.2728141 0.5303979 -0.22098763
0001f0 a5 b4 dc bf 48 1e 73 3f 1c d2 ad bd f3 0b ae be
       -1.7242628 0.9496808 -0.08487341 -0.33993492
000200 28 a1 47 3f 50 b7 a0 3b 7d 65 ba 3e 64 23 2e bf
       0.7798028 0.004904665 0.36405554 -0.6802275
000210 cb b5 cf bd 4c 7d 88 be 2b 3d 29 3f 38 77 40 be
       -0.10142096 -0.26658094 0.6610896 -0.18795478
000220 80 d4 be 3d 57 80 93 3e 7e f3 7e be 41 7b c9 bb
       0.09317875 0.28808853 -0.24897572 -0.006148726
000230 aa fd 52 3e 83 bc 46 bd 9c 9b f3 bd 3d 84 4a bf
       0.20604578 -0.048519623 -0.118949145 -0.7910803
000240 f2 97 9a 3f f3 1a b7 3e 66 fa eb be cb e2 27 3f
       1.207762 0.35762748 -0.46089476 0.65580434
000250 70 0f 34 3e bc b2 04 bf 41 a5 ae be 72 ac 1a 3e
       0.17584014 -0.51835227 -0.34110454 0.15104845
000260 63 89 e1 3d 74 02 1f bf 42 a4 e8 bc 8d 18 cb be
       0.110125326 -0.6211312 -0.028398637 -0.39667168
000270 33 73 7d 3e dd 22 a4 3e 61 14 9c 3e ad 08 2e bf
       0.24750976 0.3205785 0.30484298 -0.6798199
000280 0e fa d4 3b 05 64 d0 3c 6f 23 48 3d 98 12 08 bf
       0.0064995354 0.025438318 0.048861917 -0.5315337
000290 51 97 21 bf 5e d9 92 be e7 aa 9f bc e7 84 d0 bd
       -0.63121516 -0.28681463 -0.019490672 -0.10181599
0002a0 4e 08 98 be 85 16 05 3e a5 99 88 be 74 00 82 be
       -0.29693836 0.12996872 -0.2667972 -0.2539097
0002b0 54 07 91 3e 88 b4 88 bf 64 6a 18 bd b0 e4 1c 3f
       0.28325903 -1.0680094 -0.037210837 0.6128645
0002c0 a1 19 bb be bc ac 4e 3f f6 53 33 be 5e 76 03 bf
       -0.3654299 0.8073232 -0.17512497 -0.5135249
0002d0 fb c4 63 bf e6 31 dc be de 27 33 bf d3 15 2b 3d
       -0.88972443 -0.4300682 -0.6998271 0.04176886
0002e0 b8 7c 39 3e 1e 55 48 bf f2 16 88 3c d4 e9 14 be
       0.18113983 -0.7825488 0.016612504 -0.14542323
0002f0 13 07 8a 3e 1c e2 00 3d 31 74 53 3f 8e 23 af 3e
       0.26958522 0.031465635 0.8259917 0.34206814
000300 aa 35 36 be fb da 00 3d 3c cc 3b bf 0c 8a 2b 3e
       -0.17793909 0.031458836 -0.7335851 0.1675188
000310 e4 40 25 3e 65 d0 2d 3c 22 92 fe 3d 4c a2 a0 3c
       0.16138035 0.010608767 0.12430216 0.01960864
000320 dd 40 4f 3f d8 7a 81 3e b9 f9 82 3e 74 e6 5b 3f
       0.8095835 0.25289035 0.25581148 0.8589852
000330 dd 70 6a be b2 11 6c bd a7 31 6b be 13 5c c7 3e
       -0.22894616 -0.057634063 -0.2296816 0.38937435
000340 68 55 5a bf a2 6d 24 3e a2 c2 86 bd ac 19 77 be
       -0.8528657 0.16057447 -0.06580092 -0.24130887
000350 97 d2 e7 bd 06 c7 1f bc 05 f0 2c 3f 26 db 0c bf
       -0.11319464 -0.009752041 0.6755374 -0.55021894
000360 8e 99 13 be 99 ef 1a 3f 0f 2b 35 bd 14 4d df 3c
       -0.14414045 0.60521847 -0.044230517 0.027258433
000370 d6 31 fc 3e 94 a0 73 3e 89 7a a6 be 1a 4f d2 3d
       0.49256772 0.23791724 -0.32515362 0.10268994
000380 7d 4d 81 3e 68 b3 bf 3e 67 ed 98 3d 5b 68 5f bd
       0.2525443 0.37441564 0.07467156 -0.05454288
000390 55 f0 05 3f 2f c1 f9 bd a9 a9 27 bd 0f e1 1b bf
       0.5231984 -0.1219505 -0.040933285 -0.6089029
0003a0 94 b3 b9 3e 32 d9 83 be fa 8f 74 3b a1 65 c9 3e
       0.3626982 -0.25751644 0.0037317262 0.3933535
0003b0 16 db c0 be c8 de c3 3e 60 2a 37 3e 3a a3 54 be
       -0.3766715 0.38255906 0.17887259 -0.20765391
0003c0 97 2d 4e 3e 44 8a 9e 3d e1 34 07 3f 37 7b 30 be
       0.20134579 0.07741216 0.5281506 -0.17234503
0003d0 b8 b3 09 3f de bd c0 bd 2b 08 c2 3e 42 fd b0 be
       0.53789854 -0.09411214 0.37896857 -0.3456822
0003e0 ba 62 4e be 14 fd 06 3e f5 38 a5 3c 01 42 51 3f
       -0.20154849 0.13182479 0.02016876 0.8174134
0003f0 83 c6 67 3e ac 1f 4d 3e bc 19 df be ea e5 3e be
       0.2263432 0.20031613 -0.4357432 -0.18642393

action.bias f4 [4]
000000 4c a2 90 bc 17 52 32 3c e8 1e 75 3c cf 1e 4e bd
       -0.017655514 0.01088383 0.014960982 -0.05032235
