checkpoints/DDPG/Actor/DDPG_actor_400.pth (torch, 93275 bytes, 10 tensors)

fc1.weight f4 [256, 19]
00000000: a9c6 b7be 491a 8e3c ecfa e63d ea38 37bc
00000010: 3297 75bc 5093 9ebc adc7 39bc d745 b33c
00000020: af1b 9f3b 0180 333d fde9 f13c 472c 493e
00000030: c70a 38bd 788a 1b3d d0b0 18be 1257 61bd
00000040: b7ca c9ba 0f1a 1c3e 9d5c 833b a33b 053e
00000050: 0133 023e 4fad 633d 6082 1dbd d554 30bd
00000060: fecf 6d3d 99ba 563d aeab 553a 0f4e 513d
00000070: dcb5 e93d b27c f3bd 5814 73ba 9e34 3d3d
00000080: 1ac0 fdbc eb5a 0fbe 7707 af3d be01 413d
00000090: 3d12 663c 699d b73d 5a7c f0bc cf5c 2ebd
000000a0: d51f aebb dc57 873d 65cc b63d a115 73bd
000000b0: d671 f43d 30d7 95bd 4148 0d3e acbb a1bd
000000c0: 0e1d 73bd 3660 89bc 6feb f4bb aaab de3b
000000d0: 61fb 5b3d e9ed 9ebd 5ce4 c6bb e871 f23b
000000e0: 2ff0 cc3d 1a0a a73d 59fa 133e 8d4f 2c3d
000000f0: 9386 98bd ef6e 493d 7ad2 97bd 6bef 31bd
00000100: e963 533d 77f6 ed3b cdbe dfbd 6b42 93bc
00000110: 24fe c3bd ccd0 563c d7d9 1abe b098 903d
00000120: 0d94 f9bd 75ea 473d 2c96 0cbd 947b 8d3d
00000130: 5c5c 9fbd 3dec f6bb d74c c33b 97fa 32bd
00000140: 6a23 4ebc 782e 923c 8d55 253e f28a fc3d
00000150: 3846 48be d048 d93d 862f bd3d 9de8 113e
00000160: 309b c53d b83e a73e 5f14 d43a eab3 1a3d
00000170: 93b5 683d b5fb 023e 3348 cd3d bb39 833e
00000180: d578 d33d f8fb 953d 3cab 18bd 8818 64bd
00000190: f794 1ebe 0e85 583d 3834 b0bc d1d4 d13d
000001a0: 8196 4cbd c6fc babd 6a68 d4bd d700 8cbc
000001b0: 78d0 30be 4fbf b3bb 79b4 583d 622b e23c
000001c0: c7c3 68bd 7219 f13b 60ab b0b9 766a c03d
000001d0: d2ac 0dbd d0c2 113d 2a6c 71bd 3c3b 80be
000001e0: f73f 2ebe 8a41 e0bc 1131 9e3d 87c8 d23c
000001f0: 32c2 9abc e744 b8bd 97f4 06be 96cb 463e
00000200: 0a6e a4bd 350b 673c 8b69 d83c 8da6 023e
00000210: 2336 37bd 7712 38be 977d 0cbc 8cb1 0e3b
00000220: f17c ec3d 430b 2c3e c889 edbd 28cb fb3d
00000230: 75dd 233e 1086 6b3d 5078 50be 55b7 6abe
00000240: 0181 88bd 60c1 b1bd 5de0 9dbe 3da3 f1bd
00000250: 4356 0bbb 67b2 813c f3b7 9c3c 9424 acbc
00000260: 5d86 7d3a 3e3f 0bbe 8584 7a3d d38d 50bd
00000270: b8fa a8ba 8342 9b3c 77e3 123e f733 f73d
00000280: a75a 2dbb 4f10 e03d 21eb cdbd 0b4e a3bd
00000290: 5110 4b3d 3df5 563d 0fc0 f63a 5aca 15bd
000002a0: e821 313c f6d6 2bbe fba5 e53d ef56 cfbb
000002b0: 9251 36bd e2b6 34be 22d8 a9bb 1f44 bcbd
000002c0: c18c 01be f759 a4bd 93e0 073d ac11 af3d
000002d0: da71 f63b e8eb 213d 1912 4d3c 94c7 3c3e
000002e0: 99d6 0fbe b973 9dbd 68cc c63d fcc1 fd3c
000002f0: eaa3 6f3e e2ce 14be f505 25be 504f 32be
00000300: 9c05 aebd b1ac a23c d70d e83c 3d1e b5bd
00000310: cea1 183e 78f8 223e bb56 223d 333b a6bd
00000320: 1263 5cbe c13b c8bd 952a 89bc 0edc 653c
00000330: 8de9 8f3d 178b 2ebe f28d 013d d6f7 e6bd
00000340: e50f 88bd 8bfa 6abe 6582 3fbe bbb2 623e
00000350: 832a 323e f60b 203d 2a3e d0bd 7106 b43d
00000360: 4887 df3d a763 0abd b529 0c3d 9b46 09bb
00000370: b644 acbc 261d 453e 7741 d1bb 4986 1dbc
00000380: f57b 973d c709 033d 2927 89bd 9f6d 9cbd
00000390: 1069 1b3d 8b7f 9a3d 0dcc 2bbe ccdc fb3d
000003a0: 5057 15be ece4 be3d e275 b7bc 5df3 94bb
000003b0: 7d4c 4fbc ae14 22be 52b4 963d 1aed 2a3e
000003c0: 09a6 083e 8a4f 153f dbeb 5a3e cb0b 913d
000003d0: 57e3 613d 7ff5 013d b5d4 263e 258a 203e
000003e0: 5753 853e 9cfa 2ebd e3af 663e b36e 303e
000003f0: 4a12 11bc 9220 673e e88d a23d 12e8 d9bd
-0.35893753 0.017346518 0.11278328 -0.011183003 -0.014989661 -0.019357353 -0.01133911 0.021883888
0.004855595 0.043823246 0.02953052 0.19645797 -0.044932153 0.03797385 -0.14911199 -0.055014677
-0.0015395497 0.15244316 0.004008843 0.13011031 0.12714769 0.0555852 -0.038454413 -0.043049652
0.058059685 0.052424047 0.00081508874 0.051099833 0.1141164 -0.11889018 -0.0009272746 0.046192758
-0.03097539 -0.13999526 0.08546346 0.047120802 0.014042434 0.089655705 -0.02935617 -0.042568978
-0.0053138533 0.06608555 0.08925704 -0.0593468 0.11935775 -0.073164344 0.13797094 -0.07897124
-0.05935388 -0.01676951 -0.007474355 0.0067953663 0.05370653 -0.077602215 -0.006069703 0.0073988326
0.10006749 0.081562236 0.14450969 0.042068053 -0.07447543 0.04917806 -0.07413192 -0.043441217
0.051608954 0.007262047 -0.10925064 -0.017976006 -0.09569958 0.0131113045 -0.15122162 0.07060373
-0.121864416 0.04880758 -0.034322903 0.06908336 -0.07781288 -0.007535486 0.0059600878 -0.043696012
-0.012581686 0.017844424 0.16145916 0.12331189 -0.19558036 0.10609591 0.0923758 0.14248891
0.0964874 0.32665038 0.0016180387 0.037769236 0.056813788 0.12791331 0.100235365 0.25629982
0.10325781 0.0732345 -0.037272677 -0.055687457 -0.15486513 0.052861266 -0.021509275 0.1024567
-0.04994822 -0.09130244 -0.10371478 -0.017090244 -0.17267025 -0.0054854522 0.052906487 0.027608577
-0.056827333 0.0073577696 -0.0003369702 0.09395306 -0.034588642 0.03558618 -0.058941044 -0.25045192
-0.17016588 -0.027375001 0.077242024 0.025730385 -0.018891428 -0.08997517 -0.13179241 0.194136
-0.08028801 0.014101793 0.026417514 0.12758847 -0.044729363 -0.17975794 -0.008574865 0.0021773307
0.11547268 0.16801171 -0.11598545 0.12294608 0.16002448 0.0575009 -0.20358396 -0.22921498
-0.066652305 -0.086794615 -0.30835238 -0.11798713 -0.0021261133 0.01583214 0.019130683 -0.021013536
0.0009671206 -0.13598344 0.061161537 -0.050916504 -0.0012892103 0.018952614 0.14344583 0.120704584
-0.0026451738 0.109406106 -0.10054613 -0.0797387 0.049576107 0.05247997 0.0018825548 -0.03656993
0.010811307 -0.1678122 0.11213299 -0.006327502 -0.044511385 -0.1764789 -0.0051832357 -0.091926806
-0.1265135 -0.08024972 0.033173155 0.085482925 0.0075208964 0.03953162 0.012516522 0.18435508
-0.14046706 -0.07688088 0.09706956 0.030976288 0.23402372 -0.14532045 -0.16115554 -0.17413068
-0.08497164 0.019857736 0.028326912 -0.08843658 0.14905474 0.15915096 0.039633494 -0.0811676
-0.21522167 -0.09777022 -0.016743938 0.014029516 0.07026968 -0.17045246 0.03162951 -0.1127774
-0.06643657 -0.22947137 -0.18702085 0.22138493 0.1739903 0.039073907 -0.10168107 0.08790291
0.10914475 -0.033786442 0.034219462 -0.0020946625 -0.021028858 0.192494 -0.006385978 -0.009614536
0.0739669 0.031991746 -0.06696922 -0.07638096 0.037941992 0.07543858 -0.16777058 0.12297973
-0.14584088 0.09321007 -0.022395078 -0.0045456127 -0.012652514 -0.15828201 0.07358612 0.1669201
0.13344587 0.5832449 0.21379034 0.070823275 0.05514845 0.031728264 0.16292079 0.15677698
0.26040146 -0.04271947 0.22528033 0.17229728 -0.008854458 0.22571018 0.07937223 -0.10639967

fc1.bias f4 [256]
00000000: 9b52 223c 3da3 debc 06b7 c8bc eb78 3abd
00000010: b837 a13d 286c d7bb 64dd 38bd 7d7f 93bd
00000020: 8cd9 0eb7 eef9 c83b 0349 20bd e57f 4d3c
00000030: 2577 803d 1604 383d e4ed 3a3b 18a2 bebc
00000040: 0a1f cf3d b1ed 0e3d 71c3 30bd a740 5b3d
00000050: e905 a43c c41a 2b3d 4e53 223e 24a0 793c
00000060: 5f01 2d3d 0397 f3ba 751b 143d 9e45 7fbd
00000070: 0684 173e 751b 93bd 6bb8 eb3a 640d fe3c
00000080: 84cb 403d d323 8c3c 3599 fc3c c3b4 6cbc
00000090: 40ae 6b3d 023f efbc 3d71 b53d 3022 a03c
000000a0: 4712 493d e950 75bc 9e75 54bd 3fd4 d33d
000000b0: 767b 34bd 972f 29bd 1e94 ca3d 7a86 a5bd
000000c0: 4e7b 133e e82b 8abd a325 7dbd 35e2 24bd
000000d0: 1279 fc3d b704 d2bd 6ec8 8bbd 22e7 3c3d
000000e0: b3d5 84bd e1df 99bd 2ce0 683d 2749 6c3c
000000f0: 496a 8d3a c84b 043d 2d63 a53d 0197 28bd
00000100: 26c5 453d 0e12 91bc 8271 12bb cdf6 8bbd
00000110: f697 19bd b32f cf3c 2338 1e3e 7061 9a3d
00000120: 957e 1b3d 7451 ec3d 7d66 863d 2c07 f13d
00000130: a359 d4bc 3b21 8e3d a10a 313b 1d7e c63c
00000140: 90de 05bc c675 f0bb 7800 4c3c 3204 923c
00000150: 7692 ba3d 9f33 043e 28d1 4f3d 4ae0 c5bd
00000160: 4870 c13c 8a1f 083d f218 353e d301 943d
00000170: 9200 57bc 4d5f 28bd 3e6b 933a 9151 553d
00000180: a141 da3d 769a ee3d 402a 8f3d 6242 0b3e
00000190: ba3b e43d ce61 9d3c 9281 9abd aa47 d7bd
000001a0: 3852 cdbb 8a69 133d 596b e1bc c11b bfbd
000001b0: 189e 94bd c1ad b93d 40c1 703d 9a1c 583d
000001c0: fc9d 603e a988 79bc 6379 b43d 28da 733d
000001d0: 8fda b53d 6789 0e3e a5e7 37bd 3c6d 9abc
000001e0: efec b43d 9fb6 833d 55a0 843d 1b6f 253d
000001f0: f9dd 57bd c410 eb3d 5884 ef3d 488d c7bc
00000200: 7490 bc3d 9fd0 e03c afa2 f2bb 9173 4d3d
00000210: 4f96 03bd 37ff 1f3e fc62 c63c b8a2 e23d
00000220: 3b0c 973b e2f4 f83c 3be6 1c3d dd9b bd3a
00000230: aaa5 0ebe 99b2 e33d 9a5d 1ebc 3eec da3d
00000240: d7f6 bb3d 4549 c73d 2b67 8b3d e532 82bd
00000250: bcf8 023e 7e6e 153e b417 c03d e8d9 a13d
00000260: 5d79 853d b57d 163e ee43 12bd 9a17 0abd
00000270: ed94 9c3d 9287 46bd 745c 953d 1c74 0abb
00000280: 66d3 bdbc 7880 86bd 9ad8 b7bd cc1d a73d
00000290: 548e 303d 44b3 2e3d bb0b a23b 31ae 093d
000002a0: cd7e 82bd 152b 853d 90fb 33bd e3d7 343d
000002b0: 74f7 cf3d f866 c83d a457 dc3d 4978 80bd
000002c0: 2808 0f3d 10cf 05bd f672 fc3d e340 99bc
000002d0: f905 92bc c468 11bc ed8f 34bc 7215 ac3d
000002e0: df38 093e 8d13 44bc f86e 783d 270e fc3b
000002f0: 83b8 863d 24bb 89bc 4628 4b3c c721 a0bd
00000300: 0a96 f83c 1c7b 57bc 9bb9 833c 894b 043e
00000310: 860d 8a3d b219 bdbc 99bb 833c bc37 cabd
00000320: f065 2d3d 8187 89bc 1273 9dbd c004 fabb
00000330: ddbd f13d 4b55 99bd 5d62 93bc 92c0 d8bb
00000340: 9107 be3d 7c43 123d f07a ae3d 4469 1e3a
00000350: c0f7 c6bd f6f7 57bb d6ca 833d 84d1 2ebd
00000360: eea9 213d 4e5b 103e a9f7 70bd 52b0 84bd
00000370: 698e 6abd bd75 f93d 1b9c c4bc 4881 283e
00000380: bfd4 ec3d 6148 193e 8b1b 9abd 7336 ccbc
00000390: 8365 aabd 0f07 c0bc 2fbd 1e3e 343d be3d
000003a0: 2764 37bc 8c5e 0c3d 5b3c 89bc 4101 113c
000003b0: e5f7 2d3d 0142 5d3c f6c4 863d b7fb 683c
000003c0: c3c2 cc3d e32f 473d 694b 953d 31fe a13a
000003d0: 2103 1f3e 2fc4 b43b 21c8 e4ba 6abe 4cbd
000003e0: b783 203e e747 ec3d c482 b53c 0c4e 123d
000003f0: 718b f53c 59d3 25bd 3c77 b23d 68bb 18bd
0.00990739 -0.027177447 -0.024501335 -0.045525473 0.07871956 -0.0065741725 -0.04513301 -0.07202051
-8.514511e-06 0.0061333096 -0.03913213 0.012542699 0.06272725 0.04492577 0.0028523142 -0.023270652
0.10113342 0.03489465 -0.043155137 0.053528454 0.02002235 0.041773573 0.1585209 0.015235934
0.042237636 -0.0018584434 0.036158998 -0.06232225 0.14796457 -0.071829714 0.0017984038 0.031012245
0.047069088 0.017106926 0.030834774 -0.014447394 0.057539225 -0.02920485 0.08859489 0.019547552
0.049089696 -0.014972904 -0.05186998 0.10343217 -0.044063054 -0.04130515 0.09891532 -0.0808229
0.14402506 -0.06746656 -0.06180347 -0.04025479 0.1232778 -0.102548055 -0.06825338 0.046118863
-0.064860724 -0.07513405 0.056854412 0.014421738 0.0010789122 0.032298833 0.08075557 -0.041159634
0.04828372 -0.017708804 -0.0022345488 -0.06834183 -0.037498437 0.0252913 0.15451102 0.07538116
0.037962515 0.115389735 0.06562517 0.11768946 -0.025921648 0.06939932 0.0027014392 0.024230057
-0.008170739 -0.0073382584 0.012451284 0.017824266 0.091099665 0.12910317 0.050736576 -0.0966192
0.02361311 0.033233203 0.17685297 0.072269104 -0.013122695 -0.04110651 0.0011247171 0.05207974
0.10657049 0.11650555 0.069904804 0.13599542 0.111442044 0.019211676 -0.07544245 -0.10511716
-0.0062659048 0.03598932 -0.027517008 -0.093314655 -0.072567165 0.09066344 0.058778048 0.05276165
0.21935266 -0.015230336 0.08812215 0.059534222 0.08879577 0.13919602 -0.044898648 -0.018850915
0.08834254 0.064313166 0.064758934 0.04038916 -0.052701924 0.11477807 0.116951644 -0.02435936
0.0920724 0.027443228 -0.0074046473 0.05015904 -0.032125767 0.156247 0.024217121 0.110661924
0.0046096123 0.030390207 0.038305502 0.0014466007 -0.13930383 0.11118049 -0.009665871 0.10689591
0.0917794 0.09730772 0.06806787 -0.063573636 0.12790197 0.1459293 0.09379521 0.079028904
0.06517289 0.14696391 -0.035709314 -0.033713914 0.07645593 -0.048469134 0.07293025 -0.0021126335
-0.023172092 -0.06567472 -0.0897686 0.0815998 0.043104485 0.04265143 0.004945246 0.033613387
-0.063718416 0.06502358 -0.04394108 0.044151198 0.1015462 0.09785265 0.107589036 -0.062729426
0.034919888 -0.032668173 0.123266146 -0.018707698 -0.017825114 -0.008875076 -0.011020643 0.08402528
0.13400601 -0.011967552 0.060652703 0.007692117 0.065781616 -0.016812868 0.012399739 -0.078189425
0.030344982 -0.01315191 0.016079715 0.1291944 0.06740861 -0.023083542 0.016080664 -0.09873912
0.042333543 -0.016788246 -0.076879635 -0.007629961 0.11803792 -0.074869715 -0.01799124 -0.006614753
0.09278787 0.03570889 0.08519542 0.00060429075 -0.09715223 -0.0032954193 0.06435172 -0.04268028
0.0394687 0.1409733 -0.058829937 -0.06478943 -0.05726472 0.1218066 -0.024000218 0.16455567
0.115640156 0.14969017 -0.07524785 -0.024928307 -0.08320143 -0.023440866 0.15501855 0.09289017
-0.011193312 0.034269854 -0.016752413 0.008850397 0.04247274 0.013504506 0.06580536 0.01422017
0.09998085 0.048629653 0.07289774 0.001235908 0.15528537 0.005516551 -0.0017454663 -0.04998628
0.15675245 0.11537152 0.02215708 0.035718963 0.029973717 -0.04048476 0.087141484 -0.0372881

ln1.weight f4 [256]
00000000: e8ab 8d3f 397d 713f 843c 953f 451b 763f
00000010: 69d1 813f 7c0e 8b3f 36fc 7d3f 8c82 6f3f
00000020: f43e 833f 280d 6e3f 8ba9 803f ce28 903f
00000030: 21d1 7e3f 1f03 a13f 540c 733f 876e 723f
00000040: b930 813f c8ac 7c3f 70b5 703f f240 863f
00000050: 91ab 9f3f 561c 8f3f 5152 a43f 3900 753f
00000060: 5be6 973f 885a 723f 6553 9c3f 9989 803f
00000070: a5a8 863f 60d5 903f dcbe a53f ba94 953f
00000080: c0be a23f 5ea1 9c3f 055d 723f ef45 843f
00000090: 0ac4 8b3f 4248 753f 4de9 773f 49b8 733f
000000a0: 187f a33f b0d6 753f b765 723f 8af7 b03f
000000b0: 107f 6c3f 5d69 6e3f cdb5 ad3f b2ac a63f
000000c0: 2a2a 8b3f 5950 8b3f 6e7c 673f ef35 793f
000000d0: e5b7 893f b285 a33f 5a46 6a3f 2718 993f
000000e0: 51a3 783f 8442 853f 2bf2 923f 0cef 733f
000000f0: 2cb7 673f f1c2 9d3f 24c4 a23f e232 7d3f
00000100: 1cd6 883f 4a3f 873f 9985 743f b46b 7f3f
00000110: f70d 7f3f 449f 7b3f 70f2 a63f b584 a33f
00000120: 4a54 7a3f 259b 733f db4c 853f 73ac b83f
00000130: 203c 7e3f 9da8 663f 0b29 873f f3c3 723f
00000140: 01d2 6a3f f6e8 723f c1d8 753f 6d81 973f
00000150: 6717 763f 8035 c83f 5f67 963f 9237 713f
00000160: 0574 713f f993 9a3f 931c a03f eb13 7d3f
00000170: f74b 643f 696d 673f 7e9f 843f 28b2 8b3f
00000180: 5fda 903f aef4 e53f ed0f 913f c776 9e3f
00000190: 77a1 923f 4d41 773f 6bf1 a73f 8f2b 983f
000001a0: 26b4 7f3f c383 963f dd90 753f f5c3 853f
000001b0: 8133 863f 75a6 7c3f 41b4 563f 57ff 813f
000001c0: 1738 853f 1937 793f 62d9 bf3f dcef a93f
000001d0: 2df5 8c3f db61 ee3f a753 733f 6546 873f
000001e0: 2736 913f 6860 873f 91e6 753f 9bc6 7c3f
000001f0: 3cbc 883f 262a 833f 39ae 983f 3bba 983f
00000200: 7536 983f 7d6a 7b3f 11b2 ab3f 862e 8d3f
00000210: 9611 863f ef66 a33f 2e24 7d3f 4ae4 873f
00000220: caf0 7f3f cc4f 9c3f e6d6 773f 288a 803f
00000230: ceb1 7a3f 389b 903f 4f61 8e3f cd2e ac3f
00000240: 471f 7a3f dfbc 6f3f 039d 993f 0a0d 703f
00000250: 49f8 763f 6796 a93f a7d9 953f 9260 963f
00000260: 5863 a53f 1446 883f 5741 803f c623 723f
00000270: 5f8f 813f 3a4f 823f 4b5b 953f 059e 763f
00000280: 4b29 753f e535 823f 2979 9e3f bcce 863f
00000290: efc3 673f b3b4 6d3f afe8 6d3f 7941 a33f
000002a0: c73f 683f 6708 843f 42c8 773f 08f9 723f
000002b0: d1d8 943f e50d 983f e259 9a3f 45ea 7a3f
000002c0: 4d96 8d3f c248 8c3f 7ca2 a83f a3e8 643f
000002d0: 39e6 5e3f e2a8 8e3f 7ded 703f 4979 8d3f
000002e0: cebf 873f a9b5 7e3f 9df6 8c3f 777c 8b3f
000002f0: 1392 843f cdf5 813f f182 a33f 07e0 763f
00000300: a8de 713f d045 673f d8bc a13f 5566 843f
00000310: d932 6c3f 07e5 6d3f 1d54 843f 01d1 853f
00000320: 5523 6d3f cc04 8f3f 788c 833f e475 833f
00000330: e7ea a03f e0d7 943f 2d4c 8e3f adb2 853f
00000340: 7fbd 9e3f 198d 913f ffbb 993f 26b7 6b3f
00000350: 9423 723f fc61 683f 4ea1 893f cbe1 773f
00000360: 86a2 6f3f e7ab c23f 5ee6 7e3f 9034 7d3f
00000370: 7df6 983f 3614 b13f 0955 973f c261 0040
00000380: 450a 813f 81bd 923f 9c65 7e3f 7a9e 8f3f
00000390: 9861 6e3f d215 6e3f e555 b33f 44cf 773f
000003a0: dd42 793f 44ca 863f aef2 8d3f 69db 743f
000003b0: 9391 7d3f 412e 853f a4f2 7c3f b458 753f
000003c0: 7f6f 853f 26b4 7a3f 158f 953f 6038 913f
000003d0: 687b 993f ff3b 9d3f ea56 7f3f 8681 843f
000003e0: 42e6 d23f d701 853f dbf6 753f 80c9 713f
000003f0: b65a 873f 04a0 663f c516 b53f 562c 723f
1.1068087 0.943317 1.1659093 0.9613536 1.0142032 1.0863795 0.9921297 0.93558574
1.0253587 0.92988825 1.005174 1.1262453 0.99537855 1.2579077 0.94940686 0.946999
1.0092994 0.98701143 0.9402685 1.048857 1.2474233 1.1180522 1.2837621 0.95703465
1.1867174 0.9466939 1.221295 1.0041991 1.0520216 1.1315117 1.2948871 1.1686013
1.2714462 1.2236745 0.94673187 1.0333842 1.0919201 0.9581338 0.96840364 0.9520307
1.2773161 0.9603071 0.94686455 1.3825543 0.9238138 0.9312952 1.3571106 1.3021452
1.0872242 1.0883895 0.9042424 0.9734792 1.0759245 1.2775176 0.915136 1.1960496
0.971242 1.0410924 1.1480154 0.9528663 0.90513873 1.2325116 1.2716107 0.98905766
1.0690341 1.0566189 0.95516354 0.99773717 0.99630684 0.98289895 1.3042736 1.2774874
0.97784865 0.95158607 1.041408 1.4427627 0.99310493 0.90101033 1.05594 0.94830245
0.9172669 0.9488672 0.96033865 1.1836373 0.9612946 1.5641327 1.1750296 0.9422542
0.94317657 1.2076408 1.250872 0.9885852 0.89178413 0.9040132 1.0361173 1.0913744
1.1316642 1.7965295 1.1332985 1.2379998 1.1455525 0.96584016 1.312055 1.1888293
0.9988426 1.175896 0.9592417 1.0450426 1.0484468 0.98691493 0.83868796 1.0156049
1.0407742 0.973497 1.4988215 1.3276324 1.1012322 1.8623613 0.9504952 1.0568358
1.1344651 1.0576296 0.9605494 0.9874055 1.0682445 1.0247238 1.1928169 1.1931833
1.1891619 0.98209363 1.3413717 1.1029823 1.0474117 1.2765788 0.9888333 1.0616543
0.9997679 1.2211852 0.96812284 1.0042162 0.9792756 1.1297369 1.1123446 1.3451782
0.97703975 0.9364757 1.2001041 0.93769896 0.96472603 1.3249024 1.1707047 1.1748221
1.2920942 1.0646386 1.001994 0.94585836 1.0121878 1.0180428 1.1668485 0.9633487
0.95766133 1.0172697 1.2380725 1.053184 0.90533346 0.9285385 0.9293317 1.2754356
0.90722317 1.0315064 0.96789944 0.9491124 1.1628667 1.187924 1.205868 0.98013717
1.1061493 1.0959704 1.3174586 0.89417475 0.8707004 1.1145289 0.9411238 1.1052638
1.0605409 0.9949594 1.101276 1.0897359 1.0357078 1.0153137 1.2774335 0.9643559
0.9448037 0.903409 1.2635756 1.0343729 0.9226509 0.92927593 1.0338169 1.0454408
0.9263204 1.1173339 1.0277243 1.0270352 1.2571687 1.162838 1.1116997 1.0445153
1.240158 1.1371185 1.2010497 0.9207634 0.9458554 0.9077451 1.0752351 0.9682891
0.93607366 1.520871 0.9957026 0.9890833 1.1950222 1.3834293 1.1822826 2.0059667
1.0081259 1.1464082 0.99373794 1.1220238 0.93117666 0.93002045 1.4010588 0.9680064
0.9736765 1.0530477 1.1089685 0.95647293 0.99050254 1.040474 0.9880774 0.95838475
1.0424651 0.97931135 1.168429 1.1345329 1.1990786 1.2283934 0.99741995 1.0352027
1.6476519 1.0391186 0.96079797 0.9444809 1.0574558 0.90087914 1.4147574 0.945989

ln1.bias f4 [256]
00000000: 4f08 40bd 3f34 55bd 5068 503d a926 43bc
00000010: 68f8 4dbc 3d10 e63c cfeb a8bd 190c 68bd
00000020: a3f6 9b3b cbd4 babd 3942 38bc 84ef d4bd
00000030: ab61 45bd 98d0 c83b 4327 86bd fbb1 4bbd
00000040: b5e6 57bc 3d33 14bd ea6d 9cbd f3d8 4aba
00000050: 57ed 56bd a147 16bd 58e1 363c 0c76 8bbd
00000060: c4db 17bd 6b4a 9fbd 0c0f aab8 e32f 95bc
00000070: 3d1d 15bc 9f7b 56bc 7c18 dbbb 4ef6 babc
00000080: 1346 09bd a195 f13b 691a 94bd ad5c 6bbd
00000090: 1a91 0c3b 6b0d 92bd 5c3b 36bd c3e9 1fbd
000000a0: 1b79 b23b 3621 4cbd d321 2cbd 5f74 b93c
000000b0: e8d3 acbd 703f aabd 9e38 363c 71d9 023d
000000c0: bda2 92bd d1f2 aabc 8980 b0bd e473 afbd
000000d0: 1a31 9cbb a043 d43c fd3e 89bd 95a4 d33b
000000e0: 52b4 32bd 75c0 f2ba 2171 69bb 4b65 88bd
000000f0: d930 adbd 7d0f 4c3d 7d88 453c 0b3b 87bd
00000100: 8f1d a1bd 24de 48bd c39e 56bd 2c5a 9dbc
00000110: cadd 27bc a857 fabc 032e 543c 274a fbbb
00000120: 19b6 a8bd 4502 99bd c926 e63c 7971 fd3c
00000130: 7950 aabd fffa 2dbe 2616 413d 1b6a a2bd
00000140: 98a0 d8bd 888a 95bd c475 82bd 3de7 93bc
00000150: 95c3 6abd 18c9 103d f708 41bc e540 76bd
00000160: 46dd 3dbd 5147 033a c00b 9b3c f3f5 01bd
00000170: 7d9d a9bd 736b cabd 0c24 76bd b52e 9dbd
00000180: c4c4 093c 4979 c03d 0ede a83b da9c 61bc
00000190: ce39 083b 2af1 6bbd 82f7 323c be2a 1a3b
000001a0: 97ff 29bd 6a07 393c fe68 62bd 040b 5fbc
000001b0: b67b f53c 990c 10bd 6ab2 3cbe 8a77 fd39
000001c0: 5ad1 62bd 803b 0cbd cca9 f9bc ef35 213d
000001d0: ede5 70bd 893e c33d 0021 4fbd c360 a43c
000001e0: ae01 163d 7b5c edbc d84a 4bbd c26f 8ebd
000001f0: 00b3 ac3b 254c 57bd 264f 5ebc f04c b73c
00000200: 76ea 4ebd b414 3ebd 281e 223c 1ce0 05bd
00000210: eac6 33bc 4f50 593b 1aaa bcbc 3ef5 17bd
00000220: 1ce7 3abd a0c5 b93c 582e 8cbc 0cad 43bd
00000230: 9bd2 2abd ff61 85bd d943 07bd 4da8 c239
00000240: e22d 683c 1b8f 45bd 077f bbbc bfbf acbd
00000250: 4ae9 14bd 6e70 2dbd 7295 6a3d bbe0 eabc
00000260: d705 15bd 0a36 be3b 7a4d 17bd c555 c0bd
00000270: dc7b bfbd c61a 743c 64c2 a73b 4e09 1cbd
00000280: 2faf 0abd 9d8d 81bd 1282 3b3b 5564 93bb
00000290: 891c 3fbd 1c80 96bd c23e 99bd 913b 12bd
000002a0: fcaa 96bd 6e30 9cbc 1a72 fbbc d1b1 eebd
000002b0: 0993 1e3b ad6a 4a3d 68c1 0d3b 3ad9 82bc
000002c0: fbd2 7dbd f65c 9a3c e4cf 98bc 6087 91bd
000002d0: 4087 25be 551f 943d 1c6e 00be 4799 dbbc
000002e0: 5d8e 693c a50d 6cbd 760e aa39 f3bb acbd
000002f0: 10f4 96bb 7aed 74bd 31fe 373c 61f2 2ebd
00000300: 891c 58bd b36e bebd 3352 1bbd b40d 643b
00000310: 8d11 f6bd ac1f 29bd 61f1 8ebc 5330 1ebd
00000320: 41a5 c1bd bf76 91bc 61ef 17bd a5a5 f2bd
00000330: 5fbd 7c3b 77a2 1e3d 1a5f 813c 14cd ebbc
00000340: c97e babc 3b3b 8bbd b9d1 22bd 67b5 e6bd
00000350: 21a5 29bd bb4d b5bd 2b07 00bc 44c0 40bd
00000360: 1cc5 c6bd 8c4f 373d df0a efbc 55d9 04bc
00000370: e99c 593d caeb 8f3c 1101 ccbc ec36 3b3e
00000380: 6119 9abd 56b9 42b9 f2f2 06bd d344 c43c
00000390: 3557 65bd 7e7a b2bc c3f3 6d3d 48be ccbd
000003a0: fe1c b0bd bce1 73bd c6b1 493d d401 5bbd
000003b0: 4049 d5bc 0c06 38bd 8cc7 4fbc d5f1 79bd
000003c0: 8e1d 9cbd 88da 90bd c2a9 02bc 0797 c6bc
000003d0: c439 523d 3ce8 26bb ca90 57bc f3a7 34bd
000003e0: e823 753d 8596 23bd a70c 7cbd e1cf 54bd
000003f0: 3341 4fbd 4bde bbbd c9bf 733c 12f5 d6bc
-0.046882924 -0.05205178 0.05088073 -0.011911073 -0.012571432 0.028083915 -0.08248102 -0.056652162
0.004759626 -0.09122618 -0.011246257 -0.103972465 -0.048188847 0.006128382 -0.06550457 -0.049730282
-0.013177563 -0.036181677 -0.07638152 -0.00077380164 -0.05247244 -0.036689404 0.011162125 -0.06809625
-0.03707482 -0.07777866 -8.1090344e-05 -0.01821131 -0.009101209 -0.013090997 -0.0066862684 -0.022822525
-0.033514094 0.0073725735 -0.072316 -0.05746143 0.0021448792 -0.071314655 -0.044490203 -0.039041292
0.005446566 -0.04983636 -0.042024445 0.022638498 -0.084388554 -0.08312881 0.011121897 0.03194565
-0.07159946 -0.020867737 -0.08618266 -0.08567026 -0.0047665955 0.025911152 -0.06701467 0.0064588287
-0.043628998 -0.0018520491 -0.0035620409 -0.06659945 -0.084565826 0.04981946 0.012056467 -0.066030584
-0.07866966 -0.049039975 -0.0523975 -0.019208036 -0.01024575 -0.030559376 0.012950423 -0.0076687518
-0.08237857 -0.07471136 0.028094666 0.030937897 -0.0831613 -0.16990279 0.047140263 -0.07930394
-0.10577506 -0.07301813 -0.06370118 -0.018054599 -0.057315428 0.035348028 -0.011781923 -0.060120482
-0.0463536 0.00050078804 0.018926501 -0.031728696 -0.08281992 -0.098837756 -0.06009297 -0.07674924
0.008408729 0.09398133 0.005153424 -0.0137703065 0.0020786407 -0.05760304 0.010923268 0.0023524011
-0.041503515 0.011293272 -0.05527591 -0.013613466 0.029966217 -0.035168264 -0.18427435 0.00048344984
-0.055375434 -0.03423643 -0.030476473 0.039358076 -0.058813024 0.09533412 -0.05056858 0.02006567
0.036622696 -0.028974762 -0.049631923 -0.0695491 0.005270362 -0.05256285 -0.013568675 0.022375554
-0.050516568 -0.046406463 0.009894885 -0.03268443 -0.010972718 0.003315944 -0.02303033 -0.037099116
-0.04563056 0.022677243 -0.017111942 -0.047772452 -0.041704755 -0.06512832 -0.03302369 0.00037127957
0.014171096 -0.04823218 -0.02288772 -0.0843501 -0.036355294 -0.04234355 0.05727143 -0.028671613
-0.036382522 0.005804782 -0.03693912 -0.09391359 -0.09349796 0.014898961 0.0051196087 -0.03809481
-0.033858474 -0.06325839 0.0028611463 -0.0044980445 -0.046658073 -0.07348654 -0.07482673 -0.03570134
-0.073568314 -0.019066062 -0.030694056 -0.116550095 0.0024196527 0.04941814 0.0021630172 -0.015972722
-0.061968785 0.018843155 -0.018653817 -0.07105899 -0.16164875 0.072325386 -0.12542003 -0.026806487
0.014255133 -0.0576302 0.000324357 -0.08434286 -0.0046067312 -0.059796788 0.011230038 -0.04271162
-0.05276159 -0.09298458 -0.03792019 0.0034798207 -0.12015066 -0.04128997 -0.017449083 -0.038620304
-0.09455348 -0.017756818 -0.037093524 -0.118480004 0.0038565022 0.038729157 0.015792418 -0.028784312
-0.022765534 -0.06798407 -0.03975079 -0.112650685 -0.041417245 -0.088527165 -0.007814209 -0.04705836
-0.097055644 0.044753596 -0.029179988 -0.008108457 0.053128157 0.017568488 -0.024902852 0.1828267
-0.07524372 -0.00018570325 -0.032946534 0.0239586 -0.05599137 -0.021786924 0.058093797 -0.09997231
-0.0859928 -0.05954145 0.049241804 -0.05346854 -0.026035905 -0.04492764 -0.012681853 -0.061021645
-0.076228246 -0.070729315 -0.007975044 -0.024241937 0.05132462 -0.0025468012 -0.013157079 -0.04410548
0.059848696 -0.03993847 -0.061535504 -0.05195606 -0.05059929 -0.091732584 0.014877268 -0.026239906

fc2.weight f4 [64, 256]
00000000: 7834 40bd 1c1a fe3b 04d3 bf3d a481 0fbe
00000010: 499f 273d 0f8e 99bd 6ca1 d03d d1eb a23d
00000020: b0e3 0d3e 24ea 01be 0c54 d53c 5df3 97bb
00000030: c41d 09be af24 f8bd 6bfb 813d 0fc2 d03d
00000040: ee45 373d fcef 5dbd 846a 293c f57c 22bd
00000050: a927 9dbc 191a 993c f18b ca3c b210 d83b
00000060: d6b7 e9bd dbb6 b33d 0d12 85be 0161 0b3d
00000070: 0874 9dbc 7d54 e03d 6eee a5bd a57a e03b
00000080: 5b07 4dbe 056e c33c 14f2 e03d d5a0 8f3d
00000090: c563 fdbc 113b 0d3d 27c1 85bc ec37 e5bd
000000a0: b515 3dbe 4d7a d0bb 8107 d83d e744 713e
000000b0: dbb6 e2bb f1d5 e33d 8ef9 e7bd 60e4 a23e
000000c0: be09 bebd 5c1c 063e 83b4 1abc 4b31 3cbd
000000d0: 42d0 49be 955f 783e fe5e ccbb e586 343e
000000e0: e071 833d 31d9 6e3e 4164 0c3e 8b9f a0bd
000000f0: ec9f a9bc 3f69 013e f9b5 e0bd 8942 cc3d
00000100: eee4 f7bc 9788 6b3e 8e26 863e 69d1 903d
00000110: 36dd 4c3e 5932 093e 6a26 38be c3cd bbbd
00000120: c6d0 28be a26b 4fbe eb27 a2bc 2333 533e
00000130: 9c7a cb3b 5967 86bd 05ae da3d b658 9e3d
00000140: 8ba4 b5bb 96e0 d63d bf2f 003d 6451 3f3e
00000150: e2c1 173d 22c8 c53e 6572 d13b 3ef4 eabb
00000160: 7d2f 303e d4da 4f3d 2209 7abd 803d 7f3d
00000170: 2797 0cbe 28b2 b93b 24ca 0bbd bd4e 1ebe
00000180: 5ddc ceba ec68 a43e d3de 4e3e 736d 093d
00000190: e8e9 43bd 277a 98bc 0a3c 513e 3fac 1f3e
000001a0: d2c8 acbd fac0 0bbe 428a ce3d fd6b de3d
000001b0: c8d7 743d a78b 223d c2f3 b83b d161 583c
000001c0: 94eb 83bd 88c7 3ebd f099 ab3e c97b 3bbe
000001d0: 9e5f 5d3e b7bc 493e 39d9 3ebd 3d8d 263d
000001e0: 1790 a03d a239 b6bd 76d0 4e3d f937 e33c
000001f0: 73bf 693e 19fd 323e a0ce 7ebe 550a 8e3e
00000200: c754 0abe 43ef ea3d 4331 423e d0a9 2e3e
00000210: 25c6 4d3e 1b0b 8dbe e888 0cbe c417 383d
00000220: 1f7e d9bd 2b50 7b3d 3558 8d3c deff 513e
00000230: 141c 343e d772 f23d c9e1 1f3e 93b4 bc3c
00000240: ba17 273c 3916 aabb b3d3 96bc 6302 ed3c
00000250: 908b 19bd 92cc f33d 0291 83be f57a 34be
00000260: d09b 40bc 2757 91bd 08e3 bf3b e865 bf3d
00000270: 45d7 3abe c922 533d ca94 933d 2851 bd3d
00000280: f8d5 4fbd db9c 343d 0d50 903d affc 53bb
00000290: 60d4 a33d 8d6c 503d 1b20 46be aeef b4bd
000002a0: 4167 5e3d 4663 1ebe 46d4 e2bc 611e 023e
000002b0: 1ed7 e5bd 3b83 7fbd f883 64be 8271 c5bc
000002c0: c4ba a0bd 4713 263c fc72 503d 657e 2dbb
000002d0: 5291 f13c 1f37 ac3d cced 30be 07af 053e
000002e0: fa3f d53d 526d 9b3d 7af1 f83d d0c4 b5bd
000002f0: 1d94 0dbe 635b 78be 8f38 95bd 2933 673d
00000300: 657f ffbc 6054 09bd 7900 8d3c 159b e93c
00000310: 7a3c 0d3e 0b46 c93d bb8e 02be b520 253e
00000320: e522 f1bc 2262 513e 0251 c63d 1b8b 5bbd
00000330: bc36 7fbd 8fe0 393e d024 343d 9157 f13d
00000340: 4bf9 7dbe 689a 563c 694b 3d3e 0f63 6a3c
00000350: 1422 bf3d c99a 40bc ec35 22bd a900 3dbe
00000360: de14 753d a6ed db3e aee0 863e 476a 2b3d
00000370: c4e8 813e 0d97 823e 7cd2 363e d755 743e
00000380: 576d cd3d 582e 663d a23d 933d 4436 cb3d
00000390: 2bcc a83d 85f6 d1bc 1dd6 8d3e 3b77 043d
000003a0: 59e9 72bd 7d7f 0cbe 087f 103e 8d4c 26bc
000003b0: 23ea ca3d d228 8a3d fe90 3ebd b161 2fbd
000003c0: d7cb 883d beec 8f3e 57e4 42be bf08 04be
000003d0: c395 45bd 54ea df3c b22e 393e 4e1a 883e
000003e0: 37db 543b bf43 cbbd 8fe8 c5bc cf8e d2bd
000003f0: 1a39 fcbc bb0c 8abc 60c1 a1be 93d3 3e3e
-0.046925038 0.0077545773 0.0936642 -0.14014298 0.04092339 -0.07497799 0.10187039 0.07955135
0.13856387 -0.12686974 0.026041053 -0.0046371655 -0.13390261 -0.12116372 0.06346782 0.10193264
0.044744425 -0.054183945 0.010340337 -0.03966995 -0.01918395 0.018689202 0.024724932 0.006593787
-0.11412017 0.08775111 -0.25990334 0.034028057 -0.019220367 0.10953615 -0.081021175 0.006850558
-0.20022337 0.023856172 0.10983673 0.07013098 -0.030931363 0.03448016 -0.016327454 -0.11192307
-0.18465312 -0.0063622356 0.10548306 0.2356144 -0.0069187707 0.111247905 -0.11326896 0.3181486
-0.09279202 0.13096756 -0.009442451 -0.045945447 -0.1970835 0.24255212 -0.00623691 0.17629583
0.06418204 0.2332504 0.13710119 -0.078429304 -0.02070614 0.12637804 -0.109722085 0.09973628
-0.03026053 0.23001324 0.2620129 0.07071192 0.2000626 0.13398112 -0.17983404 -0.09170105
-0.16485891 -0.20255902 -0.019794425 0.20624976 0.0062096845 -0.06562681 0.10677723 0.07731764
-0.0055432967 0.10492055 0.031295534 0.18683392 0.037050135 0.38629252 0.0063918107 -0.007170229
0.17205615 0.0507458 -0.061043866 0.06231451 -0.13729535 0.00566699 -0.034128323 -0.15459724
-0.0015782226 0.321113 0.20202188 0.033551645 -0.047830492 -0.018612934 0.2043306 0.1559305
-0.08436741 -0.13647833 0.10084964 0.10860441 0.059776098 0.039683964 0.0056442926 0.013206915
-0.06441417 -0.046577007 0.33515882 -0.18308939 0.21618506 0.19700895 -0.04659388 0.04066204
0.07839983 -0.08897711 0.050491773 0.02773665 0.22826938 0.17479362 -0.24883509 0.27742258
-0.13508902 0.11471417 0.18964104 0.17056966 0.20095117 -0.27547535 -0.137241 0.04494454
-0.10619759 0.06135575 0.017253974 0.20507762 0.17588836 0.1183831 0.15613474 0.023035323
0.010198528 -0.0051906374 -0.018411493 0.028931802 -0.037486613 0.11904253 -0.2569657 -0.1762503
-0.011755899 -0.07096701 0.0058559217 0.09345609 -0.18246181 0.051546846 0.07206114 0.09243995
-0.050741166 0.0440949 0.070465185 -0.0032346656 0.07999492 0.050884772 -0.19348185 -0.08834778
0.05429769 -0.15467557 -0.02768911 0.12706901 -0.11222671 -0.06238101 -0.22315967 -0.024101976
-0.07848123 0.010136432 0.050890908 -0.0026473042 0.02948824 0.08408951 -0.17278212 0.13055049
0.10412593 0.075892106 0.12155433 -0.0887543 -0.13826032 -0.24253611 -0.07286178 0.056445275
-0.031188676 -0.033527732 0.01721214 0.028516332 0.13792601 0.09827813 -0.1274976 0.16125758
-0.029435584 0.20447591 0.0968342 -0.05359946 -0.06230806 0.18152069 0.04398042 0.1178428
-0.24802129 0.013098337 0.18485798 0.014305844 0.09332672 -0.011755654 -0.039602205 -0.18457283
0.059834354 0.4295475 0.26343292 0.0418494 0.253729 0.25505868 0.17853731 0.2386087
0.100306205 0.05619654 0.0718949 0.0992246 0.08242067 -0.025630245 0.27702418 0.03234027
-0.05930457 -0.13720508 0.14110959 -0.010150087 0.09907939 0.06746067 -0.046524994 -0.042817775
0.06679504 0.28110307 -0.19032417 -0.12893961 -0.048238527 0.027333416 0.18084219 0.2658257
0.0032479295 -0.09925031 -0.024158744 -0.10281145 -0.030788947 -0.016851773 -0.31592846 0.18635397

fc2.bias f4 [64]
00000000: bebd 0b3c 6154 fbbb 8b32 803c fc99 7239
00000010: e382 d63a a5fe a13c f1dd 9d3c 0f43 4e3b
00000020: 7d6b 023c d228 9bbc 196e 50bb c434 133c
00000030: 06b9 f03c 3543 ccbb 48a2 a83c 0885 023d
00000040: 5a9b 113d c8fb 573c c9cd ab3c 3345 933d
00000050: 7f8c 26bc 0d06 7a3b 1f30 a03c c690 5e3d
00000060: 9ef1 803c ccb8 dd3c a2a7 f8bb a99a ee3b
00000070: 823a 343d c306 8c3c a113 453b 1234 8abb
00000080: db36 763c b420 8a3c 8bdb 583d 6cb3 5f3c
00000090: 6ce8 bb3c 500a afbb c2fc 1ebc c9e1 5e3c
000000a0: fec7 983b e22a 353d f9ad 283c 5efa 043b
000000b0: b919 2e3c c6ef 473c d071 1a3b 30dd 523b
000000c0: 4c8b 003d 58b7 cf3a 8dbb 863d 3b60 b03c
000000d0: 3db8 48bb 5c66 a0ba 6c48 e33c 58f1 303c
000000e0: f2b7 363d d123 bf3c 5c1f 113c f383 3d3c
000000f0: 20cf a53c 1061 03bb 0661 01bc 8350 8f3d
0.008529125 -0.007669971 0.0156491 0.00023136282 0.0016365912 0.019774744 0.019270869 0.0031473076
0.0079601975 -0.018940363 -0.0031803905 0.008984748 0.029385101 -0.0062335976 0.020585194 0.03186515
0.035548545 0.013182588 0.02097215 0.07190933 -0.010165333 0.003815058 0.019554196 0.054337285
0.015740212 0.027065657 -0.0075883428 0.0072816205 0.04400111 0.017093068 0.0030071514 -0.004217633
0.015027727 0.016861297 0.052943747 0.013653617 0.022937976 -0.0053418055 -0.009703817 0.013603636
0.004662513 0.04423035 0.010295385 0.0020290832 0.01062625 0.012203163 0.0023566373 0.0032175295
0.031382844 0.0015847487 0.06578741 0.021530261 -0.0030627393 -0.0012237537 0.027744494 0.010799728
0.044609018 0.023332508 0.008857574 0.011567104 0.020240366 -0.0020046867 -0.007896667 0.06997778

ln2.weight f4 [64]
00000000: 29e4 993f 4a6c 923f 0ef7 a03f f9bb 9a3f
00000010: df6b bd3f be8a af3f 426c 8d3f c455 873f
00000020: 3dd9 a53f 73d9 893f 9c72 863f 8530 963f
00000030: 4eb3 903f 6d8a 783f 10fc 9a3f 80fd ba3f
00000040: 725e a43f 336d c53f e352 883f 65b3 913f
00000050: ab19 7e3f ca7e 9b3f ae15 a43f 6dd9 953f
00000060: 7ec7 7d3f bc39 913f 89cf 6d3f b3f4 8b3f
00000070: cbb7 883f 0725 a33f 02b2 783f 2274 873f
00000080: 13cc 833f 5efb 953f c0cc 8b3f 54a7 843f
00000090: f658 8f3f ec12 793f cb7e 673f 1c69 a23f
000000a0: 7b8c 8a3f 2871 8b3f d7bd 783f de38 943f
000000b0: 6e27 903f 04b6 a73f a675 7a3f 43d0 a03f
000000c0: fab2 963f 5f58 823f 56b0 b93f eb0d 8a3f
000000d0: 28d0 843f d4b0 773f b1ee 883f 5833 7d3f
000000e0: 1c7e 983f b45d ae3f 7853 873f f122 833f
000000f0: 4e66 8a3f 9ef1 993f 7701 803f c356 963f
1.2022754 1.1439297 1.2575395 1.2088615 1.4798545 1.3714216 1.1048663 1.0573049
1.2956921 1.0769485 1.0503726 1.1733557 1.130472 0.9708622 1.2108173 1.4608612
1.2841322 1.542395 1.0650295 1.1382872 0.99257916 1.2148068 1.2819116 1.1706978
0.99132526 1.1345744 0.928948 1.0934051 1.0681089 1.2745675 0.9714662 1.0582316
1.0296654 1.1717336 1.092186 1.0363564 1.1199024 0.972945 0.90427846 1.2688327
1.0824121 1.0893908 0.9716467 1.1579854 1.1262033 1.3102422 0.9783577 1.2563556
1.1773369 1.0183219 1.4506938 1.0785497 1.0376024 0.96754193 1.0697843 0.9890647
1.1913486 1.3622346 1.0572348 1.0245038 1.0812471 1.2026861 1.0000447 1.1745228

ln2.bias f4 [64]
00000000: 77f9 f63b 22d4 7cbd 4e47 9ebc 5090 243d
00000010: 7ef1 1abd b82c d8bd 52bd abbd 69d4 663c
00000020: 2270 c7bd 2e86 c4bd f0aa 3cbc 632b 93bb
00000030: fe9f 173d 8e44 15be 88d4 a73d f81e 873d
00000040: f27d 143d 1d24 013d b61e 96bd a9c2 b93d
00000050: 67ff a0bd b8c3 54bb 2641 33bd cd4f 923d
00000060: 93ae bf3c d447 31bc 2282 56bd 0790 7cbd
00000070: 0226 d8bb 4651 39bd ebf6 d23a 86da b3bd
00000080: 32ed 563c 9d61 d9bc 0553 913d c020 323c
00000090: 49f7 a6bb e965 c3bd b768 28be 75b2 213c
000000a0: 6abb 9cbc afd2 a13c edcd 74bc 2a74 80bd
000000b0: 6f9f 8f3d 2e57 3f3d 68cc 1cbd 5e50 6ebd
000000c0: fa5b ba3c efd7 163b ad83 543d c51c 333c
000000d0: 9de3 0cbc ee55 823c 9e29 023c 92d2 813b
000000e0: f2d1 763d cff0 13bd e9ef 9d3c d7e9 073d
000000f0: 229f d8bd 91e6 0abd 3372 b5bc 92df 273d
0.0075370627 -0.061725743 -0.01932111 0.04017669 -0.03782796 -0.105554044 -0.08385719 0.014088728
-0.097381845 -0.09595905 -0.011515364 -0.004491256 0.037017815 -0.14576933 0.08194834 0.06597704
0.036252923 0.03152858 -0.073300764 0.090703316 -0.07861214 -0.003246529 -0.043763302 0.07144127
0.023398673 -0.010820348 -0.052370198 -0.061660793 -0.0065963278 -0.045243524 0.0016095316 -0.087819144
0.013118075 -0.026535803 0.07095913 0.010872066 -0.0050953967 -0.09540922 -0.16446196 0.009869208
-0.019132335 0.019753782 -0.014941675 -0.062721565 0.070128314 0.046714 -0.038280874 -0.058182113
0.022748936 0.002301689 0.05188339 0.010932152 -0.008599189 0.015910115 0.007944493 0.0039618695
0.060258813 -0.036118325 0.019279437 0.03318199 -0.10577227 -0.03391129 -0.022149181 0.040984698

action.weight f4 [4, 64]
00000000: 1a8e 323d b3a2 d9be eaed 243e 3006 97be
00000010: 6229 343f a053 1c3f afa9 37bb 4f45 d43c
00000020: 29b5 75bc 09ff a5bd 7ca1 633d 674e 0b3d
00000030: 25dc b5bd 1615 3e3e 9d16 7f3c e3cf 80ba
00000040: d192 823d 90b9 10bf 6abb b43e d7fe db3d
00000050: 2bd5 b23e 070c 543e 0baf ebbc e688 b6bc
00000060: 347d 193e c05e cebd b741 03be dd32 6639
00000070: 478d 93bd 695d 40be d14d 9c3e 4550 0e3e
00000080: ca6a 80bd 03d6 653d afb0 a0be 6759 fa3c
00000090: a2d7 433c b3e9 ce3d 7484 053e 5b60 213d
000000a0: e5bb 8a3d cb60 073d de28 02bc 331f 0e3d
000000b0: 7d32 6b3d 5f5a 15bd c2c8 e43d 561a 693c
000000c0: a897 ff3b 2070 12be a122 783c b789 9b3c
000000d0: da3d 48be 071c 33be 1693 093e 7587 ccbd
000000e0: 5140 e4bd 0234 bb3c 9613 3ebe 3561 0ebe
000000f0: cf62 cf3d 6a0b f3bd be19 08be 67a9 853b
00000100: c2fc e53e 1b6e 833e 0712 f43e 6af6 30bf
00000110: 294a 863e d0bf 6b3e cc33 84be b764 913e
00000120: 5884 68be 8700 0e3e d2c9 083f e0d9 d63e
00000130: 9b98 be3e f420 0cbe 3a48 b23e 3004 14be
00000140: d7c0 ac3d 1782 0f3f 83e8 58be f3e7 55be
00000150: c625 aabe 5437 623e 458a 203f acbc 9ebd
00000160: a97b 153e 5fcc 4ebe 6d37 c83e a0b5 adbe
00000170: c2e8 263b 0b22 923e 61e1 13bc 7e9c 8dbd
00000180: 52ea 1bbf 9c3f e6be 3dd6 4ebe c553 1dbd
00000190: 6867 e33b 16b6 b0bd 5093 0b3d 4f56 983e
000001a0: 10a6 0d3e a0e0 a0be 94b4 aabb e6e8 35be
000001b0: 6381 c73e 4f91 0abe 3718 583e c65e ba3d
000001c0: 49a5 e4bd dc45 e9bd 5fa2 b1be 2864 573e
000001d0: 462c 013d 0dad 8e3e e106 a23e ccb0 e8be
000001e0: e495 713e 13ae 723e c7a9 8e3e 4a91 7cbe
000001f0: 018e 0cbf 36ae e13e 0446 f7bd 5506 77be
00000200: 26cc 123f 66ea ac3d a05c 773e c556 d8be
00000210: 74b7 e9bd f718 67be cdf9 073f c2da 42be
00000220: 6682 ed3c a8fa 543e f5cf 21be 03ab d4bc
00000230: 38ed dc3d 433f 453c 2b13 0cbe bfee 1ebf
00000240: 12cc 613f 32f5 b43e 673b b0be 4e95 063f
00000250: cf0c 3b3e c409 04bf de37 66be 5856 d33d
00000260: 6cbe 7b3d cbe6 07bf 275f 773c fa14 babe
00000270: 2d69 c23e 4e1c 953e 4011 863e dd8e d8be
00000280: 9fc6 61bd d0fd e0bd 7ee7 d3bc 4fcf dfbe
00000290: 7db8 a0be 0f38 8ebe b020 67bd 2f28 89be
000002a0: 1355 77be f1a5 b13d e729 46be daf5 70be
000002b0: 1101 603e 6a36 71bf acb8 3d3d 6eeb 0e3f
000002c0: df8b b2be 56a0 113f 47b6 38be e277 99be
000002d0: 1bd0 21bf 14d7 babe ef60 b6be e6e7 c33c
000002e0: bc94 073e 0d17 33bf 9f44 b43d a99f 08be
000002f0: 2fd2 2a3e d901 483e 795c 3c3f 2d55 893e
00000300: e944 00be badd bb3c 9ed8 42bf c3d4 533e
00000310: 185d 2f3e 6076 033d 6cb8 003e 9d0f c23b
00000320: 7dc5 2b3f 646a a83e bd94 ac3e ef68 5b3f
00000330: 91c9 81be 117f 60bd 5396 87be fb38 ac3e
00000340: c428 e5be 9b21 323e 88ee 24be ef8e 63be
00000350: 0f99 f6bd da3f 8f3c 6561 043f 5814 18bf
00000360: d371 49be a06e 183f 6739 36bc dcac 71bc
00000370: 9ded 943e 2ae6 d33e b999 81be 9179 613d
00000380: 0a21 4e3e f6f7 c53e fddf 5d3d 894f b5bd
00000390: 7b38 733e 2370 1abe 732d 83bc a7f1 22bf
000003a0: ed43 d83e 2699 8bbe 027d b9bc 31d2 de3e
000003b0: 9fd4 b0be 6981 e03e f6ee fd3d 9971 91be
000003c0: 94be 4d3e c4a8 433d e153 033f d80e 2bbe
000003d0: 9813 423e c20b aebd 3eef da3e 170c 9cbe
000003e0: b993 923e 7f73 153e aabd 0e3d 7918 303f
000003f0: 2ba9 503d 4bb4 063e ba66 cabe d694 3abe
0.04359255 -0.42506942 0.16106382 -0.29496908 0.70375645 0.610651 -0.0028024723 0.025911955
-0.014996805 -0.08105285 0.055573925 0.034010317 -0.0887988 0.18562731 0.015569356 -0.000982758
0.06375659 -0.56533146 0.35299236 0.10741966 0.3492826 0.20707713 -0.02876999 -0.022282075
0.14989167 -0.10076666 -0.12818037 0.00021953457 -0.07204681 -0.18785633 0.3052812 0.13897808
-0.062703684 0.0561123 -0.313848 0.030560208 0.011953266 0.10103168 0.13038808 0.039398532
0.06774119 0.033051293 -0.007944314 0.034697723 0.057421196 -0.036463138 0.11171104 0.01422747
0.0078000613 -0.14300585 0.015144975 0.018986566 -0.19554844 -0.1749116 0.13435015 -0.09986774
-0.1114508 0.022851948 -0.18562159 -0.13904269 0.10126268 -0.118674114 -0.1329107 0.004079032
0.449194 0.2566994 0.47670004 -0.69126 0.26228455 0.2302239 -0.25820768 0.28397152
-0.22706735 0.13867389 0.53432953 0.419631 0.37225804 -0.13684446 0.3482073 -0.14454722
0.08435219 0.56057876 -0.21182446 -0.20889263 -0.33231944 0.22091419 0.6271098 -0.0775083
0.14597954 -0.20195149 0.39104787 -0.3392763 0.0025468324 0.28541598 -0.0090259025 -0.06914614
-0.6090442 -0.44970405 -0.20198913 -0.038409967 0.006939817 -0.0862848 0.034076035 0.29753348
0.13832879 -0.31421375 -0.005209515 -0.17764625 0.38965902 -0.13531993 0.21102987 0.09100108
-0.11164338 -0.11390278 -0.34694192 0.210343 0.031536363 0.27866402 0.31645873 -0.45447385
0.23592335 0.23699217 0.27863905 -0.24664798 -0.5490418 0.44078225 -0.12073901 -0.24123509
0.57342756 0.084431455 0.24156427 -0.422537 -0.11411944 -0.22568117 0.5311554 -0.19028762
0.028992843 0.20798743 -0.15801986 -0.025960451 0.107874334 0.012039009 -0.13679187 -0.6208305
0.8820201 0.3534332 -0.3442032 0.5257157 0.18266605 -0.515774 -0.22482249 0.10319203
0.061460897 -0.5308654 0.01509837 -0.3634413 0.37970868 0.29123157 0.26185036 -0.42296496
-0.05512106 -0.10985911 -0.02586722 -0.4371285 -0.31390753 -0.27777144 -0.056427658 -0.2678847
-0.24153547 0.08674229 -0.19351922 -0.23531285 0.21875407 -0.94223654 0.046318695 0.5582799
-0.34872338 0.5688528 -0.18038283 -0.29974276 -0.6320817 -0.36492217 -0.3562083 0.023914289
0.13240331 -0.6995705 0.08802151 -0.13342156 0.16681741 0.19531955 0.735786 0.26822796
-0.12526287 0.022932876 -0.7611178 0.20686631 0.17125356 0.032095313 0.12570351 0.0059222714
0.6709822 0.3289367 0.33707228 0.8570699 -0.25349095 -0.05480868 -0.26481876 0.33637223
-0.44757664 0.17395632 -0.16106617 -0.22222494 -0.12040912 0.017486501 0.5171111 -0.5940604
-0.19672327 0.595438 -0.011122084 -0.014750686 0.29087535 0.4138654 -0.25312594 0.055047575
0.20129791 0.38665742 0.05416869 -0.08853061 0.23752014 -0.1508184 -0.016012883 -0.6364998
0.42239323 -0.2726528 -0.022642616 0.43519738 -0.34537217 0.43848732 0.12399094 -0.2840698
0.20092231 0.04776837 0.51299864 -0.16704881 0.18952787 -0.084983364 0.42760652 -0.30477974
0.28628328 0.1459484 0.034848846 0.6878734 0.05094258 0.13154714 -0.395315 -0.18220839

action.bias f4 [4]
00000000: 0603 65bc 43bd d23b 3dfe 97bc 69c8 64bd
-0.013977772 0.006431253 -0.018553847 -0.05585519
