checkpoints/DDPG/Actor/DDPG_actor_600.pth (torch, 183131 bytes, 10 tensors)

fc1.weight f4 [256, 41]
-0.06408586 0.21360348 0.063835405 -0.1516997 -0.16223021 -0.05195584 0.060850937 0.15624201
0.14756246 0.025281645 -0.031997133 0.17419969 -0.008064402 0.049602855 0.16706626 -0.14540045
-0.17948103 -0.029570004 -0.08337061 -0.11615055 0.07200093 0.13035145 -0.022326242 -0.06792953
0.07273066 0.01952909 0.19288374 -0.014217594 0.25041863 -0.104329295 -0.13965726 0.05070474
0.086458765 0.06522922 0.04390932 -0.35077593 0.10981172 0.1601813 0.07155844 0.034663033
-0.055469774 0.07508556 0.08544464 -0.096770525 0.17478795 -0.03574686 0.05570165 -0.060798984
0.09349351 -0.047627654 -0.009709485 -0.15055566 -0.19403592 -0.062240213 -0.04611624 -0.034671698
-0.23572314 -0.08426733 -0.21099402 -0.072825834 -0.094426624 0.19030884 0.1730911 0.4436595
0.27456987 0.31636795 0.1842203 0.5023333 -0.14414789 0.17397338 -0.12227016 0.1477689
0.10501046 -0.015642766 -0.10449187 -0.07669629 -0.6197818 0.1057171 -0.034909826 0.0077701407
-0.05166196 0.15259893 0.04338981 -0.22480273 -0.029952288 -0.16021988 -0.18866289 -0.10636101
-0.09777784 0.026356837 -0.055459887 -0.2524148 -0.02126538 0.17435527 0.20917729 0.18247113
-0.010160374 -0.1548496 -0.13818997 0.045099206 0.065423 -0.029457951 -0.12656789 -0.042537227
-0.261798 -0.30995715 -0.28527284 -0.2389859 -0.20027126 -0.019693663 -0.0594195 0.049118306
0.06094105 -0.011979207 0.012964121 0.020705745 -0.028935216 0.14004143 -0.12196667 -0.13315946
0.013343126 -0.15963812 -0.005472348 0.087017596 -0.2920024 -0.21813843 -0.037954263 -0.003283363
0.07524126 0.00027364196 0.02448024 -0.14715172 -0.0026623437 0.022739036 0.21265763 0.1489281
0.11451046 0.20258114 0.38784164 0.12083212 0.4559398 0.19268514 0.010203692 -0.026703792
-0.11503273 -0.3665578 -0.1663646 -0.15346678 -0.049567785 -0.17175458 0.03196451 -0.043791093
0.21868777 -0.07165548 -0.09820119 0.17284265 -0.05404341 -0.08733504 0.41823858 0.24146743
0.037115883 0.011989158 0.09748144 0.11215133 0.1294024 0.20894434 -0.30851552 0.04992538
-0.2300215 -0.0013854376 -0.15657997 -0.046009574 0.050647076 0.12364602 0.12543702 -0.02223737
-0.19960275 -0.28532213 -0.3982252 -0.34020826 -0.39231128 -0.20288283 -0.40384504 -0.21004504
-0.028989218 -0.00042578205 0.23406127 0.08398228 0.05374144 0.06268671 0.2961924 -0.0071928864
0.2255975 -0.019012138 0.03735456 -0.07147797 0.029731696 0.09361059 -0.06804597 -0.5659648
-0.21119067 -0.057799805 0.011640288 -0.24899285 -0.02777853 -0.027479019 0.17977746 0.18659656
0.04297656 -0.030879272 0.040693942 0.06282551 0.19091639 0.13797696 0.17170931 0.17092179
0.05138072 -0.06494946 0.046789028 0.057370704 -0.03553449 0.034400217 -0.025564348 0.021147711
-0.07659756 -0.22152533 -0.028412012 0.051782757 0.004680562 -0.1227091 -0.06416482 0.24718776
0.015184501 0.16781302 -0.033820044 -0.13896753 0.1410149 0.2226217 0.28246287 0.024648022
0.2483884 0.08462881 0.005674379 0.022972265 0.10639313 -0.17935504 0.27229035 0.03678048
0.05790514 -0.03556978 -0.08565722 -0.22609681 -0.11502548 -0.1373949 -0.17251651 -0.14550696
00000000: 733f 83bd dfba 5a3e 23bc 823d 2b57 1bbe
00000010: ad1f 26be a6cf 54bd d53e 793d e8fd 1f3e
00000020: 9d1a 173e 741b cf3c 6d0f 03bd 6761 323e
00000030: 8e20 04bc 5d2c 4b3d 6b13 2b3e dbe3 14be
00000040: e0c9 37be cb3c f2bc 36be aabd 57e0 edbd
00000050: 3975 933d da7a 053e 86e5 b6bc a31e 8bbd
00000060: d0f3 943d 78fb 9f3c 5183 453e e9f0 68bc
00000070: df36 803e 99aa d5bd 5002 0fbe c6af 4f3d
00000080: 4b11 b13d e696 853d 42da 333d e798 b3be
00000090: f8e4 e03d 9106 243e 3b8d 923d d3fa 0d3d
000000a0: 4634 63bd 75c6 993d 99fd ae3d a02f c6bd
000000b0: 9dfb 323e 4d6b 12bd 6a27 643d 5b08 79bd
000000c0: 8679 bf3d 3715 43bd 8814 1fbc 432b 1abe
000000d0: 5ab1 46be 98ef 7ebd 62e4 3cbd e903 0ebd
000000e0: 6861 71be 5a94 acbd d10e 58be b625 95bd
000000f0: bf62 c1bd 52e0 423e cb3e 313e 5727 e33e
00000100: 6c94 8c3e fbfa a13e 3fa4 3c3e ea98 003f
00000110: 819b 13be 1426 323e c768 fabd bb50 173e
00000120: b90f d73d 4225 80bc d5ff d5bd f212 9dbd
00000130: 05aa 1ebf 3582 d83d 9bfd 0ebd aa9c fe3b
00000140: 7e9b 53bd e542 1c3e 83b9 313d b032 66be
00000150: 805e f5bc ae10 24be d830 41be cdd3 d9bd
00000160: c03f c8bd 4bea d73c e829 63bd 833c 81be
00000170: bc34 aebc 308a 323e 9232 563e b6d9 3a3e
00000180: b377 26bc e590 1ebe ac81 0dbe f2b9 383d
00000190: 7efc 853d cd51 f1bc 039b 01be 843b 2ebd
000001a0: 630a 86be b4b2 9ebe 480f 92be b8b8 74be
000001b0: e913 4dbe 9b54 a1bc dd61 73bd 4730 493d
000001c0: 539d 793d 7044 44bc 7767 543c 189f a93c
000001d0: 8c09 edbc 0567 0f3e a9c9 f9bd f45a 08be
000001e0: 209d 5a3c 2d78 23be 6251 b3bb 4836 b23d
000001f0: 5781 95be ae5f 5fbe ee75 1bbd b12d 57bb
00000200: 1718 9a3d 9a77 8f39 c98a c83c f1ae 16be
00000210: b77a 2ebb 3747 ba3c ecc2 593e 9c80 183e
00000220: 7684 ea3d 6e71 4f3e 2e93 c63e d576 f73d
00000230: f170 e93e 414f 453e 632d 273c e9c1 dabc
00000240: 4896 ebbd 77ad bbbe 7b5b 2abe 6526 1dbe
00000250: 9707 4bbd 6fe0 2fbe 38ed 023d 4a5e 33bd
00000260: b0ef 5f3e 1cc0 92bd b51d c9bd aafd 303e
00000270: 9f5c 5dbd b7dc b2bd 5e23 d63e 3d43 773e
00000280: d306 183d 2c6e 443c 59a4 c73d 99af e53d
00000290: 1082 043e 81f5 553e bff5 9dbe 8e7e 4c3d
000002a0: c28a 6bbe 9297 b5ba 8056 20be 8974 3cbd
000002b0: 4f73 4f3d 203a fd3d 9072 003e 252b b6bc
000002c0: aa64 4cbe be15 92be 2ce4 cbbe c72f aebe
000002d0: 06dd c8be 84c0 4fbe c7c4 cebe 0c16 57be
000002e0: cc7a edbc 803b dfb9 c2ad 6f3e e7fe ab3d
000002f0: fc1f 5c3d e461 803d 88a6 973e 4eb2 ebbb
00000300: 0803 673e 58bf 9bbc 1801 193d 0b63 92bd
00000310: e38f f33c e9b6 bf3d af5b 8bbd 12e3 10bf
00000320: 5e42 58be 7dbf 6cbd e8b6 3e3c fbf7 7ebe
00000330: cd8f e3bc ae1b e1bc 9517 383e 2b13 3f3e
00000340: 3008 303d 87f6 fcbc b1ae 263d a9aa 803d
00000350: 967f 433e d549 0d3e 91d4 2f3e 1f06 2f3e
00000360: 9774 523d 3904 85bd daa5 3f3d 8bfd 6a3d
00000370: 9d8c 11bd 3ee7 0c3d 536c d1bc f73d ad3c
00000380: 2edf 9cbd 89d7 62be 4fc0 e8bc 281a 543d
00000390: 665f 993b e94e fbbd d868 83bd ca1e 7d3e
000003a0: 6ac8 783c 2dd7 2b3e e386 0abd 814d 0ebe
000003b0: 3666 103e f1f6 633e f99e 903e a6ea c93c
000003c0: 8759 7e3e df51 ad3d 24f0 b93b 5530 bc3c
000003d0: a4e4 d93d d9a8 37be a469 8b3e 21a7 163d
000003e0: f12d 6d3d 9eb1 11bd 0d6d afbd ec85 67be
000003f0: 7b92 ebbd 40b1 0cbe 2ba8 30be c7ff 14be

fc1.bias f4 [256]
0.032379806 -0.056734584 -0.08619913 0.029098714 -0.107655525 0.14118427 0.07269484 0.049898233
-0.028622283 0.032152303 -0.10949292 -0.0913152 0.018504327 0.1331179 0.11866649 0.07929131
-0.011783149 0.063223206 -0.017003637 -0.057963535 -0.04882236 0.15028131 0.08888571 0.10910052
0.121881545 0.16204181 -0.08745298 -0.03408603 -0.0021091918 -0.087725624 0.06836795 -0.051318493
0.09917422 -0.102038495 0.08732709 -0.09453338 0.07543037 -0.06748263 -0.08544006 -0.019671088
0.09553817 0.051466744 0.14814056 -0.058761597 -0.068741664 -0.026268292 0.08939025 0.06544149
-0.1006866 -0.10866481 0.011267527 0.07966571 -0.10045664 0.09154541 -0.09974044 -0.06308408
-0.11948961 0.021119904 0.007744516 -0.10404553 0.09298169 0.15315296 0.023699228 -0.10131932
0.017825132 0.029567616 -0.011160738 0.08600603 0.020579001 0.19233583 0.10133315 0.07929826
0.01709195 0.096937224 -0.0351042 0.052791573 -0.057786334 -0.016946701 -0.027336026 -0.10424607
0.02179816 -7.521978e-05 -0.013515888 0.031075632 0.059198625 0.06527041 0.1102429 -0.07318303
-0.09269378 -0.023418307 0.01720647 0.028621882 -0.087549925 -0.027522763 -0.09810003 0.041191716
-0.08025568 0.028131155 0.055397563 -0.026081372 -0.10172294 0.13270372 -0.13676704 0.12067441
-0.0010891209 -0.07971302 -0.029475087 0.044997208 0.024506168 -0.051406477 0.09144556 0.07675066
0.107972145 0.037374295 -0.09989242 0.08177583 -0.054496296 0.07771198 0.07736393 -0.01981693
0.08786421 -0.12865362 -0.067732334 0.01749301 0.103181414 -0.08577691 -0.08724733 -0.09198785
-0.08902486 -0.07760445 0.07473508 0.09596957 -0.099828 0.13236238 0.055615146 -0.015329003
0.09025463 0.03705614 -0.08583578 -0.07494787 -0.014286909 -0.06738073 -0.09661804 -0.0315329
0.02590913 -0.07634679 0.039997775 0.0095537165 -0.09425355 0.10084921 -0.059855834 0.0037866486
0.11981707 0.045499474 0.010518222 0.08697489 -0.09313681 -0.099322766 -0.103592195 -0.0050126426
0.06334178 0.07539085 0.07920097 0.06390743 0.08044577 -0.076458044 0.003527908 -0.04597855
-0.0060772547 -0.09226399 -0.13017155 -0.08675704 -0.092930205 0.083905414 0.06195759 -0.04245026
0.11297576 -0.027560627 -0.08150224 -0.0037059202 0.03309055 0.075476296 -0.05318396 -0.06704611
0.001287108 -0.03213577 -0.044263385 -0.161593 -0.06606604 -0.038703687 0.088770844 -0.09977748
0.0025984582 0.07844022 0.06380629 0.15902504 -0.074847065 0.09675446 -0.11290688 0.0396694
-0.06740069 -0.045259085 0.10905351 0.08311764 -0.08813788 0.1343667 -0.040164504 -0.027741436
0.001575305 0.12312437 -0.0075722532 0.12206889 0.015057035 -0.11380408 -0.10247155 -0.068297565
0.15496647 0.06621186 0.11610865 0.07202758 -0.11933422 0.086019285 0.049339075 0.14406538
-0.10211905 -0.004741444 -0.044582054 0.14284694 0.044771887 0.08100314 0.046581153 -0.08274233
-0.026488092 0.072146274 -0.06370867 0.10467775 -0.026924403 0.10785307 0.02987486 0.07696063
0.038463388 -0.029082583 -0.02763237 0.056666188 -0.016569912 -0.11413391 -0.01480191 -0.03600583
-0.115778126 -0.01948967 -0.04080852 0.07321124 -0.06273246 0.14884572 -0.03984557 0.110346496
00000000: b0a0 043d 8662 68bd 2b89 b0bd 6d60 ee3c
00000010: 807a dcbd 9c92 103e 08e1 943d 1762 4c3d
00000020: 4779 eabc 22b2 033d d33d e0bd 7703 bbbd
00000030: 6396 973c 0f50 083e 6b07 f33d 7b63 a23d
00000040: 1c0e 41bc 2b7b 813d 364b 8bbc 2c6b 6dbd
00000050: f4f9 47bd 58e3 193e b609 b63d 1870 df3d
00000060: 089d f93d 4aee 253e 8c1a b3bd cb9d 0bbd
00000070: 5e3a 0abb 7ea9 b3bd 7f04 8c3d 5733 52bd
00000080: da1b cb3d 8ff9 d0bd 8cd8 b23d b79a c1bd
00000090: 3d7b 9a3d 5534 8abd 33fb aebd 4325 a1bc
000000a0: 84a9 c33d cbce 523d 29b2 173e 00b0 70bd
000000b0: 6ec8 8cbd 9a30 d7bc 3c12 b73d 3006 863d
000000c0: c734 cebd a88b debd 6f9b 383c c727 a33d
000000d0: 36bc cdbd 297c bb3d b744 ccbd 3a32 81bd
000000e0: f8b6 f4bd a603 ad3c b5c5 fd3b d315 d5bd
000000f0: 2f6d be3d 21d4 1c3e e224 c23c 8180 cfbd
00000100: 0306 923c c937 f23c 87db 36bc ee23 b03d
00000110: 4b95 a83c aff3 443e c187 cf3d 2067 a23d
00000120: 6b04 8c3c 0687 c63d 6cc9 0fbd fa3b 583d
00000130: 5db1 6cbd cfd3 8abc cdef dfbc f77e d5bd
00000140: 0e92 b23c 50bf 9db8 be71 5dbc 5392 fe3c
00000150: 427a 723d 7eac 853d 08c7 e13d fce0 95bd
00000160: 3dd6 bdbd c0d7 bfbc 95f4 8c3c 7078 ea3c
00000170: 604d b3bd 6b77 e1bc abe8 c8bd a5b8 283d
00000180: 175d a4bd 4f73 e63c 8ee8 623d 9aa8 d5bc
00000190: 1e54 d0bd 7ce3 073e a90c 0cbe 2524 f73d
000001a0: d5c0 8eba 9440 a3bd bd75 f1bc fe4e 383d
000001b0: 29c1 c83c 998f 52bd cf47 bb3d 732f 9d3d
000001c0: 8020 dd3d ca15 193d 6694 ccbd 167a a73d
000001d0: 8237 5fbd 7527 9f3d fb70 9e3d 1d57 a2bc
000001e0: 27f2 b33d c6bd 03be 40b7 8abd 804d 8f3c
000001f0: c750 d33d ceab afbd baae b2bd 2064 bcbd
00000200: aa52 b6bd 15ef 9ebd b50e 993d b28b c43d
00000210: 9f72 ccbd 018a 073e b5cc 633d 8026 7bbc
00000220: 6bd7 b83d 2ec8 173d abca afbd 457e 99bd
00000230: a413 6abc e8fe 89bd aedf c5bd a428 01bd
00000240: 623f d43c b55b 9cbd b5d4 233d 3187 1c3c
00000250: 0108 c1bd 088a ce3d 642b 75bd 6c29 783b
00000260: a762 f53d a85d 3a3d 9f54 2c3c e41f b23d
00000270: 83be bebd bc69 cbbd 2528 d4bd 1841 a4bb
00000280: 56b9 813d 8566 9a3d 1e34 a23d e6e1 823d
00000290: c0c0 a43d 0996 9cbd 7934 673b 0154 3cbd
000002a0: b523 c7bb e7f4 bcbd b14b 05be adad b1bd
000002b0: 3152 bebd 9ad6 ab3d 3ec7 7d3d 53e0 2dbd
000002c0: d65f e73d d3c6 e1bc a5ea a6bd 06df 72bb
000002d0: f589 073d 5193 9a3d 6dd7 59bd 794f 89bd
000002e0: 2eb4 a83a cca0 03bd 864d 35bd a378 25be
000002f0: a24d 87bd c287 1ebd 7dcd b53d 2358 ccbd
00000300: e54a 2a3b 44a5 a03d dfac 823d 76d7 223e
00000310: 6b49 99bd 3427 c63d b93b e7bd 617c 223d
00000320: 5f09 8abd 9761 39bd 7257 df3d 9539 aa3d
00000330: a281 b4bd 6d97 093e 8983 24bd 0242 e3bc
00000340: 777a ce3a a128 fc3d aa20 f8bb 41ff f93d
00000350: c8b1 763c 1d12 e9bd 9bdc d1bd 98df 8bbd
00000360: 88af 1e3e 159a 873d 5fca ed3d 3283 933d
00000370: 8065 f4bd e12a b03d c517 4a3d e085 133e
00000380: cb23 d1bd 1d5e 9bbb ac9b 36bd 7846 123e
00000390: ba62 373d f9e4 a53d e1cb 3e3d d074 a9bd
000003a0: 8efd d8bc 6dc1 933d b179 82bd 4a61 d63d
000003b0: 9190 dcbc 12e2 dc3d 1fbc f43c 899d 9d3d
000003c0: c98b 1d3d 993e eebc 485d e2bc ce1a 683d
000003d0: a0bd 87bc 0abf e9bd b683 72bc d97a 13bd
000003e0: 151d edbd cda8 9fbc d626 27bd c6ef 953d
000003f0: e079 80bd 036b 183e 1c35 23bd 58fd e13d

ln1.weight f4 [256]
0.91015136 1.1638772 0.8707996 0.9929297 0.94377375 1.1396301 1.2879452 0.9776189
1.2944255 1.2483633 1.0878664 0.9564052 1.029621 1.1380852 1.2516185 1.0142936
1.2047536 1.121974 1.0577012 0.9523448 1.0726005 1.4191865 1.0983659 1.0691524
1.1086564 1.2885764 0.9297137 0.8930541 1.1564528 1.1846132 0.96252215 0.96591353
1.0460455 1.0581001 0.97146237 1.1043029 0.96623755 1.1113421 1.075028 1.0151082
0.8491573 0.95771474 1.2990872 0.9743395 0.9261148 1.0412165 1.0233996 0.9686388
1.0204493 0.94008446 1.0310354 1.0611314 0.983631 0.8687193 0.94413555 1.0148647
1.4231739 1.1144943 1.0831262 0.94810975 0.98371756 1.6058193 1.0059091 1.0433227
1.716792 0.9859615 0.9272327 1.0165259 1.0306785 1.1902659 1.0994142 1.0073825
1.0736876 1.0132011 0.8350328 1.1245068 0.9260588 1.2919607 0.94993466 1.012184
0.9782337 1.0992606 1.1223211 1.103416 0.97363764 0.9094601 1.0885965 0.95481855
1.1487164 0.90385514 0.94745296 1.1304659 0.98254156 1.0427935 0.973405 1.1071532
1.0742017 1.0604347 1.7227466 0.980394 1.0915922 1.1682835 1.0514052 1.080983
1.1008761 0.9105829 0.9704642 1.3349355 0.9242643 1.042431 1.1126179 1.4363497
1.0243995 0.95966774 1.0120497 1.0630261 1.3441205 0.98764455 1.1925647 1.0175837
1.1224136 1.087768 0.99578285 1.4797204 1.0371753 1.2408383 1.3940028 1.090834
1.0106652 1.0716658 1.2943481 1.0599674 1.0319921 1.2350384 0.9600483 0.9261523
1.0952463 0.99684584 0.98355675 1.1350281 0.8211031 1.1816466 1.0759169 1.4344255
0.8852752 1.2223605 0.9279086 0.83443266 1.0037771 1.0428275 1.34949 0.93111235
1.0473461 0.75058657 1.0756761 0.9265597 0.9641066 1.0029985 1.0182163 1.0769283
1.312094 1.013696 0.8872764 1.3427609 0.9921663 0.9541459 1.0608191 1.1882566
1.0911491 1.0709015 0.97868866 0.9784392 1.0073082 0.9820624 1.159775 1.3274008
0.9459664 1.1578821 1.0615332 0.9408914 1.0098914 1.4104711 0.98272 1.1623403
1.112614 0.99884886 1.0260403 1.335442 1.2286311 1.0629865 1.3096799 0.89205706
1.0780764 1.7158846 1.4852904 1.1383085 0.9573307 1.6633607 0.9781892 0.9060632
1.0990682 1.0011978 1.067131 0.8999987 1.0160766 1.1647463 1.3048966 0.98292625
1.1497537 1.5732362 0.953893 1.4207215 1.2665181 0.9146284 0.862038 0.8592859
1.1274109 1.1864799 1.0570301 0.99025935 1.193704 1.2203776 1.4931487 1.1391374
1.1307888 1.1999903 0.88558316 1.213445 0.9290094 1.0039082 0.98452854 0.99422634
1.5293236 0.98389286 0.9698287 0.95460266 1.1279346 1.9419094 0.9100117 2.0936875
1.1105988 1.6190602 0.92359614 0.894759 0.94029444 0.9482226 1.0337194 0.95513856
0.9334209 1.4804878 1.357202 0.88081354 1.0624245 1.2926588 1.0091931 1.3593885
00000000: aeff 683f eef9 943f b9ec 5e3f a430 7e3f
00000010: 289b 713f 66df 913f 63db a43f 3b45 7a3f
00000020: bcaf a53f 5eca 9f3f 353f 8b3f f9d6 743f
00000030: 9fca 833f c7ac 913f 0935 a03f 5fd4 813f
00000040: 5e35 9a3f d89c 8f3f c162 873f decc 733f
00000050: f94a 893f e7a7 b53f 4197 8c3f fcd9 883f
00000060: 74e8 8d3f 12f0 a43f b801 6e3f 329f 643f
00000070: a506 943f 68a1 973f da67 763f 1c46 773f
00000080: d2e4 853f d36f 873f c2b1 783f cc59 8d3f
00000090: 585b 773f 7540 8e3f 849a 893f 11ef 813f
000000a0: 5f62 593f cb2c 753f 7d48 a63f 506e 793f
000000b0: dc15 6d3f 9546 853f c2fe 823f b6f8 773f
000000c0: 159e 823f 60a9 703f f8f8 833f 27d3 873f
000000d0: 3ecf 7b3f 6364 5e3f deb2 713f 16e7 813f
000000e0: 902a b63f c0a7 8e3f e1a3 8a3f 52b7 723f
000000f0: ead4 7b3f 7d8b cd3f a1c1 803f 998b 853f
00000100: d7bf db3f f967 7c3f 1f5f 6d3f 851d 823f
00000110: 46ed 833f a25a 983f 9bb9 8c3f e9f1 803f
00000120: 986e 893f 93b0 813f b6c4 553f d7ef 8f3f
00000130: 3112 6d3f f85e a53f eb2e 733f 3f8f 813f
00000140: 866d 7a3f 92b4 8c3f 38a8 8f3f bc3c 8d3f
00000150: 5140 793f 61d2 683f 2157 8b3f fd6e 743f
00000160: 2409 933f 0d63 673f 478c 723f 1bb3 903f
00000170: d887 7b3f 427a 853f 1231 793f 32b7 8d3f
00000180: 717f 893f 53bc 873f f682 dc3f 1afb 7a3f
00000190: 4bb9 8b3f 508a 953f 7294 863f a75d 8a3f
000001a0: 82e9 8c3f f61b 693f 5870 783f 2bdf aa3f
000001b0: 969c 6c3f 616e 853f 436a 8e3f 4fda b73f
000001c0: 861f 833f c9ac 753f d88a 813f 3d11 883f
000001d0: 240c ac3f 46d6 7c3f f6a5 983f 2f40 823f
000001e0: 40ab 8f3f fb3b 8b3f a0eb 7e3f 7a67 bd3f
000001f0: 29c2 843f cad3 9e3f af6e b23f 73a0 8b3f
00000200: 7a5d 813f 582c 893f 33ad a53f 03ad 873f
00000210: 5118 843f bd15 9e3f bac5 753f 5118 6d3f
00000220: 0831 8c3f 4a31 7f3f 60ca 7b3f 9a48 913f
00000230: d033 523f 3240 973f a5b7 893f 419b b73f
00000240: 65a1 623f 4f76 9c3f 6b8b 6d3f 619d 553f
00000250: c57b 803f 5f7b 853f 17bc ac3f 615d 6e3f
00000260: 700f 863f 7126 403f c1af 893f 0433 6d3f
00000270: b1cf 763f 4162 803f e954 823f c9d8 893f
00000280: b2f2 a73f cac0 813f 8c24 633f 97df ab3f
00000290: 9cfe 7d3f e842 743f ecc8 873f cb18 983f
000002a0: c6aa 8b3f 4d13 893f 578b 7a3f fe7a 7a3f
000002b0: 7aef 803f 7168 7b3f 8273 943f 45e8 a93f
000002c0: db2a 723f 7b35 943f 52e0 873f 42de 703f
000002d0: 1f44 813f 518a b43f 8a93 7b3f 91c7 943f
000002e0: 236a 8e3f 8fb4 7f3f 4a55 833f c3ef aa3f
000002f0: c943 9d3f f10f 883f 97a3 a73f da5d 643f
00000300: 68fe 893f 1ba2 db3f ff1d be3f 18b4 913f
00000310: a013 753f 01e9 d43f 9b6a 7a3f c2f3 673f
00000320: 44ae 8c3f 4027 803f c097 883f 5166 663f
00000330: cc0e 823f 6816 953f da06 a73f 0ea1 7b3f
00000340: 212b 933f ce5f c93f 5532 743f 34da b53f
00000350: 441d a23f 1625 6a3f 86ae 5c3f 29fa 5b3f
00000360: 004f 903f 93de 973f c34c 873f a381 7d3f
00000370: 4bcb 983f 5535 9c3f 7f1f bf3f 41cf 913f
00000380: b0bd 903f 4899 993f 94b5 623f 2a52 9b3f
00000390: 8fd3 6d3f 1080 803f 100a 7c3f 9e85 7e3f
000003a0: e0c0 c33f 67e0 7b3f b246 783f d760 743f
000003b0: 2960 903f 7d90 f83f 87f6 683f fafe 0540
000003c0: 1a28 8e3f 5d3d cf3f cc70 6c3f ed0e 653f
000003d0: 23b7 703f b7be 723f eb50 843f f683 743f
000003e0: acf4 6e3f a080 bd3f ccb8 ad3f ff7c 613f
000003f0: 87fd 873f d875 a53f 3d2d 813f 7100 ae3f

ln1.bias f4 [256]
-0.08456919 0.0041708373 -0.0911748 -0.048238065 -0.07998486 0.044911772 -0.025390036 -0.055461846
0.051388863 -0.07557613 -0.053577095 -0.028329737 -0.051366623 0.037929542 0.08550241 0.012956092
0.0068050553 -0.03229939 0.058533892 -0.059385482 0.0019535143 -0.028796194 0.055969093 0.020839384
0.05117741 0.18214872 -0.062496364 -0.12037201 0.102339886 0.018208463 -0.02287562 -0.040651333
0.013025891 -0.014593345 -0.042595666 0.0019068144 -0.064396836 0.015457336 -0.016436798 -0.013542909
-0.15392666 -0.026687229 0.23992799 -0.10637012 -0.12199517 0.019791665 -0.022490192 -0.053890053
-0.010347498 -0.10806056 0.034738656 -0.050254047 0.0060056853 -0.13081305 -0.08913738 0.031094378
-0.0012071371 -0.059494995 0.06786315 -0.054702844 0.03963995 0.028506646 -0.011960308 0.0005894569
0.04344081 -0.044822715 -0.13568677 -0.037816796 -0.07227332 0.11972246 -0.21253029 -0.006520665
0.033055607 -0.019447207 -0.12468683 -0.043272633 -0.07389391 0.094222456 -0.07641769 -0.0418231
-0.091693394 -0.013615369 0.010395118 -0.040051684 -0.12408472 -0.17258656 0.031733453 -0.076403424
-0.09867142 -0.121293336 -0.08990708 0.058522593 -0.035850678 0.011143772 -0.03958122 0.069341965
-0.0961408 -0.023235528 0.10374367 -0.038599465 -0.019168302 0.11638225 -0.030563038 0.08901358
0.10981621 -0.15178417 -0.07050395 -0.026448209 -0.11825168 -0.021285748 -0.065663174 -0.025709974
-0.05962587 -0.091204785 0.0008404401 0.0031354087 -0.018558914 0.0056217164 -0.05816589 0.0073708366
0.02344802 -0.10781758 -0.024449967 -0.11774538 -0.008608715 -0.09726876 0.0135086905 -0.025228128
0.014379922 -0.031161565 -0.071770705 0.020308798 -0.024800971 0.03677237 -0.12491682 -0.082926586
-0.07393736 -0.009323216 -0.027216814 0.025004571 -0.17212583 0.0428985 -0.01815673 -0.053464346
-0.12577735 -0.08995855 -0.08525007 -0.19187437 0.0063787517 -0.017801713 0.019140456 -0.2485389
-0.00054441905 -0.23341978 0.06700219 -0.08515836 -0.028446995 -0.03650199 -0.037796322 -0.013213783
0.0837954 -0.0386126 -0.104767874 -0.029343126 -0.024024507 -0.05824465 -0.027030678 -0.057922643
-0.08693656 -0.0137823215 -0.029012213 -0.038555827 0.00052875385 -0.053299237 -0.073841706 -0.003422951
-0.16582935 -0.0046859323 -0.013385851 -0.04097229 -0.054685898 -0.08554316 -0.04084256 0.038812175
-0.10974972 -0.09912875 0.0040751062 -0.024789201 -0.028110188 -0.010858232 -0.00023939666 -0.03660465
-0.033824783 0.027290141 0.07445034 0.018224292 -0.047152136 0.17828088 0.0023606073 -0.110810444
-0.035701312 -0.098394915 0.015618687 -0.09830738 -0.0195579 0.020903083 -0.0038990323 -0.03111979
0.023007715 0.03201398 -0.03756472 -0.06537356 -0.035483625 -0.091797024 -0.14173694 -0.18297265
0.09312261 -0.043705948 -0.005436944 -0.04351456 0.004381662 0.041887823 -0.032006633 -0.06695425
-0.0015487517 -0.05457026 -0.106256016 0.12521377 -0.07186901 -0.0040520374 -0.06508661 -0.025376514
-0.008323417 -0.04168992 -0.023892125 -0.04649771 -0.045543883 0.010361812 -0.083966754 0.09207028
0.0070870067 -0.026222527 -0.19139282 -0.25749606 -0.054251052 -0.05221962 -0.0010636058 -0.071235225
-0.06023861 -0.007235998 -0.008783193 -0.082627475 -0.034471598 0.21350294 -0.024010377 0.041294407
00000000: 9d32 adbd 85ab 883b dbb9 babd 4795 45bd
00000010: 1acf a3bd 68f5 373d c4fe cfbc f62b 63bd
00000020: 217d 523d a8c7 9abd a873 5bbd c413 e8bc
00000030: cf65 52bd 025c 1b3d e31b af3d ca45 543c
00000040: f1fc de3b 5d4c 04bd 3cc1 6f3d 313e 73bd
00000050: 8806 003b ffe5 ebbc d93f 653d 5bb7 aa3c
00000060: 679f 513d 3285 3a3e 30fc 7fbd 9a85 f6bd
00000070: 9397 d13d ea29 953c a765 bbbc 0382 26bd
00000080: 8c6a 553c ed18 6fbc cb78 2ebd 13ee f93a
00000090: 7de2 83bd c440 7d3c 77a6 86bc 14e3 5dbc
000000a0: f39e 1dbe 2d9f dabc afaf 753e 94d8 d9bd
000000b0: 9bd8 f9bd 2122 a23c 5a3d b8bc d1bb 5cbd
000000c0: 8d88 29bc db4e ddbd 1f4a 0e3d 30d7 4dbd
000000d0: 57cb c43b dbf3 05be a98d b6bd a3b9 fe3c
000000e0: cd38 9eba 06b1 73bd d6fb 8a3d 1710 60bd
000000f0: 805d 223d c586 e93c 2bf5 43bc c885 1a3a
00000100: feee 313d 0698 37bd 79f1 0abe c9e5 1abd
00000110: 0904 94bd 0d31 f53d 8aa1 59be 4dab d5bb
00000120: 5165 073d c04f 9fbc cf5b ffbd a53e 31bd
00000130: b155 97bd b4f7 c03d e180 9cbd b34e 2bbd
00000140: bfc9 bbbd ff12 5fbc 4950 2a3c 3c0d 24bd
00000150: 2120 febd 88ba 30be f0fa 013d 6679 9cbd
00000160: 3e14 cabd a468 f8bd 3421 b8bd 63b5 6f3d
00000170: 29d8 12bd 5e94 363c eb1f 22bd 2903 8e3d
00000180: 78e5 c4bd 6f58 bebc 9077 d43d 791a 1ebd
00000190: d806 9dbc d159 ee3d 565f fabc c04c b63d
000001a0: 52e7 e03d 4f6d 1bbe 6064 90bd eaa9 d8bc
000001b0: f02d f2bd 735f aebc 6a7a 86bd b99d d2bc
000001c0: 423a 74bd 93c9 babd fb50 5c3a 6e7b 4d3b
000001d0: dd08 98bc 6036 b83b 5b3f 6ebd 0f87 f13b
000001e0: 1016 c03c 77cf dcbd 4c4b c8bc 7d24 f1bd
000001f0: 910b 0dbc d834 c7bd 8e53 5d3c 38ab cebc
00000200: c499 6b3c 8a46 ffbc 85fc 92bd a35e a63c
00000210: 682b cbbc a09e 163d 64d4 ffbd 6ad5 a9bd
00000220: 786c 97bd 67c0 18bc ccf5 debc 63d6 cc3c
00000230: c141 30be 56b6 2f3d 6cbd 94bc 6efd 5abd
00000240: c7cb 00be 303c b8bd 9797 aebd b77a 44be
00000250: d904 d13b e6d4 91bc 72cc 9c3c fb80 7ebe
00000260: 58b7 0eba 9805 6fbe 7238 893d 8267 aebd
00000270: ac09 e9bc 1c83 15bd 51d0 1abd 9f7e 58bc
00000280: ec9c ab3d 3f28 1ebd 8a90 d6bd ff60 f0bc
00000290: 0bcf c4bc f191 6ebd 716f ddbc 4b40 6dbd
000002a0: cc0b b2bd 3fcf 61bc 05ab edbc b7ec 1dbd
000002b0: 129c 0a3a 4d50 5abd 523a 97bd 9753 60bb
000002c0: 2bcf 29be 738c 99bb 5450 5bbc 8fd2 27bd
000002d0: 52fe 5fbd 4131 afbd 874a 27bd 84f9 1e3d
000002e0: 76c4 e0bd 0404 cbbd 7888 853b b912 cbbc
000002f0: 5647 e6bc bae6 31bc 8d06 7bb9 c2ee 15bd
00000300: db8b 0abd 938f df3c 6b79 983d 1c4b 953c
00000310: 9922 41bd 438f 363e 6bb4 1a3b 96f0 e2bd
00000320: 8a3b 12bd 4683 c9bd 85e5 7f3c 6155 c9bd
00000330: e437 a0bc f13c ab3c e886 7fbb eeee febc
00000340: ad7a bc3c 1721 033d 77dd 19bd 93e2 85bd
00000350: 4757 11bd 1400 bcbd 7d23 11be 2f5d 3bbe
00000360: 11b7 be3d 0205 33bd 6428 b2bb 533c 32bd
00000370: 0b94 8f3b 9192 2b3d 6319 03bd 4f1f 89bd
00000380: 7cff caba 1185 5fbd c19c d9bd 0a38 003e
00000390: 0f30 93bd f4c6 84bb 214c 85bd 68e2 cfbc
000003a0: f15e 08bc 0dc3 2abd 6bb9 c3bc 6274 3ebd
000003b0: 398c 3abd 97c4 293c c3f6 abbd 588f bc3d
000003c0: 1f3a e83b a0d0 d6bc 7bfc 43be 86d6 83be
000003d0: 5a36 5ebd 3ee4 55bd b068 8bba c6e3 91bd
000003e0: c3bc 76bd f31b edbb 62e7 0fbc 9838 a9bd
000003f0: 1732 0dbd 84a0 5a3e 69b1 c4bc 5324 293d

fc2.weight f4 [128, 256]
-0.05262708 -0.023784282 -0.012438693 -0.06328387 -0.030486567 0.05188744 0.1997346 0.12784742
0.12874332 0.18064538 0.01796337 0.009427133 -0.048360914 -0.1285757 0.017190078 0.08146363
0.16974103 0.061233785 -0.064066775 0.067067094 0.093222216 -0.23284417 -0.107948944 0.012944117
0.13068952 -0.29409385 0.046973143 0.057600413 0.04796002 0.007688137 -0.0574979 0.054488547
-0.11441838 0.008339793 -0.013889346 -0.113331065 0.015367166 0.009086096 -0.029264068 0.24451521
-0.01625731 -0.054649666 -0.10537115 0.041614022 0.15340818 0.082638636 0.10114342 0.0012831059
0.065225914 0.058774006 0.058157943 -0.2487936 0.17135204 -0.03526969 0.0005238784 0.16318807
-0.39672804 0.18316837 0.13870943 -0.04576405 0.012358807 -0.32148543 0.035641614 0.025136327
-0.14695159 -0.0038581723 0.041391697 0.04530459 -0.11401762 0.18669946 0.25535303 -0.049501933
0.20495671 0.014511226 0.18617441 0.20197183 0.0015350514 0.01420372 0.1673753 -0.04351483
0.13022341 0.09767428 0.17607388 -0.040146153 -0.08496457 0.020754518 0.05987533 0.03808305
0.13764662 0.12473053 0.24220765 0.060780354 0.080451034 0.050078094 0.02464286 0.0851071
-0.058347706 0.23183881 0.2560699 0.12122519 0.08659127 0.3182123 -0.20152931 -0.06177236
0.09445619 0.0968935 0.12287231 -0.111478075 -0.012114831 0.17741437 -0.20906985 -0.08398092
0.16488847 0.0059263804 -0.11251669 0.12079304 0.12493866 0.14602874 -0.062570244 0.26606494
0.0937401 0.073282056 -0.11070094 0.24292815 -0.0664013 0.2782411 -0.07167296 -0.019149275
-0.005381167 0.0693663 -0.02352151 0.16655236 0.0720846 0.28769222 -0.03820526 -0.037346486
0.21114631 0.008693256 0.016314095 0.05618988 0.10290019 -0.27987662 0.020780856 0.14087036
-0.021241255 -0.027471492 0.0986086 0.017606044 0.11505008 -0.0052363714 0.11541443 0.13049148
0.041230448 -0.026909735 0.061224233 0.023978066 -0.0075684707 0.06513581 -0.021931149 0.20698075
0.46967044 0.114716336 0.13175327 0.23960227 0.05646296 0.039037418 -0.01772769 -0.04134996
0.010510756 0.01552565 0.11576659 0.05006883 0.119463935 0.091521494 0.07033678 -0.10595703
0.0394358 0.0039802827 0.06508005 -0.033161502 0.08442542 -0.1400698 0.0046807593 0.008377215
0.21659753 0.086878225 0.14856714 0.046158776 0.18517119 0.1173093 0.1054933 0.08684935
0.22558102 0.7553023 0.17138462 0.10461904 0.2506548 0.93278885 -0.0002003626 0.15350167
0.10165931 0.14740627 -0.020289645 -0.007939823 -0.027644467 0.18305215 0.08951673 0.117815495
0.15926042 0.20414317 -0.053451315 0.016089045 0.16530977 0.028285278 0.10752461 -0.042570986
0.1993286 -0.18891749 -0.025156585 0.12039393 -0.11643996 0.17912005 -0.11869993 0.05944924
0.08941121 0.0039356328 -0.0026812558 0.036028687 0.1828571 -0.010220708 0.0023859036 0.096479714
0.3970386 0.064855225 0.07809014 0.13850226 0.09511713 0.42619944 0.08427874 0.33200166
0.15425953 -0.17804691 -0.001989263 0.15261528 0.12706698 -0.0055358037 0.15846452 0.053406686
0.025407987 -0.024409212 -0.03754142 0.055875793 -0.13131039 0.103871 -0.0076348744 0.32890695
00000000: 7e8f 57bd 41d7 c2bc a9cb 4bbc f99a 81bd
00000010: f7be f9bc ed87 543d 3a87 4c3e 6fea 023e
00000020: 4ad5 033e 1afb 383e eb27 933c 4374 1a3c
00000030: 1816 46bd 59a9 03be 35d2 8c3c 67d6 a63d
00000040: 98d0 2d3e 47d0 7a3d 7135 83bd 795a 893d
00000050: 4aeb be3d b46e 6ebe 5614 ddbd 9013 543c
00000060: 79d3 053e 7893 96be e966 403d 69ee 6b3d
00000070: ba71 443d c4ec fb3b eb82 6bbd 622f 5f3d
00000080: 2f54 eabd a1a3 083c 2490 63bc 1e1a e8bd
00000090: 91c6 7b3c d9dd 143c 33bb efbc 3262 7a3e
000000a0: 0d2e 85bc 54d8 5fbd d4cc d7bd 7773 2a3d
000000b0: 0917 1d3e 723e a93d 4824 cf3d e42d a83a
000000c0: 2a95 853d 03bd 703d 0637 6e3d c0c3 7ebe
000000d0: e976 2f3e f376 10bd e254 093a c61a 273e
000000e0: f01f cbbe 7d90 3b3e d809 0e3e 1673 3bbd
000000f0: 987c 4a3c bd99 a4be f1fc 113d b3ea cd3c
00000100: 7a7a 16be 64d9 7cbb 578a 293d 4e91 393d
00000110: 1282 e9bd 252e 3f3e a2bd 823e 8ac2 4abd
00000120: 2ce0 513e 7ec0 6d3c 81a4 3e3e b4d1 4e3e
00000130: c733 c93a b8b6 683c 6e64 2b3e 9b3c 32bd
00000140: 4959 053e 7409 c83d b64c 343e 4b70 24bd
00000150: e801 aebd 6105 aa3c d63f 753d f9fc 1b3d
00000160: 3cf3 0c3e b872 ff3d 4805 783e d2f4 783d
00000170: 83c3 a43d b01e 4d3d d3df c93c a24c ae3d
00000180: 01fe 6ebd 2767 6d3e 981b 833e ea44 f83d
00000190: c456 b13d b9ec a23e b35d 4ebe 0405 7dbd
000001a0: 3f72 c13d 1970 c63d 7aa4 fb3d 9e4e e4bd
000001b0: 497d 46bc 1dac 353e 6816 56be 30fe abbd
000001c0: 86d8 283e 1532 c23b 266f e6bd 5762 f73d
000001d0: d7df ff3d 8f88 153e d424 80bd aa39 883e
000001e0: cffa bf3d e714 963d 2db7 e2bd 28c2 783e
000001f0: 68fd 87bd 9e75 8e3e 46c9 92bd f1de 9cbc
00000200: 8054 b0bb eb0f 8e3d 2fb0 c0bc b48c 2a3e
00000210: 17a1 933d 654c 933e 1e7d 1cbd a1f8 18bd
00000220: bd36 583e 296e 0e3c 23a5 853c 5c27 663d
00000230: 56bd d23d fd4b 8fbe 9d3c aa3c 5240 103e
00000240: 2402 aebc e50b e1bc 4ef3 c93d 8d3a 903c
00000250: 609f eb3d de95 abbb 675e ec3d 8f9f 053e
00000260: 42e1 283d ce71 dcbc 43c6 7a3d a66d c43c
00000270: ef00 f8bb ec65 853d f4a8 b3bc c3f2 533e
00000280: a578 f03e 66f0 ea3d 54ea 063e 4c5a 753e
00000290: b445 673d b3e5 1f3d a939 91bc 935e 29bd
000002a0: 4e35 2c3c 4c5f 7e3c 0917 ed3d f914 4d3d
000002b0: 82a9 f43d 9f6f bb3d bb0c 903d 0000 d9bd
000002c0: 6f87 213d 086d 823b b048 853d 5bd4 07bd
000002d0: 3ce7 ac3d 756e 0fbe 0e61 993b 9640 093c
000002e0: becb 5d3e 36ed b13d fc21 183e fc10 3d3d
000002f0: 849d 3d3e dc3f f03d df0c d83d 12de b13d
00000300: b6fe 663e 7e5b 413f 737f 2f3e 8242 d63d
00000310: d355 803e 40cb 6e3f 6d18 52b9 8b2f 1d3e
00000320: c232 d03d abf1 163e 7836 a6bc 0816 02bc
00000330: a676 e2bc 0672 3b3e 8c54 b73d 4049 f13d
00000340: 2a15 233e e80a 513e c4ef 5abd 2ccd 833c
00000350: f746 293e 87b6 e73c dd35 dc3d ea5e 2ebd
00000360: cc1c 4c3e 9673 41be 2f15 cebc 1891 f63d
00000370: 1378 eebd 3f6b 373e f318 f3bd 0c81 733d
00000380: 391d b73d 7bf6 803b 02b8 2fbb d192 133d
00000390: e43e 3b3e c274 27bc d25c 1c3b 2897 c53d
000003a0: a548 cb3e d1d2 843d b9ed 9f3d 89d3 0d3e
000003b0: c5cc c23d d036 da3e 559a ac3d 1ffc a93e
000003c0: 36f6 1d3e ee51 36be 4c5e 02bb 2e47 1c3e
000003d0: d91d 023e b065 b5bb 8644 223e f8c0 5a3d
000003e0: 6924 d03c d4f5 c7bc 08c5 19bd 04de 643d
000003f0: 3b76 06be 52ba d43d f82d fabb 7e66 a83e

fc2.bias f4 [128]
0.05050867 -0.031624116 -0.20950657 -0.0041315295 -0.0046912525 -0.00095965934 0.004143416 0.0040478846
0.033696298 -0.016324192 0.014050725 0.0074043917 -0.0017928954 -0.014555927 0.013783726 -0.0035607142
0.010625627 0.027090466 0.27014872 0.038629066 0.006529897 0.00037087515 0.00237207 -0.055955585
-0.0013865227 0.063497454 0.015007494 0.07096721 0.02196296 0.009242868 0.01787032 -0.0070847264
-0.0021575731 0.015412055 0.0120469555 -0.0012774735 -0.006616988 0.011846926 0.005501082 0.012412421
-0.034646355 0.034252636 0.012325119 0.005134368 -0.0015391866 0.009348628 0.06908454 0.014713132
0.04302451 0.026686821 0.0048660007 0.02175947 -0.0063475184 -0.00046518762 -0.00063467503 0.022646908
0.05975531 -0.0022275276 0.021579806 0.022316001 0.02268854 0.020353692 -0.004809422 0.035806663
0.006572018 0.020259034 -0.0115440115 0.008235113 -0.0034709703 0.0009404834 -0.004172841 0.04925779
0.0025131456 0.054204486 0.026676068 0.0005177494 0.013820682 -0.0021495637 0.02210184 -0.012870129
-0.014050172 -0.3625499 0.031971026 0.010811759 0.0301937 0.029054185 0.023624752 0.012127769
0.055212777 0.007725769 0.03751756 0.013977976 0.0062566428 0.044963423 0.0119320415 -0.005439391
-0.104200006 0.023640214 0.024407392 0.035828907 0.030455794 0.004265567 0.013832929 -0.0032952516
-0.009594323 0.028326632 0.01868371 0.01671224 0.03193851 0.14186937 0.04414167 0.007387012
0.031738225 -0.5077825 -0.14275368 -0.010504898 0.044172265 -0.008761889 0.044063758 0.016492883
0.055041533 -0.35100922 0.020966254 0.020695426 -0.01094888 0.012910378 0.024400912 0.026530027
00000000: 2ee2 4e3d 4a88 01bd e488 56be c861 87bb
00000010: 14b9 99bb a691 7bba 7ec5 873b 1ea4 843b
00000020: 2105 0a3d 50ba 85bc 0335 663c 8aa0 f23b
00000030: 96ff eaba fc7b 6ebc 23d5 613c df5a 69bb
00000040: 1c17 2e3c d3ec dd3c ef50 8a3e 8339 1e3d
00000050: bff8 d53b 0572 c239 bb74 1b3b af31 65bd
00000060: fbbb b5ba f40a 823d fee1 753c 4257 913d
00000070: aaeb b33c 666f 173c c764 923c fe26 e8bb
00000080: 1266 0dbb d882 7c3c 9860 453c e670 a7ba
00000090: 52d3 d8bb 9c19 423c 6c42 b43b 785d 4b3c
000000a0: 56e9 0dbd 7e4c 0c3d 4cef 493c 333e a83b
000000b0: 88be c9ba fd2a 193c 327c 8d3d 590f 713c
000000c0: 783a 303d 529e da3c f972 9f3b eb40 b23c
000000d0: d8fe cfbb 6de4 f3b9 5260 26ba 0286 b93c
000000e0: fcc1 743d b6fb 11bb 22c8 b03c 0cd0 b63c
000000f0: 51dd b93c c9bc a63c 5b98 9dbb 02aa 123d
00000100: 155a d73b 46f6 a53c 1823 3dbc 91ec 063c
00000110: 3879 63bb c68a 763a 54bc 88bb 89c2 493d
00000120: 96b3 243b 8605 5e3d c587 da3c 93b9 073a
00000130: 2470 623c b2df 0cbb eb0e b53c 3cdd 52bc
00000140: b132 66bc 24a0 b9be 0df4 023d ce23 313c
00000150: c758 f73c 0b03 ee3c b288 c13c 8db3 463c
00000160: cb26 623d 7328 fd3b 03ac 193d e103 653c
00000170: 8604 cd3b 912b 383d 9c7e 433c eb3c b2bb
00000180: d066 d5bd 1fa9 c13c 03f2 c73c 55c1 123d
00000190: 6e7e f93c 2bc6 8b3b 82a3 623c 26f5 57bb
000001a0: 8231 1dbc 410d e83c 940e 993c 1ce8 883c
000001b0: f4d1 023d 3446 113e e5cd 343d bf0e f23b
000001c0: f1ff 013d 09fe 01bf 052e 12be bc1c 2cbc
000001d0: faed 343d 078e 0fbc 337c 343d 151c 873c
000001e0: 3b73 613d 7bb7 b3be 6cc1 ab3c 7489 a93c
000001f0: ee62 33bc 0d86 533c 6ce4 c73c 8055 d93c

ln2.weight f4 [128]
0.9904314 1.3868445 0.9949537 0.98401356 1.1545291 0.91871506 0.9577005 1.2387614
0.88973475 0.9724236 0.88637185 0.8756573 0.93815947 1.1745619 0.9734197 1.088932
1.0862477 0.9791982 0.82124865 0.9791396 0.9785233 1.9713011 0.9055956 0.98393273
1.153255 1.1413943 0.99002695 0.9654436 0.87580335 1.1551305 0.93430936 1.75907
0.9040555 0.9969772 0.9624593 0.9582263 0.94203836 1.0742593 1.2199306 0.9718115
1.1856649 1.0042058 0.97646123 1.0470617 0.87189376 0.9346541 1.0201182 0.9149755
1.1367286 0.7829381 1.064559 1.3268744 1.4140496 0.944092 0.9398407 1.0606493
1.094791 0.9613781 1.1466999 0.7991634 0.99895924 1.0215929 0.9484175 0.99034935
0.89076996 1.0186491 0.9126259 1.445733 1.0070416 0.9556986 1.063292 1.0607871
0.9418794 1.0028076 0.969354 0.94922644 0.83187157 0.9194618 0.97560287 0.9194097
0.90466076 1.0781693 1.2696347 0.8759289 1.0128719 1.0666099 1.0600742 0.9415725
1.0057566 0.98913836 0.9688613 0.9826455 1.0368166 0.9712862 1.0918765 1.1839013
1.0777335 1.3546933 1.0293655 1.4537174 1.2655505 1.2034485 0.9789187 0.89604443
0.94679904 1.014538 0.94583356 0.97713953 0.9845259 0.86806303 1.0152851 0.9797723
1.0890896 1.0212479 0.9978655 0.9641708 1.0231566 1.0205104 0.98784685 1.0342218
1.087124 0.9540766 0.98221445 0.9700543 1.1082569 1.7470359 1.0118133 0.9880874
00000000: ea8c 7d3f 1f84 b13f 49b5 7e3f 50e8 7b3f
00000010: 9cc7 933f e930 6b3f dc2b 753f bc8f 9e3f
00000020: a8c5 633f c1f0 783f 44e9 623f 142b 603f
00000030: 382b 703f 0b58 963f 0932 793f 2062 8b3f
00000040: 2a0a 8b3f bcac 7a3f 5a3d 523f e5a8 7a3f
00000050: 8180 7a3f 9853 fc3f 1dd5 673f 04e3 7b3f
00000060: dc9d 933f 3519 923f 6872 7d3f 5027 773f
00000070: a634 603f 51db 933f e62e 6f3f 3529 e13f
00000080: 2e70 673f e639 7f3f bc63 763f 524e 753f
00000090: 6d29 713f 5481 893f b026 9c3f a3c8 783f
000000a0: dec3 973f d189 803f 5df9 793f 1e06 863f
000000b0: 6e34 5f3f 7e45 6f3f 3c93 823f d63b 6a3f
000000c0: 5380 913f a26e 483f 7843 883f 05d7 a93f
000000d0: 94ff b43f 03b0 713f 6699 703f 5bc3 873f
000000e0: 1d22 8c3f e01c 763f 10c7 923f f995 4c3f
000000f0: cbbb 7f3f 8ec3 823f 7dcb 723f 8987 7d3f
00000100: 8009 643f 1863 823f daa1 693f c70d b93f
00000110: bde6 803f aaa8 743f f419 883f dfc7 873f
00000120: 021f 713f 005c 803f 9527 783f 8100 733f
00000130: 89f5 543f d961 6b3f 1cc1 793f 6f5e 6b3f
00000140: d997 673f 7401 8a3f 6483 a23f e03c 603f
00000150: c9a5 813f ac86 883f 83b0 873f e50a 713f
00000160: a2bc 803f 2c38 7d3f 4b07 783f a88e 7b3f
00000170: 68b6 843f 36a6 783f 9cc2 8b3f 148a 973f
00000180: 2cf3 893f 9766 ad3f 40c2 833f 6913 ba3f
00000190: 8ffd a13f 9a0a 9a3f 6a9a 7a3f 2b63 653f
000001a0: 6c61 723f 62dc 813f 2622 723f d125 7a3f
000001b0: e409 7c3f 6139 5e3f ddf4 813f 5cd2 7a3f
000001c0: 4a67 8b3f 40b8 823f 1d74 7f3f e6d3 763f
000001d0: ccf6 823f 16a0 823f 88e3 7c3f 6161 843f
000001e0: e126 8b3f 5d3e 743f 6872 7b3f 7b55 783f
000001f0: 5ddb 8d3f df9e df3f 1983 813f 4cf3 7c3f

ln2.bias f4 [128]
-0.0069331876 -0.060809504 -0.0089091975 -0.023563765 -0.114612795 -0.14551033 -0.001118775 0.00028848767
-0.15813898 -0.025605619 -0.14664726 -0.11441868 -0.08629431 -0.034510847 -0.009648728 -0.00846278
-0.068721235 0.031218996 -0.21109778 -0.08597096 -0.0389547 -0.012609051 -0.13792515 -0.008582183
-0.07209781 0.07444537 0.001861017 -0.10734642 -0.14096761 -0.031241545 -0.23206551 -0.07336923
-0.08726 -0.042477034 -0.004536611 -0.07614234 -0.0131953275 -0.04005179 -0.03461412 -0.012724899
-0.05166121 0.013380848 0.0065184035 -0.0742699 -0.12450213 -0.10041649 0.027589492 -0.06824974
0.04113365 -0.2439373 -0.004730623 -0.008025044 -0.07470632 -0.020945009 -0.105796896 -0.051055595
0.04401387 -0.047611788 0.04766227 -0.27912003 0.007020688 0.014158614 -0.03273404 -0.053213965
-0.11533407 0.02004699 -0.054622475 0.049271185 -0.016882392 -0.042033356 -0.04837993 0.056600355
-0.0144766355 0.052805595 -0.08989313 -0.15987843 -0.16200025 -0.10042706 0.009624179 -0.1097328
-0.13133685 0.020313697 -0.006249386 -0.08602958 0.024123156 -0.15261053 -0.033881526 -0.0949851
0.034497865 0.0013036758 -0.012125158 -0.1452282 -0.0952613 -0.16150303 -0.06666528 -0.045205757
0.01107116 -0.08385789 -0.0238441 -0.028591832 0.008605918 -0.06822148 0.001970162 -0.100545384
-0.1299202 0.022205144 -0.12518544 -0.011421709 0.009926842 -0.16176221 0.018882554 0.0066759684
0.026748745 0.020783266 0.002829121 -0.015470091 0.0413709 -0.021490676 -0.038793907 -0.02129301
0.048018865 -0.015140023 -0.063564755 -0.021511883 -0.026125303 -0.051188845 0.013663353 0.013691666
00000000: cb2f e3bb 6313 79bd e2f7 11bc cc08 c1bc
00000010: 1dba eabd a900 15be dca3 92ba 2940 9739
00000020: 2fef 21be e0c2 d1bc b32a 16be 5754 eabd
00000030: 12bb b0bd 3f5b 0dbd b315 1ebc 79a7 0abc
00000040: b8bd 8cbd fbbe ff3c 042a 58be 8b11 b0bd
00000050: f78e 1fbd 3196 4ebc 403c 0dbe 499c 0cbc
00000060: 04a8 93bd d076 983d 5eed f33a 71d8 dbbd
00000070: d059 10be 45ee ffbc 95a2 6dbe 9b42 96bd
00000080: 5fb5 b2bd 66fc 2dbd daa7 94bb 84f0 9bbd
00000090: 3731 58bc 590d 24bd 89c7 0dbd 187c 50bc
000000a0: b49a 53bd 583b 5b3c 5598 d53b d11a 98bd
000000b0: f9fa febd 29a7 cdbd 5c03 e23c 85c6 8bbd
000000c0: c27b 283d b3ca 79be 5803 9bbb 797b 03bc
000000d0: a1ff 98bd de94 abbc 0bac d8bd ac1f 51bd
000000e0: e347 343d 9404 43bd 8339 433d d2e8 8ebe
000000f0: cd0d e63b 88f9 673c 2114 06bd e3f6 59bd
00000100: 4534 ecbd 9639 a43c d1bb 5fbd 95d0 493d
00000110: f14c 8abc 2b2b 2cbd 092a 46bd c6d5 673d
00000120: 692f 6dbc ae4a 583d e419 b8bd 2cb7 23be
00000130: 65e3 25be b4ac cdbd bcae 1d3c 97bb e0bd
00000140: 2b7d 06be e968 a63c a6c7 ccbb 4730 b0bd
00000150: ed9d c53c ef45 1cbe 5bc7 0abd 8c87 c2bd
00000160: a24d 0d3d 1ae0 aa3a 99a8 46bc b4b6 14be
00000170: 5b18 c3bd 0d61 25be ce87 88bd ac29 39bd
00000180: d063 353c afbd abbd b454 c3bc 6b39 eabc
00000190: d6ff 0c3c b4b7 8bbd d51d 013b bdea cdbd
000001a0: cd09 05be 90e7 b53c 9d30 00be 1f22 3bbc
000001b0: 31a4 223c fea4 25be 96af 9a3c 15c2 da3b
000001c0: 2f20 db3c ab41 aa3c c668 393b 4476 7dbc
000001d0: 8874 293d 370d b0bc 5ce6 1ebd ae6e aebc
000001e0: 6eaf 443d dc0d 78bc 3d2e 82bd b039 b0bc
000001f0: bb04 d6bc 65ab 51bd 42dc 5f3c 0253 603c

action.weight f4 [4, 128]
-0.00946246 -0.0012496375 -0.13431771 -0.08028621 -0.017681364 0.0352021 -0.34987864 -0.061715584
-0.0253248 -0.09436778 -0.0041624643 -0.011382126 -0.13780189 0.033435013 0.039114665 0.07627416
0.19435138 -0.13822788 -0.0052209846 -0.0009191592 -0.014891854 -1.441238 0.20277277 -0.005267542
-0.006383191 -0.047342483 0.08143722 -0.0018917797 0.003948635 -0.18610539 -0.004273351 0.61326146
-0.07625167 -0.0018702301 0.02242937 -0.07653652 -0.13551062 -0.23394737 -0.32525784 0.03947409
-0.35660988 -0.027802391 0.22204421 -0.06547236 -0.08220636 -0.015884154 0.03355943 -0.007892919
0.023519404 -0.008064788 -0.05239413 -0.77902627 0.5968531 -0.046062786 0.2007283 -0.010897505
0.07741725 -0.12525612 -0.2063238 -0.010754594 0.11185631 0.14690061 0.041433435 -0.008731408
-0.018256593 -0.05131128 -0.3038935 -0.3767217 0.041439734 0.017390816 -0.012502638 -0.13214105
-0.10148411 -0.066398725 -0.0049753794 0.122953154 -0.0058050277 -0.06703568 0.083435506 0.07655646
0.27909598 -0.05775765 0.028409246 -0.008097456 0.0948586 -0.00508082 -0.000529027 0.13683331
-0.0266892 -0.104147166 -0.0011009186 -0.0038356434 -0.011410093 0.11467743 0.1144352 0.055496927
-0.037508067 0.003402424 -0.03857643 -0.014457453 -0.002040512 -0.026875524 0.10615023 -0.013956566
0.18399248 0.3386584 -0.009774333 0.024066176 0.027851122 -0.0033886633 0.107737176 -0.19509761
-0.1774537 0.025680752 -0.022542011 -0.20878239 -0.029616851 0.07953786 -0.009714762 -0.025209842
0.08990539 -0.13493164 -0.020664947 -0.18712018 -0.16656159 0.80460846 0.047388755 0.26753166
0.0492575 -0.7027753 0.004733831 -0.18468356 0.20720127 0.22292413 -0.14091913 -0.17545782
-0.007049827 -0.20051725 0.15410592 -0.1086693 -0.5215559 -0.391416 0.10333672 0.72238386
-0.5785267 -0.0018024998 -0.06495196 -0.09041024 -0.15768676 -0.6508575 0.18528824 0.044225156
-0.4811582 -0.14470325 0.01238131 0.044183634 -0.005771009 -0.450279 0.400921 -0.9363411
0.027825043 0.49479 0.0840869 0.029524812 -0.13738608 -0.087739 -0.25134236 -0.0994585
-0.5624105 -0.06982206 -0.12335185 -0.24556822 0.042566974 -0.12580983 -0.045267902 -0.25410703
-0.44147703 -0.05344809 -0.13789462 -0.61565787 -0.12618308 0.119532235 0.22696517 0.235749
-0.20576541 0.0015489019 -0.1306881 -0.13345027 0.02799072 0.003324175 -0.11763744 -0.2048941
-0.080225 0.040914536 -0.06923988 0.15078472 -0.7394353 0.048965722 0.021456102 -0.1593498
-0.14666979 -0.09270623 0.22712883 -0.23716109 -0.029713439 -0.25124833 -0.23544191 -0.114482306
-0.011835108 0.006800713 0.0680587 -0.070669875 -0.13865136 0.23933452 0.18353209 0.15058784
-0.10977448 -0.2295183 -0.013180027 -0.39721024 -0.14659432 -0.0881481 -0.61922437 -0.308954
-0.0049645314 -0.28439575 -0.073751085 -0.501349 -0.27934206 -0.022740208 0.03310334 -0.30338562
-0.4478706 -0.0020895435 -0.18716967 -0.04849108 -0.1355769 0.29944327 -0.17672549 -0.04124316
-0.17043875 0.033875883 -0.020669892 -0.35614833 -0.15721391 0.7399474 0.0041857273 0.30145958
-0.17082605 0.22321996 -0.2355063 -0.12063712 -0.3695551 -0.27266803 -0.09098907 -0.06608839
00000000: 6f08 1bbc e0ca a3ba 958a 09be 196d a4bd
00000010: 82d8 90bc 1430 103d 4b23 b3be 7bc9 7cbd
00000020: f475 cfbc e543 c1bd 4865 88bb 197c 3abc
00000030: f01b 0dbe 27f3 083d b336 203d a035 9c3d
00000040: 0c04 473e 9c8b 0dbe cb14 abbb bbf3 70ba
00000050: f6fc 73bc 7d7a b8bf aaa3 4f3e 589b acbb
00000060: 162a d1bb 31ea 41bd 8fc8 a63d 98f5 f7ba
00000070: 8d63 813b 6992 3ebe 7707 8cbb b4fe 1c3f
00000080: d629 9cbd 8222 f5ba ccbd b73c 2ebf 9cbd
00000090: 4cc3 0abe e68f 6fbe 3288 a6be 95af 213d
000000a0: 9295 b6be d7c1 e3bc 8f5f 633e 5f16 86bd
000000b0: cf5b a8bd 7c1f 82bc 9d75 093d 4d51 01bc
000000c0: c4ab c03c 2c22 04bc 3a9b 56bd 446e 47bf
000000d0: 5dcb 183f 55ac 3cbd b88b 4d3e 738b 32bc
000000e0: ef8c 9e3d 2443 00be 8c46 53be 0934 30bc
000000f0: ec14 e53d 1d6d 163e 1bb6 293d 2e0e 0fbc
00000100: da8e 95bc c72b 52bd ee97 9bbe abe1 c0be
00000110: b6bc 293d 2f77 8e3c ddd7 4cbc fc4f 07be
00000120: e7d6 cfbd 0efc 87bd 8208 a3bb ddce fb3d
00000130: 1a38 bebb 014a 89bd 3ce0 aa3d a2c9 9c3d
00000140: abe5 8e3e 4993 6cbd 82ba e83c 31ab 04bc
00000150: 3a45 c23d 027d a6bb 67ae 0aba 081e 0c3e
00000160: 4fa3 dabc 1c4b d5bd b34c 90ba 6b5f 7bbb
00000170: 66f1 3abc 00dc ea3d 015d ea3d bf50 633d
00000180: 0fa2 19bd 34fb 5e3b 5202 1ebd f4de 6cbc
00000190: 1cba 05bb 0f2a dcbc 4b65 d93d 15aa 64bc
000001a0: 8668 3c3e a264 ad3e 8624 20bc 6e26 c53c
000001b0: 0928 e43c 5614 5ebb 4fa5 dc3d abc7 47be
000001c0: 6cb6 35be 7160 d23c 06aa b8bc 0dcb 55be
000001d0: 0a9f f2bc bfe4 a23d aa2a 1fbc df84 cebc
000001e0: 5120 b83d 852b 0abe 8949 a9bc 6f9c 3fbe
000001f0: 1f8f 2abe d2fa 4d3f b61a 423d e9f9 883e
00000200: 3bc2 493d 15e9 33bf 411e 9b3b b01d 3dbe
00000210: 922c 543e 3946 643e 1b4d 10be 37ab 33be
00000220: 3c02 e7bb 6554 4dbe f1cd 1d3e 038e debd
00000230: b084 05bf ae67 c8be 34a2 d33d 26ee 383f
00000240: 531a 14bf db41 ecba 8905 85bd 0129 b9bd
00000250: a378 21be 999e 26bf 33bc 3d3e 7025 353d
00000260: 5e5a f6be 172d 14be fada 4a3c e6f9 343d
00000270: bb1a bdbb f88a e6be 8445 cd3e 0db4 6fbf
00000280: 58f1 e33c 1d55 fd3e c135 ac3d 05de f13c
00000290: f0ae 0cbe 81b0 b3bd f2af 80be e6b0 cbbd
000002a0: 22fa 0fbf defe 8ebd e59f fcbd 3c76 7bbe
000002b0: b55a 2e3d 4bd4 00be d66a 39bd 511a 82be
000002c0: 4709 e2be 62ec 5abd 3f34 0dbe c19b 1dbf
000002d0: 2336 01be 51cd f43d 8f69 683e 3068 713e
000002e0: 2bb4 52be 8604 cb3a 1ad3 05be 30a7 08be
000002f0: cb4c e53c 67da 593b e6eb f0bd c2cf 51be
00000300: 014d a4bd 0096 273d a3cd 8dbd 4f67 1a3e
00000310: a24b 3dbf 4890 483d b5c4 af3c 982c 23be
00000320: 9b30 16be c4dc bdbd 7694 683e 5bda 72be
00000330: 9969 f3bc 9fa3 80be af17 71be b375 eabd
00000340: 0ae8 41bc 84d8 de3b 5c62 8b3d 5ebb 90bd
00000350: 9ffa 0dbe 1c14 753e d6ef 3b3e b333 1a3e
00000360: 71d1 e0bd d806 6bbe 0af1 57bc 245f cbbe
00000370: d21c 16be fe86 b4bd 7d85 1ebf 382f 9ebe
00000380: 82ad a2bb 529c 91be cf0a 97bd 6858 00bf
00000390: ec05 8fbe ac49 babc 5e97 073d 5c55 9bbe
000003a0: 4c4f e5be b9f0 08bb 68a9 3fbe 959e 46bd
000003b0: acd4 0abe a150 993e 87f7 34be 96ee 28bd
000003c0: 7f87 2ebe 70c1 0a3d e853 a9bc 1359 b6be
000003d0: affc 20be 316d 3d3f 6d28 893b e958 9a3e
000003e0: 06ed 2ebe c693 643e 9028 71be 9810 f7bd
000003f0: 5336 bdbe 259b 8bbe 7a58 babd 5a59 87bd

action.bias f4 [4]
0.008137842 -0.02028971 -0.002161914 0.012555696
00000000: 9554 053c 9b36 a6bc e6ae 0dbb 68b6 4d3c
