checkpoints/DDPG/Actor/DDPG_actor_200.pth (torch, 93275 bytes, 10 tensors)

fc1.weight f4 [256, 19]
000000 e3 35 8d be 99 ed 18 bc fb a2 a9 3c 44 f3 83 bd
       -0.27580175 -0.009333991 0.020707598 -0.064428836
000010 19 3c 33 bd 36 07 a7 bc ac 43 24 bd c4 47 10 3d
       -0.043758485 -0.02038918 -0.0401036 0.03522469
000020 12 12 15 3b b4 04 e8 3c a4 92 55 3d 6c 5a 28 3e
       0.0022746366 0.028322555 0.0521418 0.16440743
000030 6c 88 77 bd e6 b7 45 3d 3f e0 28 be 58 6a 90 bd
       -0.060432836 0.048271082 -0.16491793 -0.070515335
000040 2d 72 6c bd dd 3a 0c 3e e8 98 c6 3a 41 af f9 3d
       -0.057726074 0.1369433 0.0015151771 0.1219163
000050 16 0f 06 3e ce dd 08 3d 7b 71 f3 ba 0e da 36 bd
       0.13091692 0.033414654 -0.0018573249 -0.044641547
000060 ab 23 42 3d f0 34 50 3d 2f cf 22 3c d7 9a 54 3d
       0.047397297 0.050831735 0.009937092 0.05190548
000070 ac cd 02 3e d3 14 cf bd e1 2a 1b 3c 36 ff 74 3d
       0.1277377 -0.10111394 0.009470672 0.0598137
000080 45 24 b5 bb b3 d3 ba bd d5 ec ca 3d 86 88 63 3d
       -0.0055280053 -0.0912241 0.099084534 0.05555012
000090 3f 9e e2 3c 8f 78 a7 3d 57 f9 0a bd 34 7b 94 bd
       0.027663348 0.081772916 -0.033929195 -0.07250062
0000a0 80 ce 55 3b 1f 53 bb 3d 63 a6 06 3e 94 66 91 bd
       0.0032624304 0.091467135 0.13149409 -0.07099643
0000b0 cf 77 25 3e 2d 79 a8 bd ed a7 fb 3d 29 00 b5 bd
       0.16158985 -0.082262374 0.12287889 -0.08837921
0000c0 43 65 c3 bd df 16 0c bd 33 4c 8a bc d5 4e 9a bd
       -0.095407985 -0.0342015 -0.016882038 -0.07534567
0000d0 82 bc 98 bc 66 32 b2 bd d4 a0 be 3c 62 a7 03 bb
       -0.018644575 -0.08701019 0.023270048 -0.0020088782
0000e0 f9 2c df 3c 4a 26 16 3d 39 52 fc 3d ba 8a d3 bc
       0.027243124 0.03665761 0.1232037 -0.025822986
0000f0 1b 05 0e bd 49 2b f6 3c 64 fd 4c bd c0 23 80 bd
       -0.034672838 0.030049937 -0.05004634 -0.06256819
000100 b9 d9 48 3d d4 1f 18 3c a2 ac b7 bd 2f 07 f0 3b
       0.04903576 0.009284932 -0.08968474 0.007325075
000110 40 2f a6 bd 93 d8 05 3d d3 dd 80 bd 22 75 87 3d
       -0.08114481 0.032677244 -0.062923096 0.06614138
000120 e2 81 d1 bd be 93 57 3d 1e c7 71 bc 8f c6 ab 3d
       -0.10229851 0.052631132 -0.014756946 0.083874814
000130 c1 5d 84 bd 5d a0 b4 bc b3 e6 76 3d da a6 7f bd
       -0.06463195 -0.022049123 0.060278606 -0.06241498
000140 2a 07 9c bd a7 6d 0b bd 4c 6c c8 3d 1a b8 f4 3d
       -0.07618554 -0.03404012 0.09786281 0.11949177
000150 05 7a 4e be d6 35 84 3d 14 30 0d 3d 3a 5d b6 3d
       -0.20163734 0.06455581 0.03446968 0.089045
000160 58 10 61 3d 72 95 cc 3d 26 e3 14 bc f5 1f 77 bb
       0.054947227 0.09989442 -0.0090873595 -0.0037708257
000170 a0 20 5f 3d 73 e4 b0 3d 11 b5 6e 3d 18 c2 82 3e
       0.054474473 0.08637323 0.058278147 0.25538707
000180 3f 11 f3 3d 5d e4 cf 3c 0f 7e 15 3d 07 1d f2 bc
       0.11868524 0.025377447 0.036497172 -0.029554857
000190 03 c0 08 be 41 c6 a1 3d f3 58 77 bc 4d 53 e9 3d
       -0.13354497 0.07899142 -0.015096891 0.113928415
0001a0 05 b0 75 bc 43 75 4c bd 01 25 90 bd 48 54 92 3c
       -0.01499558 -0.049916517 -0.07038308 0.017862454
0001b0 84 05 35 bd fd bb d2 bb 85 ef b3 3d ff 23 cf 3c
       -0.044194713 -0.0064311014 0.08785919 0.025285719
0001c0 79 32 b3 bc 27 92 17 3d 77 f9 5d bd b7 79 92 3d
       -0.021874653 0.037004616 -0.054192986 0.071521215
0001d0 00 08 1e 3a 9f f6 d1 3c e1 2e 61 3d c7 35 5f be
       0.0006028414 0.025630293 0.054976348 -0.21797858
0001e0 e0 8f 66 bd 30 f1 4a bd ba 8a 8e 3d b6 b2 f3 3c
       -0.056289554 -0.04954642 0.06960054 0.029748302
0001f0 02 d1 cb bc 7e 4a a3 bd 3b d7 02 be 4b 4c ad 3c
       -0.024879936 -0.07973193 -0.12777416 0.021154543
000200 68 25 4d bd e8 6f 94 3c 85 78 0d 3d e6 c3 06 3e
       -0.0500845 0.018119767 0.034538765 0.13160667
000210 28 35 3c bd 7a a8 41 be 56 a6 aa bb 83 29 76 bd
       -0.04594913 -0.18911925 -0.005207817 -0.060098182
000220 8d 21 13 3e 12 07 1f 3e b7 1f d4 bd f6 c2 e1 3d
       0.14368267 0.15530041 -0.103576116 0.11023514
000230 43 81 26 3e cc 1e 72 3d ff 1e 38 be 7c a3 46 be
       0.16260247 0.0591114 -0.17980574 -0.19398302
000240 62 c4 45 bd ca 0e 81 bd 9a 41 5a be 84 90 ca bd
       -0.04828299 -0.06301649 -0.21314088 -0.098908454
000250 87 5f b1 3c 38 10 24 3c 29 c1 2f 3d 39 94 b7 3c
       0.021651996 0.0100136325 0.04290882 0.022409545
000260 d6 6e 24 3d a2 5e 02 be f4 2a a5 3d 4d 41 05 3c
       0.040144764 -0.12731412 0.08064833 0.008133245
000270 b1 af 00 3d 80 0a 0b 3d b1 60 34 3e 75 8e 06 3e
       0.031417552 0.03394556 0.1761501 0.1314028
000280 66 b9 0c 3b a5 f7 01 3e 0b c8 bb bd e5 58 93 bd
       0.002147281 0.12692125 -0.091690145 -0.0719469
000290 2a 67 89 3d b6 b8 1b 3c 17 50 05 bd 88 18 9c bc
       0.0670913 0.009504488 -0.032547083 -0.019054666
0002a0 a4 4e 93 3c 67 e7 19 be 60 a4 7d 3d 42 56 84 3d
       0.017981835 -0.15029679 0.06192434 0.06461765
0002b0 1e c9 8c bc 5f 1c 46 be a5 ab 0b bd 00 50 25 bd
       -0.017185744 -0.1934676 -0.03409924 -0.040359497
0002c0 c5 ec 1c be aa 0f eb bc 76 f7 e4 3c 2e bd b7 3d
       -0.15324695 -0.028693993 0.02795003 0.0897163
0002d0 59 0c b7 3c 38 c2 26 3d cd 6a 40 3c 8b f5 4b 3e
       0.022344755 0.040712565 0.011744213 0.19917886
0002e0 78 6d 3d be b3 be 92 bd 60 28 e5 3d da 86 99 3c
       -0.1849879 -0.07165279 0.111893415 0.01874106
0002f0 ec d1 7e 3e f9 1e 8b bd 57 4d 27 be a3 ea 2f be
       0.24884766 -0.06793017 -0.16338097 -0.1717935
000300 9d 14 fb bd 37 64 a3 3d 6e fd 09 bb 04 21 e3 bc
       -0.12259791 0.07978099 -0.0021055597 -0.027725704
000310 ef f1 f2 3d dd d5 20 3e 39 82 28 3d 8b 17 68 bd
       0.118625514 0.15706582 0.041139815 -0.056663077
000320 f7 c6 41 be d0 cc 9a bd 36 4c fe 3b a4 b3 a7 3d
       -0.18923555 -0.07558596 0.00776055 0.081885606
000330 56 dd 26 3d 58 73 15 be 49 06 d7 3c 64 c8 b4 bd
       0.040738426 -0.14594781 0.026248114 -0.08827284
000340 f7 7d 3c bd d0 a0 00 be d2 4f 0c be 40 45 2f 3e
       -0.046018567 -0.12561345 -0.13702324 0.1711626
000350 06 71 2f 3e 76 58 b1 3d 82 ea ee bd 59 a3 0a 3e
       0.17132959 0.08659451 -0.116658226 0.13538875
000360 46 25 fa 3d 31 3b 80 bd f5 11 be 3c 54 e1 43 3b
       0.122141406 -0.0626129 0.023201922 0.0029888945
000370 c7 c1 36 bd 19 d5 39 3e e2 c9 b2 bd 54 d1 67 3c
       -0.044618394 0.18147697 -0.08729912 0.014149029
000380 9a eb 80 3d 4b ee f3 3c 87 b7 9f bd fb 90 07 be
       0.062949374 0.029776713 -0.07798677 -0.132389
000390 68 70 ca 3b 09 5a 23 3d 5c 71 82 bd c0 63 56 3d
       0.0061779507 0.039880786 -0.06369278 0.052341223
0003a0 6a aa d5 bd 97 26 cb 3d 4f 83 9c 3c 4c 06 f0 3a
       -0.104328945 0.0991947 0.019105582 0.0018312423
0003b0 b9 2d 31 bb ba cd 40 be 95 c1 04 3d b5 f4 0b 3e
       -0.002703531 -0.18828478 0.032411177 0.13667567
0003c0 18 da d3 3d d3 4a bd 3e dc e9 2d 3e f3 33 27 3d
       0.103443325 0.3697115 0.16983742 0.040821027
0003d0 85 06 27 3d b2 35 e2 3a 7e 08 0d 3e 37 7d 12 3e
       0.040777702 0.0017258434 0.13772771 0.14305578
0003e0 47 ba 93 3e 7e 2e df bd 0d d2 7f 3e 43 a2 1a 3e
       0.28853056 -0.108975396 0.24982472 0.1510096
0003f0 56 73 7f 3c ef 53 51 3e 2e 1c 8f 3d bf 46 bc bd
       0.015591463 0.20442174 0.06987797 -0.09193181

fc1.bias f4 [256]
000000 9b 49 b7 bb 2c 1c 5e bc 3a e4 0a bd fb a8 d4 bc
       -0.0055934913 -0.013556521 -0.03390906 -0.025959482
000010 8f 49 18 3d 0e 7a e8 3c 57 68 28 bd c9 99 45 bd
       0.037179526 0.028378513 -0.04111513 -0.048242364
000020 66 6a 8f 3c 5e ae ab 3c c5 a8 6f bc f0 e7 c7 3a
       0.01750679 0.020957168 -0.01462764 0.0015251618
000030 8f 0a 06 3d fe c4 52 3d e8 a5 f4 3b 6c cf 67 bc
       0.032724913 0.051457398 0.0074660666 -0.014148574
000040 c8 68 56 3d a8 79 dd 3c f1 0b e0 bc 78 fc 39 3d
       0.05234602 0.02703555 -0.027349444 0.04540679
000050 7f 51 2c 3c 74 c6 51 3c 3d 43 06 3e c7 f8 97 3c
       0.010517477 0.012803663 0.13111587 0.018551243
000060 28 f1 4f 3d 11 0a fb 3c 52 59 bd 3c fc 4f 11 bd
       0.050767094 0.030644448 0.02311388 -0.03547667
000070 b1 51 d4 3d 3b c5 82 bd 80 66 e3 3b 3b 33 09 3d
       0.10367144 -0.06385275 0.006939709 0.033496123
000080 b2 e2 37 3d c1 76 b0 3c 02 62 a9 3c 8b 26 c1 3c
       0.044893928 0.021541001 0.020676617 0.023577949
000090 ff 37 e8 3c 7e 8f 72 bc d4 8f 61 3d 34 80 0d 3d
       0.028347014 -0.014804719 0.055068806 0.034546092
0000a0 fd 71 29 3d 39 c3 b9 bc 94 69 10 bd 29 a5 da 3d
       0.041368473 -0.022676097 -0.035256937 0.10676033
0000b0 a3 8f a9 bc d7 a1 23 bd f4 4f c0 3d f3 a9 5f bd
       -0.020698374 -0.039949264 0.0939025 -0.054605436
0000c0 a2 4d ae 3d ae 4e 85 bd 5c 2e a0 bc ae 96 9e bc
       0.08510901 -0.065091476 -0.019553356 -0.019358959
0000d0 db 6a ea 3d f0 2b 64 bd f5 2d 6b bd 8f 2e 2c 3d
       0.11446162 -0.055705965 -0.057416875 0.04203659
0000e0 47 d4 3a bd d5 78 4d bd 49 d0 29 3d fe 75 b9 3c
       -0.0456126 -0.050164063 0.0414584 0.02263927
0000f0 8b cb 67 3c ba 14 1b 3d 23 6f a4 3d 1f 00 e4 bc
       0.0141476495 0.037861563 0.0802901 -0.027832089
000100 2d e0 97 3c c2 d8 1c bd 1a 74 dc 3b 3e a6 23 bd
       0.018539513 -0.038292654 0.0067277076 -0.039953463
000110 f6 c3 3b bc 1e 3f 97 3c 74 f9 1b 3e f9 48 3b 3d
       -0.011460295 0.018462714 0.15231878 0.04572389
000120 26 7a d2 3c f1 1c e0 3d bd ee 57 3d e3 8d f4 3d
       0.02569301 0.1094302 0.052717913 0.11941125
000130 1e 5b e3 bc 51 9e 90 3d bf 79 a5 3c 1d 37 aa 3c
       -0.027753409 0.070614465 0.020199655 0.020778233
000140 08 2b 27 3b ac 7e 2b 3c a6 c7 05 3d 81 5d 3b 3b
       0.0025507826 0.010467213 0.032661103 0.0028589668
000150 ce 80 54 3d 8f 8d f8 3d 31 9e 07 3d 42 90 5c bd
       0.05188065 0.12136375 0.033109847 -0.053848512
000160 8e 34 53 3c b5 01 3f 3d 5c 24 14 3e 93 eb 79 3d
       0.012890948 0.046632487 0.14466995 0.061015677
000170 4d 4c 1e bc 54 1d ec bc 80 65 e6 b9 aa a8 3e 3d
       -0.009661746 -0.028822578 -0.00043944642 0.04654757
000180 82 3c af 3d 99 a0 be 3d 62 60 88 3d 33 98 f8 3d
       0.08556463 0.09307975 0.066590086 0.12138405
000190 fc 57 ba 3d 57 95 f4 3c ea 23 37 bd 09 58 5f bd
       0.09098813 0.029856367 -0.044711985 -0.054527316
0001a0 10 7c e1 bb 7d 56 c0 3c 98 67 ca bc f3 71 4a bd
       -0.0068812445 0.02347874 -0.0247076 -0.049425077
0001b0 ea 36 55 bd 5c f9 9f 3d c3 df 3f 3d ca 88 34 3d
       -0.052054323 0.078112334 0.046844255 0.044075765
0001c0 de 54 23 3e 03 9a b7 3b fc 63 ae 3d ca 01 1e 3d
       0.15950343 0.0056030764 0.08515164 0.038575925
0001d0 96 3b 4a 3d 41 1a 02 3e 29 4b ae bc 25 36 c9 3b
       0.04937323 0.12705328 -0.021276074 0.0061404877
0001e0 3e 3c a4 3d 2a 55 28 3d 5e e2 10 3c 8b 27 95 3c
       0.08019303 0.041096844 0.008843033 0.018207332
0001f0 a5 1e 26 bd b0 50 ae 3d 0c 0d f0 3d 90 8b 01 bd
       -0.04055657 0.08511484 0.117212385 -0.031627238
000200 5c 38 b5 3d d2 ee f1 3c 98 ea ae bb c5 54 da 3c
       0.0884864 0.029532824 -0.0053380243 0.02665175
000210 b9 59 ec bc 87 ee 03 3e 77 2d 5d 3c 26 b2 bc 3d
       -0.028851377 0.1288396 0.013499609 0.092136666
000220 0d 95 51 3c 2d 9e 23 3d c9 6a fa 3c 8e 9d b9 ba
       0.012791884 0.03994577 0.030568497 -0.0014161335
000230 84 a5 8a bd 00 32 a2 3d 8b ec 8d bb 5e 5e db 3d
       -0.06769851 0.07919693 -0.0043311766 0.107113585
000240 80 33 9a 3d bc 53 85 3d ea b7 4e 3d 9e eb 2d bd
       0.07529354 0.06510112 0.050468363 -0.04246103
000250 77 d1 ad 3d c7 99 04 3e 3a 74 a4 3d 6a 34 9e 3d
       0.08487218 0.12949286 0.08029981 0.07724841
000260 6b cd 0f 3d 6d af fc 3d f4 1f ad bc ab f6 ca bc
       0.03510801 0.12338147 -0.0211334 -0.024775824
000270 65 91 6b 3d e8 43 a0 bc 4b 72 82 3d e9 ca 3e 3c
       0.057511706 -0.01956363 0.06369456 0.011645057
000280 48 6b 92 ba 38 cd 8a bd ec bd 1a bd 3a f1 76 3d
       -0.0011170888 -0.067774236 -0.03777878 0.060288645
000290 88 d5 24 3d 6f be 1a 3c 15 a5 b1 3b d2 aa 4d 3c
       0.0402427 0.009444817 0.0054212906 0.012552934
0002a0 78 11 10 bd 82 fe 2b 3d fa ca e3 bc de aa 16 3d
       -0.03517291 0.041990764 -0.027806748 0.036784045
0002b0 a6 85 94 3d 99 b9 9f 3d c2 e4 a4 3d f4 04 08 bd
       0.07252054 0.07799072 0.080514446 -0.03320785
0002c0 94 6b ed 3c b8 a7 f8 bc 36 b8 b8 3d 68 49 42 3b
       0.028981961 -0.030353412 0.090195104 0.0029645804
0002d0 f6 60 0e bd 9c 43 e7 3c 6b 9f 3b bc 8d 42 97 3d
       -0.034760438 0.02823048 -0.011451582 0.073857404
0002e0 d4 59 b3 3d 27 1f bd 3b ab d6 65 3d 43 8b 11 3c
       0.08757368 0.005771536 0.056112926 0.0088833
0002f0 60 17 16 3d d8 72 c1 bc 11 4b 05 3c 94 75 54 bd
       0.036643386 -0.023614332 0.008135573 -0.051869944
000300 e8 16 5f 3b 29 42 84 3b 34 e3 a1 3c a4 4c a4 3d
       0.0034040753 0.004036207 0.01976166 0.080224305
000310 b6 f8 13 3d b9 7f d3 bb 86 34 04 3d cf 92 91 bd
       0.03612586 -0.0064544347 0.032276653 -0.0710808
000320 ab 60 17 bb 1b ed 59 bc 10 7c e1 bc 56 9c 66 bc
       -0.002309839 -0.013301159 -0.027524978 -0.014075359
000330 17 8c 06 3e 6c fb 34 bd fe 04 e6 bb c6 4a a2 3b
       0.13139378 -0.044185087 -0.007019638 0.0049527613
000340 fb 56 89 3d b7 4d be 3c 0f 1e 94 3d 19 6d 98 bb
       0.06706043 0.023230417 0.07232296 -0.0046516773
000350 42 8c 92 bd de bf 40 3c 06 ed 21 3d 94 e9 04 bd
       -0.07155658 0.011764495 0.039532684 -0.03244932
000360 8c ae d6 3c 65 83 e6 3d cc 63 17 bd d5 fd 1c bd
       0.026206277 0.1125553 -0.036960408 -0.03832801
000370 1b 32 0e bd e5 fa d5 3d 9b d1 61 bc 07 75 0d 3e
       -0.034715753 0.10448245 -0.013782884 0.13814174
000380 dc 6f bb 3d da 26 c4 3d 5d f5 02 bd 6e 23 d1 bb
       0.09152195 0.09577723 -0.031972278 -0.0063823974
000390 0d 75 84 bd a9 3e 18 bd 52 69 0c 3e 97 77 80 3d
       -0.06467638 -0.037169132 0.13712052 0.0627281
0003a0 a9 e3 86 bc 06 f3 27 3c 26 c0 43 3c bb 7f 22 3d
       -0.016465979 0.010250812 0.011947667 0.039672595
0003b0 61 a4 32 3d 29 40 78 bb 79 18 1d 3d c8 46 c6 3c
       0.043613795 -0.003788004 0.038353417 0.024203673
0003c0 b9 22 b8 3d d8 dc 6c 3d 9e 61 5b 3d 6a 0f 5f bb
       0.08990998 0.0578278 0.053559892 -0.0034036287
0003d0 a6 cd e7 3d 46 40 fa 3a 39 b5 a4 ba 64 e9 10 bd
       0.11318521 0.0019092641 -0.0012566216 -0.03537883
0003e0 7c f2 1c 3e 87 06 c2 3d 43 4a 9d 3c fc 4a d4 3c
       0.15326875 0.09473901 0.01920045 0.025914662
0003f0 73 f9 ae bb 56 01 08 bd c0 b4 88 3d fe 8b 81 bc
       -0.0053397953 -0.0332044 0.066751 -0.015813824

ln1.weight f4 [256]
000000 ce 0c 7e 3f 1b a2 75 3f a9 7a 93 3f 7a 83 77 3f
       0.9923829 0.9595048 1.1521808 0.9668499
000010 43 02 83 3f 31 63 8f 3f 23 d0 81 3f d7 0e 72 3f
       1.0235065 1.1202146 1.0141643 0.94553894
000020 07 b2 89 3f 02 60 79 3f 75 db 81 3f 7c 2f 8d 3f
       1.0757455 0.9741212 1.0145098 1.1030116
000030 f9 37 7b 3f 2c 74 a1 3f 4d 33 79 3f ab 31 77 3f
       0.9813228 1.2613578 0.97343904 0.9656016
000040 85 48 81 3f 39 e9 80 3f 41 35 74 3f 11 39 87 3f
       1.0100256 1.0071174 0.9539376 1.056429
000050 1e 31 8e 3f 02 f0 82 3f 86 12 91 3f 86 0b 7c 3f
       1.1108739 1.0229495 1.1333778 0.98455083
000060 7f 92 8e 3f f6 e4 71 3f 99 3c 9b 3f c8 df 7f 3f
       1.1138457 0.9448999 1.2127868 0.9995084
000070 49 63 86 3f 23 0e 8c 3f 29 62 8f 3f 8b 07 8d 3f
       1.049905 1.0941814 1.1201831 1.1017927
000080 cc a5 98 3f c9 e1 92 3f 49 e6 78 3f 42 9c 7c 3f
       1.1925597 1.1475154 0.9722639 0.9867593
000090 b4 b0 8e 3f 85 21 78 3f eb b1 7b 3f 91 b5 7a 3f
       1.1147676 0.96926147 0.98318356 0.979333
0000a0 71 8e 9b 3f df 8b 75 3f 03 aa 79 3f 3b 56 a3 3f
       1.2152845 0.9591655 0.9752504 1.276069
0000b0 e5 5b 74 3f bc c1 71 3f 9d 64 a0 3f 9f c9 9c 3f
       0.9545272 0.9443624 1.2530705 1.224903
0000c0 ed d1 82 3f 71 4b 84 3f 13 c1 73 3f 53 1d 76 3f
       1.0220314 1.0335523 0.9521648 0.96138495
0000d0 16 15 8c 3f 7d 30 9a 3f b1 1a 6d 3f 63 9b 96 3f
       1.0943935 1.2046047 0.9261885 1.176617
0000e0 b3 cc 7a 3f 9b f3 86 3f 4a 8d 8b 3f 85 ed 7a 3f
       0.97968596 1.0543092 1.0902493 0.98018676
0000f0 55 7d 71 3f 65 37 a0 3f 9a 5d 95 3f c8 a0 77 3f
       0.94331867 1.2516905 1.166919 0.9672971
000100 0a 2e 8c 3f e1 0a 83 3f 94 0e 78 3f 9e f2 80 3f
       1.095155 1.0237695 0.96897244 1.0074041
000110 d0 6e 80 3f e7 16 80 3f bc 8a 9f 3f 6b 10 88 3f
       1.0033817 1.0006989 1.2464213 1.063001
000120 1f 71 77 3f 8b 39 72 3f 8d f1 85 3f 5e 2e b4 3f
       0.96656984 0.94619054 1.046434 1.407665
000130 49 21 78 3f 32 b3 79 3f a2 2c 88 3f 21 a2 79 3f
       0.9692579 0.97539055 1.0638621 0.97513014
000140 b2 9f 70 3f be 23 78 3f a1 26 71 3f 26 eb 83 3f
       0.93993676 0.9692954 0.9419957 1.0306137
000150 7c da 73 3f 7e 12 bd 3f 93 a3 8e 3f 5a e6 74 3f
       0.95255256 1.4771268 1.1143669 0.9566399
000160 08 83 76 3f 21 a4 9e 3f ee 68 9f 3f 14 e0 7d 3f
       0.9629369 1.2393838 1.2453897 0.9917004
000170 f2 3d 75 3f a6 0a 72 3f 37 ad 85 3f a9 ea 83 3f
       0.95797646 0.945475 1.0443486 1.0305988
000180 0a f7 8f 3f ec 00 d9 3f 08 04 93 3f f5 49 a0 3f
       1.1247265 1.6953406 1.1485605 1.252257
000190 7e f0 8d 3f 09 c7 80 3f b3 f4 99 3f 2a cf 8d 3f
       1.1089017 1.0060741 1.2027801 1.1078846
0001a0 f1 81 7f 3f 2c be 92 3f 6d 3e 7c 3f d1 f5 81 3f
       0.9980765 1.1464286 0.98532754 1.0153142
0001b0 25 ef 86 3f 20 0e 80 3f b6 b2 5e 3f ea d8 81 3f
       1.0541731 1.0004311 0.8699144 1.0144322
0001c0 5f c3 7d 3f f4 7b 7c 3f 2d b6 95 3f 68 40 a3 3f
       0.9912624 0.9862664 1.1696221 1.275403
0001d0 da d2 86 3f 14 ec dc 3f 48 c5 77 3f 5b 04 89 3f
       1.0533097 1.7259545 0.967854 1.0704454
0001e0 36 aa 8f 3f 2a 70 84 3f 6c 31 77 3f bc e7 79 3f
       1.1223819 1.034673 0.96559787 0.97619224
0001f0 68 f8 8c 3f 61 04 87 3f 87 ca a2 3f 53 80 92 3f
       1.1013308 1.0548211 1.2718056 1.1445411
000200 36 54 8d 3f 33 eb 7f 3f 01 91 8e 3f 02 4d 8d 3f
       1.1041324 0.9996826 1.1138002 1.1039126
000210 37 b2 87 3f 94 bc 9d 3f 2f 05 7c 3f 07 0c 8b 3f
       1.0601262 1.2323174 0.9844541 1.0863045
000220 b8 ee 80 3f f3 85 9b 3f eb 8b 7d 3f 8b c5 7c 3f
       1.0072851 1.2150253 0.9904162 0.98738927
000230 ea 93 7a 3f ac 66 80 3f 6b 06 8d 3f 43 73 9e 3f
       0.9788195 1.0031333 1.1017584 1.2378925
000240 74 49 7e 3f 71 9f 74 3f 9a 82 98 3f 91 aa 73 3f
       0.9933083 0.9555579 1.1914856 0.9518214
000250 a7 f1 77 3f 3b 9c 96 3f f9 b6 95 3f 3a 21 94 3f
       0.9685311 1.1766428 1.1696464 1.157264
000260 db bd 8f 3f 99 4f 86 3f 17 53 7f 3f b2 63 76 3f
       1.1229814 1.0493041 0.9973616 0.9624587
000270 14 86 80 3f 32 ac 80 3f ed ba 93 3f 28 53 7e 3f
       1.0040917 1.005255 1.154142 0.99345636
000280 2f 45 76 3f 21 9d 7d 3f 9a bf 95 3f 4a 4b 89 3f
       0.96199316 0.99067885 1.1699097 1.0726101
000290 43 4a 73 3f 2e 7b 71 3f c5 ce 76 3f 63 cc 86 3f
       0.9503519 0.9432858 0.96409255 1.0531124
0002a0 26 49 74 3f ed ab 81 3f 6a 76 74 3f c0 7c 7b 3f
       0.95424116 1.0130593 0.95493186 0.9823723
0002b0 39 81 94 3f 09 b2 9d 3f 6c d2 99 3f 29 a6 7d 3f
       1.1601936 1.2319957 1.2017341 0.99081665
0002c0 37 1f 84 3f 9c 46 8d 3f e9 60 a4 3f 04 d2 6d 3f
       1.0322026 1.1037173 1.2842075 0.92898583
0002d0 97 1b 6d 3f 51 a9 8f 3f 5f c1 73 3f f7 96 8d 3f
       0.92620224 1.1223546 0.95216936 1.1061696
0002e0 6b 34 8b 3f d2 39 7c 3f 9d 32 96 3f 10 c8 84 3f
       1.0875372 0.98525727 1.1734196 1.0373554
0002f0 f5 0c 86 3f 10 d2 80 3f fd 28 9a 3f f7 35 78 3f
       1.0472704 1.0064106 1.2043759 0.96957344
000300 58 0c 74 3f 53 fa 73 3f ed 82 98 3f 68 98 86 3f
       0.95331335 0.9530384 1.1914955 1.0515261
000310 e5 93 70 3f 69 16 76 3f 7c c0 86 3f 2f db 85 3f
       0.9397567 0.96127945 1.0527492 1.0457515
000320 c7 7a 72 3f ca 9b 86 3f ce ce 7e 3f fa 43 78 3f
       0.94718593 1.0516293 0.9953431 0.96978724
000330 c4 b6 a6 3f 90 4d 8f 3f 1d 3b 82 3f c3 19 7c 3f
       1.3024526 1.1195545 1.017429 0.9847681
000340 4b bb 95 3f 5f 0c 8b 3f c4 5e 95 3f 6b 37 70 3f
       1.1697782 1.086315 1.1669545 0.9383456
000350 95 0e 78 3f 39 96 6d 3f 2b ae 8a 3f f2 25 76 3f
       0.9689725 0.92807347 1.0834402 0.9615165
000360 12 72 6b 3f 65 11 ba 3f 4f 3b 7f 3f 27 64 7d 3f
       0.9197093 1.4536558 0.9969987 0.98980945
000370 e9 14 93 3f 80 c4 b2 3f e2 e1 92 3f 47 59 e7 3f
       1.1490756 1.3966217 1.1475184 1.807412
000380 4c b3 73 3f 09 60 86 3f 28 88 79 3f 8e c1 88 3f
       0.9519546 1.0498058 0.9747338 1.0684068
000390 d7 b3 74 3f 88 f1 75 3f cb f2 b0 3f 39 8b 75 3f
       0.95586914 0.9607167 1.3824095 0.9591556
0003a0 39 54 76 3f eb 51 81 3f cc bb 8e 3f 3f 27 74 3f
       0.96222264 1.0103124 1.1151061 0.95372385
0003b0 46 ef 81 3f 44 a1 84 3f cf 36 80 3f 26 2b 7b 3f
       1.0151145 1.0361714 1.0016726 0.98112714
0003c0 c5 b1 81 3f 67 ac 78 3f b4 52 92 3f b3 33 90 3f
       1.0132376 0.97138065 1.1431489 1.1265777
0003d0 c9 13 9a 3f 39 e2 9b 3f a5 47 80 3f 09 26 7c 3f
       1.2037288 1.2178413 1.0021864 0.9849554
0003e0 95 6a bd 3f 4a df 84 3f 32 21 79 3f 14 a8 7a 3f
       1.4798151 1.0380642 0.9731628 0.97912717
0003f0 5b 9e 7b 3f 21 ef 72 3f 99 15 af 3f f4 03 7b 3f
       0.98288506 0.9489613 1.3678466 0.98052907

ln1.bias f4 [256]
000000 78 43 fe bc 86 73 fa bc 45 c9 3f 3d b7 c7 80 ba
       -0.031038031 -0.030572664 0.046822805 -0.0009825145
000010 de 2b 2e bc b3 ac 07 3d e4 6d 44 bd 02 86 2e bd
       -0.010630576 0.033123683 -0.047956362 -0.04260827
000020 37 68 aa 3c 67 94 18 bd 39 0b c1 bb 46 c6 27 bd
       0.020801647 -0.037250903 -0.0058912304 -0.040960573
000030 39 45 06 bd 83 96 ba 3c f8 bd f1 bc 38 c6 d2 bc
       -0.03278086 0.022776848 -0.02950953 -0.025729284
000040 f1 15 c5 bb 1b e3 89 bc 3c 1a 2a bd f3 13 92 3c
       -0.0060145785 -0.016831925 -0.041528925 0.017831778
000050 a4 4d 26 bd 6c 08 0d bd 6b 9d 3e 3c 9f 46 f3 bc
       -0.040601388 -0.03443186 0.011634211 -0.02969676
000060 fe 21 7f 3c cf 5e 6b bd b1 4e 09 ba bb 2e 60 bc
       0.015572069 -0.057463463 -0.0005237861 -0.013683016
000070 25 e8 a7 3c 7e eb 80 3b 07 b7 fd bb 99 24 0f bc
       0.020496437 0.003934323 -0.007742766 -0.008736753
000080 04 4c 96 bc 72 38 37 3c 8e ec 29 bd 1a f5 23 bd
       -0.018346794 0.011182891 -0.04148536 -0.04002867
000090 1a 81 2f 3c a5 25 3a bd da 18 d7 bc 7f 01 58 bc
       0.010711933 -0.045446057 -0.026256967 -0.01318395
0000a0 a4 64 91 3c 14 ff c4 bc 37 fc ce bc 90 8e 58 3d
       0.017748185 -0.024047412 -0.02526675 0.052870333
0000b0 45 13 3e bd ec 36 58 bd 47 23 0b 3d d7 cf d8 3c
       -0.046405096 -0.052786753 0.03396919 0.026466293
0000c0 6b 88 31 bd e1 6d 67 bc d9 15 f4 bc fb cd 2e bd
       -0.04334299 -0.014125318 -0.029795574 -0.042676907
0000d0 a4 57 26 3c 9f 0f 6a 3c 37 b0 3d bd 67 61 94 3c
       0.010152731 0.014285951 -0.04631063 0.018112851
0000e0 77 85 04 bd 54 c1 24 bb 1a b7 8f bb a4 4a 95 bc
       -0.032353844 -0.0025139647 -0.004385841 -0.018224068
0000f0 d4 fa 4a bd 4b 75 65 3d e8 08 31 3d 57 c2 50 bd
       -0.049555615 0.056020062 0.043221384 -0.050966587
000100 25 85 37 bd f2 ee 0b bd 82 68 d1 bc f9 a7 15 bc
       -0.04480471 -0.034163423 -0.025562529 -0.009134286
000110 93 06 ae bb b0 b1 42 bc 71 07 ba 3c d2 d3 56 bb
       -0.0053108423 -0.011883184 0.022708626 -0.0032780063
000120 1b 48 75 bd dc 42 4c bd a8 cf 0d 3d 57 8a d8 3c
       -0.05988322 -0.04986845 0.034621865 0.026433153
000130 62 56 4b bd 1b ea d1 bd e7 29 36 3d b9 b3 21 bd
       -0.049642928 -0.1024973 0.044473555 -0.039478038
000140 5e 48 86 bd aa 21 2f bd 6e 52 41 bd 05 a9 34 bc
       -0.06556772 -0.042756714 -0.04719775 -0.0110266255
000150 8c 94 47 bd 41 1f 41 3d 2e 8f 89 3b 9a 25 2d bd
       -0.04872565 0.047148947 0.0041979766 -0.042272188
000160 ca 79 0d bd 13 86 ac 3c 57 a1 bb 3c 32 6b 78 bc
       -0.034539975 0.021060025 0.022904081 -0.015162276
000170 fc 56 04 bd 22 23 7b bd a5 f7 8e bc 38 c5 26 bd
       -0.032309517 -0.061312802 -0.01745207 -0.040715426
000180 2d 0f 38 3c 07 ab be 3d d5 a4 49 3c 91 47 66 bb
       0.011234087 0.093099646 0.012307365 -0.0035137872
000190 e9 1d 16 3c 03 6a ec bc e0 70 ab 3c 58 a9 86 38
       0.009162405 -0.028859144 0.020927846 6.421161e-05
0001a0 f7 08 63 bc 60 6c bc 3c 45 23 fd bc b5 4d 2d bc
       -0.013857118 0.023000896 -0.030900607 -0.010577609
0001b0 34 a6 f8 3c 1b b4 22 bc 71 4e fc bd 5f cc ef 3b
       0.03035269 -0.009930636 -0.12319649 0.007318064
0001c0 59 2b 32 bd 32 29 8d bc ba 86 f4 bb b1 92 1d 3d
       -0.04349837 -0.017231558 -0.0074623497 0.038469974
0001d0 f5 04 3b bd f6 40 bf 3d 36 15 11 bd 18 16 af 3c
       -0.045659024 0.09338562 -0.03542062 0.02137284
0001e0 19 b3 2b 3d a7 49 86 bc 97 af 3b bd 4a 02 05 bd
       0.041918848 -0.016392542 -0.045821752 -0.032472886
0001f0 6d 9d 16 3b 3f 3a 88 bc 10 e3 63 3b a4 10 d9 3c
       0.0022982017 -0.016629336 0.003477279 0.026497193
000200 a7 dd fa bc e6 29 a4 bc a5 aa be 3c 6f 1e c8 bc
       -0.03062327 -0.02003951 0.023274729 -0.024428574
000210 8c d9 e3 ba 73 61 68 3c 4f 82 53 bc 4c 8f de bc
       -0.001738356 0.01418339 -0.012909486 -0.027167939
000220 26 9c 19 bd 07 19 e9 3c 75 87 02 3b 70 6b 4c bc
       -0.03750243 0.028454317 0.0019917164 -0.012476787
000230 9e 07 a3 bc 2b 75 66 bd 19 e3 0b bd 3d 28 9d 3c
       -0.019901093 -0.056264084 -0.034152124 0.019184226
000240 77 61 f7 3c 52 1b 0c bd 7d b5 62 bc 61 ad 47 bd
       0.030197842 -0.034205742 -0.0138372155 -0.04874933
000250 3d b7 ff bc 0b 56 c3 3b df 6b 5f 3d e2 86 ba bc
       -0.031215305 0.005961185 0.054546233 -0.022769395
000260 74 e4 a7 bc 37 28 25 3c f9 16 b2 bc 12 da 20 bd
       -0.020494677 0.010080389 -0.02173947 -0.039270468
000270 f2 5d 31 bd c3 d4 64 3c a2 26 39 3c 02 c1 84 bb
       -0.043302484 0.013966742 0.011300715 -0.0040513286
000280 19 38 dc bc 13 b9 31 bd 05 61 5a ba 37 5c 5c 3b
       -0.026882218 -0.04338939 -0.0008330497 0.00336243
000290 3c 51 c7 bc 57 fa 64 bd 37 bd 18 bd 81 6d 06 bd
       -0.024330728 -0.055902805 -0.037289824 -0.032819275
0002a0 87 37 ea bc 11 d2 64 3b 3b cb 45 bc ef 60 7d bd
       -0.02859093 0.0034915248 -0.01207238 -0.06186002
0002b0 5d 6c bd 3b 59 3c 5a 3d 60 ab 8c 3c 4f 4a 9f bb
       0.00578074 0.05328021 0.017171562 -0.004861153
0002c0 b8 8b 35 bd aa ab df 3c 93 b6 ef bb 98 b0 2f bd
       -0.0443227 0.027303535 -0.0073154657 -0.042893022
0002d0 09 58 cc bd a4 84 99 3d d4 8f 88 bd 32 3a c4 bb
       -0.09977729 0.07496002 -0.06668058 -0.0059883827
0002e0 fc 18 7b 3c 07 41 06 bd 74 04 33 3c 3b bd 1f bd
       0.015325781 -0.03277686 0.010926355 -0.038998824
0002f0 6a 3e 44 3b ee ad db bc c1 22 c2 3c 4a 14 19 bd
       0.0029944428 -0.026816335 0.023698213 -0.037372865
000300 c8 32 15 bd 1c 9e 2b bd e5 3b c7 bc 5c 99 b1 3b
       -0.036425382 -0.04189883 -0.024320552 0.005419893
000310 c9 79 aa bd ec be b3 bc 58 5e 56 3c c8 54 bd bc
       -0.0832401 -0.021941625 0.013084017 -0.023111716
000320 81 e4 8d bd d4 2d cc bb dd a9 02 bd 73 4f 94 bd
       -0.06928349 -0.006231049 -0.031900275 -0.07241716
000330 5f 4d 0c 3d 05 51 02 3d 10 d9 96 3c 85 1e 5a bc
       0.034253474 0.031815547 0.01841405 -0.0133129405
000340 7f 03 7f bc e1 f3 07 bd 9d a0 02 bd f3 a0 ae bd
       -0.015564798 -0.033191565 -0.031891454 -0.085267924
000350 88 9f 01 bd e3 75 6d bd 4f 92 13 3b f9 dd c7 bc
       -0.03164628 -0.057973754 0.0022517627 -0.024397837
000360 26 e8 99 bd aa 6d 39 3d 70 98 8f bc 9a 42 24 bc
       -0.07514982 0.0452706 -0.017528743 -0.010025645
000370 8a 5e 2e 3d cd b6 5a 3c 44 e8 2f bc 93 d3 3f 3e
       0.04257063 0.013349247 -0.010736529 0.18733053
000380 46 30 4f bd 8d 89 fe bb 66 54 b2 bc f8 b0 87 3c
       -0.050583147 -0.007767862 -0.02176876 0.016563877
000390 cd 4a 0e bd d7 26 90 ba 3b d8 94 3d c2 58 a2 bd
       -0.034739304 -0.0010997903 0.07267805 -0.079270855
0003a0 fd 6a 6d bd c4 f8 02 bd 4f 8b 48 3d ce de 29 bd
       -0.05796336 -0.031975523 0.04896098 -0.04147225
0003b0 09 7d 9d 3b ec 8f c7 bc 4c 14 11 3c dc cb 99 bc
       0.004806165 -0.02436062 0.008854937 -0.018773966
0003c0 a6 e9 54 bd 6e ed 39 bd c7 44 55 3c 60 88 0a 3c
       -0.051980637 -0.045392446 0.013016886 0.008455366
0003d0 3c 2c 4d 3d dc 03 7a 3c 87 5f 52 bb be e9 4b bc
       0.050091013 0.015259709 -0.0032100396 -0.012445865
0003e0 72 df a2 3d e2 68 e1 bc 47 db bc bc f4 c1 b8 bc
       0.07952775 -0.027515832 -0.023053778 -0.022553422
0003f0 de 98 45 bd 72 1a 35 bd d0 af be 3c 3d 20 b5 bc
       -0.04824149 -0.044214673 0.023277193 -0.022110099

fc2.weight f4 [64, 256]
000000 92 09 c4 bd db 42 94 3c 54 1d 1e 3d 5f 9f 02 be
       -0.09572138 0.018098285 0.03860219 -0.12756108
000010 dd 41 6e 3d 85 97 84 bd bb 5d a6 3d 50 d2 87 3d
       0.05816828 -0.064742126 0.081233464 0.06631911
000020 17 c6 c4 3d 1a 3d 08 be 7d 5e d5 bb 72 06 4f bd
       0.09608095 -0.13304558 -0.006511508 -0.050543256
000030 a6 07 1b be d4 f7 36 3a 5b ec 1f 3d 00 99 c8 3d
       -0.15139636 0.00069796783 0.039043766 0.097948074
000040 d7 e1 8e 3d 15 ac 44 bd e1 8a bb bb 9f 82 c0 bd
       0.06976669 -0.048015673 -0.0057233428 -0.09399914
000050 d6 d4 f5 bc 9a dd b5 3d af e0 9f 3d cd a0 2e bc
       -0.030008715 0.08880158 0.07806527 -0.010658455
000060 06 61 c0 bd e1 81 90 3d 84 29 c7 be 76 73 57 3c
       -0.09393506 0.070560224 -0.3889886 0.013150087
000070 fd b1 0c bd a5 4c b3 3c 98 cc 32 bd a8 51 79 3b
       -0.03434943 0.021887133 -0.043652147 0.0038043056
000080 7c 43 82 be d4 22 ed 3d 76 ca d3 3d 53 6e 50 3d
       -0.25442111 0.115789086 0.10341351 0.050886463
000090 e9 bc 93 3d e8 b3 b9 bb 0f 7f 25 bc aa 98 e6 bd
       0.07213766 -0.0056671984 -0.010101094 -0.11259587
0000a0 e9 f0 c9 bd b0 ec 82 bd ce de e9 3d 88 9f 56 3e
       -0.09860403 -0.06392801 0.1141945 0.20959294
0000b0 fa 95 24 bc 9c 7e ef 3d ca 4c 37 3c 77 fc 82 3e
       -0.010045523 0.11694071 0.0111877415 0.2558324
0000c0 92 5e fd bb ba a1 04 3e 7a 40 a5 bb 65 d6 2e bd
       -0.007732221 0.12952319 -0.0050430866 -0.04268493
0000d0 aa 9e 27 be 03 89 15 3e 24 d8 1f 3c a4 1b 2b 3e
       -0.1636912 0.14603047 0.009756122 0.16709763
0000e0 19 90 86 3d 8e ec 53 3e 48 ac 16 3e c9 32 b8 bd
       0.06570453 0.20695707 0.14714158 -0.089940615
0000f0 cf 98 48 bb fe 0e b2 bc 07 39 ff bd 9f 3a c7 3d
       -0.003060866 -0.021735664 -0.12462049 0.09727978
000100 25 6b 56 bd 38 e6 36 3e 1c f4 83 3e f1 aa e0 3c
       -0.052348275 0.17861259 0.25772178 0.027425261
000110 82 f3 25 3e 24 a5 cb 3d 32 53 2e be 27 3f b9 bd
       0.16206172 0.099436074 -0.17023924 -0.090452485
000120 54 fe 2f be 0b 28 32 be d4 37 56 bd 08 d6 5a 3e
       -0.17186862 -0.17398088 -0.052299336 0.21370709
000130 b6 18 a8 3b a4 0c b0 bd ee 0f cf 3d db ea 9f 3d
       0.005129899 -0.08596161 0.1011046 0.07808467
000140 01 71 b4 bc 90 d5 a8 3d f4 4d 68 3c 4e 25 17 3d
       -0.02202654 0.08243859 0.014178742 0.03690081
000150 8c 21 0a 3d a9 7c b5 3e 54 f8 ba 3a 9c f6 50 bc
       0.0337234 0.3544667 0.0014264681 -0.012754109
000160 9d 0d 1f 3e 35 b9 63 3d 0e 8f a5 bc 33 29 97 3d
       0.15532537 0.05559655 -0.020209815 0.07380905
000170 6c 7c 1d be ca 29 1a 3d f7 9a 59 bc b5 b2 82 bd
       -0.15379494 0.03763751 -0.013281575 -0.06381742
000180 ac 46 17 bd cf 0e 95 3e 95 c1 35 3e 63 18 b4 3d
       -0.036932632 0.2911286 0.17749627 0.08793714
000190 d5 ae 1f be 83 35 11 bd 93 89 25 3e 42 a6 03 3e
       -0.15594037 -0.035451423 0.16165762 0.12856391
0001a0 9c 67 72 3c 85 42 0a be bb c2 37 3d 7b b1 96 3d
       0.01479521 -0.13501938 0.044863444 0.073580705
0001b0 d0 c6 60 3d 03 07 32 3d b2 a5 2b 3c 20 d2 93 3d
       0.054877102 0.04346372 0.010476517 0.072178125
0001c0 02 a4 0b bc 16 b5 ec bc 47 5e ac 3d 88 8d 6c be
       -0.008522989 -0.028894942 0.084164195 -0.23100865
0001d0 6c 37 3f 3e b8 4f 52 3e 5a f1 15 bd 7c 65 42 3d
       0.18673486 0.20538223 -0.036607124 0.047460064
0001e0 c4 d7 59 3d 3e 2f 20 bd 23 93 5b 3d 46 3f 85 3d
       0.053184286 -0.039107554 0.053607117 0.06506209
0001f0 d1 bf 28 3e fa 6e 7c 3d c2 fc af be 5d ad 4b 3e
       0.16479422 0.061629273 -0.34372526 0.19890352
000200 fa b7 09 3d ad 21 cf 3d d7 99 a7 3d e0 d5 01 bc
       0.03362272 0.10113845 0.081836395 -0.007924527
000210 b8 8c 08 3e 53 f0 1b be 20 81 c3 bd c1 c4 79 3d
       0.1333493 -0.15228395 -0.09546113 0.060978655
000220 b0 1d 5d bc 05 74 fa 3d 79 46 bc 3c ce 69 f4 3d
       -0.013495848 0.1222916 0.022982823 0.11934243
000230 ee 89 24 3e 06 51 e9 3d e1 7c fb 3d 5f 38 aa 3c
       0.16068241 0.11392407 0.12279678 0.020778833
000240 a6 fb 67 3c f8 5f 6b 3c 9f 8b 12 bd 25 dd 11 3d
       0.014159119 0.014366142 -0.035777684 0.03561129
000250 cd 57 b0 bc f6 b7 91 3d 3f c3 98 be fc a0 84 bd
       -0.021526242 0.07115166 -0.2983646 -0.06476018
000260 29 5b a0 3c 8a 00 8a bd c7 fa 92 bd 18 50 8f 3d
       0.019574719 -0.06738384 -0.07176738 0.069976985
000270 7a 60 a0 bd 5a e8 e1 3c 48 7f b5 3d 3f 8e 81 3d
       -0.078309014 0.027576614 0.088621676 0.063259594
000280 bb 88 74 bc 7a e3 91 3c 8a 0b 6f 3d c2 55 2b bd
       -0.014925177 0.017808665 0.058360614 -0.041829832
000290 be 8e b2 3d 51 52 6a 3d c1 1b 42 be 45 84 bf 3a
       0.08718632 0.05720741 -0.189559 0.0014611563
0002a0 4b 97 34 3d ab 6f 2a be ce 68 ba bb 50 1d 1c 3e
       0.044089597 -0.1664416 -0.005688763 0.15245557
0002b0 80 b1 d5 bd 12 6c a6 3c a5 5d 4e be 40 92 9c bc
       -0.10434246 0.020315204 -0.2015291 -0.019112706
0002c0 49 d2 11 bd c9 bf 4a 3b 01 27 18 3e 7a 47 06 ba
       -0.035600934 0.0030937067 0.14858629 -0.0005122345
0002d0 d2 c0 0e 3d 59 f1 94 3d 91 67 b9 bd 34 e6 52 bc
       0.034851857 0.07272596 -0.09052957 -0.0128722675
0002e0 76 e7 fe 3d 56 2e 9c 3d eb f8 e3 3d fb 45 9e bd
       0.124464914 0.076260254 0.11131462 -0.077281915
0002f0 ec 80 f5 bd 79 85 4e be c4 07 03 be 8b e9 37 3d
       -0.119874805 -0.20168103 -0.12795931 0.04490046
000300 db ab 83 bc a4 33 d3 bc 56 42 3c bd d3 5e 2d 3d
       -0.016073158 -0.02578146 -0.0459617 0.04232676
000310 3f 23 2c 3e c4 1e e3 3d c0 5c c7 bd 2b f6 10 3e
       0.1681032 0.110898525 -0.097344875 0.14156406
000320 3a 0a d8 bc fe 8d ce 3d d3 ec 70 3d 72 c7 f8 3c
       -0.026372064 0.100856766 0.058819603 0.03036854
000330 d2 34 00 be ed 24 44 3e bc 24 4e 3c 36 7c 9e 3d
       -0.1252015 0.19154711 0.012582 0.07738535
000340 24 41 5a be 5e 74 71 bd 4f 5c c5 3d 55 7a 26 3c
       -0.21313912 -0.058948867 0.09636747 0.010161002
000350 61 f7 98 3d c5 1b 26 bc 53 fc a4 bc 39 9e 2c be
       0.07469059 -0.010138457 -0.020139849 -0.16857232
000360 74 dd 9b 3c 72 e3 c1 3e b8 16 6b 3e ef d2 67 3d
       0.019026496 0.3786884 0.22957885 0.056597646
000370 6d 44 32 3e 39 97 cb 3e c1 f0 16 3e 8f 23 89 3e
       0.17408915 0.3976381 0.14740278 0.26784942
000380 06 38 2e 3d 5a 92 05 3d c1 81 68 3d 4b 49 60 3d
       0.042533897 0.032610275 0.056764368 0.054757398
000390 72 de 9e 3d 93 b9 90 bd 39 89 8e 3e 1d f8 83 3d
       0.07757272 -0.070666455 0.27839068 0.06443808
0003a0 bd 7a 31 bd 00 38 a3 3c 44 72 1e 3e ae 9d 95 bc
       -0.043329943 0.019924164 0.15473276 -0.018263664
0003b0 fb 35 dd 3d 84 86 ea bc 4f 36 01 bd b9 19 59 bd
       0.108013116 -0.028628595 -0.031545933 -0.053003047
0003c0 d5 8b 9b 3d 7e 14 85 3e c8 41 8e bc 62 9a e9 bd
       0.0759503 0.25992197 -0.017365351 -0.11406399
0003d0 39 8d dd bc 9d 9c df bd 61 af 0e 3e a2 98 43 3e
       -0.02704488 -0.109185435 0.13934089 0.19101194
0003e0 ba 24 2f bd a6 e9 88 bd 8b 0a 87 ba 1f fe c5 bd
       -0.042759635 -0.0668519 -0.0010302825 -0.096676104
0003f0 7c ea bc bb 1c 7d 54 bc 87 f3 6c be e8 44 46 3e
       -0.0057652574 -0.0129692815 -0.23139773 0.19362223

fc2.bias f4 [64]
000000 fd 95 c2 3b 65 0a f7 ba 12 a4 96 3c 46 39 a3 3b
       0.00593829 -0.0018847702 0.018388782 0.0049811928
000010 ef ca 04 3c 9a 83 ae 3c 1c d4 74 3c d6 95 df bb
       0.008105024 0.021302987 0.014943149 -0.0068232818
000020 81 53 6a 3c a8 ed 2f bc 6d 0f 58 3b 2e 04 df 3b
       0.014302135 -0.010737814 0.003296818 0.006805918
000030 52 cc 09 3d 4a 1d 74 bc 87 45 93 3c dd 1a be 3c
       0.03364212 -0.014899561 0.01797749 0.023206169
000040 2e c5 07 3d 6d 36 8e 3c 79 15 e1 3c 07 33 9f 3d
       0.03314703 0.017359937 0.02747606 0.077734046
000050 42 70 48 bc cc b8 32 3b 7d 55 b9 3c df 9a 2d 3d
       -0.012233796 0.0027270792 0.022623772 0.042384025
000060 90 77 2e 3c 6c bb c7 3c b2 e0 51 3b 2d ef a2 3b
       0.010648623 0.024381362 0.0032024798 0.0049723596
000070 a5 6e 3e 3d 46 cb d1 3c a6 74 34 3b d7 c6 81 bc
       0.046492238 0.025609624 0.0027535348 -0.015841885
000080 ba a2 e7 3b c9 ee ae 3c 63 fb 5f 3d c7 91 1d 3c
       0.007068959 0.021354096 0.0546831 0.009617276
000090 75 83 b8 3c 05 5e 29 bc 01 3e 52 bc f0 7c ef 3b
       0.022523621 -0.010337357 -0.012832166 0.007308595
0000a0 bc ad 4c 3b 47 dc 02 3d 24 e2 2c 3c 38 55 98 3b
       0.0031231483 0.031948354 0.010551963 0.0046488307
0000b0 4c c1 95 3c 52 8b 3c 3c 50 69 9a bb 18 da 9a 3b
       0.018280648 0.011507826 -0.0047122613 0.004725706
0000c0 7b e6 b8 3c f4 f9 16 3b 25 52 51 3d 3d cd 70 3c
       0.02257084 0.0023037167 0.05110373 0.01469737
0000d0 d0 ad 9b ba 38 06 8a ba 50 b0 d2 3c f9 fb 86 3b
       -0.0011877362 -0.0010530418 0.025718838 0.004119393
0000e0 2b 2b 34 3d ec c2 92 3c ee 7f 36 3c ed 4f 11 3c
       0.04398648 0.017915212 0.011138899 0.008869153
0000f0 51 43 95 3c 35 3e 11 3a e3 1a 05 bc f2 23 50 3d
       0.018220576 0.00055405806 -0.008124086 0.05081553

ln2.weight f4 [64]
000000 5e 33 8f 3f 69 a7 89 3f 1e 72 97 3f 0e 05 9f 3f
       1.1187551 1.0754215 1.1831701 1.2423418
000010 2a 28 ae 3f c0 d1 96 3f e2 cc 8b 3f 81 de 89 3f
       1.3606007 1.1782761 1.09219 1.0771028
000020 90 dd a5 3f 99 54 87 3f 2e 3a 82 3f 1e 71 8c 3f
       1.295824 1.0572692 1.0174005 1.0972021
000030 38 cd 91 3f 19 24 7d 3f bb 18 9a 3f dd d8 b2 3f
       1.1390753 0.98883206 1.2038797 1.3972431
000040 90 65 9d 3f 50 c8 b8 3f c7 c8 86 3f 50 9b 91 3f
       1.229662 1.443613 1.0530022 1.1375523
000050 0c 90 80 3f 91 ff 8a 3f 47 76 9c 3f cc 1b 94 3f
       1.004396 1.0859243 1.2223595 1.1570983
000060 45 1b 82 3f f3 c7 8f 3f 86 9c 6d 3f ee 4c 84 3f
       1.0164572 1.1232895 0.9281696 1.0335977
000070 2a a2 89 3f 1d 46 97 3f 10 b9 7f 3f cb 37 80 3f
       1.0752614 1.1818272 0.9989176 1.0017027
000080 1e b0 81 3f 18 60 9a 3f 4f 75 90 3f 7d 39 85 3f
       1.0131872 1.2060575 1.12858 1.0408169
000090 19 e9 89 3f dc bb 7e 3f 89 2d 79 3f cb 21 98 3f
       1.0774261 0.995054 0.97335106 1.1885313
0000a0 d6 72 89 3f a5 cd 8a 3f 5f 2b 7e 3f ad 68 96 3f
       1.073817 1.0844008 0.9928493 1.1750695
0000b0 8b 27 90 3f 7f dc 9e 3f 95 9e 73 3f ce b4 96 3f
       1.1262068 1.241104 0.9516385 1.1773927
0000c0 02 9f 98 3f 4a b0 85 3f 8a d8 bb 3f 96 0c 88 3f
       1.1923525 1.0444424 1.4675457 1.0628841
0000d0 cf 13 8b 3f 52 a4 81 3f a1 43 89 3f 30 0c 80 3f
       1.086542 1.0128272 1.0723764 1.0003719
0000e0 24 8a 90 3f de 26 96 3f 5a 4d 87 3f b3 05 84 3f
       1.1292157 1.1730611 1.0570481 1.0314239
0000f0 8b fd 8f 3f 40 01 91 3f f1 1d 71 3f e6 22 91 3f
       1.124925 1.1328506 0.9418631 1.1338775

ln2.bias f4 [64]
000000 45 e8 68 3c 98 0c f9 bb 9d 17 f1 3a 9f dc 36 3d
       0.014215534 -0.0076003782 0.0018393878 0.044643994
000010 ef de 03 bb 06 ec 7e bd 51 01 31 bd 45 ec d2 3b
       -0.0020121892 -0.06223681 -0.043214146 0.006436857
000020 c7 7b 3a bd c5 23 40 bd 6f f6 82 39 7e 6b d9 3b
       -0.0455282 -0.046909112 0.0002497914 0.0066351285
000030 22 a9 10 3d 3a e9 6d bd 16 64 73 3d 13 b9 8b 3d
       0.035317548 -0.05808375 0.05942162 0.068224095
000040 93 8c 41 3d 5d 4c 91 3d da 85 8c 3a 4f 41 dd 3d
       0.047253203 0.07094643 0.0010721043 0.10803472
000050 bc 93 c1 bc c6 1b a7 3b a5 9d 3e bd ec 22 61 3d
       -0.023630016 0.0050997464 -0.04653706 0.054964945
000060 6a f1 de 3c 78 29 23 bb a0 0f 36 bd bf 42 aa bc
       0.027214725 -0.0024896543 -0.044448495 -0.02078378
000070 c5 24 e7 3c bd 8c e9 3a 27 54 ea 3b e8 ad 39 bd
       0.028215775 0.0017818433 0.007151145 -0.045331866
000080 5f 8c b5 3c 19 39 c0 3b cb c5 95 3d 92 8d 9c 3c
       0.02216166 0.0058661816 0.07313117 0.019110475
000090 c8 9c 52 3d aa be da bc cd 3f b3 bd 36 30 44 3c
       0.05141905 -0.026702244 -0.087524034 0.011974385
0000a0 5a 27 84 bb f0 ad be 3c 5c 1e 89 3b 10 db 04 bd
       -0.0040330114 0.0232763 0.0041845273 -0.032435477
0000b0 10 f8 a5 3d 50 8c 5f 3d 64 2c a4 bc 4f 8d e0 bc
       0.08103955 0.05457717 -0.020040698 -0.027411131
0000c0 97 a9 12 3d 64 7b 09 3c 75 ac 97 3d de fe fa 3a
       0.035806265 0.008391235 0.074059404 0.0019149443
0000d0 1f 3a 65 3c 52 88 ae 3c fd 9c a8 3c 5c 09 8e b8
       0.013990908 0.021305237 0.02058267 -6.772831e-05
0000e0 de 07 b3 3d 9e ff 62 bc 5f 0d 00 3d d1 cb 0f 3d
       0.08741735 -0.013854889 0.03126275 0.035106484
0000f0 07 eb 97 3c f9 2b 3a bc 81 5e b7 bc c0 27 71 3d
       0.018544687 -0.011363023 -0.02238393 0.0588758

action.weight f4 [4, 64]
000000 3a 1a 1b 3d 80 1b c2 be 70 23 50 3e bb a0 a1 be
       0.03786681 -0.37911606 0.20326018 -0.3156794
000010 6c 5d 16 3f 29 75 b5 3e 8d e0 87 3a b7 7b 99 3c
       0.587363 0.3544095 0.0010366604 0.01873575
000020 f7 66 fb 3b 30 57 65 bd b4 b1 73 3d 55 95 60 3d
       0.0076721865 -0.05599135 0.059495643 0.054829914
000030 fb c0 d8 bd 03 1e 41 3e 80 29 f9 3b f8 c4 44 3b
       -0.10583683 0.18859105 0.007603824 0.003002463
000040 5e cd b9 3d 65 8f 02 bf e0 49 ac 3e b0 31 e4 3d
       0.09072374 -0.5100005 0.33650112 0.1114229
000050 67 9d bb 3e d3 1c 10 3e 0f 5b 7d bd b1 ee 05 bd
       0.36643526 0.14073496 -0.06185442 -0.032698337
000060 9a 69 30 3e 24 fd dc bd 57 be 0d be 1b b6 b5 3c
       0.17227784 -0.1079047 -0.1384214 0.022181561
000070 9f 34 bb bd 93 37 6a be 4b 9f aa 3e 28 8b 19 3e
       -0.09140896 -0.22872762 0.33324656 0.1499449
000080 bc 13 9d bd 4e 9d cd 3d df aa b2 be 85 ea 37 3d
       -0.0766978 0.10039769 -0.3489599 0.04490139
000090 e1 0f b6 3d cf 71 e9 3d fe 74 34 3e f0 42 19 3d
       0.088897474 0.113986604 0.17622754 0.037417352
0000a0 92 21 8b 3d 72 dc 26 3d fa 82 3b bc c8 f3 4a 3d
       0.067935124 0.040737577 -0.011444801 0.049548894
0000b0 84 bc 8b 3d 4e 46 1e bd 11 aa a1 3d 63 fa 8c 3c
       0.06823066 -0.038641267 0.07893766 0.017209237
0000c0 e3 8d a1 3c 01 c7 2b be a4 cd da 3c df b4 4b 3c
       0.019720977 -0.16775133 0.026709385 0.01243326
0000d0 61 8e 80 be 98 7e 66 be d1 1e 13 3e 6a 58 06 be
       -0.25108626 -0.22509229 0.14367224 -0.13119665
0000e0 65 21 bf bd 31 31 73 3c 1d d5 41 be cc 9d 1a be
       -0.093325414 0.014843271 -0.18928953 -0.15099257
0000f0 29 2e fd 3d ea c9 02 be fc 36 15 be e8 43 55 3c
       0.1236232 -0.12772337 -0.14571756 0.013016678
000100 96 3b c0 3e e1 e2 3d 3e 6a 3a cf 3e ba 29 52 bf
       0.3754546 0.18543579 0.40474254 -0.8209492
000110 94 f0 79 3e d9 c3 86 3e e5 24 89 be b5 89 9c 3e
       0.2440818 0.26321295 -0.2678596 0.30573812
000120 1a c1 85 be f5 62 b9 3d 30 01 f0 3e be 40 a1 3e
       -0.26123887 0.09052078 0.46875906 0.31494707
000130 64 ad b5 3e 1a c8 d4 bd 7d 57 b0 3e 7d f3 08 be
       0.3548385 -0.10389729 0.34441748 -0.13374133
000140 39 b2 96 3d a6 a8 f5 3e cf 65 83 be fe 29 26 be
       0.07358212 0.4798023 -0.2566361 -0.16226956
000150 67 2a a8 be 02 a6 73 3e bb 42 db 3e fd 4e 8a bd
       -0.3284485 0.23793796 0.4282435 -0.06753347
000160 98 ef 15 3e 54 e8 48 be 9f b9 98 3e 75 29 83 be
       0.14642179 -0.19619876 0.29829118 -0.25617567
000170 6b d5 72 3c 52 92 48 3e 83 89 3b ba 09 6b c0 bc
       0.014821391 0.19587067 -0.0007153975 -0.023488538
000180 ca 37 c1 be bf e6 c4 be ec ec a5 bd fc f9 03 bd
       -0.37737876 -0.38457295 -0.0810183 -0.032220826
000190 91 93 ad bd 02 3f cb bd ac 72 e7 3c 09 8c 80 3e
       -0.08475412 -0.09924127 0.028252922 0.25106838
0001a0 8d 35 98 3d 1c 58 8f be 03 ce 0c 3b 47 91 5b be
       0.07432089 -0.2799691 0.0021485097 -0.21442138
0001b0 ab e7 b7 3e e7 21 fe bd 98 4a 29 3e 39 47 14 3d
       0.35918936 -0.1240881 0.16532362 0.036200736
0001c0 b7 80 f6 bd 0d 3d 02 3c f8 0c a1 be 7b 43 65 3e
       -0.12036269 0.007949126 -0.31455207 0.22389023
0001d0 d5 e7 c4 3c b0 a9 90 3e 52 41 7b 3e c9 10 a0 be
       0.024036327 0.2825446 0.24536636 -0.31262806
0001e0 8a cb b0 3d c9 ed 62 3e 84 e6 85 3e 1c fb 5c be
       0.08632572 0.2216102 0.26152432 -0.21580166
0001f0 86 ec 16 bf 07 60 ad 3e 7b de 2d bd af 89 29 be
       -0.58954656 0.33862326 -0.042448502 -0.16556428
000200 97 71 05 3f 42 b2 ab 3d c1 7b 28 3e 1b a5 a5 be
       0.5212645 0.08383609 0.16453458 -0.32352528
000210 d0 57 95 bd 55 c6 8a 3c 90 14 df 3e 8f 58 d2 bb
       -0.072921395 0.016940275 0.43570375 -0.0064192484
000220 1d 5e 34 3c 55 fd 31 3e 76 e9 24 be ea b2 05 be
       0.0110087665 0.17381795 -0.16104683 -0.13056532
000230 ff 6f 0a 3e c2 5b 70 3d 7d 98 cf bb 61 76 00 bf
       0.13519286 0.058681257 -0.0063353167 -0.5018063
000240 c2 5f 1d 3f 9d 93 bc 3e 82 ae ac be 75 5f 05 3f
       0.6147424 0.3683137 -0.3372689 0.5209878
000250 46 99 21 3e 8a fa aa be 0e 60 3d be f9 8c d7 3d
       0.15781125 -0.3339427 -0.18493673 0.10524935
000260 95 e0 9a 3d ef 50 af be 38 32 20 3e 7d 41 8f be
       0.07562367 -0.34241435 0.15644157 -0.2797965
000270 3e d5 40 3e 50 49 87 3e 0d 7a 58 3e 2d 5e 6f be
       0.18831345 0.2642312 0.21140309 -0.23375769
000280 1a 28 91 bd a7 bd b1 bd ae 57 1e 3e bb 72 b3 be
       -0.07087727 -0.086787514 0.15463135 -0.3504847
000290 3f 8c 1c be ed 1f 8a be 4b 9f 6b bd e5 bf b0 bd
       -0.15287875 -0.26977482 -0.05752496 -0.08630351
0002a0 8d f2 61 be 77 05 86 3d 14 86 0f be 42 78 83 be
       -0.22065182 0.06544011 -0.1401599 -0.25677687
0002b0 8f 82 7b 3e 30 52 2d bf dd 73 5a 3e 92 83 e6 3e
       0.24561523 -0.67703533 0.21333261 0.45022255
0002c0 d3 75 9b be 55 a1 12 3f 3b e0 77 be a3 c8 2b be
       -0.3036333 0.57277423 -0.24206631 -0.16775756
0002d0 f8 5b 1c bf 80 b3 bc be ce d4 b2 be b6 87 cf 3c
       -0.61077833 -0.36855698 -0.34927982 0.025333267
0002e0 17 49 8e 3c 41 31 85 be e6 b0 ac bb 64 d6 16 be
       0.017368836 -0.2601414 -0.0052701114 -0.14730221
0002f0 6d 7c 3a 3e 23 c1 5e 3e 6e 73 00 3f fc b7 55 3e
       0.18211527 0.21753363 0.5017613 0.20870966
000300 af 23 6d bd 8c 8c df 3c b8 b7 1e bf 59 ee 72 3e
       -0.05789536 0.027288698 -0.6199908 0.23723735
000310 c9 05 cf 3d 16 03 97 3e 15 38 09 3e af 7c 30 3d
       0.10108525 0.29494542 0.134003 0.043087658
000320 55 e1 1e 3f 2a 56 a2 3e 82 fa 9b 3e 2c c5 38 3f
       0.6206258 0.31706363 0.3046456 0.7217586
000330 f8 46 60 be 9b c7 58 3c 9e 73 79 be 31 60 a8 3e
       -0.21902072 0.013231183 -0.2436051 0.32885888
000340 f0 c5 94 be c5 b4 05 3e d2 8c ad bd 79 6e 40 be
       -0.29057264 0.1305724 -0.08474125 -0.18792142
000350 f0 97 b0 bd d4 1d 9f bd 50 ad df 3e 87 4c 0d bf
       -0.0862273 -0.07769361 0.43686914 -0.55194896
000360 59 9f 6e be bb 66 12 3f f1 53 30 3d 82 50 77 bd
       -0.23302974 0.57188004 0.043048803 -0.060379513
000370 5d 7f b6 3e c5 4c 88 3e 48 3c 92 be 32 4f 9a bd
       0.35644045 0.2662107 -0.28561616 -0.075346366
000380 92 6d 93 3e 97 dc cc 3e ce 70 a9 3d eb a3 79 bd
       0.28794533 0.40012047 0.08273469 -0.06094734
000390 73 ec 26 3e 79 da c1 bd ee 92 1c 3d 75 a9 14 bf
       0.16301136 -0.094654985 0.03822606 -0.5807107
0003a0 01 51 bf 3e 4a c7 75 be 2b bd 8c bc 87 fd d2 3e
       0.3736649 -0.24001804 -0.017180046 0.4120905
0003b0 cf 9b ae be dd 12 db 3e 58 67 1c 3e 0b da 78 be
       -0.34103248 0.4278783 0.15273798 -0.24301927
0003c0 dc 9c 43 3e e3 f4 e7 3c 5a 09 06 3f f8 8a 20 be
       0.19102806 0.028315013 0.5235802 -0.15678012
0003d0 37 df 62 3e 27 ac 34 ba 54 11 e0 3e 8d f5 63 be
       0.22155462 -0.0006892108 0.4376322 -0.22261639
0003e0 22 cf 90 3e dc ea 41 3e b1 63 43 3b b6 68 2c 3f
       0.2828303 0.18937248 0.002981406 0.67347276
0003f0 ee 9e 35 3d bc 8f 04 bb 01 25 d5 bd 17 d5 04 be
       0.04434102 -0.0020227274 -0.104074486 -0.12971912

action.bias f4 [4]
000000 41 db 39 bc 61 af 08 3c 0d 60 04 3c 9c eb d2 bc
       -0.011343778 0.008342595 0.008079541 -0.025747113
