checkpoints/DDPG/Actor/DDPG_actor_1000.pth (torch, 93287 bytes, 10 tensors)

fc1.weight f4 [256, 19]
00000000: f53b e6be 368a 8ebb 47f7 6e3e d96c 9d3c
00000010: 95c5 6e3d 362d 4cba dfb1 7d3d dc79 f63c
00000020: cb35 3039 ff3e 8f3d 3bd1 9d3c 648f 683e
00000030: 8519 9abc 37e9 dc3d b126 98bd 01b2 ecbc
00000040: 702c a7bc b3d9 363e 01ff fb3c 9c9a 1d3e
00000050: 9d63 083e baf7 253d 80f6 f83c 1773 b9bc
00000060: bc49 d83d e91e 953d f165 d83c e8af 9a3d
00000070: 763e f93d a440 c2bd 6f60 753b 1946 5c3d
00000080: 160d 9bbd aac4 c7be 1190 be3d c70c 393d
00000090: 192c b13c 442d 2e3e 9f78 dbbd a669 08bd
000000a0: 21b8 0abe 848d 353d 9528 60bd f7d4 673b
000000b0: ff74 c9bc ff58 b7bd f666 0b3e ba1b b5bd
000000c0: dd1f 86bd a31c 1ebc ecb9 8abc a3cd 163d
000000d0: 3a81 053d f74d b2bd 86dd 4e3c cc14 07bb
000000e0: 45d4 f53d 9f77 0e3e cbad 213e 4d8a 473c
000000f0: 343f fabd ef72 0f3e 8046 bb3b 8341 423d
00000100: e823 933d f7ca f73c da22 00be 5042 03bd
00000110: 996b ddbd 65a1 35bb d981 c7be 9c97 50bd
00000120: 8f0d 0dbe 2915 153d 7aa4 4dbd f6a5 283e
00000130: 7cf9 19be 0a27 213d dcee ab3d e5a9 14bd
00000140: a393 633d 9594 ab3c 540f 6b3e 4b1b e33d
00000150: bf16 4cbe ef27 223e 679a 233e ef42 523e
00000160: 4151 183e 1193 f23e 1662 dc3d 3561 b83d
00000170: a8c5 433d 4b7f 383e 841d 503d 5cdd 953e
00000180: 5cb1 123e aac5 833d bb21 59bc 5b79 07be
00000190: af18 25bd 975e c2bc 1380 b3bc f016 f63d
000001a0: 970f 8abd 8e70 c0bd 2988 ddbd df89 0dbd
000001b0: 0f77 a1be 52e9 d2bd 3b2b 113d b7a2 303c
000001c0: 3626 98bd 25e1 a83c d002 debc 1dae da3d
000001d0: 7e40 a0bd 6e4c e3bd 088d 50be 3914 81be
000001e0: 5b2d a1be e963 b1bc 4a3c c73d 9d66 073c
000001f0: 3725 f3bb 1e72 efbd 4ed7 18be 213a 793e
00000200: a9de 90bd b67b 5cbb c560 253d b387 e13d
00000210: d832 2c3c bcba 71be d054 81bc 2392 8d3d
00000220: 018f 873d f3d9 193d 20eb 94bd d6d8 f4bb
00000230: ea55 2e3e 046f 8a3d 57e0 73be 0b40 54be
00000240: a6eb d5bd 0a92 f8bd df29 92be 8991 02be
00000250: d756 16bd 2356 e63c da14 7dbc e0e1 d0bb
00000260: de9e 7f3d 1112 1ebe 10b0 313b 426f 653d
00000270: 9107 43be 563e 6d3e 3122 3bbd 7a4e 0a3e
00000280: 48b9 533b 1436 ad3d a71e 08be b513 a9bd
00000290: 24b8 ca3c ba3b 05bd 54b0 15bd 9c7e 7bbd
000002a0: 27ec 473d fc43 45be 0b2f 213e 01f3 f5bd
000002b0: f9e2 a0bd c4ba ccbd 14c0 fa3b 9681 12be
000002c0: 59c0 86be 3f90 06be d8c0 3f3d 0854 b73d
000002d0: 043d 7fba f27e 993d c111 89bc ae14 343e
000002e0: 91fb a33b ae65 06be 0867 b53d f4e0 013d
000002f0: 04f1 663e 6754 47be 9d23 2dbe 6b12 84be
00000300: d3b1 25bd e020 143e 6699 39be 9c56 603d
00000310: f4a4 77bd 8392 323e b7b4 443d 9428 02be
00000320: 7898 68be 5b6d 09be 8e60 80bd 63f1 18bd
00000330: 7214 b03d cb95 5dbe 8a85 483d b686 22be
00000340: a637 a6bd 023c a2be f676 0fbe 20f3 9f3e
00000350: 6193 4b3e 3d92 5dbd a401 793d 3d28 acbb
00000360: a602 023e d017 f6bc 8296 233d dac7 153b
00000370: 47e8 6c3b 4df8 4a3e f34b f2bd 1d81 383d
00000380: 7a32 a33d f1f0 5c3d a8e1 7abd 4901 37be
00000390: 1a86 043d 05b4 063e bb15 1abe ed3b 403e
000003a0: 2892 30be 61bc 843d f78c 48bd a729 44bc
000003b0: 9c7d f5bc fc8e 14be 9a73 b13d 87da 403e
000003c0: bb2b 163e 302d 0a3f 86e8 9e3e 7e17 ac3d
000003d0: 1081 553d 8c0c 383d 8fbd 553e c31e 843d
000003e0: 9a48 ad3e 0605 66bd ebb3 903e b490 033f
000003f0: 5097 44be aa3a 113f b2e0 973d c401 fcbd
-0.4496762 -0.004349972 0.23336516 0.019216942 0.058293898 -0.00077887194 0.06193721 0.030087404
0.00016804707 0.069944374 0.019264808 0.22710949 -0.018810997 0.1078667 -0.07429255 -0.028893473
-0.020406932 0.17856483 0.030761244 0.1539101 0.1331925 0.040519454 0.030390978 -0.022637887
0.10560939 0.07281286 0.026415797 0.07553083 0.121701166 -0.094849855 0.0037441512 0.053777788
-0.07570855 -0.3901723 0.09304822 0.0451782 0.021627473 0.17009455 -0.10716366 -0.03330388
-0.13546802 0.044324413 -0.054726202 0.003537474 -0.02459192 -0.089525215 0.13613495 -0.08843179
-0.06549046 -0.009650382 -0.016934358 0.036817204 0.032593943 -0.08706277 0.0126260575 -0.002061176
0.12003378 0.1391282 0.15788953 0.01217897 -0.12219086 0.14008687 0.0057151914 0.047425758
0.07184583 0.030248148 -0.12513295 -0.032045662 -0.10811538 -0.0027714607 -0.38966253 -0.050925836
-0.13774703 0.036397133 -0.050205685 0.16469559 -0.15036577 0.03934387 0.08395168 -0.036294837
0.05556072 0.020944873 0.22955066 0.1108919 -0.19930552 0.15835546 0.15976869 0.20533346
0.14874746 0.47377828 0.10760896 0.09002916 0.04779592 0.18017308 0.0508094 0.29270446
0.1432547 0.06434186 -0.013252671 -0.13229887 -0.040306743 -0.023726745 -0.021911656 0.12016094
-0.06741255 -0.09396468 -0.10816986 -0.034555312 -0.31536147 -0.102984086 0.03544162 0.010780982
-0.07429163 0.02061517 -0.02710095 0.10677741 -0.07824801 -0.11098562 -0.20366299 -0.2521074
-0.31479916 -0.021654086 0.09728296 0.008264211 -0.007420208 -0.11691688 -0.14925882 0.2433858
-0.07073719 -0.0033643073 0.04037549 0.11012211 0.010510169 -0.2360639 -0.015787512 0.06912639
0.06619073 0.03756137 -0.07271409 -0.007472138 0.17024961 0.06759456 -0.23816048 -0.20727555
-0.10445337 -0.1213723 -0.2854757 -0.1275083 -0.03670391 0.028117245 -0.015446866 -0.0063745826
0.062407367 -0.1543658 0.0027112998 0.056014307 -0.19045855 0.2316831 -0.045686904 0.13506499
0.003230648 0.0845758 -0.13292943 -0.08255712 0.024746008 -0.032527663 -0.036545113 -0.06140004
0.048809197 -0.19264215 0.15740602 -0.1200924 -0.078557916 -0.0999656 0.007652292 -0.14307246
-0.26318625 -0.13140963 0.04681477 0.089515746 -0.000973657 0.07494916 -0.016732099 0.17586014
0.0050043543 -0.13124725 0.08857542 0.031708673 0.22552878 -0.1946579 -0.16908117 -0.25795302
-0.04045279 0.14465666 -0.18124923 0.054770097 -0.060460046 0.17438702 0.048023906 -0.12710792
-0.22714412 -0.13420622 -0.06268416 -0.03733958 0.0859765 -0.21639173 0.048955478 -0.158717
-0.08116083 -0.31686407 -0.14010224 0.31240177 0.1988044 -0.05409454 0.06079258 -0.00525382
0.12696323 -0.030040652 0.039938457 0.0022854717 0.003614919 0.19821282 -0.118308924 0.045045007
0.07968612 0.053940717 -0.06125036 -0.17871584 0.03235445 0.1315461 -0.15047352 0.1877286
-0.17243254 0.06481243 -0.04896256 -0.011972821 -0.029967122 -0.14507669 0.086646274 0.18833362
0.1466512 0.539752 0.31036776 0.08402918 0.052125037 0.04493384 0.20873092 0.0645118
0.33844453 -0.056157134 0.28262267 0.51392674 -0.19198346 0.5673014 0.07415904 -0.12305024

fc1.bias f4 [256]
00000000: 9192 133d 2d80 a0bc f91a 0bbd 4987 7bbd
00000010: 7b1f 063e 39ed c4bc 1734 80bd 2d50 dabd
00000020: 7a7a cbbc 79be 1abb 453a aebd a699 953c
00000030: d382 9b3d fc55 983d 5a95 16bc 25a1 e1bc
00000040: 1341 0e3e c110 8b3d 3050 64bd b0e1 9c3d
00000050: 0829 d33c 5b51 6c3d b2c5 6c3e b65e 8d3b
00000060: 445e 803d 76b1 c7bc 5338 643d 287c e5bd
00000070: 991b 2d3e 253d 5dbd 4564 1b3c 7b51 40bc
00000080: da5e 3e3d c49f f83c fe2c 813d ba0d 15bd
00000090: 3f21 c73d f403 50bd 660c f93d 69c9 753c
000000a0: 1947 6a3d 8c53 4cbc 0389 c3bd 7cb7 be3d
000000b0: 67cc 83bc b645 44bd 6939 e53d bc7f debd
000000c0: 8b20 1e3e c899 f3bc 92c0 83bd 91f8 95bd
000000d0: 4ba6 1b3e 945b 00be 8fc4 ebbd fa2f 0c3e
000000e0: 0f2a ebbd 3518 e7bd af4c 833d 5ee0 6d3b
000000f0: dea5 e3bb 94bb 233d 0b99 833d 151c 80bc
00000100: 2305 c13d cac1 1c3b 1bb5 64bc ce1a dcbd
00000110: 1473 8bbd 8c80 4c3c 4724 2b3e 1ecd 8d3d
00000120: ab43 8d3d f23b 173e f5cf 853d 3b12 213e
00000130: a1f6 3abd 03d5 fc3d 2245 c2bc 38ad 0bbc
00000140: 66c6 ac3c e614 3cbd 33d9 52bc b737 193d
00000150: 7a93 f53d a7f0 103e b269 983d 764a b3bd
00000160: 5479 013d 7340 c43b 8a38 763e 1226 ed3d
00000170: d071 bdbc 1a3b 92bc fb6b 473b 9dbe 903d
00000180: 3871 233e 57ca 2c3e 2d85 9f3d 6d3a 173e
00000190: 4e3e 0b3e 292d 1fbc b5b4 00be f199 1dbe
000001a0: c9f8 5e3c f164 8f3d eec9 4cbd 20a5 00be
000001b0: de2e eabd 0b56 8a3d 27c4 553d c201 aa3d
000001c0: b950 873e 1e08 03bd 04e3 c73d 47dc 763d
000001d0: fe09 183e c67d 5c3e 351a a7bd 0b6a 66bd
000001e0: 5b89 073e 2f19 873d ed94 643d a70b 973d
000001f0: e290 91bd f936 0a3e 1652 103e dee2 33bd
00000200: 6d00 c23d 9890 523c f1e6 eabc ee41 823d
00000210: b294 5cbd 036a 443e 7875 2d3d 393c 0b3e
00000220: f604 1b3c 43f3 103c 5c06 263c 54f1 b33c
00000230: 79c2 14be 8bf9 113e 1ad7 85bd a5aa 0b3e
00000240: ab2e e33d 6061 0f3e f15c cc3d 0c7a 5fbd
00000250: 41b2 023e 9cb4 373e d7bb d33d 7604 e23d
00000260: dfc8 cb3d 0da1 f43d 97f5 5abd 331f 00bd
00000270: 023f df3d e561 9cbd 96c6 c73d c70e f83b
00000280: bfeb 75bd 1eb9 86bd db45 0abe 024a b23d
00000290: c126 d03c 69a4 313d 7d41 a238 2a94 cc3d
000002a0: cd00 bbbd 43c2 063d 1022 7abd fdc1 433d
000002b0: d321 103e 62a1 c63d 23dc fb3d cc24 cebd
000002c0: 06df 7b3d 943d d8bc d113 373e 582b 61bd
000002d0: 8250 6b3c 93cf 2cbd 42c4 44bd cdf0 dd3d
000002e0: d0fb 173e 2383 b5bc 44ee 243d c6f1 473c
000002f0: 9bce d43d 7c4b ebbc becd b13c 7fba e8bd
00000300: 27d0 553d 5245 80bd 6d9f bf3b c00a 233e
00000310: 9838 c43d c823 5ebd 8fa5 163d 4321 eabd
00000320: b250 f93c 8b78 9cbc 0994 cfbd a3a9 0a3d
00000330: d44a 1f3e b499 a7bd 821e 00bc ed79 90bc
00000340: 6bc4 c83d 81c2 393d 866e c53d 1577 b23c
00000350: 4242 12be 6d58 4abc 34e2 5b3d be8b 09bc
00000360: 236c 653d a308 2f3e c73b 82bd fa3b c9bd
00000370: 3c4a 7fbd d190 043e d535 9ebd aa01 693e
00000380: 8bb1 083e 8c39 723e a444 bbbd 7895 5fbd
00000390: b13d fbbd d7ac 813a 18e4 383e d185 bf3d
000003a0: c1ed 27bc e9c9 d63c 660f 91bd b265 8cbc
000003b0: 33cb 233d 1bba 4f3c 18f6 b53d d95c 3fbc
000003c0: c94f 073e daf3 023d 5344 993d feb9 ec3c
000003d0: 813c 493e 52f1 db3b 4c25 5fbd 0532 8ebd
000003e0: 88d0 223e 19f6 073e 60e3 413c 2a61 d43b
000003f0: 039f 2f3d 46a8 33bd cc2b ca3d 04c1 88bd
0.03602845 -0.019592369 -0.03396127 -0.061408315 0.13097946 -0.024038898 -0.06259935 -0.106598236
-0.024838675 -0.0023612066 -0.08507208 0.018261742 0.07593312 0.07438275 -0.009190882 -0.02754266
0.13892011 0.06790305 -0.055740535 0.07660234 0.025776401 0.057694774 0.2312229 0.004314269
0.0626798 -0.024376612 0.055717777 -0.112053216 0.16905059 -0.05401339 0.009484355 -0.011738176
0.046477176 0.03034962 0.0630741 -0.036390044 0.09723138 -0.05078502 0.12160568 0.015001633
0.05719671 -0.012471091 -0.09547617 0.093123406 -0.016088678 -0.047918044 0.11192591 -0.10864207
0.15442102 -0.029736415 -0.06433214 -0.07322801 0.15200154 -0.12534934 -0.115121 0.13690177
-0.114826314 -0.11283914 0.064111106 0.0036297063 -0.006947263 0.03997381 0.06425675 -0.01563839
0.09424808 0.0023919218 -0.0139591945 -0.107473 -0.06809059 0.01248182 0.16713057 0.069238886
0.06897672 0.14768961 0.06533805 0.1572961 -0.04564536 0.12345316 -0.023714606 -0.008525185
0.021090697 -0.045918368 -0.012869167 0.03740665 0.119910195 0.14154302 0.07442035 -0.08754437
0.03160985 0.0059891283 0.24045005 0.11579527 -0.02312556 -0.017850447 0.0030429352 0.070676066
0.15961158 0.16874062 0.07789073 0.14768381 0.13597986 -0.009715357 -0.12568934 -0.15390755
0.01360912 0.07001675 -0.049997263 -0.1256299 -0.114347205 0.06754693 0.05218902 0.083011165
0.26428774 -0.031990163 0.09760097 0.060268667 0.14847562 0.21532354 -0.081592955 -0.056253474
0.1323599 0.065966 0.05580609 0.073752694 -0.07107712 0.13497533 0.14093813 -0.04391753
0.094727375 0.012851857 -0.028674575 0.06360231 -0.053852744 0.19181065 0.042348355 0.13597192
0.009461632 0.008847061 0.010133352 0.02196566 -0.1452731 0.1425535 -0.06535168 0.13639314
0.110928856 0.1400199 0.09978665 -0.054559752 0.12763311 0.17939991 0.10338562 0.11036007
0.099504225 0.119447805 -0.05345687 -0.031279754 0.1090069 -0.076358594 0.09754674 0.007570121
-0.060039278 -0.06578277 -0.1350321 0.08705522 0.025409104 0.043369684 7.73696e-05 0.099891976
-0.09131012 0.032900106 -0.06106764 0.047792424 0.14075403 0.0969875 0.12297847 -0.10065612
0.06149199 -0.02639655 0.17878653 -0.054972976 0.014362456 -0.042190146 -0.04803873 0.10836945
0.14842153 -0.022157257 0.04026629 0.012203639 0.10390969 -0.028722517 0.02170455 -0.11363696
0.052200463 -0.06263222 0.0058478625 0.1592207 0.09581107 -0.054233342 0.036778983 -0.114321254
0.030433986 -0.019100448 -0.10135657 0.033853184 0.15555888 -0.081836134 -0.007819774 -0.017636264
0.09803089 0.04535151 0.09640221 0.021785298 -0.14283088 -0.012350184 0.05368252 -0.008395134
0.05601133 0.17093138 -0.06359058 -0.09825893 -0.062326655 0.12945868 -0.077251114 0.22754541
0.13348977 0.23654765 -0.091439515 -0.054585904 -0.12267626 0.0009893429 0.18055761 0.09351695
-0.010249556 0.026219325 -0.07083015 -0.017138336 0.039988708 0.012678648 0.08884829 -0.011679851
0.1321403 0.031970836 0.07483735 0.028897282 0.19651987 0.006712117 -0.05447893 -0.06943134
0.15899861 0.13277473 0.011833996 0.0064813094 0.042876255 -0.04386165 0.09871635 -0.0667744

ln1.weight f4 [256]
00000000: 4724 973f 969f 763f 3a67 963f d3e0 683f
00000010: f601 7c3f e92f 8c3f 73a4 813f 8d42 633f
00000020: 858c 733f 6946 633f 1101 853f c1e4 993f
00000030: efa8 703f 1835 b03f 0ac7 603f 824b 603f
00000040: 7a07 7c3f 7c2f 6e3f c5e6 643f d236 9a3f
00000050: abc6 9a3f afe9 983f ef6f ad3f c290 823f
00000060: 5611 933f 89e1 7f3f 2d17 ad3f 6e75 833f
00000070: d733 853f 676a 8c3f e678 c33f 9498 a73f
00000080: 6b1f 9b3f a4f0 9b3f 39dc 593f 34ad 8f3f
00000090: a7fa 883f e78c 563f 497c 6a3f 0087 633f
000000a0: c53c cf3f 3acc 683f 5121 703f 6555 a73f
000000b0: 4dec 533f a611 583f 1cb1 a93f 5e84 b13f
000000c0: 67fd 863f 82f5 903f f57b 603f 3cf4 8a3f
000000d0: 31c3 833f 9ab7 9f3f 29cb 683f baa2 9b3f
000000e0: 0bf8 6e3f 395c 8c3f 89d6 ad3f 0d3c 5c3f
000000f0: a63f 4c3f 31e0 a03f 7882 9f3f eb61 8c3f
00000100: 0c79 8f3f 419a 8d3f c75d 5c3f 409f 813f
00000110: 06ce 743f a739 583f 64aa a53f 436b ac3f
00000120: 49cf 6f3f 9d5c 693f 953f 823f 91d4 af3f
00000130: e4da 743f f367 453f 1403 893f 7f38 563f
00000140: f926 853f ec10 6a3f 3741 733f 17c1 9e3f
00000150: bc37 803f ceda bd3f 0b32 a63f a8ed 673f
00000160: 37b7 6c3f 7ba9 933f fa85 9c3f 6257 823f
00000170: a593 673f e27e 353f cbdc 783f a471 923f
00000180: 2976 893f b030 d83f 4888 923f 0b7e a43f
00000190: 09c9 a33f b239 813f 22e8 c53f 99e4 a13f
000001a0: bb17 8c3f dad4 923f 43dd 6a3f d6f3 8b3f
000001b0: df0c 8b3f 3d77 6d3f 9b2c 373f 4ed2 873f
000001c0: 45b9 9d3f 125d 743f bb3c bd3f 1eae b73f
000001d0: 4bfe 933f 2424 e73f 30b5 623f fe78 843f
000001e0: 7565 8a3f bdfc 983f 5a8d 6f3f 0d52 813f
000001f0: 9d38 933f bf21 883f 1577 943f eb95 9a3f
00000200: 587d 9a3f 68b5 8b3f 758e c73f b87a a93f
00000210: 682a 853f c30a 9c3f 6e1c 803f 303f 863f
00000220: 00dc 653f 1006 aa3f 42fe 723f 1853 773f
00000230: ba3d 793f 6920 8a3f ffc9 b63f 8b88 ae3f
00000240: 7800 583f 8941 6f3f bd22 9c3f 8715 6c3f
00000250: 510a 6d3f cf00 a93f c99f 9e3f b626 993f
00000260: 6ee8 e13f 35cf 8d3f 43da 7c3f df94 783f
00000270: 8874 8b3f 432a 813f ee30 a93f 5055 723f
00000280: 3ad4 613f ed1d 863f 138b b83f d292 763f
00000290: 9616 4a3f bffb 633f 5b05 553f d016 af3f
000002a0: c9a6 523f 422d 8f3f 18dd 7e3f 7eeb 6c3f
000002b0: f8bc 963f b03c 8f3f 7f8e 9d3f badb 763f
000002c0: dfea 973f 6b92 8c3f aa0a ac3f 40c6 4f3f
000002d0: fa19 403f 3105 8b3f 77e4 653f ebdf 903f
000002e0: cd4e 793f 7a6c 863f c872 883f 4bff 863f
000002f0: a725 803f 45f4 8f3f b8af b83f cec5 703f
00000300: 1810 603f e591 4e3f ed49 953f 8940 8e3f
00000310: 0f5f 613f f976 563f 112a 7a3f fa5e 893f
00000320: 5f44 753f 0465 983f 579d 833f d84e 8a3f
00000330: 411a b63f db4f 9e3f e81a 983f 316f 8e3f
00000340: 8e28 af3f 7d3d 8d3f 88d4 b33f e209 6c3f
00000350: ed84 753f 8b16 7d3f 962a 933f 1462 933f
00000360: fd03 a13f c4dd bc3f 1139 573f 7d2b 7e3f
00000370: 6091 973f b123 ab3f c6a7 bb3f 02b1 fa3f
00000380: 9234 753f 3428 983f 53f7 923f f5d4 983f
00000390: 51ee 4c3f 4e64 6b3f abce bb3f 2e7b 713f
000003a0: 7e1a 773f 497f a03f 87df 8b3f aca8 703f
000003b0: 31b2 6d3f 2b80 853f b157 7c3f 3c90 6a3f
000003c0: 7983 8a3f 2132 893f ea17 a33f 7db2 a63f
000003d0: a0e8 993f 8539 bf3f c231 6c3f fd78 7e3f
000003e0: 9a7c de3f f41d 853f a00d 913f 0f0d 4b3f
000003f0: 32ed a33f f13f 4e3f 2e8c c13f 6e1c 603f
1.1807946 0.9633726 1.1750252 0.90968055 0.9844049 1.0952121 1.0128311 0.88773423
0.9513629 0.8877931 1.039095 1.2022935 0.9400777 1.3766203 0.8780371 0.87615216
0.9844891 0.93041205 0.89414626 1.204798 1.2091879 1.1946315 1.3549784 1.0200427
1.1489666 0.99953514 1.3522698 1.0270212 1.0406445 1.0969971 1.527127 1.3093438
1.2118963 1.2182813 0.8510166 1.1224732 1.0701493 0.8380875 0.91595894 0.8887787
1.619042 0.90936625 0.93800837 1.3072935 0.8278244 0.8440193 1.3257174 1.386852
1.0546082 1.1324923 0.87689143 1.0855784 1.0293943 1.2477906 0.90935 1.2159035
0.93347234 1.0965644 1.3581096 0.8602913 0.7978462 1.2568418 1.2461691 1.0967382
1.1208816 1.10627 0.8608059 1.0126724 0.95626867 0.8446297 1.2942624 1.3470234
0.9367567 0.9115694 1.0175654 1.3736745 0.956465 0.7711174 1.0704064 0.83679956
1.0402519 0.9143207 0.95021385 1.2402676 1.0017009 1.4832399 1.2984022 0.9059701
0.92467064 1.1536096 1.2228386 1.0182917 0.9045966 0.7089673 0.97211903 1.144093
1.0739185 1.6889858 1.144784 1.2850965 1.2795726 1.0095732 1.5461466 1.2647887
1.0944742 1.1471207 0.9174387 1.0933788 1.0863303 0.9276007 0.7155244 1.0611055
1.2322165 0.95454514 1.4784158 1.4350011 1.1561979 1.8057904 0.8855772 1.0349424
1.0812212 1.195213 0.9357506 1.0103165 1.1501652 1.0635298 1.1598841 1.2077001
1.2069502 1.0914736 1.559035 1.3240576 1.0403566 1.2190784 1.0008676 1.0488033
0.8978882 1.32831 0.94919217 0.96611166 0.9735981 1.0791141 1.4280394 1.363542
0.84375715 0.93459374 1.2198101 0.9222035 0.92593867 1.3203372 1.2392513 1.1964939
1.7649057 1.107886 0.9877054 0.9710216 1.0894938 1.0091022 1.3218057 0.94661427
0.8821446 1.0477883 1.4417442 0.9631778 0.78940713 0.8905601 0.83211297 1.3678837
0.82285744 1.1185687 0.9955611 0.9254683 1.1776419 1.1190395 1.2309111 0.96429026
1.1868552 1.0982183 1.3440754 0.8116188 0.7503964 1.0860959 0.89801735 1.1318334
0.97385865 1.0501854 1.0660028 1.0546659 1.001149 1.124642 1.4428625 0.94051826
0.8752456 0.8069137 1.1663185 1.1113445 0.8803567 0.8377529 0.9772044 1.073211
0.9580745 1.1905828 1.0282391 1.0805311 1.4226762 1.236812 1.1883211 1.1127683
1.3684251 1.103439 1.4049234 0.9220258 0.95905954 0.9886252 1.1497371 1.1514306
1.2579342 1.4755177 0.8407145 0.9928511 1.184124 1.3370267 1.4660575 1.9585268
0.9578334 1.1887269 1.1481727 1.1939989 0.8005114 0.9194993 1.4672445 0.9432858
0.965248 1.2538844 1.092759 0.9400737 0.92850024 1.0429739 0.98571306 0.91626334
1.0821372 1.0718423 1.2741673 1.302322 1.2024117 1.4939429 0.92263424 0.99403363
1.7381775 1.0399766 1.1332283 0.793168 1.2806761 0.80566317 1.5120904 0.8754338

ln1.bias f4 [256]
00000000: f81a 50bd 7562 d3bd c045 a13c e8f1 2dbd
00000010: 4087 02bd 22ed 4dbc fbbe 13be 0764 ebbd
00000020: 8a12 57bc 8989 34be 3d78 c7bc b3df 4cbe
00000030: af90 91bd d10f b8bc 9a1d 37be 71a4 2bbe
00000040: 9178 18bd 3127 bdbd b1cb 4fbe e29d 39bb
00000050: 81ee 08be 0abd 98bd f59b ec3b 598c 0dbe
00000060: abaf 2fbe dc2d bfbd e007 13bd e3b5 c7bc
00000070: 00d4 c8bc 75f0 2ebd 694d 913c b41e e0bc
00000080: 0545 e0bd b190 51bd 01b6 3bbe 1e97 adbd
00000090: 3fde b0bc 45c8 28be b4ac abbd d262 b0bd
000000a0: 394b c5bc 8f47 05be 6069 dbbd ce84 0ebe
000000b0: 97b2 6ebe beeb 2abe 469f f4bd ea85 2c3d
000000c0: 96c9 e3bd 4fa4 a2bd d183 41be 1dd0 e3bd
000000d0: d307 81bd 86a2 043d 2c0b f9bd 8f0e a9bd
000000e0: 3a8e aebd d86a 7bbc 72c9 d5bc 84e6 27be
000000f0: 38c1 37be 794e ea3c 56cf 12be a97f f5bd
00000100: b8e5 01be 1050 c7bd f867 31be db39 cbbc
00000110: e898 d8bc 5581 d0bd 9d6c 8f3b 3007 ecbc
00000120: 59c5 e5bd 0071 0fbe 7aac 5abd 0444 2bbd
00000130: a06f cdbd 8775 9bbe bd03 3fbb 8563 33be
00000140: b1f2 29be d6fb 13be 2ccc eabd 1db9 8dbd
00000150: d3dc 8ebd 2e9d c9bd 5135 10bc f1ac debd
00000160: e417 21be d374 2dbd 84e6 fbba f9e6 6abd
00000170: 6161 1cbe b9f4 84be 267d d3bd 0a46 25be
00000180: 096c e1bb bc97 673d e567 b3bd 29cc 7dbd
00000190: 374d 49bc 468c 05be 1505 38bb e3fe b0bb
000001a0: 5af8 8cbd 8008 87bc d126 0fbe f699 b8bc
000001b0: 9b79 4c3c 7234 c6bd f05a 92be 7176 ecbb
000001c0: a18c 7dbd b12c 90bd b900 68bd 8580 973c
000001d0: 1f4c b4bd c2db 0cbb f353 d2bd 34b2 3b3c
000001e0: dbb3 2b3d f940 99bd 3df5 b0bd df3f 2bbe
000001f0: b47f 04bd 2eba c0bd d449 5abd c844 23bb
00000200: 362c ecbd 7fbd c5bd c552 84bc 3b94 1bbd
00000210: 2752 d1bd f9fa 48bb 6b48 58bd d910 ecbd
00000220: 4276 02be 48c4 913c f593 92bd e693 c6bd
00000230: c0b3 70bd 0e7f 8fbd 0ac9 e1bc 1044 54bd
00000240: c6e5 07bd 86f2 96bd 0a22 dcbc 2d80 66be
00000250: 9c76 a4bd 12e6 47bd 43a3 153d 7d83 91bd
00000260: a400 9abd f406 8fb8 2949 babd fb9b 13be
00000270: 191a 25be ac8d 1c3b 9bdd 203c fd17 09be
00000280: b08c b2bd eb09 9dbd 0be4 26bb 13ab b2bc
00000290: 8462 59be 6c00 1abe 7625 17be 27a7 40bd
000002a0: 172d 1fbe 5cc4 c4bc 8b42 6fbd 2370 33be
000002b0: a56a d5b9 eae1 043d fc85 23bd 2dc5 39bd
000002c0: 1488 a2bd aed4 473c fc94 f5bc e776 ddbd
000002d0: cbca 91be 9662 783d 2f65 85be 4e3c 69bd
000002e0: a64e 52bc 6170 84bd cc0b 3cbd fb18 51be
000002f0: a515 17bd a447 eebd 1f36 e0bb 216a 20bd
00000300: b8b3 28be ca1d 34be 98dc cabd 63a2 b2bb
00000310: 346b 39be b7ea 0dbe 82d0 10be a3c3 c1bd
00000320: 6f33 31be 0295 fabc 74d0 3abd 26c3 39be
00000330: b28c 16bb 2367 ce3b 6c8f bdbb c37b dcbc
00000340: fc71 6abd 1144 24be 2b95 a5bd 6130 15be
00000350: f603 45bd f8e8 3bbe 8138 46bd ce50 ddbd
00000360: a2bc 01be b3d5 66bc 953f acbd f5d0 67bc
00000370: 1053 603d d27b 983b 5fd6 47bd a69d 483e
00000380: 7ac7 e4bd f8ed bfbc 4b5f babd 6575 1ebc
00000390: 9f22 33be 33fb babd c83b 8a3d b885 38be
000003a0: 0bb9 3cbe 5aad b1bd c297 193d 413e 99bd
000003b0: 45c2 cbbd 18ed fdbd a4de 5cbd 9ea3 15be
000003c0: afd0 d5bd 73e0 f4bd 2c7b 07bd 4631 68bd
000003d0: 5358 2f3d 647d 4ebd 5b18 c5bd 5b1f a9bd
000003e0: 0bf5 533d 9e4b d7bd 589a a0bd 7421 12be
000003f0: 3d61 7cbd 1d90 37be 6a01 dabc 9987 bcbd
-0.05080697 -0.103215136 0.01968658 -0.042467028 -0.031867266 -0.012568744 -0.14428322 -0.11493688
-0.013126979 -0.1763059 -0.024349326 -0.2000721 -0.07107674 -0.02246848 -0.17882386 -0.16761948
-0.037224356 -0.09235991 -0.20292546 -0.0028322865 -0.13372232 -0.07457931 0.00722074 -0.1382307
-0.17156856 -0.09334919 -0.035896182 -0.024378723 -0.024515152 -0.042709786 0.017737107 -0.02735839
-0.109506644 -0.05116338 -0.18331148 -0.08476089 -0.02159035 -0.16482647 -0.0838255 -0.086125985
-0.02408372 -0.13015579 -0.10713458 -0.13917848 -0.23310314 -0.16691491 -0.119444415 0.042119898
-0.11122434 -0.079414956 -0.1889794 -0.11123679 -0.063003205 0.032381557 -0.12160334 -0.0825473
-0.08523221 -0.015345298 -0.026097033 -0.16396528 -0.17944801 0.028601872 -0.14336905 -0.1198724
-0.12685287 -0.097320676 -0.17324817 -0.024807861 -0.026440099 -0.10180918 0.0043769614 -0.028812021
-0.11219282 -0.1400795 -0.053387143 -0.04181291 -0.100310564 -0.30363104 -0.0029146515 -0.17518432
-0.16596486 -0.14451537 -0.11464724 -0.06920073 -0.069757126 -0.09844433 -0.008801774 -0.1087283
-0.1573177 -0.04234774 -0.0019218479 -0.05734918 -0.15271522 -0.2596796 -0.103266045 -0.16139999
-0.006879334 0.05654119 -0.08760051 -0.06196228 -0.012286476 -0.13041791 -0.00280792 -0.0054014786
-0.06883307 -0.016483545 -0.13979651 -0.022534352 0.012480165 -0.09677972 -0.28585005 -0.0072162678
-0.061901692 -0.07039774 -0.056641314 0.0184939 -0.088035814 -0.002149329 -0.10269918 0.011456061
0.04191957 -0.07483096 -0.086405255 -0.16723584 -0.03234835 -0.09410511 -0.053293064 -0.0024912823
-0.1153187 -0.09655284 -0.016152749 -0.03798316 -0.102207474 -0.003066717 -0.05280344 -0.11526651
-0.12740424 0.01779379 -0.07157127 -0.09696178 -0.058765173 -0.07006656 -0.027561683 -0.051822722
-0.033178113 -0.073704764 -0.0268717 -0.22509833 -0.080304354 -0.048803397 0.03653265 -0.071051575
-0.075196534 -6.8200665e-05 -0.090959854 -0.1441497 -0.16123237 0.0023888154 0.00981846 -0.13388057
-0.0871824 -0.07667907 -0.0025465514 -0.02181009 -0.21228987 -0.15039223 -0.14760384 -0.04703441
-0.15544544 -0.024019413 -0.05841307 -0.17523246 -0.00040705982 0.03244201 -0.0399227 -0.045354057
-0.07936111 0.012196703 -0.029978268 -0.108136944 -0.2847503 0.060640894 -0.2605376 -0.056942277
-0.012836134 -0.06466747 -0.045909688 -0.20419686 -0.036885876 -0.11634758 -0.0068423892 -0.039163712
-0.16474807 -0.17589489 -0.09905356 -0.005451487 -0.18107301 -0.13859068 -0.1414204 -0.09461143
-0.17304777 -0.03058863 -0.045608953 -0.1814085 -0.0022972045 0.006298916 -0.0057849195 -0.026914483
-0.05723761 -0.1604159 -0.08085092 -0.14569236 -0.04809948 -0.1835059 -0.04839373 -0.10806428
-0.12669614 -0.014089036 -0.08410565 -0.01414894 0.054766715 0.0046534324 -0.048788425 0.19591388
-0.1117086 -0.023428902 -0.09100207 -0.009671544 -0.17493676 -0.09129944 0.067496836 -0.1801976
-0.18429963 -0.08675642 0.037498243 -0.07482577 -0.09949163 -0.12398738 -0.053923264 -0.14613196
-0.10440194 -0.11956873 -0.03307645 -0.056687616 0.042808842 -0.05041255 -0.09623786 -0.08257934
0.051747363 -0.1051247 -0.07841939 -0.14270574 -0.06161617 -0.17926069 -0.026612002 -0.09205551

fc2.weight f4 [64, 256]
00000000: 3dec c3be f7ef 5c3e d655 fc3d 7c49 a6bd
00000010: 4f81 843d a104 b9bb c2f9 173e b56e 1b3d
00000020: 1772 813d 2eeb 1fbe fd25 c9bd 1c37 7fbe
00000030: 38c8 1abe 1dd2 b4be 7846 773d 180d a03d
00000040: c909 f63c 2085 ebbc 8bdc eebc 5c48 43be
00000050: 2b58 72be b1e3 2d3d 0a76 8a3d bb00 843d
00000060: 7884 9e3d a457 033e efbd e5be a95b a43b
00000070: d2f5 333e 1f48 353e 7f82 67be 6adf a73a
00000080: eea8 8ebe 9741 613d d686 563d 68ea 5d3e
00000090: b736 4bbd 10f6 0d3c 0827 023d 4b89 2dbe
000000a0: 8c25 05bf 3e3a 3e3d d337 193e 9d71 583e
000000b0: 21e2 063d 0e21 f93d aebc a1bd 61a8 a03e
000000c0: b5a2 90bd 2f54 283e 873e 52bd 0a0d 8fbd
000000d0: 1ded 5abe 2082 523e c88a 8f3c c473 1b3e
000000e0: 61da a13d eb4c 883e 7390 1bbd e25c d5bd
000000f0: 7bbf b43b 0b8c ca3d d481 3cbe 4c86 343e
00000100: e6ef c3bd 217e 1a3e 8532 993e 220f c73d
00000110: f392 f33d 0a3e b13d d128 c3be f5e7 87be
00000120: 49b0 1ebe 5c85 e5bd 1154 d9bc dd02 2c3e
00000130: 483a d93d 7d5c 4b3e 5879 9f3c e122 913d
00000140: e7fa 063e 75f5 763d d1d6 e13d afa3 973e
00000150: fb00 9f3d 334b c53e d375 06be cf8b 8e3b
00000160: 0c88 ee3c 13de 8a3d fbd0 debd 7b82 223c
00000170: cdbb 98be a6ff 343d a290 1bbe 87ba 85be
00000180: 0604 f0bd b783 d13e acce d93d 936a 0fbc
00000190: 8d3d 64bd 20e3 31bd 59b9 323e ab14 8c3e
000001a0: 433f cbbd 59c8 25bd 99df 073e 44f1 af3d
000001b0: 2f39 843d d8dc 1b3d 2d04 8dbc d3c1 e2bd
000001c0: 737a 383e debe d23d d37f 963e 1677 a9be
000001d0: 2ad3 4fbd 75c6 683e 8378 54bc c647 a33d
000001e0: 0938 353d 49e8 29be 6d1f 943d aaa9 71bd
000001f0: ffee 093e 33fc 863e 9410 7ebe d2ea 723e
00000200: 9ce6 37bd 2a5a e7bd 7612 a23e 2189 17bc
00000210: 4ea5 9b3e ec42 1bbe c0fe 5cbe b0cd 333d
00000220: 950a edbd d4ea 943d 43e3 81bd de60 013e
00000230: 7c25 463e 2474 583e d816 663e 447f 4c3d
00000240: 28b9 50bd e009 cabd 823e 1cbd 3bd6 c83d
00000250: 3ddb 57bc eb34 e03d 1fac afbe 7863 cabd
00000260: 69e5 85be 654c b3bc 5de7 ffbd cf1c 47be
00000270: 2c7b 5e3d 97ad b73d 357f 253e 7380 3b3e
00000280: 99ab 4d3d 517f 8a3c 1c23 653e 65d7 a8bd
00000290: 53d7 423d 8e69 0d3e ec45 43be 9251 d8ba
000002a0: 4df1 0f3e e28e 09be 9c43 2d3c 1b01 e73d
000002b0: 1cc5 86be 2e49 5c3c dc53 7bbe aa19 a43b
000002c0: e9f4 98be 0efa a43b dbd1 d53d 71b1 56bc
000002d0: 5509 953d 2736 953d 741e 13be 4ebf 0d3e
000002e0: 0624 813d a521 97bd 6c48 3c3c 9d0e 25be
000002f0: 708b e8bd 86a8 bdbe ef24 6cbe c2e4 063e
00000300: eede 2dba ddef fc3a b1a1 38bd bf9f 62bd
00000310: 3fe5 643e 0955 ea3d 402f 643c 5663 8f3e
00000320: bfa2 dcbd 9981 e1bd fe13 1c3e 3965 53be
00000330: abe0 0bbe 7923 483e ade4 673d 8a77 013e
00000340: 0bd9 e5be 5c34 f03d 3dd9 1a3d dc3c 4a3e
00000350: 6ed7 ed3d eba6 b03d 2a8a 39bd e585 48be
00000360: 3eca 1ebe 5f43 9e3e 6434 813e c713 003e
00000370: 4ddc 2c3e 24fe 5a3e c95a 8d3e f272 eb3c
00000380: 89c8 9d3d 65c1 943d 66fe 7e3e a064 ac3d
00000390: 05c4 513d f53f 0ebe c18d 8e3e d973 dd3d
000003a0: bb14 ef3c 718f 24be 4fca 083e 0176 1a3c
000003b0: e2bb 0b3e f282 463d df60 3b3d d9ec a6bd
000003c0: cb5c b23d 4474 b23e 3b5f 65be 7eef 93bd
000003d0: 85c5 ecbc 73c2 47be 9770 163e b57d 743e
000003e0: cc80 503d aebb 3dbe 02ae d13d 6c8f 11be
000003f0: 6ded c7be 3f33 4e3d 817c babe db73 093e
-0.38266173 0.21575914 0.123210594 -0.08119485 0.06469976 -0.0056463038 0.14841369 0.037947375
0.06320589 -0.15617058 -0.09821699 -0.24923366 -0.1511544 -0.35316554 0.06036994 0.078149974
0.030033963 -0.028750002 -0.029157897 -0.19070572 -0.23666446 0.04245347 0.067607954 0.06445452
0.0774011 0.12826401 -0.4487147 0.0050158096 0.17574242 0.17703293 -0.22608374 0.0012807671
-0.27863258 0.054994192 0.052374683 0.2167145 -0.049612727 0.008664623 0.031775504 -0.16946904
-0.52010417 0.046442263 0.14962701 0.2113709 0.032930497 0.12164508 -0.07897316 0.31378463
-0.07062284 0.16438363 -0.051329162 -0.06984909 -0.21379514 0.20557451 0.01752223 0.1518088
0.079029806 0.26621184 -0.037979554 -0.104181066 0.0055159903 0.09889992 -0.184089 0.17629355
-0.09567241 0.15087177 0.29921356 0.09719683 0.11893263 0.08654411 -0.38117078 -0.26544157
-0.15496935 -0.11207077 -0.026529344 0.16797967 0.106068194 0.198595 0.01946704 0.07086731
0.13181649 0.06029268 0.11027301 0.29617068 0.07763859 0.38533935 -0.13130884 0.0043501626
0.029117607 0.067806385 -0.108797036 0.009918804 -0.2983078 0.044189118 -0.15191892 -0.26118872
-0.117195174 0.40920803 0.10635123 -0.008753437 -0.055722762 -0.043429494 0.17453517 0.27359518
-0.099241756 -0.04047427 0.1326889 0.0859094 0.064562194 0.03805241 -0.017213905 -0.11072125
0.1801546 0.10290311 0.29394397 -0.33098668 -0.05073849 0.22731955 -0.012968185 0.07972674
0.044242892 -0.16592516 0.072325565 -0.058999695 0.13470076 0.26364288 -0.24811012 0.2372239
-0.04489766 -0.11296494 0.3165471 -0.009249003 0.30399555 -0.15162247 -0.21581554 0.04389733
-0.11574284 0.072713524 -0.06342175 0.12634608 0.19350237 0.21138054 0.22469652 0.049926057
-0.05095783 -0.09865165 -0.03814555 0.09806486 -0.013174829 0.10947593 -0.34311005 -0.098822534
-0.2615159 -0.021887014 -0.12495301 -0.19444583 0.054316685 0.089686565 0.16161807 0.18310718
0.050212476 0.016906412 0.22376674 -0.08244208 0.04756863 0.13809797 -0.19069642 -0.0016503802
0.14056893 -0.13433412 0.010575201 0.11279508 -0.26322258 0.013445182 -0.24543709 0.005007942
-0.29874352 0.0050346917 0.104404174 -0.013103829 0.072771706 0.07285719 -0.14367086 0.13842508
0.06305699 -0.07379464 0.011491876 -0.16118856 -0.113547206 -0.37042636 -0.23060964 0.13173202
-0.00066326454 0.0019297559 -0.045076076 -0.055328127 0.22353075 0.114420004 0.013927281 0.28005475
-0.10773229 -0.11011047 0.15242001 -0.20644082 -0.13659923 0.19544782 0.056614567 0.12643257
-0.44892153 0.11728737 0.03780483 0.19749779 0.116133556 0.08625587 -0.04529778 -0.19582327
-0.15506837 0.30910775 0.25235283 0.12507544 0.16880913 0.2138601 0.27608326 0.028741334
0.07704265 0.072634496 0.24901733 0.0841763 0.05121233 -0.13891585 0.27842525 0.10813112
0.02918469 -0.16070344 0.13358425 0.009427548 0.1364589 0.048464723 0.04574668 -0.08150644
0.08709105 0.3485433 -0.22399609 -0.07223414 -0.028902778 -0.1950777 0.14691387 0.23876078
0.05090408 -0.18528625 0.102382675 -0.14214867 -0.3904833 0.05034184 -0.36423114 0.13423102

fc2.bias f4 [64]
00000000: cdbc c83b 339e fbbc a1d9 a0ba f311 c8bb
00000010: da97 01bc f327 343c 814f 983c 6603 013d
00000020: c888 783c dce1 24bd 7d42 f53b 7d4a 333b
00000030: b3a5 023d 1bae 99b9 1284 273d 3839 173a
00000040: c1bf 6e3d 334b dbba c4d3 893a 9dcf 983d
00000050: 1505 bcbb ba1d 923b 2034 153c 363c 963d
00000060: f8a0 583c 819e 9c3c 7bd8 673a aba5 c23c
00000070: ef69 003d cbf3 9c3b 35ab eabb b501 12bc
00000080: 3960 f23c b5fb 3a3d 8694 453d 2b7e b83c
00000090: c26f 1a3d bc64 43bc 1710 fe3c b042 a53c
000000a0: 38e7 a53c 0c70 4f3d b9c1 083c fb64 ab3c
000000b0: ed28 453c 8f63 1e3a a22a 373c f547 693b
000000c0: e0f3 fe3c 179e c03b ca82 9f3d 4c6f 083d
000000d0: 7077 9f3b 1704 1fbc 3d34 d83c 666b fa3c
000000e0: 20fb 2a3d 7059 12bb 1b06 a7b8 48c5 7fba
000000f0: bf1c 0e3c dc0f 50bc 6865 97bc edbd 183e
0.0061260224 -0.030715084 -0.001227189 -0.0061056553 -0.007909739 0.010995853 0.018592598 0.03149738
0.01516933 -0.04025446 0.0074847327 0.002735763 0.031896304 -0.00029312153 0.040897436 0.0005768719
0.05828834 -0.0016730785 0.0010515382 0.07461474 -0.0057379105 0.00445911 0.009106666 0.07335703
0.013221972 0.01911855 0.0008844209 0.023760637 0.031351026 0.0047898046 -0.0071615227 -0.00891154
0.029586898 0.045650203 0.048237346 0.0225211 0.037704237 -0.011925872 0.031013532 0.0201734
0.020251855 0.050643966 0.008346968 0.020922175 0.012033683 0.0006042057 0.011179598 0.0035595868
0.031122148 0.005878221 0.07788618 0.033309266 0.004866533 -0.009705565 0.026392097 0.03056879
0.041743398 -0.002233114 -7.964318e-05 -0.0009756875 0.008673846 -0.012699094 -0.018480971 0.14916201

ln2.weight f4 [64]
00000000: 3dce 9e3f f83a 873f b7f7 983f 656e 953f
00000010: 5b37 ad3f 48d0 a33f ece5 913f 87c4 803f
00000020: 7012 b33f 94c1 833f 3220 803f bafd 993f
00000030: f08e 8b3f 1422 513f 03a4 923f 4abf c63f
00000040: 22ea b93f 6aa0 b63f 7b94 6a3f b9ac 8f3f
00000050: 2245 593f bbff 993f 88ec af3f f6e4 8a3f
00000060: aee8 713f 2da5 9b3f d0ee 5a3f 78bf af3f
00000070: 3704 923f 58c0 9c3f 900a 573f ba57 863f
00000080: 152a 803f 4107 a13f f3f1 703f 2ea0 883f
00000090: f4e9 bf3f 168c 503f 9dca 2c3f 6af6 a03f
000000a0: 4479 883f 0ece 853f 5feb 673f d224 903f
000000b0: bb03 8d3f f7c1 9f3f b7c9 7f3f 9582 9e3f
000000c0: ab69 8e3f 5dc3 7b3f 7e3f bb3f 7639 993f
000000d0: 81c5 843f da34 9c3f ad57 853f f4f7 723f
000000e0: aef1 993f 146d b13f bc3d 833f 2549 833f
000000f0: 9cc6 963f eea6 af3f 94be 8a3f c519 953f
1.2406689 1.0564871 1.1950597 1.1674315 1.3532518 1.2797937 1.1398292 1.0059975
1.3990002 1.029345 1.0009825 1.2030556 1.0902996 0.81692624 1.1456302 1.5527127
1.4524577 1.4267704 0.91632813 1.1224586 0.84871113 1.2031168 1.3744059 1.0851123
0.94495666 1.2159783 0.8552065 1.3730307 1.1407536 1.2246199 0.8400049 1.0495522
1.0012842 1.2580339 0.94119185 1.0673883 1.4993272 0.81463754 0.67496663 1.25752
1.0662007 1.0453508 0.9059352 1.1261237 1.1016763 1.2481068 0.9991717 1.23836
1.1125997 0.98344976 1.4628751 1.1970661 1.0372773 1.2203629 1.0417382 0.94909596
1.202688 1.3861413 1.0253215 1.0256697 1.1779361 1.3722818 1.083941 1.1648489

ln2.bias f4 [64]
00000000: c348 80bd 1dd7 43be cac7 18be 2d3f ce3c
00000010: 8509 3cbe c091 5ebe 5b80 20be 47b3 8dbb
00000020: edf1 4cbe 3575 5abe a911 28bd cafc bebc
00000030: 9ba7 e53c d50e 9bbe 8b2d 943d 5081 4c3b
00000040: 61f6 a7bc 70c3 bfbd 20cf 7dbe 0023 913d
00000050: 3f9a 52be 9b07 57bc d4c2 e2bd d17f 163d
00000060: 9b88 ac3b 65d0 37bd 4f3f 20be 00e8 c8bd
00000070: e68a 94bd d6c4 04be 3757 2abd 16cc 08be
00000080: f2fb d2bb 2301 acbd d612 6c3d 3933 8abc
00000090: 868f 9fbd cc65 96be b1f8 c6be 7325 3d3b
000000a0: 9951 c9bc 111d 52bc b7f9 12be df9d 9ebd
000000b0: 824b 2c3d d200 143d 33a7 80bd dd31 e4bd
000000c0: 3c65 c8bc d8f4 7dbc 94e6 ce3c c68b 4bbc
000000d0: 68a6 cfbc fdf1 34bc a33d 453a 89ef 24bc
000000e0: 13df 323d 41c0 c5bd fe88 abbc e82f 3f3c
000000f0: 7260 4cbe 7b94 00be eded 43bd 273f 2cbd
-0.06263878 -0.19125028 -0.14919963 0.025176609 -0.18363006 -0.21735287 -0.15673964 -0.00432435
-0.20014162 -0.21333773 -0.041032467 -0.023313899 0.028034022 -0.30284753 0.07235249 0.0031205006
-0.020503225 -0.093634486 -0.24786043 0.07086754 -0.20566653 -0.013124372 -0.11072317 0.03674299
0.005265308 -0.044876475 -0.1564915 -0.098098755 -0.07253055 -0.12965712 -0.04158708 -0.13359103
-0.0064387256 -0.08398654 0.05763515 -0.016870128 -0.07791047 -0.2937454 -0.3886161 0.0028861433
-0.024575042 -0.012824313 -0.14353071 -0.07744955 0.042064197 0.036133595 -0.06281891 -0.11142323
-0.024462335 -0.01550027 0.025256433 -0.012423461 -0.025347903 -0.011044023 0.0007524138 -0.010066875
0.04366977 -0.0965581 -0.020939346 0.011669137 -0.19958666 -0.12556641 -0.047834326 -0.042052414

action.weight f4 [4, 64]
00000000: 25f1 da3b def2 bebe e386 473d cede 79be
00000010: c82c 1d3f 1ee0 e03e bf4d f2bb cbde f73b
00000020: 1546 03bd 74b7 6e3c 341f 193d 17ea 813b
00000030: 0c9e 79bd dd3a c43d d4e0 0d3a b84a a43b
00000040: a038 983c 6ec9 d7be cbda 3f3e 0748 b13d
00000050: 3910 553e ac81 493e bd94 9fbc 6604 58bc
00000060: 0449 f33d c0a1 19be 7da2 50bd 471f 2c3c
00000070: 51e8 30bd 0c62 59be dcd3 263e 39f6 ca3d
00000080: 2a89 c2bc fa43 12bc ce14 35be c8c9 c53c
00000090: e794 bc3c 09cc 7f3d db96 19bc 9a30 463d
000000a0: ec13 823d 4986 bd3c 2973 afbc 0625 fe3b
000000b0: 3b2f cd3c e640 21bd b196 e73d d36d 443c
000000c0: 79b5 c33b 8ed5 bebd 06b0 573a f25f b93b
000000d0: 6076 18be 7eca 75be faf6 c33d 89f9 76bd
000000e0: b39a 5cbd 8f9a 003d 6b50 17be 4bae a6bd
000000f0: de9f 513d 9151 633b 7c4f 2bbe 1914 01bc
00000100: d625 143f 6b44 253e b452 233f e3a3 3fbf
00000110: f4b3 813e 86ba 9b3e 93e1 86be 533b 923e
00000120: 5f06 dfbe aed4 a73e b95b 0c3f 8ee5 e73e
00000130: 4a38 ac3e d845 b3bd 9a58 b33e 129b 81bc
00000140: 2bde ee3d 2986 113f 3559 07bf 6d7d 6fbe
00000150: 22ad b7be 2aa1 033e d877 343f cffe 5ebd
00000160: 8a17 a13d 9de3 78bd 2513 a83e 1263 6abf
00000170: 587d 863e 95a5 ab3e 02a1 46be babf 15be
00000180: 6a44 33bf a9a3 88bf 5cc0 45be cb87 9bbd
00000190: 4242 10be 835c 02be f9ba 3d3d eb41 d53e
000001a0: 57a2 343e 91a2 9ebe 2429 2a3d 0222 98be
000001b0: 6c6e cb3e c34e 27be d73f 113e 7128 693e
000001c0: 02ed abbd b2bd 4ebe 8c82 e3be 63ff a93e
000001d0: 9aff cf3d 5dda 2a3f f1c9 a03e 056d 0ebf
000001e0: 6cfe 1f3f 8d6e c83e 252b 153f 65e0 a0be
000001f0: 0e7a fcbf 6077 8f3f 6873 d9bd ae36 afbe
00000200: aec8 533f 6ee5 0cbe bf09 f53e e259 37bf
00000210: f7f4 bfbd a337 83be 9273 313f b85c 64be
00000220: baca 323e 3510 9d3d de2d b1be 3b4a 9cbc
00000230: e727 5e3e ba62 9cbc 6263 07be 9394 40bf
00000240: 3193 903f 646f cb3e a561 e5be f696 453f
00000250: 85f7 4f3e bc45 03bf 45e5 b1be a46c 0c3e
00000260: 3f73 d03d 7cad 2bbf c3fd 8f3e a8cb e8be
00000270: 4de9 823e 5520 643e 20c9 c23e 8cd3 24bf
00000280: fb14 313d ceb8 7f3e de74 333c 0b3a 1abf
00000290: dbdf 26bf 6264 54be d61e 84bd 4d98 18be
000002a0: 55fe ccbe f16f 003e c265 59be 1bb0 6ebe
000002b0: c793 833e 5d41 77bf 71b4 20be e5ae 233f
000002c0: 09e2 b3be 487e 5f3f fe11 03be e8bd 1abf
000002d0: 0033 66bf d610 0bbf 7eb4 46bf 5312 4a3d
000002e0: 483c cc3d b847 3abf d830 663d ea8d 16bd
000002f0: f081 413e 9d67 9f3c c4be 693f 4d7d b73e
00000300: 5eae 2ebe 15cc 40bd 1cfc 3dbf 7f73 223e
00000310: 86e4 023e fca3 033e 294c 1b3e 68e9 8c3c
00000320: eed9 473f a8bc 703e bef4 633e f4b0 6a3f
00000330: 6188 7cbe db17 abbb e72a 76be 3297 cd3e
00000340: 671e 84bf fe04 733e 5818 c0bc 742c 6cbe
00000350: 554b 8dbd 0083 413e 387e 323f 1909 0dbf
00000360: 96eb e9bd f77f 2c3f a530 43be 288f 6a3d
00000370: 5b1b 063f 85ba 343e e8c0 94be fb6b 133e
00000380: 65f1 8f3e 6718 b73e 14ca 0f3e 07c4 3ebd
00000390: 5e75 0b3f 2c1f 93bd 642b 70be f702 1fbf
000003a0: f0ff ad3e 2236 82be 5e8f 173d 683d c43e
000003b0: 9237 d1be 8757 ad3e ce84 693e 184f 3dbe
000003c0: 4f16 453e f5fd 8f3d 24d9 093f 9051 40be
000003d0: 409c 023f 02cc 85be 9971 bd3e a766 b9be
000003e0: ef44 81bd c935 003e 1a89 1d3e da07 5f3f
000003f0: a819 753e 73c9 233e 7f3a eebe 907d 40be
0.0066815787 -0.37294668 0.048712622 -0.244014 0.61396456 0.43920988 -0.007394522 0.007564401
-0.032049257 0.014570106 0.037383273 0.0039646733 -0.06094174 0.0958154 0.0005412225 0.00501379
0.018581688 -0.42145866 0.18735807 0.08656316 0.2080697 0.19678372 -0.019480104 -0.013184642
0.11879161 -0.15003109 -0.05093621 0.010505504 -0.043190304 -0.21228808 0.16291755 0.099102445
-0.023747046 -0.00892734 -0.17683718 0.024144068 0.02302022 0.062450442 -0.009374346 0.048386194
0.06351456 0.023135321 -0.021417217 0.0077558784 0.025046935 -0.039368533 0.11308039 0.011989075
0.005972561 -0.09318076 0.00082278287 0.0056571895 -0.14888906 -0.24003026 0.095685914 -0.06029657
-0.05385847 0.0313974 -0.14776771 -0.081387125 0.05117785 0.0034686069 -0.1672954 -0.007878327
0.57870233 0.1613938 0.6379807 -0.74859446 0.25332606 0.30415744 -0.26343974 0.28560886
-0.43559548 0.3277945 0.5482746 0.45292324 0.33636695 -0.08753556 0.35028535 -0.015821014
0.11663469 0.5684534 -0.52870494 -0.2338769 -0.35874277 0.12854448 0.7049537 -0.054442223
0.07865818 -0.060763944 0.32827106 -0.9155742 0.26267505 0.33524767 -0.19397357 -0.14623919
-0.70026267 -1.0674945 -0.1931166 -0.0759426 -0.14087775 -0.12730603 0.04632089 0.41651854
0.17640053 -0.30983403 0.04154314 -0.29713446 0.39732683 -0.16338639 0.14184509 0.22769333
-0.08394815 -0.2018955 -0.44435537 0.33202657 0.10156174 0.66739446 0.3140407 -0.556351
0.6249759 0.39146844 0.5826896 -0.314212 -1.9724748 1.1208305 -0.10617715 -0.34221405
0.8272809 -0.13759395 0.47858998 -0.71621525 -0.09372895 -0.25628385 0.6931697 -0.22300994
0.17460147 0.07669107 -0.34605306 -0.019078365 0.21694909 -0.019090045 -0.13221505 -0.75226706
1.1294919 0.39733422 -0.4480106 0.77183473 0.20309265 -0.5127828 -0.3474523 0.13713318
0.101782314 -0.6706159 0.28123292 -0.45467877 0.2556862 0.22277959 0.3804407 -0.64385295
0.0432329 0.24972841 0.010953156 -0.60244817 -0.65185326 -0.20741418 -0.06451194 -0.14901848
-0.4003779 0.12542702 -0.21230224 -0.23309366 0.25698683 -0.9658411 -0.15693833 0.6393874
-0.3513339 0.87302065 -0.12799832 -0.60446024 -0.8992157 -0.54322565 -0.7761916 0.04933388
0.09972435 -0.72765684 0.056198925 -0.036756434 0.18897223 0.019458586 0.9130671 0.35837784
-0.17058703 -0.047069628 -0.74212813 0.15864371 0.12782487 0.12855524 0.15165772 0.01720114
0.7806691 0.23509467 0.2226133 0.9167626 -0.246614 -0.0052213497 -0.24039803 0.40154415
-1.0321778 0.23732373 -0.023449108 -0.23063833 -0.06899134 0.18897629 0.69723845 -0.55092007
-0.114218876 0.6738276 -0.19061525 0.05726543 0.5238549 0.17649277 -0.29053426 0.1439666
0.28113857 0.35760805 0.1404193 -0.046573665 0.54475963 -0.0718368 -0.23454052 -0.621139
0.33984327 -0.25431925 0.03700196 0.383281 -0.4086271 0.3385584 0.22804567 -0.18487203
0.19246791 0.0703086 0.53846955 -0.18781114 0.5101967 -0.26132208 0.3700073 -0.3621113
-0.06311976 0.12520517 0.15384331 0.87121356 0.23935568 0.15994816 -0.46529004 -0.18797898

action.bias f4 [4]
00000000: d52b a4bc c0b9 8f3c e051 bc3c df8f 6abd
-0.020040432 0.017544627 0.02298826 -0.057266112
