checkpoints/DDPG/Actor/DDPG_actor_1000.pth (torch, 183143 bytes, 10 tensors)

fc1.weight f4 [256, 41]
000000 6e 30 fd bd a9 1a a0 3e f6 8a 39 3e a9 03 29 be
       -0.12362753 0.3127034 0.18119416 -0.16505302
000010 d0 70 05 be 87 37 ad bc be a0 de 3d 6f 97 54 3e
       -0.13031316 -0.021144642 0.10870503 0.20760892
000020 79 e6 33 3e 81 78 ab 3d 5c c8 8d bc b3 61 5a 3e
       0.17568387 0.08372594 -0.017307453 0.21326332
000030 1b 2f 38 3d 38 a5 90 3d a1 f8 4e 3e 61 1e 04 be
       0.0449668 0.07062763 0.20212032 -0.12902214
000040 24 df 61 be e3 46 4e bd 88 63 ae bd 92 47 0d be
       -0.22057778 -0.05036057 -0.08515078 -0.13796833
000050 60 10 9d 3d 4d cd 2c 3e d6 a7 64 3c 89 98 97 bd
       0.07669139 0.16875191 0.013956031 -0.07402141
000060 2f 41 12 b9 32 8f df bc 37 5a 79 3e 2b ae 41 3c
       -0.00013947928 -0.02728996 0.2435082 0.01182131
000070 30 13 9a 3e 73 32 92 bd da 66 bd bd c2 5b 02 3e
       0.30092764 -0.07138529 -0.09248133 0.12730315
000080 9f 59 3f 3e 62 74 1c 3e a9 cc f6 3d c8 02 d8 be
       0.18686531 0.15278772 0.120507546 -0.42189622
000090 0d 66 4f 3e 7a 76 72 3e 67 c9 34 3d eb dc e3 3d
       0.20253773 0.23678008 0.044137385 0.11126121
0000a0 05 d7 8f 3c 5c 60 ac bd 19 ec 9f 3d 8c ad 47 be
       0.017558584 -0.084168166 0.07808704 -0.19499797
0000b0 c5 92 95 3d 42 5a bc bd 0c 0f 81 bd df 06 06 be
       0.07303385 -0.09196903 -0.06301698 -0.13088559
0000c0 14 e4 98 3d 68 83 a6 3b 7d 2d 89 3c c7 ee d7 bd
       0.074653774 0.005081583 0.016745323 -0.1054359
0000d0 4a 98 33 be a1 6e e7 bd 98 53 2b bc c4 da 01 3d
       -0.17538562 -0.11300398 -0.010456942 0.03170277
0000e0 79 ce 36 be 2d c3 96 bd 4d 04 60 be 6b 70 53 be
       -0.178522 -0.073614456 -0.2187664 -0.20648353
0000f0 1e fe 49 be db 75 24 3e 94 00 f2 3d 53 e7 cf 3e
       -0.19725844 0.16060583 0.118165165 0.40606174
000100 dc 40 ad 3e 49 39 08 3f d2 b7 cd 3e 6a 9e 24 3f
       0.33838546 0.5321241 0.40179306 0.6430422
000110 f2 6e 55 be 7d 12 a1 3e 99 99 09 be 28 28 2b 3e
       -0.20843104 0.31459418 -0.13437499 0.16714537
000120 6f 49 af 3d 0a ef 1c bd 21 5e 06 be 3c d9 c4 bd
       0.08558928 -0.038313903 -0.13121845 -0.09611747
000130 f4 7d 3d bf 1b 58 3a 3e bd 8a 5e bd 01 16 51 3c
       -0.74020314 0.18197672 -0.05433153 0.012761594
000140 09 94 91 bd ec 4a 28 3e 88 f4 1e 3d 9d 5d 78 be
       -0.071083136 0.1643483 0.038807422 -0.2425446
000150 b3 cc 5b 3c bd 5f 62 be d0 3e 5a be de 10 24 be
       0.013415503 -0.22106834 -0.21313024 -0.1602206
000160 8c 9d 3d be 44 b6 35 bd 80 9e 18 be d9 6d 8b be
       -0.1851713 -0.044363275 -0.14904213 -0.27232245
000170 fb 24 35 bd 24 28 0b 3e dd 06 0f 3e 69 08 11 3e
       -0.04422472 0.13589531 0.13967462 0.14163364
000180 7c 0b e3 bc 33 e1 07 be ab 4b c6 bd f9 8b 44 3c
       -0.027715437 -0.132695 -0.09682401 0.011996263
000190 f7 81 ad 3c 22 1a e5 bd 12 1b 1a be 94 02 be 3b
       0.021180136 -0.11186625 -0.15049389 0.005798647
0001a0 30 fc 27 be a6 78 5d be fc 22 60 be 82 5a 8e be
       -0.16404796 -0.21628055 -0.21888345 -0.27803427
0001b0 43 7e 88 be 44 28 a4 bd 05 a1 00 be 8c c0 89 3d
       -0.2665883 -0.080154926 -0.12561424 0.067261785
0001c0 86 1f 8d 3d f3 1b 76 bd f0 b4 41 3d c7 26 08 3d
       0.06890778 -0.06008525 0.047291696 0.033240106
0001d0 c8 c7 9d bd 72 75 03 3e 17 42 32 be f6 9d 39 be
       -0.07704121 0.1283777 -0.17408024 -0.18126664
0001e0 87 ea ab 3c 2f bb 54 be 00 9a 70 bd 96 53 d1 3d
       0.020985855 -0.2077453 -0.058740616 0.10221021
0001f0 7b 02 a6 be bf 86 08 be 9c 64 70 bd 93 52 cd bc
       -0.32423767 -0.13332652 -0.0586897 -0.025063789
000200 fb ad 6c 3c d3 08 07 be f1 50 18 be 3c fe a8 be
       0.014445777 -0.1318696 -0.14874627 -0.33006465
000210 69 6f 5a be 2d 32 00 be 26 15 d3 3d ef b2 48 3d
       -0.21331562 -0.1251914 0.10306768 0.04899877
000220 6c 60 bb 3c ee 91 4d 3e 42 f8 bb 3e ae 45 07 3e
       0.022873126 0.20075199 0.36712843 0.13210174
000230 f6 10 dc 3e 18 15 cf 3d 0a 3b a8 bd 0c a6 be bd
       0.4298169 0.10111445 -0.08214386 -0.09309015
000240 31 f4 79 be a3 81 f8 be e6 da 92 be b0 91 4b be
       -0.24409558 -0.48536405 -0.2868263 -0.19879794
000250 50 a8 a7 bd 29 ab 77 be 6b f7 c9 3c 06 ff e8 bd
       -0.081864 -0.24186386 0.02465411 -0.11376767
000260 d6 c9 5a 3e e5 4b 9e bd f7 f6 09 be 4b 89 41 3e
       0.21366057 -0.077293195 -0.13473116 0.1890003
000270 ed 24 89 bd c6 ac fd bd d6 57 c7 3e 46 4d 6f 3e
       -0.06696496 -0.123864695 0.389342 0.23369321
000280 43 bd 19 3a 72 5b b3 3c a4 a8 79 3d c3 cf 32 3e
       0.0005864689 0.02189419 0.060951844 0.17462067
000290 32 7a 95 3e 63 30 5a 3e 0e 9d e7 be ec ef fa 3c
       0.2919479 0.2130752 -0.4523701 0.030631982
0002a0 66 1b 5f be a6 66 17 3d b7 38 ed bd 03 f8 d1 bb
       -0.21787795 0.036963128 -0.11583083 -0.006407739
0002b0 75 2d 07 3c f7 94 89 3d 42 e5 c8 3d f8 4e cc 3b
       0.008250584 0.06717866 0.098093525 0.0062349997
0002c0 f2 f5 54 be d7 78 b9 be 9a 15 08 bf e0 d6 d4 be
       -0.20796946 -0.36225006 -0.5315796 -0.41570187
0002d0 a9 f6 da be 05 3b 45 be dd 1b bd be 9c 01 26 be
       -0.42766312 -0.19260795 -0.3693532 -0.16211551
0002e0 8a 4f 0d 3d b3 80 29 3c 9a dc 82 3e c2 22 ce 3d
       0.034499682 0.010345626 0.2555893 0.10065223
0002f0 31 d7 89 3d 08 3e 6d 3d c3 3c b2 3e 75 39 b4 bb
       0.06730498 0.057920486 0.34811983 -0.0055000135
000300 cb 0d 8e 3e ec f3 19 bd 1a 3f 85 3c cc 54 53 bd
       0.27744898 -0.037586138 0.01626544 -0.05159454
000310 e7 2a f5 3c 6d be ff 3d 14 46 45 bd e2 45 f3 be
       0.029927684 0.12487493 -0.048162535 -0.47514254
000320 ea e6 6f be 0a 4e 1b bd 55 47 86 3c 74 9b 6a be
       -0.2342793 -0.03791622 0.016391436 -0.22910863
000330 83 7d 91 3d 58 51 a6 bd 1d ab 5f 3e 0c b4 42 3e
       0.071040176 -0.08120984 0.21842618 0.19013995
000340 e2 18 39 3d 05 c4 51 bc 41 3e 90 3d c8 d2 91 3d
       0.045189746 -0.012803082 0.07043124 0.071202815
000350 dc 7e 45 3e 9f 49 07 3e 67 1e 49 3e 60 d4 56 3e
       0.19286674 0.13211678 0.19640504 0.20979452
000360 27 da 98 3d 67 69 96 bd 78 f2 e2 3c f3 62 2e 3d
       0.07463484 -0.07344323 0.027703509 0.042574834
000370 d3 86 d2 bc 2b b8 8f 3c a7 22 35 bd 55 ed 6e 3c
       -0.025699055 0.017543873 -0.0442225 0.014582952
000380 10 c7 aa bd 2b a4 7c be 2c 5d 3d bd 39 ab 36 3d
       -0.083387494 -0.24672 -0.046231434 0.044596884
000390 99 64 30 3c a1 85 25 be 76 ad c5 bd 64 30 85 3e
       0.010766172 -0.16164257 -0.09652226 0.26013482
0003a0 9c 7e 52 3d d9 18 39 3e 35 85 35 bd 97 33 17 be
       0.051390275 0.18075885 -0.04431649 -0.14765774
0003b0 05 fa 3f 3e 71 93 8e 3e 71 4a ad 3e a8 a2 91 3d
       0.18747719 0.27846864 0.33845857 0.07111102
0003c0 84 b1 7c 3e 45 6f ef 3d 08 8e 55 3d 73 ee b1 3c
       0.24677092 0.11691145 0.052137405 0.021720147
0003d0 46 86 1c 3e f2 e0 00 be b6 a0 ac 3e 6c b9 2c bd
       0.15285596 -0.1258581 0.33716363 -0.04216902
0003e0 0d 3d 94 3d 6d 52 3b 3c d1 b1 93 bd 3d 8a 49 be
       0.07238207 0.011433226 -0.0721165 -0.1968164
0003f0 25 d3 98 bd 77 4b ac bd c3 f2 b4 bd 86 b2 b1 bd
       -0.074621476 -0.08412831 -0.088353656 -0.08676629

fc1.bias f4 [256]
000000 d4 2f df 3d 81 f7 9b bd 4b 87 09 be be 7c f3 bb
       0.10897794 -0.07615567 -0.13430516 -0.007430642
000010 df c1 b3 bd 68 26 40 3e c9 42 de 3d 5e 3f ed 3d
       -0.08777212 0.18764651 0.10852582 0.11584352
000020 c4 7a 94 bd 2a 8d 67 3d 82 0a 0e be f9 0f 0b be
       -0.07249978 0.05653111 -0.13871196 -0.13580312
000030 d1 da a7 3c fd 80 43 3e 23 4f 04 3e 8c 1a d6 3d
       0.020490082 0.19092174 0.12920813 0.10454282
000040 98 2a 92 bc fb cc e3 3d aa 50 81 bd c7 3d 94 bd
       -0.017842576 0.11123081 -0.063142136 -0.072383456
000050 49 35 aa bd 98 5a 4b 3e c1 cd 04 3e 5e 6d 03 3e
       -0.083109446 0.19858778 0.12969114 0.12834689
000060 4e b5 21 3e 9f ee 4f 3e ea 65 d1 bd 95 b0 97 bd
       0.15791818 0.2030587 -0.10224517 -0.07406727
000070 6b 28 43 bd 22 35 07 be 44 31 be 3d 51 12 ab bd
       -0.047645967 -0.13203862 0.092867404 -0.08353103
000080 59 7f 2c 3e e6 21 0c be e8 14 ef 3d 67 7f 12 be
       0.16845454 -0.13684806 0.116739094 -0.14306413
000090 fa a6 02 3e 29 7e e0 bd 23 3a 03 be 64 59 02 bc
       0.12759009 -0.10961563 -0.12815146 -0.007955883
0000a0 0b 66 c6 3d 9a 17 04 3d ec e7 3d 3e 04 87 8c bd
       0.09687432 0.03224907 0.18545502 -0.0686169
0000b0 ec 56 a4 bd c3 b1 80 bd a8 37 fc 3d d6 63 83 3d
       -0.080243915 -0.06283905 0.12315303 0.064155266
0000c0 69 75 0c be 3c 88 14 be 6e e2 01 3d 6c b7 c7 3d
       -0.13716663 -0.14505094 0.03171008 0.09751782
0000d0 a7 f8 07 be 04 9c dd 3d 65 da 07 be a6 7b cf bd
       -0.13278447 0.10820773 -0.13266905 -0.10131006
0000e0 c2 43 26 be 54 20 29 3d 22 aa 41 bc 9b 83 19 be
       -0.16236785 0.041290596 -0.011820348 -0.1499161
0000f0 86 29 0d 3e 72 dd 47 3e 0a cc 7a bc 90 44 13 be
       0.13785371 0.19518068 -0.015307436 -0.14381623
000100 1a a9 19 3d fc 21 80 3d 76 2d 20 3c af 61 11 3e
       0.037514783 0.06256482 0.009776464 0.1419742
000110 f3 41 24 3b af 86 69 3e 81 85 0a 3e dc 2e b7 3d
       0.0025063723 0.22805284 0.1352749 0.089444846
000120 7c c6 a9 bc 74 d2 15 3e 44 00 78 bd 73 6f e3 3d
       -0.020724528 0.14631063 -0.06054713 0.111052416
000130 50 4b 9e bd 4d 34 35 bd c2 c3 5a bd 7f ae 18 be
       -0.077292085 -0.04423933 -0.053409345 -0.14910315
000140 28 b9 58 3d a8 6b 1d ba 26 3e 37 bb 0a fa 92 3d
       0.052910954 -0.0006005117 -0.0027960627 0.071765974
000150 5a 3a 8f 3d a9 41 8c 3d 15 13 17 3e b8 c2 60 bd
       0.069935516 0.06848461 0.14753373 -0.0548732
000160 71 4c 06 be 11 69 17 bd ad 58 c7 3c a1 ac 0d 3d
       -0.13115098 -0.036965434 0.024334276 0.03458846
000170 0b f5 03 be f0 ca 00 bd 63 35 0b be 93 2e e8 3b
       -0.12886445 -0.031443536 -0.13594584 0.00708563
000180 81 69 de bd 5b 48 5e 3d 90 6e 9d 3d 61 66 ad bb
       -0.10859967 0.054268222 0.07687104 -0.0052917455
000190 fb 47 13 be b2 69 30 3e f0 cb 38 be 2c 44 0d 3e
       -0.14382927 0.1722782 -0.18046546 0.13795537
0001a0 5a 76 89 bd f5 e5 b7 bd cc f6 e6 bc ae 1d 88 3d
       -0.06712027 -0.08979408 -0.028193854 0.06646286
0001b0 64 ec 81 3d ff 4e 54 bd d5 f6 14 3e 1d 2a 04 3e
       0.06343916 -0.05183315 0.14547284 0.1290669
0001c0 0b b0 10 3e d0 c3 47 3d 97 85 10 be 55 5f fd 3d
       0.14129655 0.048770726 -0.1411346 0.12371699
0001d0 8b fa a2 bd 6f 14 c1 3d 2a eb f0 3d cd 89 10 bd
       -0.079579435 0.094277255 0.11763604 -0.035287667
0001e0 48 29 ef 3d 71 b8 31 be a4 95 d0 bd 53 87 ff 3c
       0.11677796 -0.17355515 -0.10184792 0.031192457
0001f0 5f a6 1e 3e 14 e8 dd bd cc 8e f9 bd 32 2a fd bd
       0.15493153 -0.10835281 -0.121854395 -0.12361564
000200 92 46 09 be 3a 97 fb bd ba c5 c2 3d 5a 48 0c 3e
       -0.13405827 -0.122847036 0.095103696 0.13699475
000210 fe 68 05 be 34 03 36 3e 34 5d 02 3e 1d be 8a bc
       -0.13028333 0.1777466 0.12730867 -0.016936356
000220 c2 be 0f 3e b7 1c 9a 3d 87 1d fb bd 72 8e ec bd
       0.14037612 0.07525008 -0.12261491 -0.11550607
000230 34 14 00 bc 1f 0a c8 bd d8 5b 0f be 08 4b 83 bd
       -0.007817317 -0.097675554 -0.1399988 -0.064107955
000240 63 57 51 3d f5 7e a4 bd 9d 91 bc 3d 99 1f 6c bc
       0.05110873 -0.08032028 0.09207461 -0.01441183
000250 c9 46 10 be 47 bc 06 3e 48 78 c2 bd 97 f7 f3 3c
       -0.14089502 0.1315776 -0.09495598 0.029781146
000260 07 3e 26 3e 50 78 7a 3d 84 99 32 bc 01 03 a5 3d
       0.16234599 0.061149895 -0.010900859 0.080572136
000270 75 5f 0d be 46 66 11 be e1 64 17 be 1d e5 c8 3c
       -0.13805945 -0.1419917 -0.14784576 0.024523312
000280 1b cb dc 3d 25 84 da 3d f3 48 14 3e 84 50 ab 3d
       0.10780927 0.10669736 0.14480953 0.083649665
000290 f8 d9 ff 3d 20 e2 ea bd 74 f2 b6 bc 9f d9 3b bd
       0.12492746 -0.11468911 -0.022332408 -0.045861837
0002a0 e4 71 13 3c b4 05 05 be e9 7e 36 be d9 bf fc bd
       0.008999322 -0.12990457 -0.1782185 -0.123412795
0002b0 42 c9 0d be e6 9f 12 3e 13 a8 a0 3d 50 bb b4 bd
       -0.13846305 0.14318809 0.078445576 -0.088247895
0002c0 ad ca 1b 3e bf c5 b8 bc b3 7b 02 be 59 e9 f5 bc
       0.15214033 -0.02255523 -0.127425 -0.030018495
0002d0 34 aa 87 3d 70 ce e6 3d f6 81 bf bd 5c c0 cc bd
       0.066242605 0.112698436 -0.0935096 -0.09997627
0002e0 6e 17 34 3b 7b d0 55 bd 5e d7 8a bd e9 b4 56 be
       0.0027479785 -0.052200776 -0.06779359 -0.20967449
0002f0 10 45 9a bd 9b c7 f2 bc 32 a7 fe 3d 19 11 fd bd
       -0.07532704 -0.029636195 0.12434234 -0.12356777
000300 d6 4e fc 3b 14 8f b2 3d 66 5c 8e 3d 69 1f 4c 3e
       0.0076998277 0.08718696 0.06951217 0.19933857
000310 22 2c f3 bd 40 09 09 3e 20 ca 2c be b4 ed ad 3d
       -0.11873652 0.13382435 -0.1687398 0.08492604
000320 2e ab d9 bd d9 7c 9b bd 27 c7 17 3e a9 69 c1 3d
       -0.10628353 -0.07592172 0.14822064 0.09443981
000330 d9 af ff bd 9a 2c 3a 3e 62 1a 7b bd ae 20 03 bd
       -0.12484712 0.18181077 -0.061304457 -0.032013588
000340 0a aa 0e 3d a8 ba 2b 3e 2c 0e 23 bd 8e 7a 1d 3e
       0.03483013 0.16770422 -0.039808437 0.15378782
000350 4c af a7 3c 2f f9 07 be 21 31 cf bd 59 fe 47 bd
       0.02046933 -0.1327865 -0.101167925 -0.04882655
000360 60 3c 42 3e 0b a0 d7 3d 58 a1 2c 3e 31 0c d4 3d
       0.18968344 0.10528573 0.16858423 0.10353888
000370 0e 14 23 be e4 11 f8 3d 06 d2 ad 3d 83 45 3c 3e
       -0.15925619 0.12112787 0.084873244 0.18385892
000380 43 31 16 be bf 5d 8d bc b0 35 49 bd aa f7 36 3e
       -0.1466723 -0.017256616 -0.049123466 0.17867914
000390 78 65 ac 3d 42 93 e1 3d 07 02 16 3d 5a 87 07 be
       0.08417791 0.11014415 0.036623027 -0.13235226
0003a0 8d 68 42 bc 98 3a ef 3d d9 eb c3 bd 1a 03 1a 3e
       -0.011865747 0.11681098 -0.09566469 0.15040246
0003b0 95 04 9f bd 1e ea 09 3e 58 32 07 3d 96 f4 9f 3d
       -0.07764546 0.13468215 0.033006996 0.07810323
0003c0 69 ee 56 3d 72 71 4b bc f9 5e a3 bd 28 a8 c8 3d
       0.05247346 -0.012417184 -0.07977099 0.09797698
0003d0 6e 5c 8e bd 88 0c 21 be b3 c2 36 bd 13 e0 e6 bc
       -0.06951223 -0.15727437 -0.044619273 -0.028183019
0003e0 8f cd 22 be 42 fd 0d bd ef 74 84 bd 22 97 fa 3d
       -0.15898727 -0.034665354 -0.06467616 0.122358575
0003f0 85 3f d0 bd 78 91 cb 3d 11 50 31 bd 4d 89 24 3e
       -0.101683654 0.09939855 -0.043289248 0.16068001

ln1.weight f4 [256]
000000 fd cb 5a 3f 46 2c 9b 3f 87 50 4c 3f c5 da 5e 3f
       0.8546751 1.2122886 0.79810375 0.87052566
000010 a5 95 83 3f 26 40 97 3f 1a 5f a5 3f 1b cd 71 3f
       1.0280043 1.1816452 1.2919648 0.9445359
000020 31 0e d4 3f d9 bd a5 3f b1 68 8e 3f 15 08 6f 3f
       1.6566831 1.2948562 1.1125699 0.9337171
000030 8d ba 7c 3f 45 a2 8c 3f ca c0 a0 3f b9 7e 7f 3f
       0.98722154 1.0987021 1.2558835 0.9980274
000040 d5 c0 a4 3f be be 9c 3f d1 ed 80 3f 38 22 6a 3f
       1.2871348 1.224571 1.0072576 0.91458464
000050 6b f5 84 3f b4 aa b9 3f aa d5 80 3f b3 2b 88 3f
       1.0387396 1.450522 1.0065205 1.0638336
000060 15 12 91 3f 41 df a4 3f f1 4c 67 3f 3c 5f 52 3f
       1.1333643 1.2880632 0.9035178 0.82176566
000070 91 c7 91 3f 76 bf 98 3f db f3 49 3f 3f 6e 71 3f
       1.1389028 1.1933429 0.7888772 0.9430885
000080 f3 5c 89 3f 9f 4c 88 3f 48 f6 5b 3f c8 a9 90 3f
       1.0731491 1.0648383 0.8592267 1.1301813
000090 cd e3 85 3f 27 60 8a 3f c4 0d 8c 3f 0b 9a 64 3f
       1.0460144 1.0810593 1.0941701 0.8929755
0000a0 db 68 44 3f a8 ad 5c 3f 05 bb a5 3f a9 e9 61 3f
       0.76722497 0.8620248 1.2947699 0.8824716
0000b0 c3 32 72 3f 6b 27 65 3f f5 60 78 3f 9f 63 64 3f
       0.94608706 0.8951327 0.97022945 0.8921451
0000c0 38 2c 78 3f c1 87 67 3f e2 eb 75 3f 44 0b 84 3f
       0.9694247 0.9044152 0.96063054 1.0315938
0000d0 62 29 77 3f 3e fa 47 3f d2 b0 73 3f 9b 02 7d 3f
       0.9654752 0.78116214 0.9519168 0.988321
0000e0 ce b8 b6 3f 28 5c 94 3f cc 5d 89 3f 0a 8f 6d 3f
       1.4275148 1.1590624 1.073175 0.92796385
0000f0 80 82 6a 3f f3 dc e1 3f 2b be 61 3f fc bc 86 3f
       0.9160538 1.7645553 0.881808 1.0526423
000100 7d d7 ed 3f f1 1c 7a 3f 9d c2 63 3f 22 5a 7e 3f
       1.8581387 0.9770041 0.8896883 0.9935628
000110 f7 95 8c 3f 5a 0b 97 3f 90 d6 90 3f 9d 6f 66 3f
       1.0983266 1.1800339 1.1315479 0.9001406
000120 63 d9 7d 3f df d4 80 3f a4 46 3f 3f c3 b7 7f 3f
       0.9915983 1.0064963 0.74717164 0.99889773
000130 69 c8 61 3f a8 94 d3 3f 6c 4a 5f 3f 71 92 7e 3f
       0.88196427 1.6529741 0.87222934 0.994422
000140 3f f9 6c 3f 1e d9 87 3f 22 46 b1 3f ea 2b 80 3f
       0.9256782 1.0613134 1.3849528 1.0013402
000150 b0 56 67 3f c7 19 62 3f 8a 91 8a 3f 52 ed 6a 3f
       0.9036665 0.88320583 1.0825665 0.9176837
000160 b3 4d 99 3f 16 73 57 3f 58 4d 4f 3f 2c ec 90 3f
       1.1976837 0.8415998 0.8097739 1.1322074
000170 e5 d3 7a 3f 0c 53 79 3f 17 96 78 3f 8a e4 8a 3f
       0.97979575 0.97392344 0.9710402 1.0850995
000180 bc 48 87 3f 40 50 9e 3f 7b 9c fa 3f 13 ee 6c 3f
       1.0569072 1.236824 1.9579004 0.9255077
000190 50 31 89 3f 37 08 94 3f 87 57 88 3f 61 10 81 3f
       1.0718174 1.1565007 1.0651711 1.0083123
0001a0 13 74 85 3f ee 17 50 3f dd e3 69 3f 32 19 b5 3f
       1.0426048 0.81286514 0.91363317 1.4148314
0001b0 ca d2 74 3f 49 66 8d 3f 15 20 85 3f 98 7a b5 3f
       0.9563414 1.104684 1.0400416 1.4178038
0001c0 0f 3a 8a 3f 9f 2e 4c 3f b1 e4 81 3f b7 e5 8a 3f
       1.0798968 0.7975864 1.0147916 1.0851353
0001d0 2e f8 b2 3f b9 b1 80 3f f5 ec 96 3f 9f 0c 63 3f
       1.3981988 1.0054237 1.1791064 0.88691133
0001e0 18 f9 8d 3f bf 10 93 3f 3e d3 78 3f b6 85 d1 3f
       1.1091642 1.1489486 0.9719733 1.636893
0001f0 b6 9a 83 3f e4 f9 bf 3f 49 f1 b7 3f 48 65 89 3f
       1.0281589 1.4998136 1.4370509 1.0734034
000200 82 a0 7f 3f c7 29 8b 3f 42 4a b9 3f e4 eb 84 3f
       0.9985429 1.0872124 1.4475787 1.0384488
000210 e1 59 86 3f 6c 43 a1 3f 4d 0e 7f 3f 2b fa 5b 3f
       1.0496179 1.25987 0.99631196 0.859286
000220 14 f4 8d 3f 82 31 78 3f 93 c6 77 3f 5e 70 91 3f
       1.1090112 0.9695054 0.96787375 1.1362417
000230 8d 07 2e 3f af e4 94 3f 95 7d 8a 3f 84 c3 c8 3f
       0.6798027 1.1632289 1.0819575 1.5684667
000240 5f 10 36 3f 2b 59 91 3f 1f bf 64 3f 98 4c 1a 3f
       0.7111873 1.1355337 0.8935413 0.6027312
000250 fa 41 7f 3f 51 2f 85 3f 86 41 b1 3f 24 01 82 3f
       0.9971005 1.0405065 1.3848121 1.0156598
000260 fa 51 86 3f f7 72 20 3f d2 65 87 3f e3 f8 59 3f
       1.0493767 0.6267542 1.0577948 0.85145396
000270 6e 15 6e 3f 21 c3 80 3f 52 2c 80 3f 3c 81 8d 3f
       0.9300145 1.0059549 1.0013525 1.1055064
000280 23 59 ba 3f 4d 93 71 3f b6 32 5d 3f e9 75 ab 3f
       1.4558452 0.9436539 0.86405504 1.3395358
000290 af cf 79 3f c8 9d 4b 3f bb 77 86 3f 63 9a 9d 3f
       0.97582525 0.7953763 1.0505289 1.231274
0002a0 fe e4 ae 3f 4f 47 8d 3f 0c 43 78 3f a9 ce 76 3f
       1.3663633 1.1037387 0.96977305 0.9640909
0002b0 c4 3f 81 3f b7 a4 73 3f a6 af a0 3f 09 57 a2 3f
       1.0097585 0.9517321 1.2553604 1.2682811
0002c0 22 0f 6b 3f c4 d4 8b 3f da a4 84 3f 1f cc 5c 3f
       0.91819966 1.0924306 1.0362809 0.86248964
0002d0 2d 6f 7c 3f b8 03 b7 3f fb d1 67 3f ec 47 94 3f
       0.9860714 1.429801 0.9055478 1.1584449
0002e0 5b 78 95 3f 3a a6 81 3f bb ae 93 3f 39 c2 ae 3f
       1.1677355 1.0128853 1.1537699 1.3653022
0002f0 a9 03 a9 3f fa 9a 96 3f a2 07 af 3f 60 43 4f 3f
       1.3204242 1.1766045 1.3674204 0.8096218
000300 a3 ef 89 3f c0 f5 fb 3f e0 74 b8 3f 55 36 92 3f
       1.0776256 1.9684372 1.4410667 1.1422831
000310 66 7f 5d 3f 3d 77 e0 3f 23 bd 77 3f cf 91 55 3f
       0.8652252 1.7536389 0.96772975 0.8342561
000320 33 2a 8f 3f 38 21 78 3f d7 b8 84 3f 65 e6 4f 3f
       1.1184753 0.9692569 1.0368909 0.8121093
000330 58 5a 84 3f 75 07 97 3f a7 df b3 3f 4b 4d 80 3f
       1.0340071 1.1799151 1.4052628 1.0023588
000340 d5 85 a5 3f 9a 76 ce 3f 1e 95 52 3f f1 fb b6 3f
       1.2931467 1.6129944 0.82258785 1.4295636
000350 89 64 b9 3f ef f4 61 3f 65 45 49 3f 1e f4 3c 3f
       1.4483806 0.88264364 0.7862151 0.73809993
000360 00 91 8e 3f 09 41 9c 3f 58 d0 89 3f 8c 1f 76 3f
       1.1138 1.2207347 1.0766706 0.96141887
000370 d1 7a 9b 3f bb b5 a6 3f 41 a4 c9 3f 9f b8 98 3f
       1.2146856 1.302421 1.5753251 1.1931342
000380 b5 03 96 3f 3b 71 99 3f 4a 48 4e 3f a9 a7 99 3f
       1.1719881 1.198768 0.80579054 1.2004291
000390 28 1d 5c 3f 49 a7 7b 3f 82 97 71 3f c6 a4 7a 3f
       0.8598199 0.9830213 0.9437181 0.97907674
0003a0 82 b2 d5 3f ce e0 77 3f ee 39 70 3f 37 0b 6c 3f
       1.6695101 0.968274 0.93838394 0.9220461
0003b0 4a 27 86 3f 36 bd fa 3f e3 ac 3b 3f e5 67 17 40
       1.048074 1.9588993 0.7331068 2.3657162
0003c0 5f f2 9b 3f a4 91 ec 3f 0e 6e 5a 3f 6d 0a 74 3f
       1.2183341 1.8481946 0.8532418 0.9532841
0003d0 de fe 63 3f 41 24 6d 3f bf 3b 85 3f 7c 68 4a 3f
       0.8906077 0.92633444 1.0408858 0.7906568
0003e0 29 a8 60 3f da 1e c0 3f 31 7f a4 3f 7a ce 41 3f
       0.8775659 1.5009415 1.2851316 0.75705683
0003f0 3d 3f 8a 3f 35 8e 9d 3f e1 3c 8d 3f 92 1c b2 3f
       1.0800549 1.2309023 1.1034204 1.3914969

ln1.bias f4 [256]
000000 9d 0b 10 be e0 d9 49 bd da 5d 1e be c4 e6 e1 bd
       -0.1406693 -0.049280047 -0.15465489 -0.11030343
000010 83 a0 0f be 60 42 30 3d e1 4c 08 bd fa 6b 08 be
       -0.14026074 0.04303205 -0.033276442 -0.1332244
000020 4a f1 29 3d 77 d7 c1 bd e3 17 ad bd 40 a8 2e bd
       0.041489877 -0.09464925 -0.08451822 -0.042640924
000030 9d 85 ce bd 92 8c de 3c ce 9e 93 3d dd 77 14 bc
       -0.100840785 0.027166639 0.07208024 -0.009061781
000040 96 a7 94 bb 45 dc 51 bd a4 ff a5 3c e0 66 c4 bd
       -0.0045365794 -0.051235456 0.0202635 -0.09589934
000050 e1 30 92 bc f5 c7 2d bd 52 7b 2a 3d 23 3e 3c 3c
       -0.017845573 -0.042427022 0.041621514 0.011489424
000060 f1 3a 38 3d 0a ee 37 3e 2d da ba bd 05 5d 43 be
       0.044978086 0.17961898 -0.09123645 -0.19078453
000070 16 ac bc 3d 6c e0 53 3c 15 d1 e0 bd d9 3d ab bd
       0.0921251 0.012931924 -0.10977379 -0.08361406
000080 be 78 3d 3a 8a 51 34 bc 12 ed 25 be f0 40 a4 b9
       0.000722777 -0.011005769 -0.16203716 -0.000313289
000090 aa 01 ad bd c5 58 22 3c 1f fe 92 bc 86 4f 5f bd
       -0.08447583 0.00990886 -0.01794344 -0.0545192
0000a0 96 d5 86 be bd 54 e0 bd 93 22 75 3e 7f 49 5b be
       -0.26334828 -0.109536625 0.2393897 -0.21414755
0000b0 a9 9d 3d be e4 17 28 bd 22 cb 96 bd 80 a6 fa bd
       -0.18517174 -0.04103841 -0.07362963 -0.122387886
0000c0 15 4c 12 bd 48 5b 03 be 65 40 3e bd 21 b9 9a bd
       -0.03571709 -0.1282779 -0.04644813 -0.07554842
0000d0 24 cb e2 bc 5b 03 87 be ed fb d8 bd 76 d2 e7 3c
       -0.027684756 -0.26369748 -0.10594926 0.028298598
0000e0 8e 20 00 3c 26 c7 d8 bd 33 24 17 3d 78 5a 9b bd
       0.007820262 -0.105848595 0.036899757 -0.07585615
0000f0 4b de d4 bc 74 0e ec 3c e2 a0 bc bd 0c 61 67 ba
       -0.025984904 0.028815486 -0.092103735 -0.0008826412
000100 80 95 82 3d 98 2f e4 bd 32 d4 4e be f1 14 8c bd
       0.06376171 -0.1114189 -0.20198134 -0.06839932
000110 78 d6 c4 bd 41 3e e4 3d 84 73 68 be 26 83 8e bd
       -0.09611219 0.111446865 -0.22700316 -0.06958608
000120 e8 b0 da bb ca e2 f5 bc 54 01 65 be 04 06 04 be
       -0.006673921 -0.030015368 -0.22363788 -0.1289292
000130 ae 7a dd bd b5 78 a9 3d 17 49 24 be 7f 39 5c bd
       -0.10814415 0.08274976 -0.16043507 -0.05376577
000140 0b b1 18 be f4 40 33 bd c6 dc 53 bc 50 b5 0f be
       -0.14911287 -0.043763116 -0.012931054 -0.14034009
000150 a7 52 38 be 24 f2 64 be 09 99 d6 3c cc 40 09 be
       -0.1800028 -0.22357994 0.02619602 -0.13403624
000160 88 28 dc bd 16 79 38 be 2e 6a 4c be 0a 7c 14 3d
       -0.10749918 -0.1801494 -0.1996238 0.036251105
000170 d5 0a 2a bd f5 80 3c bd 0f 0c 70 bd 00 b6 b0 3c
       -0.041514236 -0.04602142 -0.05860525 0.02157116
000180 92 d6 f2 bd e3 fb 6d bd e4 75 a7 3d 0f a5 0f be
       -0.11857332 -0.058101546 0.08176783 -0.14027809
000190 7e e9 db bc 89 27 ee 3d 2d f9 f3 bc 1f 2e 55 3d
       -0.026844736 0.116286345 -0.029781902 0.052045938
0001a0 20 fb 9b 3d 8f b4 81 be 67 e6 50 be cb a5 37 bc
       0.07616258 -0.25333068 -0.20400392 -0.011208962
0001b0 a7 bc 3a be d8 61 71 bd ee 04 e5 bd 56 6c 2a bd
       -0.18236028 -0.0589312 -0.11182581 -0.041607223
0001c0 b2 c4 8c bd a5 a1 1c be 54 f9 4d b9 92 bc 94 bd
       -0.06873454 -0.15296037 -0.00019643205 -0.072625294
0001d0 8a 70 0c bd e7 dd e2 bc 26 eb 87 bd 26 86 f4 bd
       -0.034287013 -0.027693702 -0.06636648 -0.11939649
0001e0 2a f0 7d 3c cc 44 ff bd a0 17 3d bd 22 9e 03 be
       0.015499154 -0.12464294 -0.04616511 -0.12853292
0001f0 6b 68 aa bc 47 98 f3 bd 0e 9d aa 3c fb b5 16 bd
       -0.020801743 -0.11894279 0.020826843 -0.036794644
000200 ba 3e 00 3c a2 4e 0a bd cb 06 c1 bd 09 8a 9c 3c
       0.007827455 -0.033766396 -0.09425124 0.019108789
000210 ed 00 b8 bc 2e 68 07 3d 65 65 41 be 42 b5 22 be
       -0.022461379 0.033058338 -0.18886335 -0.15889457
000220 5a 6b e1 bd 91 da 18 bd 63 e7 1d bd 84 3a db 3c
       -0.11006804 -0.037317816 -0.038550746 0.0267613
000230 47 68 a1 be 8d 2a 17 3d dc 0f e0 bc 63 35 df bd
       -0.3152487 0.036905814 -0.027351312 -0.108988546
000240 a1 2b 8c be d3 d8 39 be 5a ed 02 be 6b 07 d2 be
       -0.27377036 -0.18149118 -0.12785855 -0.41021284
000250 1f 60 53 3a ba 32 0d bd 5f 0b e6 3c 7d b4 ab be
       0.00080633344 -0.034472205 0.028081594 -0.3353614
000260 36 16 94 bb 6f ce be be c0 71 24 3d f2 75 30 be
       -0.0045192493 -0.3726687 0.040147543 -0.17232493
000270 35 98 63 bd 29 83 2e bd 6d 80 76 bd 07 aa ea bb
       -0.055565078 -0.042605553 -0.06018107 -0.007161382
000280 12 6f cf 3d 00 33 cc bd 1e 61 29 be d5 87 95 bd
       0.10128607 -0.09970665 -0.16540954 -0.073012985
000290 b7 f1 20 bd 69 03 20 be f5 5d 87 bd 30 0b b3 bd
       -0.039293017 -0.15626301 -0.06609718 -0.08742368
0002a0 f4 12 e1 bd 54 f8 43 bc fd 13 29 bd 0e ac 3d bd
       -0.10989943 -0.0119610615 -0.041278828 -0.046306662
0002b0 6e c2 dc ba 50 14 b4 bd e6 c1 ba bd 3e 04 76 bc
       -0.0016842613 -0.08792937 -0.091190144 -0.01501566
0002c0 69 3a 42 be 78 ce 8d bd ec 68 b2 bc ec 51 c4 bd
       -0.18967594 -0.069241464 -0.021778546 -0.09585938
0002d0 10 81 9e bd b7 a2 ed bd 0c b1 99 bd 5f f6 16 3d
       -0.077394605 -0.11603301 -0.07504472 0.03685605
0002e0 23 b0 2c be 84 b7 2f be d6 0b 08 bc 8c 80 9e bc
       -0.16864066 -0.1715985 -0.008303603 -0.019348405
0002f0 62 9f cc bd cb 4c 4f bd 5c 96 ae 3a e9 61 c0 bd
       -0.09991337 -0.050610345 0.0013319957 -0.09393675
000300 f7 3e 99 bd ee 67 e2 3c 53 cf 52 3d 6a e0 f1 3b
       -0.07482713 0.027637448 0.05146725 0.0073814886
000310 be 38 cb bd 59 52 36 3e dd ae 35 bc a5 1a 44 be
       -0.09922932 0.1780485 -0.011089054 -0.19150789
000320 33 37 7c bd a7 50 13 be bc 09 5a bd 52 f1 58 be
       -0.06157608 -0.14386235 -0.05323194 -0.21185806
000330 2d e8 91 bc d4 1f 90 3c ca 75 2f 3b 90 f4 81 bd
       -0.017810905 0.017593302 0.0026773089 -0.06345475
000340 5e 36 c7 bc 94 14 7e 3c 8f 6d 03 be 6f 4f 89 bd
       -0.024317916 0.015507836 -0.12834762 -0.06704604
000350 2c 51 6d bd 8e 91 fa bd c8 d9 5e be 57 43 9b be
       -0.05793874 -0.122347936 -0.21762764 -0.30324814
000360 1b 95 af 3d 24 7f 27 bd 96 61 7e bc cf bc 03 be
       0.085733615 -0.040892735 -0.015526196 -0.12864994
000370 fe be 3a 3c c1 7c 31 3d b0 73 87 bc 88 5e 99 bd
       0.011398075 0.043331865 -0.016534656 -0.074887335
000380 f6 0a 6e b9 bf 2e 07 be f9 b9 3c be 6e ec ee 3d
       -0.00022701532 -0.13201426 -0.18430318 0.11666189
000390 27 25 1c be ad 90 97 bc cf b8 ec bd fd 06 51 bd
       -0.15248547 -0.018501604 -0.11558687 -0.051032055
0003a0 77 ae 9e bb a3 7e 67 bd 81 9b 65 bd 6d 3d b3 bd
       -0.004842575 -0.056517255 -0.056056503 -0.087519504
0003b0 b0 af 0a be 65 b0 5d 3c e8 da 70 be c1 ae ee 3d
       -0.13543582 0.013530825 -0.23521006 0.116544254
0003c0 56 c6 3f bb 98 05 6a bc 5b 8e 9d be 32 13 93 be
       -0.0029262505 -0.01428356 -0.3077267 -0.28725582
0003d0 14 f0 f7 bd 16 c1 92 bd 1e 23 9d bd 68 d7 4a be
       -0.12106338 -0.071657345 -0.07672714 -0.19808733
0003e0 7e a7 ea bd 13 bc 9a bc 18 c4 9b bc 21 a4 1e be
       -0.11457728 -0.018888509 -0.019014403 -0.15492298
0003f0 c4 4f 08 bd 55 49 29 3e b6 0f a3 bd 1a 27 30 3d
       -0.033279195 0.1653188 -0.07961981 0.04300604

fc2.weight f4 [128, 256]
000000 5c 0c 2e bd 64 c4 63 3c a4 da e1 3c e2 09 32 bd
       -0.042492256 0.013901804 0.027570076 -0.043466456
000010 29 0e ea bb 37 5a 12 3c 89 bc 23 3c d8 b4 de 3d
       -0.0071428013 0.008932642 0.009993681 0.10874337
000020 6a 59 09 3e 9f 55 9d 3e 17 24 a9 3c e8 21 38 3c
       0.13413015 0.30729386 0.020647092 0.011238553
000030 86 71 99 bd 90 1a 15 be d1 33 98 bc b4 a5 3e 3d
       -0.07492356 -0.14560914 -0.018579395 0.046544746
000040 52 19 26 3e e0 a1 0a 3e 64 2a 62 bd a3 c2 b2 3d
       0.16220596 0.13538313 -0.055216208 0.0872853
000050 de 26 9b 3d ee b1 3e be 6b aa 96 bd 52 ed 0b bd
       0.07575773 -0.18622562 -0.073567234 -0.034161873
000060 2e 45 96 3d 7c 78 b6 be 05 3c 72 3d 90 40 af 3d
       0.07337414 -0.35638797 0.05913927 0.08557236
000070 26 cf 42 3d ed 16 b2 bb 16 19 bc bd 6b b6 c3 3d
       0.047560833 -0.005434862 -0.09184472 0.09556278
000080 98 f2 37 be a5 fb 11 3d 76 3e 17 bd b7 e3 28 bd
       -0.17963636 0.035640378 -0.0369248 -0.04123279
000090 03 eb d3 bd 0f d4 cd 3c c6 3b e3 3c 9a 6d 2d 3e
       -0.10347559 0.025125531 0.027738463 0.16936341
0000a0 5a 7b af bb e6 c4 3e bd b4 6a 10 be 98 5e ab 3b
       -0.005355281 -0.046574496 -0.14103204 0.0052297823
0000b0 43 f5 1b 3e ac c1 ee 3c 27 5c c4 3d b5 90 13 bc
       0.15230279 0.029145084 0.09587889 -0.009006669
0000c0 39 17 b3 3d ce c4 85 3d 62 f0 fa 3d 29 2b 42 be
       0.08744664 0.06531678 0.12252881 -0.18961777
0000d0 8c e4 09 3e 71 ad aa bc a2 99 45 3d 8b 7a ff 3d
       0.1346609 -0.020834656 0.04824222 0.12474545
0000e0 c6 7a 9b be 67 82 8a 3e 95 f3 27 3e cd e2 25 bd
       -0.30367106 0.27052614 0.16401513 -0.040499497
0000f0 f3 15 83 bc d4 c2 3a bf f9 0c ad 3c 64 a0 91 3c
       -0.016001677 -0.72953534 0.02112435 0.017776676
000100 e5 4f 11 bf ac 7a 30 3d 9c f6 a3 3d fc 78 38 3d
       -0.56762534 0.04308574 0.080060214 0.045037255
000110 e7 fc b1 bd 77 9a 19 3e 71 48 aa 3e 9c b7 17 bd
       -0.086908154 0.1500033 0.33258393 -0.037040338
000120 29 76 37 3e dd 49 66 bb 0a 63 42 3e 90 87 09 3e
       0.17916168 -0.003513924 0.18983093 0.13430619
000130 40 c4 76 3d 4e e1 05 be 1d 83 ec 3d 13 43 0a bd
       0.060245752 -0.13074228 0.115484454 -0.033755373
000140 67 80 de 3d 8c 02 ca 3d ae 0d a2 3e ae 27 d2 3c
       0.108643346 0.09863767 0.31651062 0.025653686
000150 ae 16 f0 bc 83 bb 3c 3d 16 a3 85 3c 6f 5c f5 3c
       -0.02930769 0.046077263 0.016313117 0.029951302
000160 7d 7d d0 3d 1d f1 07 3e 99 de 87 3e e4 4c 8c 3c
       0.10180185 0.13275571 0.26537016 0.017126508
000170 da 57 b4 3d b3 af af 3d 2f dc 95 3c b8 30 b0 3d
       0.08805819 0.08578434 0.018293468 0.08603042
000180 52 57 e5 bc 20 31 87 3e 12 5a 87 3e 0d e3 49 3e
       -0.02799574 0.26404667 0.26435906 0.19715519
000190 8f 42 01 3e f2 e1 93 3e cf 4e 17 be c1 9e 1e be
       0.12623046 0.2888332 -0.14776157 -0.15490247
0001a0 6d a3 77 3d 9a 0a 15 3d e9 6d f2 3d 3a 44 2c bd
       0.06045859 0.036387064 0.1183737 -0.042057253
0001b0 e6 48 f5 3c 70 48 8f 3e c7 7a 66 be e3 6d 81 be
       0.029941987 0.27984953 -0.22507773 -0.2527915
0001c0 49 48 dd 3d cd 49 3b 3d 58 c4 fb bd e6 09 28 3e
       0.10804803 0.04572468 -0.12293309 0.16410026
0001d0 85 83 19 3e 97 01 11 3e db b8 d9 3c b5 5c 88 3e
       0.14991577 0.14160763 0.026577404 0.2663323
0001e0 d5 89 6e 3d cf ba 36 3e c1 06 2f be 0b 53 de 3e
       0.058236916 0.178447 -0.1709242 0.43422732
0001f0 32 31 93 bd da 21 82 3e 9a 4b 05 3c 11 d7 85 3c
       -0.07187118 0.25416452 0.008135701 0.016337903
000200 e0 c5 ce ba 14 52 23 3d 16 7c 00 3e b1 88 fe 3d
       -0.0015775524 0.039873198 0.12547335 0.124284156
000210 76 0e cc 3d c6 77 85 3e 69 53 fb 3b ab 7e 0d be
       0.09963696 0.26067942 0.0076698554 -0.13817851
000220 ba a3 31 3e ea f7 7d bd 62 ff f4 3c c1 4c be 3d
       0.17347613 -0.062004007 0.029906932 0.092919834
000230 44 8c f3 3d 7e d2 81 be db 10 b0 3d 99 55 c1 3e
       0.11891988 -0.25355905 0.08596965 0.37760618
000240 db 09 26 bd bf 6d 90 bd 05 93 2b 3d b9 fa 06 3d
       -0.040536743 -0.070521824 0.041888256 0.03295395
000250 3d 5f a6 3d f5 81 cb bc ce 5b de 3d 24 3d 62 3e
       0.08123634 -0.024842242 0.10857354 0.22093636
000260 c9 05 a1 3c 57 19 96 bc 19 7d a2 3d 14 42 1d 3d
       0.019656079 -0.01832263 0.07934017 0.038393095
000270 0a 19 96 bc 69 f6 8f 3d 86 18 b8 bd e0 50 25 3d
       -0.018322486 0.07029421 -0.089890525 0.04036033
000280 ef 39 84 3f 33 0f 7e 3d ba 11 19 3e ce cc 8a 3e
       1.033018 0.062026214 0.14948168 0.2710938
000290 c9 bb 46 3d 4b 2b 0f bd a5 70 59 bd da e6 93 3d
       0.04851893 -0.034953397 -0.05308594 0.07221766
0002a0 d3 1d 34 bd e1 51 38 3d 32 05 f5 3d 58 04 7e 3d
       -0.043973755 0.04499996 0.119638816 0.06201586
0002b0 af ca ce 3d f0 95 0e 3d 28 24 a6 3d a2 97 9f 3b
       0.100972526 0.03481096 0.08112365 0.004870371
0002c0 01 10 30 be c7 61 de 3d d3 e7 99 3d 95 65 54 3d
       -0.17193605 0.10858493 0.0751492 0.05185469
0002d0 b4 e0 28 3e 6c ad da bd 1c 21 ae bb 36 07 f1 3c
       0.16491967 -0.10677609 -0.0053140055 0.029422384
0002e0 ca 45 6b 3e be 40 dd 3d 18 0d a8 3d 9e f1 1a 3e
       0.22975841 0.10803364 0.082056224 0.15131232
0002f0 74 00 81 3e be 3f eb 3d 29 52 31 3e 64 8a bc 3d
       0.25195658 0.11486767 0.17316498 0.092060834
000300 6e c5 81 3e 4b de 9e 3f 5d 86 32 3e 12 c5 b3 3d
       0.2534594 1.2411588 0.17434068 0.087778226
000310 75 8c 21 3e 64 1d 8b 3f bc 62 14 bc 1d 1d 24 3e
       0.15776236 1.0868344 -0.009056743 0.16026731
000320 a6 d8 1b 3e ad 1d 5b 3d 6e 5e cc 3b 7c d8 d7 bc
       0.15219364 0.053495098 0.006236843 -0.026348345
000330 ce 01 ed 3a c1 24 b6 3d eb 91 12 3e ea 69 28 3e
       0.0018082203 0.08893729 0.14313476 0.16446653
000340 ee f9 b4 3e 2c d5 7d 3e 7d b6 8f bd 3c 9b a3 3d
       0.3534693 0.2478835 -0.07017229 0.07988593
000350 71 40 53 3e 76 ef 29 3d 73 26 fa 3d 98 ac 30 bc
       0.20630051 0.041488133 0.12214365 -0.010783337
000360 0b 28 32 3e 1e f8 42 be 81 8e 9a bd 4c bc 1f 3e
       0.17398088 -0.19039962 -0.07546712 0.15599173
000370 bb 58 46 bd 9c 51 23 3e 7b 41 32 bd 4d e2 37 3d
       -0.048424464 0.159491 -0.04351948 0.04489355
000380 c5 a7 2a 3e 6a 85 7c 3d 3b d5 6c 3c 66 e3 9a 3c
       0.16665561 0.06165067 0.014455135 0.01890726
000390 89 0f 40 3e 30 d3 1a bd 2f ef 22 bc 9e b6 ec 3c
       0.18755926 -0.03779906 -0.009944721 0.028895672
0003a0 bf c1 fb 3e 7f c1 77 3d 96 7f 52 3d 2c 33 10 3e
       0.49171254 0.060487267 0.051391207 0.1408202
0003b0 87 99 75 bc 8b e4 ae 3e 45 35 02 3e da 8d f4 3e
       -0.014990217 0.3415874 0.12715633 0.47764474
0003c0 8b 34 99 3e e4 4e 05 bf 28 1d d0 bb 27 8c 6e 3e
       0.299229 -0.520735 -0.006351132 0.23295651
0003d0 ac e3 9b 3d 77 b2 28 bd a9 52 14 3e ae a5 94 3d
       0.07611784 -0.041185822 0.14484657 0.072581634
0003e0 be a5 3b 3d 4e ee 87 bd 3f 65 46 bd 78 56 f1 3d
       0.04581236 -0.0663725 -0.0484364 0.11784071
0003f0 4f 9f 84 bd 95 3b a2 3d fa 9a 42 3c bc 7b bd 3e
       -0.06475698 0.079215206 0.01187777 0.37008464

fc2.bias f4 [128]
000000 12 dc 57 3d c7 a8 10 bd 15 d9 49 be 0c 43 df bb
       0.05270011 -0.03531721 -0.19711716 -0.0068134125
000010 3a f3 8e 3c 63 8a 9d 3c 23 f3 dc 3a e1 93 e0 ba
       0.017449964 0.019231027 0.0016857128 -0.0017133915
000020 f6 b1 99 3d 1d 4d e8 39 58 5b 11 3d 72 16 c3 3c
       0.075046465 0.00044307942 0.035487503 0.023814414
000030 23 d9 61 3b ad ad 19 bc c6 28 83 3c e5 ea 46 bb
       0.00344617 -0.009379786 0.016010653 -0.003035241
000040 88 2c 62 3c f0 b4 c9 3c 88 45 d6 3e e1 f1 42 3d
       0.013804562 0.02462241 0.41849923 0.047593955
000050 ed 0e e8 3c d6 8b 4f bb 02 71 8a 3c 5e 2a 57 bc
       0.02832743 -0.0031669042 0.01689959 -0.01313266
000060 98 60 ad 3c da a7 76 3d 71 75 80 3c 98 ba a5 3d
       0.021164224 0.06021867 0.015681 0.080922306
000070 20 57 74 3d bf 58 a4 3b aa 5c 0f 3d 69 c1 9c bb
       0.0596534 0.005015462 0.03500048 -0.0047837985
000080 10 53 8b 3c b5 90 bb 3c ee b3 aa 3c 50 62 f8 3c
       0.01700738 0.02289615 0.02083775 0.030320317
000090 80 5d f0 bb 4d 3e 84 3c 86 ff a3 3c 8e 8f 55 3c
       -0.007335365 0.016142989 0.020019304 0.013034714
0000a0 5e 0b eb bc 4c 98 01 3d 2d 78 5d 3c c0 d1 c5 3a
       -0.028691944 0.031639382 0.013517422 0.0015092418
0000b0 50 b3 e8 3b c7 17 33 3d d3 46 92 3d c6 34 10 3d
       0.007101454 0.043723848 0.07142415 0.03520658
0000c0 d2 48 55 3d d6 44 8b 3d 5e 31 c7 3c fd 5f c0 3c
       0.0520714 0.06800239 0.024315532 0.02348327
0000d0 94 ec 5f 3b d4 91 63 3b ff 1e 97 3c a8 c8 10 3d
       0.003416811 0.0034724372 0.018447397 0.03534761
0000e0 aa eb 7d 3d 21 03 63 3c c6 c5 a2 3c e1 f6 78 3d
       0.061992325 0.013855726 0.019869696 0.060782317
0000f0 0e ed a5 3c 11 93 af 3c 02 ad 00 3b 77 ce 53 3d
       0.020254638 0.021432431 0.001963437 0.051710572
000100 31 e3 35 3d 26 ae 99 3c 64 3d 01 ba 8a 43 4b 3c
       0.04440612 0.018759798 -0.00049301074 0.012406239
000110 e7 3f e9 38 73 05 73 3c 3b b1 83 3b 0d f0 42 3d
       0.000111222085 0.014832842 0.0040189303 0.04759221
000120 2c 7f ac 3a de 61 4b 3d 70 ca 2f 3d fc 54 83 3c
       0.0013160459 0.04965388 0.04291767 0.016031735
000130 d3 ac 3b 3d bc 34 35 3c 20 39 d2 3c d7 0f 3f 3c
       0.045819115 0.011059936 0.025662005 0.011661491
000140 fd 87 aa 3b 95 dd 25 bf e9 20 6b 3d 31 8d 17 3d
       0.0052041993 -0.6479123 0.057404432 0.036999885
000150 06 62 02 3d 69 7f 1a 3d 21 89 cb 3c c4 aa 04 3d
       0.031831764 0.037719164 0.024845662 0.032389417
000160 3c 78 61 3d ba 7d 15 3c db 4c 59 3d 93 bd fa 3c
       0.055046305 0.009124214 0.05305181 0.030607974
000170 1f 11 af 3c 56 12 76 3d 70 1b 8e 3c 9e a7 7c bb
       0.021370469 0.06007608 0.017347068 -0.0038552056
000180 14 46 86 bd cf 50 da 3c b2 12 59 3d 80 7a 7c 3c
       -0.06556335 0.02664986 0.052996345 0.015410066
000190 66 c6 1a 3d 52 9a 8c 3c ec d8 70 3c 81 74 7c 3c
       0.037786864 0.01716343 0.014700156 0.015408636
0001a0 a4 2c b1 3b 39 7f f5 3c ee df 1c 3d 1c aa 8a 3c
       0.005406933 0.029967891 0.038299493 0.016926818
0001b0 96 03 0e 3d d5 0f 2a 3e 15 c7 42 3d f8 c7 d9 3b
       0.03467139 0.16607602 0.04755314 0.0066461526
0001c0 93 b6 fe 3c e0 47 4d bf 85 12 86 bd df d9 99 bc
       0.031092918 -0.801878 -0.06546501 -0.018780647
0001d0 c9 f7 46 3d 90 c6 b0 ba 84 62 4f 3d b9 cf c4 3c
       0.04857615 -0.0013486911 0.05063106 0.024024831
0001e0 a2 4d 60 3d 2d 0e 18 bf d4 9c 91 3c a3 5e 99 3c
       0.054761536 -0.5939663 0.017774977 0.018721884
0001f0 be 39 8c bc c4 38 c7 3c 5f 0a d2 3c e1 d5 e1 3c
       -0.017117377 0.02431906 0.025639711 0.027567806

ln2.weight f4 [128]
000000 62 1e 66 3f 57 4d c2 3f 49 b5 7e 3f a8 f9 76 3f
       0.8989011 1.5179852 0.9949537 0.96474695
000010 c0 46 9e 3f 0f 1b 5c 3f a1 eb 6b 3f c0 6f b0 3f
       1.2365341 0.8597879 0.92156416 1.3784103
000020 f1 87 4b 3f 07 2a 71 3f 35 70 4a 3f 68 ed 67 3f
       0.79504305 0.94204754 0.79077464 0.9059663
000030 5a 98 74 3f c3 81 95 3f 10 e2 71 3f f7 93 91 3f
       0.9554497 1.1680225 0.9448557 1.137328
000040 75 a5 8d 3f 96 4e 73 3f ad 39 30 3f 55 f9 64 3f
       1.1066118 0.9504179 0.68838006 0.8944295
000050 02 ac 80 3f a2 cd 01 40 c4 a8 5c 3f da 7d 7b 3f
       1.0052493 2.0281758 0.86195016 0.9823891
000060 2b 56 a1 3f 08 67 8f 3f 20 19 77 3f 90 bb 5e 3f
       1.2604421 1.1203318 0.9652271 0.8700495
000070 f4 5d 4c 3f 1b 4c 91 3f ea 19 6b 3f b0 36 ee 3f
       0.7983086 1.135135 0.91836417 1.8610439
000080 2a 6c 56 3f 2e 9c 6f 3f a9 13 6c 3f 7f e5 5b 3f
       0.83758795 0.93597686 0.922175 0.8589706
000090 6c 9f 6a 3f bb 20 93 3f e5 66 9a 3f 45 fb 6f 3f
       0.9164951 1.1494364 1.2062651 0.9374278
0000a0 f5 02 a1 3f 5c 30 70 3f 43 26 72 3f 54 60 88 3f
       1.2579027 0.9382379 0.9458963 1.0654397
0000b0 72 08 52 3f af 97 4f 3f 92 2b 7e 3f 65 46 70 3f
       0.82044137 0.81090826 0.99285233 0.93857414
0000c0 3e a6 9d 3f 53 17 39 3f a6 f9 7b 3f 24 63 9e 3f
       1.2316358 0.72301215 0.9842781 1.2374005
0000d0 57 4f c4 3f 8c 7c 74 3f e3 22 62 3f 3f 0f 9c 3f
       1.5336713 0.95502543 0.8833448 1.2192153
0000e0 21 43 8a 3f c3 53 7d 3f d2 44 8f 3f 2b 0a 38 3f
       1.0801736 0.98955935 1.1192877 0.71890515
0000f0 e8 40 71 3f 6d 42 7f 3f 54 5b 68 3f 2d 28 70 3f
       0.94239664 0.9971073 0.90764356 0.93811303
000100 37 97 63 3f 7a 0e 7d 3f b4 4e 57 3f 54 d4 bf 3f
       0.8890261 0.98850214 0.84104466 1.4986672
000110 35 56 98 3f 21 78 6b 3f 35 32 94 3f 7f d7 84 3f
       1.1901308 0.9198018 1.1577822 1.0378264
000120 b8 ef 69 3f 3f 16 75 3f 65 c4 66 3f 56 01 6b 3f
       0.91381407 0.9573707 0.90143424 0.91798913
000130 72 69 51 3f 60 af 58 3f fc ef 70 3f 11 eb 54 3f
       0.8180152 0.846426 0.9411619 0.8317118
000140 d8 3d 5b 3f 74 01 8a 3f 6a ad a7 3f 0c dd 3f 3f
       0.8564124 1.0781693 1.3099797 0.74946666
000150 89 49 7d 3f 15 23 86 3f d5 a2 80 3f 2d c0 5f 3f
       0.9894033 1.0479456 1.0049692 0.8740261
000160 da 6a 6f 3f 71 ee 75 3f 51 a2 6a 3f 56 53 91 3f
       0.9352242 0.9606696 0.91653925 1.1353557
000170 92 af 82 3f a1 46 75 3f a4 2f 91 3f 45 2f a2 3f
       1.020983 0.95810896 1.1342664 1.2670676
000180 2c f3 89 3f 3a 66 ac 3f b3 ac 68 3f f4 24 be 3f
       1.0777335 1.3468697 0.9088852 1.4855027
000190 27 9a a9 3f ba 1a 96 3f 3b 8a 75 3f da ce 62 3f
       1.3250169 1.1726906 0.9591405 0.8859688
0001a0 78 0c 73 3f 9a 20 7b 3f 72 57 75 3f d6 9c 6c 3f
       0.949409 0.9809662 0.95836556 0.9242681
0001b0 51 2f 6f 3f 08 29 4d 3f 8a 7a 7a 3f e7 b3 72 3f
       0.93431574 0.80140734 0.9784323 0.9480576
0001c0 9e a7 87 3f 40 b8 82 3f 58 2b 97 3f 98 58 71 3f
       1.0598028 1.0212479 1.1810102 0.9427581
0001d0 07 74 82 3f cc 09 83 3f 10 de 8c 3f 31 55 89 3f
       1.0191659 1.0237365 1.1005268 1.0729123
0001e0 57 14 88 3f 5d 3e 74 3f fc 98 8b 3f 4c e2 70 3f
       1.0631207 0.9540766 1.0906062 0.940953
0001f0 d7 50 8e 3f 06 5f 09 40 c4 40 7a 3f c4 bd 74 3f
       1.111842 2.1464248 0.97755075 0.9560206

ln2.bias f4 [128]
000000 29 d5 a1 bd d0 62 90 bd e2 f7 11 bc 27 18 11 bd
       -0.07901985 -0.07050097 -0.0089091975 -0.035423424
000010 66 84 14 be 2f aa 58 be 6d 59 6e bb dc da c6 bc
       -0.14503631 -0.2115867 -0.003636922 -0.024274282
000020 24 de 8c be f3 7d 57 bd c1 45 7f be 50 c2 3b be
       -0.2751323 -0.05261035 -0.24928953 -0.18335843
000030 7c 4d e0 bd 3f 9c 27 bd 0d 5d 0b bd eb 9a bf bc
       -0.10952279 -0.040920492 -0.034024287 -0.0233893
000040 01 39 ae bd 52 25 c1 3c 29 fd b2 be cb c2 27 be
       -0.085069664 0.023577366 -0.3495877 -0.16382901
000050 d4 6d aa bd ab 70 d0 bc 3d 25 48 be 10 33 8a bc
       -0.08321729 -0.02544435 -0.19545455 -0.016870052
000060 fb c3 be bd 9c 8b 6f 3d b5 ad 02 bc c6 4a 52 be
       -0.09314724 0.05848275 -0.007975985 -0.20536336
000070 c9 98 81 be c4 cb 25 bd be f0 8f be bc e1 ac bd
       -0.25311878 -0.04047753 -0.2811336 -0.08441493
000080 a3 10 23 be de 84 8b bd 75 9e 2e bd 78 82 33 be
       -0.15924315 -0.06812452 -0.042631585 -0.17530239
000090 48 3c 8e bc 67 53 5d bd 78 e0 ab bd 21 d8 0a bd
       -0.017362729 -0.054034617 -0.083924234 -0.033897523
0000a0 e9 d1 73 bd 8d a1 fd bc 50 33 4a 3b 53 f3 e3 bd
       -0.059526358 -0.030960822 0.0030853339 -0.11130395
0000b0 ca 20 57 be 0b bb 66 be 3a 1d d2 3b 0b cd 0c be
       -0.21008602 -0.22532289 0.0064121755 -0.13750093
0000c0 71 aa d7 3c d3 b6 bb be 55 09 b6 bd 9d 94 9c bb
       0.02632639 -0.3666292 -0.08888499 -0.0047784583
0000d0 12 4a cb bd 78 a0 0a bd 77 f0 29 be 71 07 b0 bd
       -0.09926237 -0.03384444 -0.16595636 -0.08595169
0000e0 14 05 13 3d 21 8f 25 bd 17 67 38 3d 4e e6 b9 be
       0.035893515 -0.0404197 0.04502019 -0.3630852
0000f0 c7 75 8c bb 2c e2 10 3c 34 3a 3e bd c2 1e 2a be
       -0.004286501 0.008842986 -0.046442226 -0.16613296
000100 41 a2 07 be e5 80 27 bc 33 41 f9 bd ce f1 4d 3d
       -0.13245489 -0.010223602 -0.12170639 0.05027943
000110 0d a5 e7 bc 5a 4d cb bd d9 ff 9b bd 7f ad 56 3d
       -0.028276945 -0.09926863 -0.076171584 0.052411553
000120 00 c3 ab bc d4 2a 00 3d ea cc 16 be f3 25 78 be
       -0.020967007 0.031290844 -0.14726606 -0.24233226
000130 bc 37 97 be b4 89 34 be c6 55 bc b8 9f ee 4c be
       -0.2953471 -0.17630655 -8.980515e-05 -0.20012902
000140 63 67 39 be e9 68 a6 3c 73 92 2b bc 43 60 53 be
       -0.18105845 0.020313697 -0.010471928 -0.2064219
000150 a4 03 88 3c 3a c0 35 be 64 d2 a5 bd b6 f2 28 be
       0.016603298 -0.1774911 -0.080967695 -0.16498837
000160 61 73 75 3b f0 79 37 bb 19 65 b2 bd 37 4c 7a be
       0.0037452804 -0.0027996264 -0.08710689 -0.24443136
000170 de 29 05 be 60 a2 61 be 03 83 bc bd de a5 88 bd
       -0.13004252 -0.22034597 -0.09204676 -0.06672262
000180 d0 63 35 3c 28 c6 e0 bd cc 37 11 be d1 06 87 bd
       0.01107116 -0.10975295 -0.14181441 -0.06593097
000190 2e a6 90 bc 86 e5 a1 bd 46 ae ba bb 84 58 1e be
       -0.017657366 -0.07905106 -0.0056970445 -0.15463454
0001a0 7c 56 25 be 8d 79 a8 3c 19 c2 60 be 7c a5 5a bd
       -0.16146272 0.020565772 -0.21949042 -0.053380474
0001b0 ff 9e b0 bc c8 0f 6a be ac 6f 81 3c 05 d0 89 3b
       -0.02156019 -0.22857583 0.01580032 0.004205706
0001c0 9b 5f cb 3c ab 41 aa 3c 59 3d a1 3d 69 06 b3 bc
       0.024825862 0.020783266 0.07873029 -0.021853643
0001d0 01 fe 1c 3b 26 0f ee bc 36 8f b3 bd d2 f7 1f bd
       0.002395511 -0.029059958 -0.0876755 -0.0390547
0001e0 55 2f 21 3d dc 0d 78 bc 06 5c 06 be 59 9f d0 bc
       0.03935178 -0.015140023 -0.13121042 -0.025466608
0001f0 3b 9b 0a bd 52 76 a5 bd bb 7e 3f bb e9 43 2b 3c
       -0.033839446 -0.080792084 -0.0029219824 0.010453203
