checkpoints/DDPG/Actor/DDPG_actor_400.pth (torch, 183131 bytes, 10 tensors)

fc1.weight f4 [256, 41]
0	0xbd6a221c	-0.057161435
1	0x3e244785	0.16042908
2	0x3d577fd8	0.052612156
3	0xbe09556a	-0.13411489
4	0xbe1f86d2	-0.15578774
5	0xbd6f7c2b	-0.058468025
6	0x3cb5da1e	0.022198733
7	0x3dea5335	0.11441652
8	0x3ddf6128	0.10907203
9	0xbca43413	-0.020044362
10	0xbda2e60c	-0.07954034
11	0x3e005638	0.1253289
12	0xbd4b8be1	-0.049693946
13	0x3d21d911	0.03951365
14	0x3e374996	0.17899165
15	0xbdea492d	-0.114397384
16	0xbdecc83f	-0.115616314
17	0x3d221015	0.03956612
18	0xbd66df68	-0.0563654
19	0xbddf2950	-0.108965516
20	0x3d967337	0.07346194
21	0x3deca14e	0.11554204
22	0xbd24a342	-0.040194757
23	0xbdbceb1f	-0.09224533
24	0x3d789e30	0.060697734
25	0x3d0a7b88	0.033809215
26	0x3db0a2d2	0.086248055
27	0x3c6d25ef	0.014474376
28	0x3e13673a	0.14394847
29	0xbdf041ab	-0.11731275
30	0xbe1bee98	-0.15227735
31	0x3ce2e4b9	0.027696954
32	0x3d0c6bfa	0.034282662
33	0x3d1aa570	0.03775543
34	0x3cab39bb	0.020901551
35	0xbe68c1e7	-0.22730218
36	0x3d9e7a13	0.077381276
37	0x3e0c7742	0.13717368
38	0x3db6d006	0.08926396
39	0x3c3ef570	0.011655197
40	0xbdf24e73	-0.11831369
41	0x3d8a12fb	0.067419015
42	0x3d196b10	0.03745562
43	0xbc590f45	-0.013248269
44	0x3e0f5b7e	0.13999745
45	0xbd72cb0a	-0.059275664
46	0x3dbfeb1b	0.09371015
47	0xbd0c05f1	-0.034185354
48	0x3dc967c2	0.09834243
49	0xbd356a3c	-0.044290766
50	0x3d27b2bc	0.04094194
51	0xbde397bc	-0.111129254
52	0xbe1492f5	-0.14509185
53	0xbd159daf	-0.036527332
54	0xbc129360	-0.00894627
55	0x3cbf5ac0	0.023358703
56	0xbe36408f	-0.17798065
57	0xbd136a63	-0.03599013
58	0xbe365ec3	-0.17809586
59	0x3ae245c7	0.0017263227
60	0xbd6dc274	-0.058046773
61	0x3e522398	0.2052139
62	0x3e09ac42	0.13444617
63	0x3ea310df	0.3184881
64	0x3e031fd0	0.12805104
65	0x3e43775c	0.190885
66	0x3dd7c0f4	0.1053485
67	0x3eb108b8	0.34576964
68	0xbd92850e	-0.071542844
69	0x3c900b85	0.017583618
70	0xbe0f1032	-0.13971022
71	0x3de67c07	0.11254125
72	0x3dd48c02	0.10378267
73	0xbd035eb1	-0.032072727
74	0xbddb2fc0	-0.10702467
75	0xbd9f96a9	-0.07792408
76	0xbed6fc7e	-0.4198951
77	0x3d9d330e	0.076757535
78	0xbd1404d0	-0.036137402
79	0x3c29492c	0.010332387
80	0xbd58a2b4	-0.05288954
81	0x3dc31267	0.09524994
82	0x3c834960	0.016026199
83	0xbda5d795	-0.0809776
84	0xbd6fae65	-0.058515925
85	0xbe076730	-0.13222957
86	0xbe2ad3d4	-0.16682369
87	0xbd4b6db3	-0.049665164
88	0xbd8e01fd	-0.06933973
89	0x3d262cb1	0.040569965
90	0xbcfa4614	-0.030550994
91	0xbe48a2aa	-0.19593301
92	0x3cf9c343	0.030488616
93	0x3e46f2ea	0.19428602
94	0x3e4206fc	0.18947977
95	0x3e1fe586	0.156149
96	0xbc0ddd42	-0.008658709
97	0xbe238dd3	-0.1597207
98	0xbde44de1	-0.11147667
99	0x3d18c0c4	0.03729321
100	0x3d6af109	0.057358775
101	0xbd017ee8	-0.031615168
102	0xbddef0a9	-0.10885746
103	0xba3422a9	-0.000687162
104	0xbe27dd62	-0.16393045
105	0xbe34f558	-0.17671716
106	0xbe19e37a	-0.15028182
107	0xbdfb8373	-0.12280931
108	0xbe0335a9	-0.12813438
109	0xbb1eed62	-0.0024250378
110	0x3c4deb2d	0.012568277
111	0x3d6bfd97	0.05761489
112	0x3da65db0	0.08123338
113	0x3d1d19a3	0.038354527
114	0x3cb655c6	0.022257697
115	0x3d37e9e6	0.044900797
116	0x3caf4bff	0.021398542
117	0x3dfedb53	0.124441765
118	0xbd88b4a0	-0.066750765
119	0xbda9a07c	-0.08282563
120	0x3c00f639	0.007871204
121	0xbddfdad4	-0.1093041
122	0xbcf86158	-0.030319855
123	0x3d62a9ee	0.05533784
124	0xbe8a6072	-0.27026707
125	0xbe35afba	-0.17742816
126	0xbc99ada9	-0.018759565
127	0xbce9e9a5	-0.028553793
128	0x3d53dcea	0.051724352
129	0x3c8f590b	0.017498514
130	0x3daf132e	0.0854858
131	0xbd8bee7c	-0.06832597
132	0x3dab4264	0.083622724
133	0x3d6be8f2	0.0575952
134	0x3e7413ed	0.23835726
135	0x3e1e6e34	0.15471727
136	0x3db00e39	0.08596463
137	0x3ddf9eef	0.10918986
138	0x3e83aae4	0.25716317
139	0xbcbf0ee5	-0.023322532
140	0x3e9fd60c	0.31217992
141	0x3dcb7383	0.099341415
142	0xbd56c0a6	-0.052429818
143	0xbd92324a	-0.07138498
144	0xbdfeaba0	-0.124350786
145	0xbea7821f	-0.32716462
146	0xbdf32774	-0.118727595
147	0xbe216782	-0.15762141
148	0xbd6acc0e	-0.057323508
149	0xbe23ca3e	-0.15995118
150	0xbc9b547a	-0.01896118
151	0xbd030bf5	-0.031993825
152	0x3e462057	0.19348274
153	0xbdaf310c	-0.08554277
154	0xbdb14fbb	-0.086577855
155	0x3e2c7414	0.16841155
156	0xbd448354	-0.047976807
157	0xbd9b0ebd	-0.075711705
158	0x3ed42209	0.41432217
159	0x3e66c35e	0.22535464
160	0x3d47a2ce	0.048739247
161	0x3c5485c2	0.0129713435
162	0x3ddf7253	0.109104775
163	0x3dd05b78	0.10173696
164	0x3ddcf5d0	0.107890725
165	0x3e53a0af	0.20666765
166	0xbe7c817b	-0.24658768
167	0x3d53b250	0.051683724
168	0xbe50c4ee	-0.20387623
169	0x3d7b57be	0.061362974
170	0xbdd39d18	-0.10332698
171	0xbc9bb304	-0.01900626
172	0x3d807468	0.06272203
173	0x3dffea07	0.12495809
174	0x3e129b0b	0.14316957
175	0xbc526d02	-0.012843372
176	0xbe4a1fe7	-0.19738732
177	0xbe892b6f	-0.2679095
178	0xbeb1b5bd	-0.34708968
179	0xbe9568c8	-0.29181504
180	0xbea17aaf	-0.31538913
181	0xbe022685	-0.12710007
182	0xbeb05508	-0.34439874
183	0xbe2818e0	-0.16415739
184	0x3c1b114d	0.009464574
185	0x3be9e2cc	0.007137632
186	0x3e84cf32	0.25939327
187	0x3dda2fea	0.1065367
188	0x3db3f5af	0.08787095
189	0x3d9e1931	0.07719649
190	0x3e5bf178	0.21478832
191	0x3d718d8a	0.058972873
192	0x3e13d0f9	0.14435185
193	0xbc182e47	-0.009288377
194	0x3d4b85eb	0.04968826
195	0xbd831e9d	-0.064023234
196	0x3cdcb45f	0.026941476
197	0x3dc87f4b	0.09789904
198	0xbd782e82	-0.06059123
199	0xbefa3f61	-0.4887648
200	0xbe4a4e6f	-0.19756483
201	0xbd4e362c	-0.05034463
202	0x3bbbef36	0.0057353033
203	0xbe77559a	-0.24153748
204	0xbd12202d	-0.035675216
205	0xbb1ead03	-0.002421201
206	0x3e105bee	0.14097568
207	0x3e33e64e	0.17568323
208	0x3d4b5872	0.049644895
209	0xbcbbe694	-0.022937097
210	0x3d28225d	0.041048396
211	0x3d817747	0.063215785
212	0x3e508e9b	0.203669
213	0x3e0fbe56	0.14037451
214	0x3e0cf207	0.13764201
215	0x3dfd7f91	0.12377847
216	0x3d061f5e	0.032744758
217	0xbd8c8297	-0.068608455
218	0x3d912078	0.07086271
219	0x3dabab86	0.08382325
220	0xbc01da04	-0.007925514
221	0x3d9477df	0.07249426
222	0x3c9a186f	0.018810479
223	0x3d567a8b	0.05236296
224	0xbd38b9ed	-0.045099188
225	0xbe402248	-0.18763077
226	0xbbc87b0c	-0.006118184
227	0x3d79ee53	0.0610183
228	0xbb344986	-0.0027509644
229	0xbdebeaac	-0.115193695
230	0xbd4b0492	-0.049564905
231	0x3e411c3b	0.18858425
232	0x3cbd42b6	0.0231031
233	0x3ddfad1a	0.109216884
234	0xbd00132a	-0.031268276
235	0xbe0e3063	-0.13885646
236	0x3de0bc38	0.109734
237	0x3e3d185f	0.18466328
238	0x3e7cda8d	0.24692746
239	0xbbd95831	-0.0066328277
240	0x3e8bb415	0.2728583
241	0x3d58e563	0.052953135
242	0xbcd1c4a0	-0.025606453
243	0x3cb71e1d	0.022353226
244	0x3d99d46b	0.07511219
245	0xbe5c53d8	-0.21516359
246	0x3e6abc7b	0.22923462
247	0x3d5079da	0.050897457
248	0x3dc2f3c4	0.09519151
249	0xbda57e46	-0.08080725
250	0xbe01d62d	-0.12679358
251	0xbe71d493	-0.23616247
252	0xbde73128	-0.11288673
253	0xbe0dc2a7	-0.13843785
254	0xbe4581e7	-0.19287835
255	0xbe3d116a	-0.18463674

fc1.bias f4 [256]
0	0x3c198d05	0.009372001
1	0xbd6d69e1	-0.057962302
2	0xbd12e76c	-0.035865232
3	0x3d26cc22	0.04072202
4	0xbdcd3615	-0.10020081
5	0x3de11503	0.10990336
6	0x3d5831ed	0.052781988
7	0x3d57ef95	0.052718718
8	0xbb89d7bc	-0.0042066257
9	0x3d001a25	0.031274933
10	0xbdb31223	-0.08743694
11	0xbd8420b5	-0.06451551
12	0x3ca64859	0.02029817
13	0x3de64415	0.11243454
14	0x3e0497ce	0.12948534
15	0x3d88a789	0.0667258
16	0xbc902603	-0.01759625
17	0x3ca6d94e	0.02036729
18	0x3c274a23	0.010210547
19	0xbd598083	-0.053101074
20	0xbd1533b8	-0.036426276
21	0x3e0420cf	0.1290314
22	0x3d94c416	0.07263963
23	0x3db59f70	0.08868301
24	0x3dce4702	0.100721374
25	0x3e0ead3d	0.13933273
26	0xbd960058	-0.07324284
27	0xbc399cbb	-0.011328871
28	0x3cbe793d	0.02325117
29	0xbd698236	-0.057008944
30	0x3d32bb37	0.043635573
31	0xbccf0d00	-0.025274754
32	0x3d970d13	0.073755406
33	0xbda72887	-0.08162027
34	0x3d97bbf7	0.07408898
35	0xbd8ee79a	-0.06977768
36	0x3d10a0a6	0.035309456
37	0xbd3cd1e3	-0.0460986
38	0xbd8218fd	-0.063524224
39	0xbc883cfb	-0.01663064
40	0x3d702e31	0.0586378
41	0x3d2d5e9f	0.042326566
42	0x3dfeb27c	0.12436387
43	0xbd429b05	-0.04751112
44	0xbd5ebfb3	-0.054382037
45	0x3c08a02b	0.008338968
46	0x3d975c64	0.07390669
47	0x3d64cba4	0.05585827
48	0xbd98788e	-0.07444869
49	0xbdb44ffd	-0.08804319
50	0x3c779dd5	0.015113314
51	0x3d838b19	0.06423015
52	0xbd9fa70b	-0.07795533
53	0x3d96243f	0.07331132
54	0xbd99fed6	-0.07519309
55	0xbd248c01	-0.04017258
56	0xbdad9ef5	-0.08477584
57	0x3ccb0c59	0.024786161
58	0x3ce762e6	0.0282454
59	0xbd9adaa4	-0.07561234
60	0x3dab0af3	0.08351698
61	0x3df5f3fb	0.12009426
62	0x3d7b1b6a	0.06130544
63	0xbd9d0e1d	-0.076687075
64	0x3b7c345c	0.0038483357
65	0x3cd36b96	0.025808137
66	0xbc8b6fc7	-0.017021073
67	0x3d633278	0.055468053
68	0x3c7ebb40	0.015547574
69	0x3e302421	0.17201282
70	0x3d9ba5f7	0.07600015
71	0x3d714665	0.058905024
72	0x3d144adb	0.0362042
73	0x3d893ee6	0.0670145
74	0xbc8e7d47	-0.017393721
75	0x3d56dadd	0.052454818
76	0xbd498d24	-0.049206868
77	0xbb854cad	-0.0040679784
78	0xbb9ecdd8	-0.004846316
79	0xbd8ff870	-0.070298076
80	0x3be9b9ec	0.0071327593
81	0xbcc86e03	-0.02446652
82	0xba3576ad	-0.0006922286
83	0x3ca04488	0.019563928
84	0x3d359802	0.04433442
85	0x3d14f3af	0.036365207
86	0x3dbcf0d6	0.09225623
87	0xbd84a5d6	-0.06476943
88	0xbda1457f	-0.078745835
89	0xbcd68534	-0.026186563
90	0x3c4fb981	0.012678505
91	0x3d561d8d	0.052274276
92	0xbd89e1ec	-0.06732544
93	0x3ac59875	0.0015075343
94	0xbd9863c5	-0.074409045
95	0x3d6727cc	0.056434438
96	0xbd7410ca	-0.059586324
97	0x3c20e6eb	0.00982068
98	0x3d4a4761	0.04938448
99	0xbd209275	-0.039202172
100	0xbd95261d	-0.0728266
101	0x3de07623	0.10960033
102	0xbdf06420	-0.11737847
103	0x3dda3bb6	0.1065592
104	0x3d1dc1b2	0.0385148
105	0xbdb9c481	-0.09070683
106	0xbc555000	-0.013019562
107	0x3d056f18	0.03257665
108	0xbbfc9c37	-0.007709052
109	0xbd0f6dbe	-0.035016768
110	0x3d5d1775	0.05397745
111	0x3d98a8ab	0.07454046
112	0x3d902390	0.07038033
113	0x3c747c84	0.014922265
114	0xbd9cc08b	-0.07653912
115	0x3d8d9dc8	0.0691486
116	0xbd0b7a40	-0.034052134
117	0x3d63fc4b	0.055660527
118	0x3d4188ca	0.047249593
119	0x3becc3d3	0.0072254925
120	0x3da93afc	0.082632035
121	0xbdca9d24	-0.098932534
122	0xbd3b686f	-0.045753893
123	0x3c171c2d	0.009223026
124	0x3d95e157	0.07318371
125	0xbda515b1	-0.08060778
126	0xbd8043ca	-0.0626293
127	0xbd8c72e5	-0.06857852
128	0xbd832ead	-0.06405387
129	0xbd4e7d7b	-0.050412636
130	0x3d8aab96	0.06771009
131	0x3d94fca4	0.0727475
132	0xbd9ce6d9	-0.07661218
133	0x3dc8f810	0.09812939
134	0x3cc0cfc8	0.023536578
135	0xbcd8e3db	-0.026475837
136	0x3d5ad6b3	0.05342741
137	0x3cd4d846	0.025982033
138	0xbd8aa197	-0.06769102
139	0xbd46703c	-0.04844688
140	0xbc70872b	-0.014680664
141	0xbd3f5f7a	-0.046721913
142	0xbd6319a8	-0.05544439
143	0xbc9f2790	-0.019428045
144	0xbbd6fd42	-0.0065609524
145	0xbdb1d7cc	-0.08683738
146	0x3c754fd4	0.014972646
147	0xbbe3e7e0	-0.006955132
148	0xbd8e37f9	-0.0694427
149	0x3d8e9094	0.0696117
150	0xbd11d7c6	-0.03560617
151	0xbca86958	-0.020558044
152	0x3dc8162a	0.097698525
153	0x3d4868c0	0.048928022
154	0x3ce7a975	0.028279046
155	0x3dbcaab1	0.09212244
156	0xbd80b47f	-0.06284427
157	0xbd8a050c	-0.06739244
158	0xbda8fb02	-0.08251001
159	0xbcad1dfc	-0.021132462
160	0x3d0ff264	0.03514327
161	0x3d62739d	0.05528604
162	0x3d54b3d2	0.051929303
163	0x3d92c8ab	0.07167181
164	0x3d6f5e7c	0.058439717
165	0xbd57be19	-0.052671526
166	0xbc00bc0f	-0.007857337
167	0xbc935a69	-0.017987447
168	0xbc342c45	-0.010996883
169	0xbd883164	-0.066500455
170	0xbdc50b10	-0.09621251
171	0xbd8360b8	-0.06414932
172	0xbd88cead	-0.06680045
173	0x3d721206	0.05909922
174	0x3d2d476e	0.04230445
175	0xbcfc3594	-0.030787267
176	0x3daad4a0	0.08341336
177	0xbc9100d5	-0.017700592
178	0xbd5fe5c9	-0.0546625
179	0x3bc1d967	0.005915809
180	0x3bf2b592	0.007406899
181	0x3d925a81	0.071461685
182	0xbccd1c76	-0.025037985
183	0xbd491c09	-0.049099002
184	0x3b4c711c	0.0031195348
185	0xbcb17e66	-0.021666717
186	0xbcab8231	-0.020936104
187	0xbdf4c95f	-0.11952471
188	0xbd996b06	-0.07491116
189	0xbd1c8ddc	-0.038221225
190	0x3d8c71e7	0.06857663
191	0xbd99798a	-0.07493885
192	0x3ca816d6	0.020518702
193	0x3d7239c5	0.059137125
194	0x3d60d800	0.054893494
195	0x3e0b545b	0.13606398
196	0xbd3811c0	-0.044938803
197	0x3d933da4	0.071894914
198	0xbda613f7	-0.08109277
199	0x3bfb529f	0.0076697613
200	0xbd4fc414	-0.050724104
201	0xbd257d3e	-0.040402643
202	0x3dc652b3	0.096837424
203	0x3d73925c	0.05946575
204	0xbd85ad3b	-0.06527182
205	0x3dda373a	0.10655065
206	0xbd214fc2	-0.039382704
207	0xbd0cdd58	-0.034390777
208	0x3c1a81ad	0.009430331
209	0x3db654e6	0.08902912
210	0xbbd9690a	-0.006634836
211	0x3dbb5506	0.09147076
212	0x3c5128d8	0.012766086
213	0xbdc500a4	-0.09619263
214	0xbdb2985e	-0.08720468
215	0xbd9144f6	-0.070932314
216	0x3e0920a0	0.13391352
217	0x3d29d161	0.041459445
218	0x3dbe84ee	0.09302698
219	0x3d832f38	0.06405491
220	0xbdc5f570	-0.09665954
221	0x3d86fa3f	0.065906994
222	0x3d0332d3	0.03203089
223	0x3de50f4b	0.111845575
224	0xbd9b02c6	-0.07568888
225	0xbb31ee31	-0.002715003
226	0xbd228598	-0.039678186
227	0x3dfced89	0.12349994
228	0x3d261ad9	0.040552948
229	0x3d77e411	0.060520235
230	0x3c96b70d	0.018397832
231	0xbd55050e	-0.052006774
232	0xbd0d8254	-0.03454812
233	0x3d2a4945	0.04157378
234	0xbd2f5d0a	-0.04281334
235	0x3da7d7bb	0.08195444
236	0xbc09e2fd	-0.008415935
237	0x3dad01b4	0.084475905
238	0x3cea4fba	0.02860247
239	0x3d9c8eed	0.076444484
240	0x3cd6162e	0.026133623
241	0xbd068827	-0.03284469
242	0xbcd99988	-0.026562467
243	0x3d0e3a97	0.034723844
244	0x3c0020bd	0.007820305
245	0xbdb4b1db	-0.08822986
246	0x3cac3ac1	0.02102411
247	0xbd2f472b	-0.04279248
248	0xbdb663b7	-0.08905738
249	0xbcd358fe	-0.02579927
250	0xbcbe404b	-0.023224017
251	0x3d5bf669	0.053701792
252	0xbd48eccf	-0.049053963
253	0x3e2cdb77	0.16880594
254	0xbcef42e6	-0.029206704
255	0x3d981b3f	0.07427072

ln1.weight f4 [256]
0	0x3f6f252d	0.934161
1	0x3f8e4534	1.1114869
2	0x3f6644a2	0.89948475
3	0x3f80c023	1.0058635
4	0x3f75fb74	0.9608681
5	0x3f8f2679	1.1183616
6	0x3fa31c13	1.2742943
7	0x3f84b571	1.0367872
8	0x3f9edd09	1.2411205
9	0x3f96900a	1.1762707
10	0x3f89b6c0	1.0758896
11	0x3f77ca10	0.967927
12	0x3f822d74	1.0170121
13	0x3f9496ca	1.1608517
14	0x3fa021ce	1.2510316
15	0x3f834c6c	1.0257697
16	0x3f8e0467	1.1095093
17	0x3f8ad35e	1.0845754
18	0x3f89eb8f	1.0775012
19	0x3f77eac5	0.96842605
20	0x3f8b8b8b	1.090196
21	0x3fafe664	1.3742185
22	0x3f94aaff	1.1614684
23	0x3f89c4cd	1.0763184
24	0x3f8d57d7	1.1042432
25	0x3fa4b7b6	1.2868564
26	0x3f7339c5	0.95010024
27	0x3f6aa46b	0.9165713
28	0x3f94ffe9	1.1640598
29	0x3f98fe66	1.1952636
30	0x3f7a8521	0.9785939
31	0x3f78ce15	0.97189456
32	0x3f87e575	1.06169
33	0x3f86a3af	1.0518702
34	0x3f82451c	1.017734
35	0x3f8a0536	1.078284
36	0x3f797bb5	0.97454387
37	0x3f8f3929	1.1189319
38	0x3f85ea8a	1.0462201
39	0x3f8705a7	1.05486
40	0x3f658aa7	0.8966469
41	0x3f7a0d46	0.97676504
42	0x3fa5ff44	1.2968526
43	0x3f78e6ef	0.97227377
44	0x3f6ea473	0.9321968
45	0x3f8a6240	1.0811234
46	0x3f846a99	1.0345031
47	0x3f7bc4b6	0.9834703
48	0x3f83a59e	1.0284917
49	0x3f737279	0.95096546
50	0x3f87dc9c	1.06142
51	0x3f875101	1.0571595
52	0x3f7e137f	0.992485
53	0x3f6779fa	0.90420496
54	0x3f736bca	0.9508635
55	0x3f8202f2	1.0157149
56	0x3fb3fa4f	1.4060763
57	0x3f8b9147	1.090371
58	0x3f8b4a56	1.088206
59	0x3f75b68a	0.9598166
60	0x3f8497e0	1.0358849
61	0x3fc61fbf	1.5478438
62	0x3f85c5ef	1.045103
63	0x3f844393	1.0333122
64	0x3fd0af1a	1.6303437
65	0x3f834b5c	1.0257373
66	0x3f6cb717	0.9246687
67	0x3f8348a8	1.0256548
68	0x3f803ec1	1.0019151
69	0x3f98a1f4	1.1924424
70	0x3f84e923	1.0383648
71	0x3f82fc47	1.0233239
72	0x3f8f0b56	1.1175334
73	0x3f82b9af	1.0212916
74	0x3f671a7a	0.90274775
75	0x3f8ff911	1.1247884
76	0x3f727b60	0.94719505
77	0x3f9a7936	1.2068241
78	0x3f787286	0.9704975
79	0x3f8114f2	1.0084517
80	0x3f7f61a3	0.99758357
81	0x3f8bd049	1.0922939
82	0x3f8d7f08	1.1054392
83	0x3f90348e	1.1266038
84	0x3f794cc6	0.9738277
85	0x3f65fb2f	0.898364
86	0x3f8bfade	1.0935934
87	0x3f7777f2	0.966674
88	0x3f84ca19	1.0374175
89	0x3f6c6b70	0.92351437
90	0x3f79ec8a	0.97626555
91	0x3f8af971	1.0857373
92	0x3f7bac42	0.9830972
93	0x3f8624c9	1.0479976
94	0x3f7abff5	0.97949153
95	0x3f8ed065	1.1157347
96	0x3f83e303	1.0303653
97	0x3f842624	1.032414
98	0x3fba9dfa	1.4579461
99	0x3f7d08f0	0.9884176
100	0x3f89ccb5	1.0765597
101	0x3f9530a1	1.1655465
102	0x3f847b1b	1.0350069
103	0x3f8db3db	1.1070513
104	0x3f902ddd	1.1263996
105	0x3f711ff7	0.941894
106	0x3f7f1697	0.99643844
107	0x3fa3630e	1.2764604
108	0x3f6ff8bc	0.93738914
109	0x3f85b64a	1.0446255
110	0x3f90911c	1.1294284
111	0x3fb1a2e9	1.3877841
112	0x3f7bfc08	0.98431444
113	0x3f7d724c	0.9900253
114	0x3f80ed4e	1.007242
115	0x3f87f0ad	1.0620323
116	0x3fa3a345	1.2784201
117	0x3f801952	1.0007727
118	0x3f98a126	1.1924179
119	0x3f8433a3	1.0328258
120	0x3f8fd602	1.1237185
121	0x3f8705fa	1.0548699
122	0x3f803ad9	1.0017959
123	0x3fa55b12	1.2918417
124	0x3f857e95	1.0429255
125	0x3f8b110c	1.0864577
126	0x3facfecf	1.3515261
127	0x3f89ca07	1.0764779
128	0x3f81f4e7	1.0152863
129	0x3f8529b4	1.0403352
130	0x3f93e6a7	1.1554765
131	0x3f8830c2	1.063988
132	0x3f8283c1	1.0196458
133	0x3f9b6b3a	1.2142098
134	0x3f70ba46	0.9403423
135	0x3f6f9381	0.9358445
136	0x3f892f5a	1.0717576
137	0x3f819b17	1.0125455
138	0x3f7ddb8e	0.9916314
139	0x3f90529c	1.127521
140	0x3f68164c	0.9065902
141	0x3f98066b	1.1876959
142	0x3f87dd14	1.0614343
143	0x3fa23654	1.267283
144	0x3f6cd895	0.9251798
145	0x3fa0aa16	1.2551906
146	0x3f741520	0.95344734
147	0x3f6a2ca4	0.91474366
148	0x3f804f38	1.0024176
149	0x3f86de10	1.0536518
150	0x3fa6f2b7	1.3042821
151	0x3f6aebd7	0.91766113
152	0x3f858563	1.0431331
153	0x3f4ca4f1	0.7993918
154	0x3f8ade45	1.0849081
155	0x3f73cbec	0.95233035
156	0x3f7a22a7	0.97709125
157	0x3f7f8a98	0.9982085
158	0x3f861057	1.0473737
159	0x3f87fb58	1.0623579
160	0x3f9f5fa9	1.2451068
161	0x3f83c5a7	1.0294694
162	0x3f6e7757	0.9315085
163	0x3fa5f6d3	1.296595
164	0x3f7f50cb	0.99732655
165	0x3f79437c	0.973686
166	0x3f8ae610	1.085146
167	0x3f9778ca	1.1833737
168	0x3f78728e	0.97049797
169	0x3f86d436	1.0533512
170	0x3f7d0c20	0.98846626
171	0x3f7c2353	0.984914
172	0x3f80905e	1.0044057
173	0x3f7f0483	0.9961626
174	0x3f8cd8cb	1.100366
175	0x3fa98985	1.3245093
176	0x3f732c1c	0.9498918
177	0x3f954674	1.1662126
178	0x3f85c27e	1.0449979
179	0x3f793b0e	0.97355735
180	0x3f80217e	1.0010221
181	0x3fb2f4a7	1.3980912
182	0x3f7e792b	0.9940364
183	0x3f953208	1.1655893
184	0x3f878dcc	1.0590148
185	0x3f7aa0b4	0.97901464
186	0x3f84abe3	1.0364956
187	0x3fad9d5f	1.3563651
188	0x3f9f8fae	1.2465723
189	0x3f877ce3	1.0584987
190	0x3fa1523d	1.2603222
191	0x3f6eea5d	0.9332636
192	0x3f871c4d	1.0555512
193	0x3fd1c1c6	1.638726
194	0x3fb121b9	1.3838416
195	0x3f916edb	1.1361955
196	0x3f74f83a	0.95691264
197	0x3fc09897	1.5046567
198	0x3f7c4c19	0.98553616
199	0x3f753d6c	0.9579685
200	0x3f89d37b	1.0767664
201	0x3f7324ca	0.9497801
202	0x3f89d23f	1.0767287
203	0x3f6d4f2f	0.9269895
204	0x3f808eb4	1.004355
205	0x3f935494	1.1510186
206	0x3f9e6cf5	1.2377001
207	0x3f7bb32c	0.9832027
208	0x3f95c5c4	1.1700978
209	0x3fb29567	1.3951844
210	0x3f7ca7a9	0.9869333
211	0x3fb059a0	1.3777351
212	0x3f8b9ce1	1.0907251
213	0x3f70ee54	0.9411366
214	0x3f683170	0.90700436
215	0x3f67cfd0	0.9055147
216	0x3f90df8c	1.1318221
217	0x3f960cf2	1.17227
218	0x3f870abb	1.055015
219	0x3f80f0ba	1.0073464
220	0x3f95717a	1.1675255
221	0x3f95f8e4	1.171658
222	0x3fb90daf	1.4457301
223	0x3f875107	1.0571603
224	0x3f8bb871	1.0915662
225	0x3f93b594	1.1539788
226	0x3f6acf70	0.91722775
227	0x3f9c1d4d	1.2196442
228	0x3f7530c0	0.9577751
229	0x3f813873	1.0095352
230	0x3f7bcef3	0.98362654
231	0x3f80f651	1.007517
232	0x3fb896bf	1.4421004
233	0x3f7ded9c	0.9919069
234	0x3f7b65cd	0.9820221
235	0x3f78ec44	0.9723551
236	0x3f8e4968	1.1116152
237	0x3fec33b0	1.8453274
238	0x3f72e679	0.94882923
239	0x3ff584e9	1.9181186
240	0x3f8930c7	1.0718011
241	0x3fcae4ef	1.5851115
242	0x3f70e9da	0.9410683
243	0x3f5eea21	0.87076
244	0x3f783219	0.9695144
245	0x3f787853	0.970586
246	0x3f85288a	1.0402997
247	0x3f78875f	0.9708156
248	0x3f73b387	0.9519581
249	0x3fb7292f	1.4309443
250	0x3fa5f699	1.2965881
251	0x3f6f75fb	0.935394
252	0x3f8286a9	1.0197345
253	0x3fa7547b	1.3072656
254	0x3f80dad8	1.0066786
255	0x3fa99d92	1.3251212

ln1.bias f4 [256]
0	0xbd7b3f7f	-0.06133985
1	0x3c2f867e	0.010713218
2	0xbd6941f8	-0.05694768
3	0xbd00880f	-0.031379756
4	0xbd5176f7	-0.051138844
5	0x3d382f4a	0.044966973
6	0xbc94f97f	-0.018185375
7	0xbcf5d5e6	-0.030009221
8	0x3d6a2d89	0.057172332
9	0xbd81bece	-0.06335221
10	0xbd2ce8ba	-0.042214133
11	0xbc9b6210	-0.018967658
12	0xbced76d1	-0.02898732
13	0x3d3aa8ae	0.04557102
14	0x3dc9a6df	0.09846281
15	0x3c96b56e	0.01839706
16	0x3a5f0fb9	0.0008509118
17	0xbceab189	-0.028649108
18	0x3d892f9a	0.066985324
19	0xbd41f743	-0.047354948
20	0x3c06355f	0.008191436
21	0xbccddcef	-0.025129763
22	0x3d9165e5	0.07099513
23	0x3cd2c7dc	0.025730066
24	0x3d63f118	0.055649847
25	0x3e3cbb20	0.18430758
26	0xbd3d8c11	-0.046276156
27	0xbdbfec63	-0.09371259
28	0x3dd7d3fd	0.105384804
29	0x3caeae27	0.021323277
30	0xbad543a1	-0.0016270765
31	0xbca23c00	-0.019804
32	0x3c8f05cf	0.017458824
33	0xbc7aa95e	-0.015299169
34	0x3b5ea8cf	0.003397513
35	0x3bd37fd0	0.0064544454
36	0xbd4e0d60	-0.050305724
37	0x3c811dda	0.015761305
38	0xbca43654	-0.020045437
39	0xbbc67d85	-0.0060574436
40	0xbdd9bf81	-0.106322296
41	0xbc4be89d	-0.012445596
42	0x3e74883c	0.23880094
43	0xbd7c01f7	-0.06152531
44	0xbdb7c46a	-0.0897301
45	0x3d397d6e	0.045285635
46	0xbc51ac93	-0.012797493
47	0xbd1e758b	-0.038686316
48	0xbb912334	-0.0044292454
49	0xbdd2b84b	-0.10289057
50	0x3d4c11c8	0.049821645
51	0xbd2b356f	-0.041799005
52	0x3c284e45	0.010272567
53	0xbdb63f66	-0.08898811
54	0xbd942a93	-0.07234683
55	0x3cfdff6e	0.031005587
56	0xba246b68	-0.00062721083
57	0xbd323aa0	-0.04351294
58	0x3d9ccfd3	0.07656827
59	0xbd335ea4	-0.04379143
60	0x3d86b3e7	0.065772824
61	0x3ce6cb58	0.028173134
62	0x3bc14ee5	0.0058992975
63	0x3a7440fb	0.0009317544
64	0x3d1ecc99	0.03876934
65	0xbce60d04	-0.028082378
66	0xbdddf632	-0.10837974
67	0xbcea94f0	-0.028635472
68	0xbd7d003e	-0.06176781
69	0x3df94667	0.12171631
70	0xbe3f9053	-0.18707399
71	0x3c4e2510	0.012582079
72	0x3d2f56d0	0.0428074
73	0xbc832644	-0.016009457
74	0xbda5815f	-0.08081316
75	0xbcb2a7d8	-0.02180855
76	0xbd55bd6d	-0.052182604
77	0x3dbe9cd7	0.093072586
78	0xbcf8beb6	-0.030364376
79	0xbd0b4fa5	-0.0340115
80	0xbd96b46d	-0.07358632
81	0xbc9ea89f	-0.019367514
82	0x3c9f8598	0.019472882
83	0xbcb5d62b	-0.02219685
84	0xbde62255	-0.11237017
85	0xbe1111df	-0.14166974
86	0x3d084fee	0.033279352
87	0xbd3950ad	-0.045242954
88	0xbdc25a40	-0.0948987
89	0xbdd3099a	-0.10304566
90	0xbd891aa0	-0.066945314
91	0x3da29da7	0.07940226
92	0xbd0a6e85	-0.033796806
93	0x3cb138ed	0.02163359
94	0xbd089e0a	-0.033353843
95	0x3da4087c	0.08009431
96	0xbda12225	-0.07867841
97	0xbc8d47d6	-0.017246168
98	0x3dfeecc6	0.12447505
99	0xbcb37163	-0.021904653
100	0xbc4561d5	-0.012047251
101	0x3decd334	0.11563721
102	0xbd069996	-0.032861315
103	0x3dd666f4	0.104688555
104	0x3df0dd6e	0.11760984
105	0xbdf0489a	-0.11732598
106	0xbcd234a0	-0.02565986
107	0xbca7c5f9	-0.020480143
108	0xbd9fcef1	-0.07803143
109	0xbc888227	-0.016663624
110	0xbd22b776	-0.039725743
111	0xbc92d266	-0.017922591
112	0xbd6680f2	-0.056275316
113	0xbd9a02bf	-0.07520055
114	0x3a644a11	0.00087085465
115	0x3c9358cb	0.017986676
116	0xbc72d153	-0.014820415
117	0x3c054ef3	0.008136499
118	0xbd541983	-0.051782142
119	0x3d5da394	0.05411108
120	0x3cf9e79a	0.030505944
121	0xbdc52180	-0.0962553
122	0xbc8bd11a	-0.01706748
123	0xbdc61c3d	-0.09673355
124	0xbba9625a	-0.005169195
125	0xbdab2f00	-0.08358574
126	0x3c26b1b9	0.010174208
127	0xbc9c18dd	-0.019054824
128	0x3c802c92	0.015646253
129	0xbcf9c7b5	-0.030490736
130	0xbd60bb28	-0.054865986
131	0x3ca077d1	0.019588383
132	0xbccc14d9	-0.024912285
133	0x3d1386fe	0.03601741
134	0xbdb0719d	-0.0861542
135	0xbd62cf57	-0.055373516
136	0xbd69dffa	-0.057098366
137	0x3bfac629	0.007653017
138	0xbc9d1d90	-0.019179136
139	0x3cd43f1c	0.025909
140	0xbde77e90	-0.11303437
141	0x3d3aebd3	0.045635056
142	0xbbf5d1bd	-0.0075018094
143	0xbd214064	-0.03936805
144	0xbda2ae4a	-0.07943399
145	0xbd6d5bd4	-0.057948902
146	0xbd4f5f28	-0.050627857
147	0xbdf1357e	-0.11777781
148	0x3befb457	0.0073151994
149	0xbbd99766	-0.0066403626
150	0x3c80636d	0.01567241
151	0xbe572fb2	-0.21014288
152	0x3b39b1ec	0.002833481
153	0xbe3fe4a8	-0.18739569
154	0x3d97509f	0.07388424
155	0xbd3c9ad5	-0.046046097
156	0xbc9a2625	-0.018817017
157	0xbcfa834d	-0.030580187
158	0xbcfadfeb	-0.03062435
159	0xbc8d8641	-0.017275931
160	0x3da265ca	0.07929571
161	0xbc994173	-0.018707966
162	0xbd814de1	-0.06313682
163	0xbcad659e	-0.021166619
164	0xbc896e7a	-0.016776312
165	0xbd007271	-0.03135914
166	0xbca11d3f	-0.019667266
167	0xbd29ed43	-0.041486036
168	0xbd88cd34	-0.066797644
169	0xbc385066	-0.011249637
170	0xbcc682dc	-0.02423232
171	0xbd0044b3	-0.031315517
172	0x39fe7e2f	0.0004854067
173	0xbd081459	-0.03322253
174	0xbd83ff7b	-0.064452134
175	0xbae7991b	-0.001766953
176	0xbe1674d6	-0.14693007
177	0x3bbf2cf8	0.005834218
178	0xbc43aa90	-0.011942521
179	0xbceb2fe4	-0.02870936
180	0xbd4c15bf	-0.049825426
181	0xbd8b6198	-0.06805724
182	0xbd0a38e9	-0.03374568
183	0x3d16d44b	0.036823552
184	0xbd51a672	-0.051184125
185	0xbda0f7e9	-0.07859785
186	0x3c250729	0.010072508
187	0xbcf75178	-0.030190215
188	0xbca20b30	-0.019780725
189	0xbc1357f8	-0.008993141
190	0xb9ff4065	-0.00048685368
191	0xbc9ac03e	-0.018890496
192	0xbb0c7102	-0.0021429663
193	0x3cbdff8a	0.02319314
194	0x3d793aac	0.06084697
195	0x3cb0983b	0.021556964
196	0xbd0007dc	-0.031257495
197	0x3e350ff1	0.17681862
198	0x3c0537aa	0.008130947
199	0xbd654d32	-0.055981822
200	0xbd042f3a	-0.0322716
201	0xbd8ca73b	-0.06867834
202	0x3ced408e	0.028961446
203	0xbd8cbd35	-0.06872026
204	0xbca6c482	-0.020357374
205	0x3cba5b1a	0.022748519
206	0xbc0b0ee2	-0.008487435
207	0xbca1d125	-0.019753048
208	0x3d403375	0.046924073
209	0x3cba6fe8	0.02275844
210	0xbc51bbfe	-0.0128011685
211	0xbd7e98d2	-0.06215746
212	0xbcfc11ee	-0.030770268
213	0xbd88d9ec	-0.0668219
214	0xbdc6468e	-0.09681426
215	0xbe00a315	-0.12562211
216	0x3dbfd462	0.09366681
217	0xbd20a2eb	-0.03921787
218	0x3b3dca1b	0.0028959576
219	0xbbff1d06	-0.0077854423
220	0xb9caae1f	-0.00038658173
221	0x3d4591f8	0.04823491
222	0xbcbdebd8	-0.023183748
223	0xbd71bd5d	-0.05901848
224	0xbbe2bb98	-0.0069193356
225	0xbd161eb2	-0.036650367
226	0xbda2dd66	-0.07952385
227	0x3e05062a	0.12990633
228	0xbd268e79	-0.040663216
229	0x390c2f18	0.00013368984
230	0xbd37989f	-0.044823285
231	0xbc552235	-0.013008644
232	0xbc01b168	-0.007915832
233	0xbd15b401	-0.03654862
234	0xbc72306b	-0.014782052
235	0xbd04a516	-0.032384
236	0xbc4391ca	-0.011936614
237	0xba5cd99f	-0.0008424762
238	0xbd565b6c	-0.05233328
239	0x3d90885c	0.070572585
240	0x3af4e88a	0.0018685025
241	0xbcd63bd9	-0.026151584
242	0xbe17cd99	-0.14824523
243	0xbe80859c	-0.25101936
244	0xbcdcce88	-0.02695395
245	0xbd1c48a2	-0.038155206
246	0x3d24f042	0.04026819
247	0xbd5b334f	-0.05351573
248	0xbd2822b8	-0.041048735
249	0xbbfb7d06	-0.007674816
250	0xbbdb311a	-0.006689203
251	0xbd575291	-0.052568976
252	0xbd0e3085	-0.03471424
253	0x3e5e1835	0.21688922
254	0xbc359209	-0.011082181
255	0x3d1a2b8f	0.037639197

fc2.weight f4 [128, 256]
0	0xbd88014e	-0.06640874
1	0x3ba1071e	0.0049141785
2	0xbc01b9dc	-0.0079178475
3	0xbd0e9f85	-0.0348201
4	0xbd5f1d2d	-0.054471184
5	0x3d4ae345	0.049533147
6	0x3e33d8fe	0.17563245
7	0x3e111519	0.14168204
8	0x3da1fcd5	0.07909552
9	0x3dffb041	0.1248479
10	0xbb033057	-0.0020017826
11	0xbc194fe3	-0.009357425
12	0xbd1b1ccc	-0.03786926
13	0xbdc13e0d	-0.09435663
14	0x3d27bc98	0.04095134
15	0x3d892d02	0.06698038
16	0x3e49b088	0.19696248
17	0x3de3bee6	0.11120395
18	0xbd834795	-0.064101376
19	0x3d8f482a	0.06996186
20	0x3db9072b	0.0903457
21	0xbe685d2e	-0.22691795
22	0xbd871de8	-0.06597501
23	0x3ce6aecd	0.028159523
24	0x3e10e5f9	0.14150228
25	0xbe987f24	-0.297845
26	0x3d21ea05	0.03952982
27	0x3d472d94	0.04862745
28	0x3d2d7588	0.042348415
29	0xbcfce19e	-0.030869301
30	0xbd92baa8	-0.07164508
31	0x3d8bfd3c	0.0683541
32	0xbdce0821	-0.10060144
33	0xbcbaa854	-0.022785343
34	0xbd12fec6	-0.035887502
35	0xbde29c62	-0.11064984
36	0x3cf44cf0	0.029821843
37	0xbc1837b3	-0.0092906235
38	0xbc61abee	-0.013773901
39	0x3e4ea328	0.20179427
40	0xbc8d51d6	-0.017250936
41	0xbd83792b	-0.06419595
42	0xbe05f0f4	-0.13080198
43	0x39e9796b	0.00044531687
44	0x3e0b0826	0.13577327
45	0x3d61e6fc	0.055151924
46	0x3de2c55c	0.110727996
47	0xbcf153c8	-0.029458895
48	0x3d1c3e36	0.038145266
49	0x3d0492df	0.03236663
50	0x3d46a50c	0.048497245
51	0xbe7d4d4a	-0.24736515
52	0x3e18f2a4	0.1493631
53	0xbd0d7f86	-0.034545444
54	0xbc0f7168	-0.0087550655
55	0x3e096248	0.13416398
56	0xbeda4ae5	-0.42635265
57	0x3e2fdb5f	0.17173527
58	0x3dfec721	0.124403246
59	0xbd537f64	-0.05163516
60	0x3b8f96f6	0.0043820096
61	0xbdc3785a	-0.095444396
62	0x3cc45361	0.02396554
63	0x3ceed246	0.029153
64	0xbea6e596	-0.32597035
65	0xbc0ccaba	-0.008593256
66	0x3d0020ac	0.03128116
67	0x3d38f9fb	0.045160275
68	0xbe001b4b	-0.12510411
69	0x3e265003	0.1624146
70	0x3e4c1b2b	0.19932239
71	0xbd2d0d3d	-0.042248953
72	0x3e3a82ad	0.18213911
73	0x3d05ac49	0.032635007
74	0x3e30517e	0.17218587
75	0x3e646aa6	0.22306308
76	0x3b42439a	0.0029642344
77	0xbd139d51	-0.0360387
78	0x3e11a4f3	0.1422308
79	0xbd86da2f	-0.06584584
80	0x3e1bfb63	0.15232615
81	0x3dc60439	0.09668774
82	0x3e067aa1	0.13132717
83	0xbc3afba7	-0.011412538
84	0xbda5bda4	-0.08092812
85	0x3cd437b3	0.025905466
86	0x3d16f3ae	0.036853485
87	0x3cbe2eec	0.023215733
88	0x3db3349c	0.08750269
89	0x3ded453c	0.11585471
90	0x3e7b9d93	0.24571829
91	0x3d892ef0	0.06698406
92	0x3da23595	0.07920376
93	0x3d08a290	0.033358157
94	0x3b820beb	0.003968706
95	0x3d429e95	0.047514517
96	0xbd837ec9	-0.06420667
97	0x3e0873ba	0.13325396
98	0x3e3cf4ae	0.18452713
99	0x3e06ca34	0.13163072
100	0x3dc1debe	0.09466313
101	0x3e8e2f71	0.2777057
102	0xbe4e193d	-0.20126815
103	0xbdab9df3	-0.08379736
104	0x3d8bfd7e	0.06835459
105	0x3d3fc531	0.046818916
106	0x3db9eab5	0.0907797
107	0xbdf8dfb9	-0.12152047
108	0xbd4312ad	-0.047625232
109	0x3e13e0d6	0.14441237
110	0xbd0cfd61	-0.03442133
111	0x3d28dee3	0.041228186
112	0x3e036609	0.12831892
113	0xbcd066e0	-0.02543968
114	0xbde40afe	-0.11134909
115	0x3de36615	0.11103455
116	0x3dc5d98d	0.09660635
117	0x3dcc07d3	0.0996243
118	0xbe150cf7	-0.14555727
119	0x3e7d56a8	0.24740088
120	0x3d07a348	0.0331147
121	0x3d490ee0	0.04908645
122	0xbe08f04f	-0.1337292
123	0x3e0bd4ab	0.13655345
124	0xbd71068b	-0.05884413
125	0x3e49c911	0.19705607
126	0xbd84544b	-0.0646139
127	0xbd2ed9ca	-0.04268817
128	0xbce28fdf	-0.027656494
129	0x3cf3bc94	0.029753007
130	0xbceb0025	-0.028686592
131	0x3e1767bd	0.14785667
132	0x3d9664e3	0.07343461
133	0x3e90ddf4	0.28294337
134	0x3c97b0f7	0.018517
135	0xbd8e0ff9	-0.0693664
136	0x3e76d57a	0.24104872
137	0xbc9de4ff	-0.019274233
138	0x3ca0d1db	0.019631317
139	0x3d338819	0.043830965
140	0x3dbb466e	0.09144293
141	0xbe96bdf1	-0.2944179
142	0x3c7200d2	0.014770703
143	0x3deea4b4	0.116525084
144	0xbc7e17c9	-0.0155086005
145	0xbd4d2cbd	-0.050091494
146	0x3d93a683	0.07209494
147	0x3ce025bd	0.027361745
148	0x3db1781c	0.08665487
149	0xbbac2f87	-0.005254689
150	0x3e2ee311	0.17078806
151	0x3d352e78	0.04423377
152	0x3a35fefd	0.0006942598
153	0xbcecfb0f	-0.028928308
154	0x3d44fb9a	0.04809151
155	0x3caba920	0.020954669
156	0xbc4e7cec	-0.012603026
157	0x3d985fed	0.074401714
158	0xbd80a543	-0.06281521
159	0x3d99ab42	0.07503368
160	0x3e89410a	0.26807433
161	0x3de2728d	0.11057005
162	0x3df97526	0.121805474
163	0x3e5d1f3d	0.21593948
164	0x3d22686a	0.03965036
165	0xbc1b58c3	-0.009481612
166	0xbdc1f945	-0.094713725
167	0xbdc19dd0	-0.094539285
168	0x3bc51b27	0.0060151997
169	0x3cb9cf62	0.022681896
170	0x3db5db5f	0.08879732
171	0x3d65c748	0.056098253
172	0x3dc94f98	0.098296344
173	0x3dafbbbb	0.085807286
174	0x3dc7363c	0.09727141
175	0xbdbcec53	-0.09224763
176	0x3ddb859e	0.10718845
177	0xbc014132	-0.007889079
178	0x3d8589e8	0.06520444
179	0xbd2f0b29	-0.042735253
180	0x3dc47703	0.09593012
181	0xbe0428ef	-0.1290624
182	0xbcd4a973	-0.025959706
183	0xbd2b0e2a	-0.041761555
184	0x3e15086b	0.14553992
185	0x3dadcec8	0.08486706
186	0x3dd1eec2	0.102506176
187	0x3d3c8945	0.046029348
188	0x3e209aa8	0.15683997
189	0x3dff5a71	0.12468422
190	0x3e21f83c	0.1581735
191	0x3da42928	0.080156624
192	0x3e6db2f7	0.23212801
193	0x3f283699	0.6570831
194	0x3dfe1b1d	0.12407515
195	0x3dad77e3	0.08470132
196	0x3e3ebd03	0.1862679
197	0x3f54c440	0.83111954
198	0xbc78653c	-0.015160855
199	0x3e3ad51f	0.18245362
200	0x3d9d5776	0.076826975
201	0x3d8fc1b9	0.070193715
202	0xbd4da19b	-0.050202947
203	0x397e94b2	0.00024278721
204	0xbc2302be	-0.009949384
205	0x3e3f5d44	0.18687922
206	0x3d83f58d	0.064433195
207	0x3debc063	0.11511304
208	0x3e1dd632	0.1541374
209	0x3e191a9f	0.14951561
210	0xbd36c32e	-0.04461973
211	0x3c452493	0.012032646
212	0x3d967346	0.073462054
213	0x3cad1ea8	0.021132782
214	0x3ddbfd3d	0.10741661
215	0xbd4bbf2a	-0.049742855
216	0x3e3aaaaf	0.18229173
217	0xbdc5a505	-0.096506156
218	0xbc034034	-0.008010913
219	0x3dafbb91	0.08580697
220	0xbe063e43	-0.13109688
221	0x3e33e97f	0.1756954
222	0xbdd35288	-0.10318476
223	0x3d7d7d8e	0.061887316
224	0x3d5465d3	0.05185492
225	0x3d41342e	0.047168903
226	0xbb047366	-0.0020210384
227	0x3c3dd797	0.011587045
228	0x3e3db525	0.18526132
229	0xbce43c72	-0.027860854
230	0xbd4e6785	-0.050391693
231	0x3d3d011e	0.046143644
232	0x3ebeec15	0.3728949
233	0x3d952bdb	0.072837554
234	0x3ce5151a	0.027964164
235	0x3e10dcfc	0.14146799
236	0x3cd5798c	0.026058935
237	0x3e4b97e8	0.19882166
238	0x3db402e0	0.08789611
239	0x3eae222e	0.34010452
240	0x3ce5c38b	0.028047344
241	0xbe7df59a	-0.24800721
242	0xbd6a6a55	-0.057230312
243	0x3d2ef713	0.042716097
244	0x3e0221f5	0.12708266
245	0xbcce6bcb	-0.025197884
246	0x3deb3a90	0.11485779
247	0x3d3f7381	0.046741012
248	0x3cd7022b	0.026246151
249	0xbd780a93	-0.06055696
250	0xbdcf0af1	-0.10109509
251	0x3d74103b	0.05958579
252	0xbdc79d76	-0.0974683
253	0x3daa4cc7	0.08315425
254	0xb9b3fe0b	-0.00034330817
255	0x3ea31c0d	0.3185734

fc2.bias f4 [128]
0	0x3d29e831	0.0414812
1	0xbce8c988	-0.02841641
2	0xbe2605c4	-0.16213137
3	0x3bc96643	0.0061462237
4	0x3b953e5b	0.0045545525
5	0xbbf7f53b	-0.0075670755
6	0x3b59c049	0.0033226183
7	0x3c941c48	0.018079892
8	0x3c0fbebf	0.008773505
9	0xbcb47380	-0.022027731
10	0x3b41e57e	0.002958625
11	0xbaffe2d1	-0.0019522553
12	0x3b40fef0	0.002944883
13	0xbc3b76b3	-0.011441874
14	0x3c3b226d	0.011421782
15	0xbc028b40	-0.00796777
16	0x3b1cf1c2	0.002394781
17	0x3cda18c7	0.026623143
18	0x3e5191d2	0.20465782
19	0x3cb4c41f	0.022066174
20	0x3a20d5c8	0.00061353715
21	0x3b91b371	0.00444644
22	0xbb56f866	-0.0032801866
23	0xbda4f344	-0.08054212
24	0x3b4a4ca4	0.0030868435
25	0x3d6e1edc	0.0581349
26	0x3c5b070f	0.013368382
27	0x3d5437af	0.051810917
28	0x3c3f722e	0.011684937
29	0x3c56d99e	0.013113407
30	0x3c5f1f8a	0.013618359
31	0xbc08dc63	-0.008353326
32	0xbb5d0c29	-0.0033729172
33	0x3b04e217	0.0020276362
34	0x3bf34a53	0.0074246316
35	0xbc29204d	-0.0103226425
36	0xbbde3a86	-0.006781879
37	0x3bd993eb	0.0066399476
38	0xbaff84d7	-0.0019494545
39	0x3c1ad5e1	0.009450407
40	0xbcc87ded	-0.024474109
41	0x3d0aa5ae	0.03384941
42	0x3c3cc140	0.011520684
43	0xb9ecd274	-0.00045170228
44	0xbba37cd3	-0.0049892454
45	0x3b81a220	0.0039560944
46	0x3d810f3a	0.06301732
47	0x3bc6a496	0.0060621006
48	0x3cff6a62	0.031178657
49	0x3bf993a7	0.0076164785
50	0xb8b02345	-8.3989034e-05
51	0x3cc18bf2	0.023626301
52	0xbc052fda	-0.0081290845
53	0xba3e6f24	-0.0007264486
54	0x3a71d029	0.00092244387
55	0x3c9c0bcc	0.019048594
56	0x3d63def5	0.05563255
57	0xbc29df8b	-0.010368238
58	0x3cb1010c	0.021606945
59	0x3b5e35fc	0.003390669
60	0x3cbc3c25	0.022977898
61	0x3c9df680	0.01928258
62	0xbbfa5985	-0.007640066
63	0x3d039fbc	0.032134756
64	0x3b86a218	0.0041086785
65	0x3ca930b3	0.020653104
66	0xbc37cfe6	-0.011219
67	0x3bb3aef8	0.0054835044
68	0x3b1ca3c6	0.0023901328
69	0xbb54cd39	-0.0032470955
70	0x3ac11541	0.0014731066
71	0x3d440fe4	0.047866717
72	0x3b25613a	0.0025234954
73	0x3d63bc95	0.055599768
74	0x3cbfe6cd	0.023425484
75	0xbbcb6ebe	-0.00620827
76	0x3b60a329	0.0034276939
77	0xbc4a5938	-0.012350373
78	0x3ca7b373	0.02047131
79	0xbcd5950f	-0.026072053
80	0xbc6159b9	-0.013754302
81	0xbe5bacee	-0.21452686
82	0x3d105b19	0.035243127
83	0x3ba66555	0.0050779977
84	0x3ce95090	0.028480798
85	0x3cf09ecf	0.0293726
86	0x3cc4a55e	0.024004634
87	0xbaa2bc3e	-0.001241572
88	0x3d580dd6	0.05274757
89	0x3c38d013	0.0112800775
90	0x3ceb57fc	0.028728478
91	0x3c14c672	0.009080516
92	0xbb51aee3	-0.003199511
93	0x3c295b12	0.010336654
94	0x3aca0499	0.0015412747
95	0xbb9cf3ff	-0.004789829
96	0xbdaef33d	-0.08542488
97	0x3c80a5b0	0.015704006
98	0x3cedcdb0	0.029028744
99	0x3ce0d3b3	0.027444696
100	0x3cd71c74	0.026258685
101	0x3c9e6188	0.019333616
102	0x3c452c32	0.012034463
103	0xbc4140fa	-0.011795277
104	0xbc36590b	-0.011129628
105	0x3ce609de	0.028080877
106	0x3c577ead	0.01315276
107	0x3c5ad470	0.013356313
108	0x3cfbade0	0.030722558
109	0x3e009423	0.1255651
110	0x3d2dce20	0.042432904
111	0x3be8bd52	0.007102647
112	0x3cff83a8	0.031190708
113	0xbea3d208	-0.3199618
114	0xbdfb3fba	-0.12268014
115	0xbc1be3d2	-0.009514766
116	0x3d3a9d2e	0.045560054
117	0xbc527f60	-0.012847751
118	0x3d46cae5	0.04853334
119	0x3c6e5da4	0.014548693
120	0x3d5c15aa	0.053731598
121	0xbe588367	-0.21143876
122	0x3cd16513	0.025560891
123	0x3cad497c	0.021153204
124	0xbc84f49a	-0.016229916
125	0x3c29f63b	0.010373647
126	0x3caefe7e	0.021361586
127	0x3cd60738	0.026126489

ln2.weight f4 [128]
0	0x3f80e38c	1.0069442
1	0x3fa53e4a	1.2909634
2	0x3f7eb549	0.9949537
3	0x3f7ece67	0.99533695
4	0x3f91b46a	1.1383183
5	0x3f7306f7	0.949325
6	0x3f791752	0.9730121
7	0x3f9869e4	1.1907315
8	0x3f7f0ee7	0.99632114
9	0x3f77ec18	0.96844625
10	0x3f731735	0.94957286
11	0x3f6c8136	0.9238466
12	0x3f74d67b	0.9563977
13	0x3f95da49	1.170724
14	0x3f7bac0e	0.9830941
15	0x3f888aef	1.0667399
16	0x3f869677	1.0514668
17	0x3f7ffce0	0.9999523
18	0x3f674f09	0.90354973
19	0x3f810a92	1.0081351
20	0x3f797da7	0.97457355
21	0x3fea4c04	1.8304448
22	0x3f748541	0.9551583
23	0x3f7b2f62	0.98119175
24	0x3f89fe14	1.0780663
25	0x3f92684c	1.1438079
26	0x3f7ff0e1	0.9997693
27	0x3f7e9319	0.99443203
28	0x3f6d38f1	0.9266501
29	0x3f964249	1.1738979
30	0x3f69d7b0	0.9134474
31	0x3fcf9aa7	1.6219071
32	0x3f739619	0.95150906
33	0x3f777c73	0.9667427
34	0x3f7bed62	0.9840909
35	0x3f7cd016	0.98755014
36	0x3f73f26e	0.95291793
37	0x3f884650	1.0646458
38	0x3f96de20	1.1786537
39	0x3f7c1216	0.98465097
40	0x3f8ef48a	1.1168377
41	0x3f82ea86	1.0227821
42	0x3f7d1c9e	0.9887179
43	0x3f801a4f	1.0008029
44	0x3f702d47	0.9381909
45	0x3f7a45ea	0.9776293
46	0x3f83679c	1.0265994
47	0x3f6d24e7	0.92634434
48	0x3f8ad583	1.0846409
49	0x3f5a32c8	0.85233736
50	0x3f87546f	1.0572642
51	0x3fb3581e	1.4011266
52	0x3fad2fb3	1.3530182
53	0x3f724a56	0.9464468
54	0x3f7972af	0.9744062
55	0x3f8318c3	1.0241932
56	0x3f8ca9ad	1.0989281
57	0x3f72df1d	0.94871694
58	0x3f94686c	1.1594367
59	0x3f5ae7af	0.8550977
60	0x3f82374a	1.0173123
61	0x3f83b60d	1.0289932
62	0x3f769bcb	0.9633147
63	0x3f810891	1.0080739
64	0x3f6b48f8	0.91908216
65	0x3f85797f	1.0427703
66	0x3f6c9598	0.9241576
67	0x3fb14c16	1.3851345
68	0x3f7b73b8	0.9822345
69	0x3f76d19a	0.96413577
70	0x3f84a115	1.0361658
71	0x3f889864	1.0671506
72	0x3f7401b4	0.953151
73	0x3f83a656	1.0285137
74	0x3f7b64c5	0.9820064
75	0x3f7b1773	0.98082656
76	0x3f68344f	0.90704817
77	0x3f710b33	0.94157714
78	0x3f7d6695	0.9898465
79	0x3f770193	0.9648678
80	0x3f740383	0.9531786
81	0x3f8a0174	1.0781693
82	0x3fa2da52	1.2722876
83	0x3f7284d2	0.9473392
84	0x3f829792	1.0202506
85	0x3f896ad6	1.0735729
86	0x3f8c3ded	1.0956398
87	0x3f73a238	0.951694
88	0x3f829f8e	1.0204942
89	0x3f806b3c	1.0032725
90	0x3f7dddf5	0.99166805
91	0x3f81a71b	1.0129122
92	0x3f830db5	1.0238558
93	0x3f86d9cb	1.0535215
94	0x3f823ac5	1.0174185
95	0x3f8d7a9a	1.105304
96	0x3f89f32c	1.0777335
97	0x3faa6938	1.331336
98	0x3f85f550	1.0465488
99	0x3fa20f39	1.2660896
100	0x3f99e3d4	1.2022653
101	0x3f9e2afe	1.235687
102	0x3f7c79c9	0.9862333
103	0x3f6dff01	0.9296723
104	0x3f6f80fd	0.93556195
105	0x3f8332bf	1.0249861
106	0x3f7f9ab5	0.9984544
107	0x3f7e472f	0.9932737
108	0x3f7f2657	0.99667877
109	0x3f64b396	0.89336526
110	0x3f83be2c	1.0292411
111	0x3f7df021	0.9919453
112	0x3f8cc7ce	1.0998476
113	0x3f82b840	1.0212479
114	0x3f7f741d	0.9978655
115	0x3f792093	0.9731533
116	0x3f852e74	1.0404801
117	0x3f7fa256	0.9985708
118	0x3f7a7aee	0.97843826
119	0x3f8218b9	1.0163795
120	0x3f8c24b5	1.0948702
121	0x3f743e5d	0.9540766
122	0x3f7d2e8f	0.9889917
123	0x3f7bb1b6	0.9831804
124	0x3f8c7c7a	1.0975487
125	0x3fb827d8	1.4387159
126	0x3f830e9c	1.0238833
127	0x3f7f8eef	0.99827474

ln2.bias f4 [128]
0	0x3ba2ff6d	0.004974297
1	0xbd467e44	-0.04846026
2	0xbc11f7e2	-0.0089091975
3	0xbc27bb61	-0.010237546
4	0xbd9a45d6	-0.075328514
5	0xbdd90b05	-0.10597805
6	0xbad509d9	-0.0016253545
7	0x3cfa5b84	0.030561216
8	0xbd4f8e0b	-0.050672572
9	0xbca648a3	-0.020298308
10	0xbdc46c1d	-0.095909335
11	0xbd8bfad8	-0.06834954
12	0xbd59e24b	-0.053194325
13	0xbcd1dffc	-0.0256195
14	0xbb90bdfa	-0.004417178
15	0xbbde44e5	-0.006783115
16	0xbd723fde	-0.05914294
17	0x3d030e95	0.03199633
18	0xbe05e6b9	-0.13076295
19	0xbd83fbad	-0.06444488
20	0xbcaa3742	-0.020778302
21	0xbaef2ea1	-0.001824815
22	0xbdb8b66c	-0.09019169
23	0xbc9e9ef0	-0.019362897
24	0xbd2ae2f5	-0.04172035
25	0x3d99dc72	0.0751275
26	0x3b92fa43	0.0044854
27	0xbda2f906	-0.07957654
28	0xbdbaff61	-0.09130741
29	0xbcc91c85	-0.024549732
30	0xbe4d15a6	-0.2002779
31	0xbd7dd38f	-0.061969336
32	0xbd36651f	-0.04453003
33	0xbcf92d0f	-0.030416993
34	0x3a0ff2e4	0.00054912106
35	0xbd0c6f4d	-0.034285832
36	0xbc3ba805	-0.011453633
37	0xbccb0ab5	-0.024785379
38	0xbbe99131	-0.007127904
39	0xbbf4eda8	-0.00747462
40	0xbcf78c5e	-0.0302183
41	0x3cb33208	0.021874443
42	0x3c0150b9	0.007892781
43	0xbd430ece	-0.04762154
44	0xbd8923b4	-0.06696263
45	0xbd62bb50	-0.055354416
46	0x3d0311bd	0.03199934
47	0xbd3bd512	-0.045857497
48	0x3cf4c496	0.029878896
49	0xbe279602	-0.16365817
50	0x3cb26d5e	0.021780666
51	0xbbc7301f	-0.0060787345
52	0xbd87f126	-0.06637792
53	0xbc97cccb	-0.01853027
54	0xbda2dd38	-0.079523504
55	0xbd1ac3c8	-0.037784368
56	0x3d39492c	0.045235798
57	0xbd3a8982	-0.045541294
58	0x3d476e8c	0.04868941
59	0xbe60dcb5	-0.21959193
60	0x3c34abcf	0.0110272905
61	0x3c821a60	0.015881717
62	0xbcf7e9da	-0.030262876
63	0xbc35a5fd	-0.011086938
64	0xbdcb8b94	-0.09938732
65	0x3cdf6a34	0.027272321
66	0xbd01dce8	-0.031704813
67	0x3d49e6e2	0.049292453
68	0x3a13f577	0.0005644182
69	0xbcf46733	-0.029834365
70	0xbd03cc5a	-0.032177307
71	0x3d67a5de	0.056554668
72	0xbc41baf5	-0.011824359
73	0x3d708303	0.058718693
74	0xbd79ec71	-0.061016504
75	0xbdb7b0fa	-0.089693025
76	0xbdb3ff55	-0.08788935
77	0xbd8e3189	-0.06943042
78	0x3c4dfb21	0.012572081
79	0xbd893d7d	-0.06701181
80	0xbda764fe	-0.081735596
81	0x3ca668e9	0.020313697
82	0x3b885b65	0.0041612857
83	0xbd503394	-0.05083044
84	0x3cdb623a	0.026780237
85	0xbe0ad86c	-0.13559121
86	0xbc4ca357	-0.012490115
87	0xbdaa6f42	-0.08322002
88	0x3d245588	0.04012063
89	0x3c024562	0.007951112
90	0x3c1434ad	0.009045762
91	0xbda85535	-0.08219377
92	0xbd92bc3e	-0.071648106
93	0xbd6f300c	-0.05839543
94	0xbd560d49	-0.052258763
95	0xbd00e151	-0.03146488
96	0x3c3563d0	0.01107116
97	0xbd9e1b6e	-0.077200755
98	0x3c3941d0	0.011307195
99	0xbcd45266	-0.025918197
100	0x3c8c1b85	0.017102966
101	0xbd334371	-0.04376549
102	0x3b740271	0.00372329
103	0xbda6ac56	-0.08138339
104	0xbdbffaf0	-0.093740344
105	0x3cc1c799	0.023654746
106	0xbd9bd9d7	-0.07609909
107	0xbb419d53	-0.0029543235
108	0x3ca23344	0.019799836
109	0xbe090c9e	-0.1338372
110	0x3ca5de03	0.020247465
111	0x3bfc7ab4	0.007705057
112	0x3cdbd7a7	0.02683623
113	0x3caa41ab	0.020783266
114	0x3b3968c6	0.002829121
115	0xbc711abf	-0.014715849
116	0x3d506228	0.05087486
117	0xbcb004e1	-0.021486701
118	0xbc54c244	-0.01298577
119	0xbc48777c	-0.012235519
120	0x3d51010d	0.051026393
121	0xbc780ddc	-0.015140023
122	0xbbebca8f	-0.0071957777
123	0xbca263dd	-0.01982301
124	0xbce34be5	-0.02774615
125	0xbd086ed6	-0.033308826
126	0x3c8b9605	0.017039308
127	0x3c7c06c9	0.015382477
