checkpoints/DDPG/Actor/DDPG_actor_800.pth (torch, 183131 bytes, 10 tensors)

fc1.weight f4 [256, 41]
000000 87 4a b2 bd a3 17 90 3e b9 ce f2 3d 25 c1 1c be
       -0.08705621 0.28143033 0.118558355 -0.15308054
000010 f1 6a 0f be c8 0c cd bc e1 b7 d0 3d 07 54 4f 3e
       -0.14005639 -0.025030509 0.10191322 0.20246898
000020 f7 a6 42 3e e7 4b b9 3d 5e 31 a2 3c a1 0e 70 3e
       0.19009005 0.0904768 0.01979893 0.2344308
000030 13 0f f6 3c 86 64 8d 3d 38 cc 43 3e f3 18 04 be
       0.030036485 0.06903939 0.19120872 -0.12900142
000040 4f 10 51 be fe 53 6d bd ea 65 b3 bd c4 f9 ea bd
       -0.20416377 -0.05794143 -0.08759673 -0.1147342
000050 73 9d bd 3d 94 38 2c 3e 4a 8f f0 3b d5 d6 41 bd
       0.09258547 0.16818458 0.0073413 -0.04732402
000060 81 11 a1 3d 8f 93 94 3c 40 e7 7d 3e 17 69 dd bb
       0.07864667 0.018136768 0.24795246 -0.0067569125
000070 77 58 9c 3e 7b 83 99 bd cb 92 da bd 45 d2 c5 3d
       0.30536243 -0.07495781 -0.1067253 0.09659246
000080 5d c0 15 3e 83 3b f1 3d 75 e7 b7 3d 78 25 d6 be
       0.14624162 0.11778929 0.08979694 -0.4182546
000090 79 01 27 3e c8 03 53 3e 3e 2e 6f 3d b8 f7 a4 3d
       0.16309156 0.20606911 0.05839371 0.08055061
0000a0 6c bb 90 3a a2 d0 d9 bb 61 b6 c1 3d 23 93 24 be
       0.0011042184 -0.0066471854 0.09458614 -0.16071753
0000b0 0f a7 13 3e a3 58 89 bd e7 8f 0d bd f8 7c fc bd
       0.14419197 -0.06706359 -0.034561064 -0.123285234
0000c0 69 ef 88 3d ea d0 38 bd d5 db a4 bc 54 fe 21 be
       0.06686289 -0.04512111 -0.020124355 -0.15819675
0000d0 ac ad 4d be 9b 43 86 bd b2 fa 8a 3a e5 f7 64 3c
       -0.20085782 -0.065558635 0.0010603277 0.013975118
0000e0 79 83 46 be 7a 29 1e bd ea 1e 2f be ff 81 0f be
       -0.1938609 -0.038613774 -0.17101637 -0.14014433
0000f0 72 1a 3a be ce ab f9 3d 68 1f ce 3d 84 0d d0 3e
       -0.1817415 0.12190972 0.10064584 0.40635312
000100 57 73 9f 3e 29 a6 d9 3e 93 fe 9a 3e 9e f9 19 3f
       0.31142685 0.42509583 0.3027235 0.6014651
000110 80 8e 39 be c6 cc 8b 3e 7f ba 04 be 36 5a 1f 3e
       -0.18120766 0.27304667 -0.12961768 0.15561756
000120 69 5d bf 3d 43 7f ec bc 04 17 ec bd 42 c5 b4 bd
       0.093439884 -0.028869277 -0.115278274 -0.088266864
000130 ab 7f 36 bf a0 6b 18 3e 60 62 3e bd 4e ea 3a 3c
       -0.71288556 0.14884806 -0.046480536 0.011408402
000140 13 80 81 bd 89 b9 24 3e 10 6a f7 3c 94 ee 69 be
       -0.06323256 0.16086401 0.030201942 -0.22844917
000150 3b 19 32 bb 0a 3f 38 be 0e f7 4a be dd 94 01 be
       -0.0027175683 -0.17992797 -0.19820806 -0.12654443
000160 b9 ec f6 bd b8 2d aa 3b 8f cc ca bd 2d c7 84 be
       -0.1205687 0.0051934384 -0.09902298 -0.2593321
000170 ee f9 f7 bc 9f ac 24 3e 8f 38 35 3e 5c 4b 20 3e
       -0.030270543 0.16081475 0.17697357 0.15653747
000180 d3 b0 dd bc 2d 06 08 be 1d 31 f0 bd 37 ac a3 3c
       -0.027061855 -0.13283606 -0.117281176 0.01997958
000190 d1 b3 ef 3c 05 9d 57 bd f4 d4 f2 bd ff 08 e5 bc
       0.029260548 -0.05263998 -0.11857024 -0.027958391
0001a0 9b 1a 82 be dc 64 9f be 8c 64 8e be de 3e 85 be
       -0.25410923 -0.31131637 -0.27811086 -0.26024526
0001b0 63 08 74 be 3e fb 10 bd ce 74 c7 bd f9 bb 5f 3d
       -0.23831324 -0.035395853 -0.097390756 0.054622624
0001c0 f2 98 88 3d 37 1f 0c bd b3 2f 04 3d 1c 1c d0 3c
       0.06669797 -0.034209456 0.032272052 0.025404029
0001d0 f6 92 51 bd a3 ef 0a 3e 56 17 17 be a1 1e 1f be
       -0.051165543 0.13567977 -0.14754996 -0.15539028
0001e0 1b d9 43 3c da 3b 3a be 3f 10 e3 bc 6b 7f 4c 3d
       0.011953617 -0.18186894 -0.027717708 0.049926203
0001f0 81 95 92 be 66 fe 2c be 64 df 91 bc a9 1f bd 3c
       -0.28629687 -0.1689392 -0.017806716 0.023086386
000200 24 19 90 3d 89 64 0d bd ae a8 70 bd 93 5f 73 be
       0.07036045 -0.034519706 -0.058754615 -0.23766927
000210 7e 9b ea bd 56 28 2f bd 28 ef 32 3e f8 ec f0 3d
       -0.11455439 -0.042763077 0.17474043 0.11763948
000220 f9 0c bb 3d 96 dc 63 3e 7b 6a d4 3e 67 80 1f 3e
       0.09133334 0.22252116 0.41487488 0.15576325
000230 39 31 e9 3e c8 3a f7 3d 1c 71 26 bd 40 7b 38 bd
       0.45545366 0.120717585 -0.040635213 -0.045039415
000240 f9 d9 35 be bf 2e e6 be 32 59 84 be be 21 4c be
       -0.17758931 -0.4495754 -0.258493 -0.19934747
000250 e9 07 79 bd 90 59 4f be ec 10 20 3d 59 87 98 bd
       -0.06079856 -0.20249009 0.039078638 -0.074476905
000260 af 33 5f 3e 87 e7 92 bd 79 36 eb bd 0b 40 32 3e
       0.2179706 -0.071730666 -0.11484999 0.17407243
000270 ce 18 87 bd 7b f5 d4 bd a6 b6 c2 3e 91 7f 76 3e
       -0.06596528 -0.10398384 0.38029975 0.240721
000280 c1 aa a7 3c b5 9e 85 3c 95 8b a5 3d c7 d4 07 3e
       0.020467164 0.016311029 0.08083264 0.13264762
000290 d7 14 6f 3e 3f 36 52 3e 3b 28 cf be 8e f1 6b 3c
       0.23347794 0.20528506 -0.4046038 0.014400853
0002a0 50 1d 6b be 02 13 84 3c 01 51 04 be 3a 56 50 bc
       -0.229604 0.016122345 -0.12921526 -0.0127158705
0002b0 c3 c1 ff 3c 57 b9 d3 3d 47 c9 b6 3d f2 c6 2d bd
       0.031220322 0.10338085 0.08925109 -0.042426057
0002c0 35 78 67 be b7 99 a3 be be dd e5 be 77 e1 cf be
       -0.22604449 -0.31953213 -0.44895738 -0.40601704
0002d0 42 31 ee be bd 4a 7b be 43 56 ce be 50 e8 4b be
       -0.46521956 -0.24540229 -0.40300187 -0.19912839
0002e0 97 97 b1 bb 89 5f 2a 3c 5d 9b 6d 3e 3f 69 a4 3d
       -0.0054196822 0.010398754 0.23203798 0.080278866
0002f0 f3 db 45 3d ab b6 2b 3d 40 67 98 3e ad 15 82 bc
       0.048305463 0.041922253 0.29766273 -0.015879476
000300 e5 81 68 3e ab 37 00 bd 16 a9 b4 3c a0 32 87 bd
       0.22705801 -0.03130309 0.022053283 -0.06601453
000310 69 16 02 3d 9c f4 d6 3d 45 2b 80 bd c9 88 05 bf
       0.031759653 0.10495874 -0.06258253 -0.5216184
000320 d2 5d 5d be 90 5e 56 bd f1 35 2a 3c 92 5f 79 be
       -0.21617821 -0.052336276 0.010388837 -0.24352863
000330 d1 f2 42 3c 74 fa 38 bd 5e 66 48 3e 1b ad 41 3e
       0.011898712 -0.045160726 0.195703 0.18913691
000340 2d c4 25 3d 5e 23 ce bc a9 18 4e 3d 42 f2 6f 3d
       0.04047029 -0.025163349 0.050316487 0.058580644
000350 2b d3 35 3e 20 8d 02 3e 76 c9 3e 3e 2d e6 4e 3e
       0.17756335 0.12749147 0.18631539 0.20204993
000360 7e 7e 8f 3d 58 f7 94 bd a0 df 0e 3d 34 d6 55 3d
       0.07006548 -0.072737396 0.034881234 0.052206233
000370 80 30 01 bd a9 96 c6 3c e2 18 28 bd 4b 27 65 3c
       -0.031540394 0.024241762 -0.041039355 0.013986419
000380 25 b2 b0 bd 71 59 76 be bd 93 30 bd 2f b9 31 3d
       -0.086277284 -0.24057557 -0.043109644 0.043389495
000390 7e 71 2e 3c df ee 13 be 17 0b b1 bd ff c2 84 3e
       0.010647176 -0.14446591 -0.08644693 0.2593002
0003a0 bd b9 ce 3c f6 3d 38 3e 27 a1 24 bd f7 52 14 be
       0.025235051 0.17992386 -0.04019275 -0.14484774
0003b0 b9 8f 26 3e 73 bd 7f 3e 1e de 9d 3e f1 9b 3d 3d
       0.16265763 0.24974613 0.30833524 0.046291295
0003c0 e0 d2 81 3e 69 87 d5 3d 79 c9 df 3c 26 98 b9 3c
       0.25356197 0.10426218 0.02731775 0.022655558
0003d0 fa 1b 03 3e 83 7d 1e be 5d 60 9c 3e e9 fb b5 bb
       0.12803641 -0.15477566 0.3054227 -0.0055537117
0003e0 59 b5 57 3d ec 5e d3 bc 5e 1b a3 bd 67 26 59 be
       0.05266318 -0.025802098 -0.07964204 -0.21206056
0003f0 7b fe c7 bd 72 c6 f2 bd 93 a2 0d be 08 4d ea bd
       -0.09765335 -0.11854257 -0.13831548 -0.11440474

fc1.bias f4 [256]
000000 a5 4a a0 3d 86 e3 8b bd 26 10 de bd 4a fb 4b 3c
       0.07826737 -0.06830506 -0.10842924 0.012450049
000010 12 4a d1 bd 1d bc 26 3e f9 ce b4 3d ef 76 a8 3d
       -0.10219206 0.16282697 0.088285394 0.0822581
000020 fa f6 57 bd dd 16 06 3d 99 5a 06 be 2f 14 e8 bd
       -0.05272577 0.032736648 -0.13120498 -0.11331975
000030 ae 74 ee 3c 84 ad 26 3e d4 72 ec 3d c6 d5 b6 3d
       0.029108372 0.16277128 0.11545339 0.08927493
000040 f4 60 a3 bc 88 65 a5 3d f6 33 25 bd a5 07 90 bd
       -0.019943692 0.08076006 -0.040332757 -0.07032708
000050 44 da 84 bd d4 6d 36 3e d4 d9 ee 3d 60 f9 fc 3d
       -0.06486943 0.17815334 0.11662641 0.12352252
000060 2a 69 0e 3e d6 6d 38 3e c9 89 d6 bd eb 16 46 bd
       0.13907304 0.18010649 -0.10475499 -0.0483617
000070 9e 0e c1 bc 7e 72 e2 bd 54 d8 b1 3d f3 42 90 bd
       -0.02356654 -0.11056994 0.086838394 -0.070440196
000080 f3 99 06 3e 09 a4 f3 bd 8e 67 cc 3d 6e 2d f9 bd
       0.13144664 -0.118965216 0.09980689 -0.12166868
000090 9e ab cc 3d 3d 5c b2 bd 57 dd cc bd 30 ae b8 bc
       0.09993671 -0.08708999 -0.10003155 -0.022543997
0000a0 9e a5 bb 3d 69 b7 44 3d 3f 3c 2b 3e ad b9 8b bd
       0.09162448 0.048026476 0.16722201 -0.06822524
0000b0 52 fc a3 bd d5 72 36 bd 55 7b d8 3d f8 55 94 3d
       -0.08007111 -0.044543106 0.10570399 0.0724296
0000c0 23 88 fd bd 91 ce 04 be 4d 32 3a 3c ec a4 b7 3d
       -0.12379482 -0.12969424 0.011364532 0.08967003
0000d0 a5 0f f0 bd f5 7f d8 3d e3 a4 f6 bd d6 ef a8 bd
       -0.11721734 0.10571281 -0.120431684 -0.0824887
0000e0 93 8b 0e be 46 38 9d 3c 4b e8 53 bc 95 e1 01 be
       -0.13920431 0.019191872 -0.012933801 -0.12683709
0000f0 58 42 f0 3d b8 1c 32 3e 60 6d 93 3b b5 5a f7 bd
       0.11731404 0.17393768 0.0044991225 -0.12077848
000100 0f 3a d1 3c 23 e3 1d 3d 6c e3 1c bc 33 65 ea 3d
       0.02554038 0.038546693 -0.009575706 0.114450835
000110 17 b0 9a 3c 9f eb 57 3e 7b 56 fa 3d 69 cd bd 3d
       0.018882794 0.21085976 0.12223526 0.092676945
000120 9f 52 05 bc e0 49 f5 3d dd 52 12 bd c5 c0 99 3d
       -0.008137374 0.11976981 -0.035723556 0.07507471
000130 d5 6e 93 bd 72 26 06 bd ab 4f 21 bd 09 88 04 be
       -0.07198874 -0.032751508 -0.039382618 -0.12942518
000140 36 03 2b 3d 87 42 c5 bb a7 37 a4 bc 82 a7 2d 3d
       0.04175111 -0.0060198936 -0.020046068 0.042396076
000150 d3 77 89 3d 28 9e 9f 3d c4 7e 01 3e 42 33 94 bd
       0.06712308 0.07793838 0.12646013 -0.07236339
000160 10 09 e2 bd 14 47 2b bd a9 98 91 3c d1 ec be 3c
       -0.11036885 -0.041815832 0.01777299 0.023306282
000170 36 08 db bd f4 dd 22 bd 76 25 ee bd ca 5e d2 3c
       -0.106949255 -0.039762452 -0.11628239 0.025679965
000180 98 36 be bd 42 05 3d 3d 98 8f 87 3d 1e 90 a6 bc
       -0.09287757 0.046147592 0.06619185 -0.020332392
000190 57 7e 00 be c6 8f 1b 3e f1 87 24 be db f7 02 3e
       -0.12548195 0.15191564 -0.16067483 0.12789862
0001a0 00 ca 01 bd ed b8 91 bd 7f 02 0e bd 84 32 5d 3d
       -0.031686783 -0.0711535 -0.03467035 0.054003254
0001b0 03 a8 24 3d 28 8b 80 bd 0d 4b f4 3d dc 4f cf 3d
       0.04019929 -0.06276542 0.11928377 0.10122654
0001c0 55 9b f9 3d b1 a4 4a 3d 9e 0a f5 bd 33 87 c5 3d
       0.1218783 0.04947347 -0.11964916 0.09644928
0001d0 ae 66 8b bd 75 69 c0 3d a5 a1 c3 3d dd e7 11 bd
       -0.06806694 0.09395114 0.095523156 -0.035621513
0001e0 78 8b d3 3d bd 0e 21 be 3c fa ac bd ce 50 ba 3c
       0.10329336 -0.15728278 -0.08446166 0.022743609
0001f0 24 cc fd 3d 1a 36 d1 bd df cb d3 bd 7b 56 e8 bd
       0.12392452 -0.10215397 -0.1034162 -0.1134462
000200 68 a8 e2 bd d2 1e c6 bd 09 ac b6 3d 01 0e ed 3d
       -0.11067277 -0.09673847 0.08919532 0.11574937
000210 f8 df ee bd 94 d3 22 3e ca 39 b2 3d 58 a9 59 bc
       -0.116638124 0.15901023 0.08702429 -0.013285004
000220 92 e1 fc 3d 55 41 41 3d ff bb d0 bd e0 61 c3 bd
       0.123477116 0.047181446 -0.101921074 -0.095401525
000230 c7 4e 60 bc 28 a8 a9 bd d9 65 fa bd fa 00 42 bd
       -0.013690657 -0.082840264 -0.12226457 -0.047364213
000240 48 a8 0f 3d 07 5c 85 bd 94 86 85 3d 26 f0 74 39
       0.035072595 -0.065116934 0.06519809 0.00023359116
000250 18 b2 ed bd 57 10 ef 3d b2 6d 9a bd f5 34 a5 3c
       -0.11606234 0.116730385 -0.07540454 0.020166853
000260 bc b8 10 3e e0 fb 48 3d 38 63 0b bc 73 69 b6 3d
       0.1413297 0.04906833 -0.008507542 0.089068316
000270 16 fc e7 bd 69 7a f0 bd 56 a4 fa bd dd 8c 1f 3c
       -0.113273785 -0.11742098 -0.12238376 0.009738174
000280 75 4b ac 3d b7 b7 a5 3d 92 bf d6 3d 65 16 86 3d
       0.0841283 0.080916815 0.10485758 0.0654724
000290 22 bc d3 3d 47 d8 c2 bd 96 73 3f 3b e2 dc 59 bd
       0.10338618 -0.09513908 0.0029213182 -0.053189166
0002a0 e5 3e a6 3a c1 c0 e2 bd 4c 5c 20 be e2 db d3 bd
       0.0012683539 -0.11071921 -0.15660208 -0.10344674
0002b0 26 79 eb bd 52 99 e9 3d 0b 33 a6 3d 05 c7 80 bd
       -0.114977166 0.11406197 0.081152044 -0.0628796
0002c0 5d 8e 06 3e 48 32 f2 bc 65 8a d9 bd de 7f 10 bc
       0.13140245 -0.029564992 -0.106221 -0.008819548
0002d0 6c 94 45 3d df 13 c5 3d a7 f8 9a bd 24 ed a9 bd
       0.04823725 0.09622931 -0.07566958 -0.08297184
0002e0 04 73 7c 3b 6d 17 33 bd c0 16 7b bd 2b c1 3e be
       0.0038520703 -0.043723512 -0.061300993 -0.18628375
0002f0 3e ce 9b bd 46 06 1a bd fa 7e d9 3d 54 48 ef bd
       -0.07607697 -0.03760364 0.10619922 -0.11683717
000300 1a e9 a9 bb 5a c2 b3 3d 4c d4 91 3d 42 f1 35 3e
       -0.0051852586 0.08777304 0.071205705 0.17767814
000310 05 59 bb bd a6 c7 ea 3d a1 b5 0f be fa ea 8f 3d
       -0.091478385 0.11463861 -0.1403413 0.0702724
000320 3d 48 ae bd cb 02 43 bd 5b 8a f5 3d bb e1 c6 3d
       -0.08509872 -0.047610085 0.1198928 0.097110234
000330 1d 85 e0 bd 18 f0 21 3e 63 0e 4b bd 00 3a 6f bc
       -0.10962889 0.15814245 -0.049574267 -0.014601231
000340 e9 c6 5b 3c eb df 17 3e bf a6 65 bc 2f 00 0f 3e
       0.013414123 0.14831512 -0.014016806 0.13964914
000350 4e 90 59 3c b8 42 fe bd 05 9c e0 bd b5 ba 83 bd
       0.013279034 -0.12415069 -0.10967258 -0.06432096
000360 e2 73 32 3e d5 b6 ae 3d c3 49 10 3e 6c 5a a3 3d
       0.17427018 0.08530966 0.14090638 0.07976231
000370 68 2e 0e be 05 3a d9 3d 42 8d 86 3d 9f 9c 2c 3e
       -0.1388489 0.106067695 0.065699115 0.16856621
000380 5d 08 01 be ad 21 3d bc 19 cf 30 bd f9 50 23 3e
       -0.12600847 -0.011543673 -0.043166254 0.15948857
000390 63 27 8c 3d a6 c1 c6 3d 8b 34 79 3d 07 51 d7 bd
       0.0684345 0.09704904 0.060841125 -0.105135016
0003a0 ee 62 cf bc a7 9b bd 3d 8f 5e 9e bd f9 29 01 3e
       -0.025315728 0.09258204 -0.07732879 0.12613668
0003b0 d7 83 4c bd 47 12 fc 3d f5 98 d5 3c d9 86 9f 3d
       -0.04993042 0.123081736 0.026073912 0.07789392
0003c0 a7 ca 15 3d 1a d5 d5 bc 8b f8 36 bd ba 52 8f 3d
       0.036570217 -0.026102591 -0.044670623 0.06998201
0003d0 bc 3e 15 bd 20 77 0a be 0f 76 0c bd 2e 27 07 bd
       -0.03643678 -0.13522005 -0.034292277 -0.03299635
0003e0 9d 20 09 be e7 04 e8 bc 59 49 6f bd 79 03 bc 3d
       -0.13391347 -0.02832265 -0.05841956 0.0918035
0003f0 4b 52 b0 bd a0 6a 0a 3e 47 97 4a bd d1 fe 0d 3e
       -0.08609446 0.13517237 -0.049460676 0.13866736

ln1.weight f4 [256]
000000 85 1e 62 3f b1 7f 9b 3f 8c 91 54 3f 67 97 69 3f
       0.8832782 1.2148343 0.83034587 0.91246647
000010 79 17 7d 3f 1b 38 94 3f 81 90 a3 3f c8 3d 75 3f
       0.9886394 1.1579622 1.2778474 0.95797396
000020 69 70 b8 3f 02 b4 a1 3f 1d c0 8e 3f 16 4c 72 3f
       1.4409305 1.2633059 1.1152378 0.9464735
000030 d2 ca 82 3f 1d 64 90 3f b3 d1 9f 3f 83 06 81 3f
       1.0218146 1.1280552 1.248587 1.0080112
000040 80 ba 9f 3f 7b b5 96 3f 52 f4 84 3f 7d a6 72 3f
       1.247879 1.1774133 1.0387061 0.9478529
000050 58 2f 88 3f 45 b1 b8 3f bb 0b 83 3f 1c 25 88 3f
       1.0639448 1.4429098 1.0237955 1.0636325
000060 f1 01 8f 3f b6 3f a5 3f 89 37 6a 3f 57 3f 5d 3f
       1.1172467 1.2910068 0.9149099 0.86424774
000070 85 2f 93 3f 94 32 98 3f e5 1d 64 3f 20 f5 73 3f
       1.1498877 1.1890435 0.89108115 0.95295906
000080 70 f1 85 3f 34 e2 87 3f 4d 08 6e 3f 2b 5a 8e 3f
       1.0464306 1.0615907 0.92981416 1.1121267
000090 b0 a2 79 3f 4d 8f 8c 3f e3 f5 8a 3f 23 97 74 3f
       0.97513866 1.0981232 1.0856289 0.95543116
0000a0 6f 48 4f 3f 50 c0 68 3f 94 2b a6 3f 15 e7 6b 3f
       0.809699 0.90918446 1.2982049 0.9214948
0000b0 71 55 71 3f ac 11 79 3f e8 50 80 3f b6 47 72 3f
       0.94271 0.9729259 1.0024691 0.9464067
0000c0 f5 8c 81 3f 32 5f 6e 3f 36 e2 7f 3f b8 1c 86 3f
       1.0121142 0.93114007 0.99954545 1.0477514
0000d0 9f a5 7a 3f 23 53 55 3f fe 3a 74 3f 14 7d 81 3f
       0.9790897 0.8332998 0.95402515 1.0116296
0000e0 b0 d1 b4 3f 78 42 91 3f 62 97 8a 3f 91 f1 70 3f
       1.4126492 1.134841 1.0827448 0.941186
0000f0 14 7e 73 3f c6 47 d8 3f 40 63 77 3f 83 50 86 3f
       0.95114255 1.6896904 0.9663582 1.049332
000100 88 5a e3 3f 2b 47 78 3f 7f d6 6c 3f 72 c6 80 3f
       1.7762003 0.96983594 0.92514795 1.0060561
000110 58 65 88 3f 21 fb 97 3f 9a 14 8f 3f e0 7f 71 3f
       1.0655928 1.1873513 1.1178162 0.94335747
000120 29 06 85 3f c9 61 80 3f 0e 90 4c 3f 09 0f 86 3f
       1.0392505 1.0029842 0.7990731 1.0473338
000130 77 ee 68 3f cc 27 c0 3f 27 bf 6d 3f 7b 1a 82 3f
       0.9098887 1.5012145 0.928698 1.0164331
000140 12 e5 73 3f 63 47 8d 3f 32 8e a1 3f a9 99 87 3f
       0.9527141 1.103741 1.262152 1.0593768
000150 45 18 6e 3f 89 79 66 3f e4 07 8b 3f 4e f7 72 3f
       0.9300578 0.900292 1.0861783 0.94908607
000160 fa 76 97 3f 24 13 63 3f 70 4a 66 3f 11 5e 8f 3f
       1.1833184 0.8870108 0.8995733 1.1200582
000170 c9 64 7b 3f 4e 6c 81 3f e3 14 7a 3f 32 b5 8c 3f
       0.9820066 1.0111177 0.9768812 1.0992796
000180 f7 e8 86 3f 39 a6 92 3f c5 fb f8 3f b6 4c 6f 3f
       1.0539845 1.1456977 1.9451834 0.93476427
000190 16 33 8b 3f ff 2d 95 3f 9f a2 87 3f 72 b6 85 3f
       1.0874965 1.1654662 1.0596503 1.0446303
0001a0 33 70 89 3f fd f5 5e 3f d5 64 6a 3f 16 6c b0 3f
       1.0737365 0.870941 0.9156011 1.3782985
0001b0 ed 8b 70 3f 50 e5 89 3f 32 6c 8b 3f 3d 3d b5 3f
       0.9396351 1.0773106 1.0892394 1.4159313
0001c0 a8 94 85 3f b9 0c 68 3f a7 ab 81 3f 56 41 89 3f
       1.0435991 0.90644413 1.0130509 1.0723064
0001d0 2f 09 b1 3f 76 36 7f 3f 49 85 96 3f 75 d9 6f 3f
       1.3830928 0.99692476 1.1759425 0.9369119
0001e0 8c d0 8f 3f 45 31 90 3f 06 49 7c 3f 7d 5c c9 3f
       1.1235518 1.1265036 0.98548925 1.573135
0001f0 1d 17 84 3f a9 11 ad 3f 30 41 b5 3f 16 ec 8b 3f
       1.0319554 1.3521014 1.4160519 1.0931423
000200 0b bd 80 3f f7 45 8a 3f c5 7d b1 3f b1 45 86 3f
       1.0057691 1.0802602 1.3866507 1.0490018
000210 78 5b 85 3f 60 97 9f 3f e5 a4 7c 3f 27 9d 63 3f
       1.0418539 1.2468071 0.9868911 0.8891167
000220 9d 23 8e 3f b0 77 7e 3f fb 4b 7a 3f 45 a3 91 3f
       1.1104618 0.9940138 0.97772187 1.1377951
000230 02 f4 42 3f a5 29 96 3f da 8c 8b 3f c1 44 c8 3f
       0.76153576 1.1731459 1.090236 1.5645982
000240 2c 56 4b 3f 08 32 96 3f 5a c3 65 3f 57 26 37 3f
       0.7942836 1.1734018 0.8975121 0.71542877
000250 cd 46 80 3f a5 16 85 3f 37 bf ae 3f 74 11 79 3f
       1.0021607 1.0397536 1.3652104 0.97292256
000260 80 08 86 3f c2 9a 31 3f c3 00 89 3f ab 6f 64 3f
       1.0471344 0.69376767 1.0703357 0.8923289
000270 8c b5 73 3f 75 38 80 3f fc f5 81 3f 9b 84 8b 3f
       0.95198894 1.0017229 1.0153193 1.0899843
000280 62 e6 b2 3f fd 1c 80 3f bb 8c 5b 3f c5 57 ad 3f
       1.3976557 1.0008847 0.8576161 1.354241
000290 7a e1 7b 3f 72 13 6a 3f fc 3f 89 3f cb 47 96 3f
       0.98390925 0.9143592 1.0722651 1.174066
0002a0 4f b1 93 3f 41 58 8b 3f 29 7c 7a 3f 3e f8 78 3f
       1.1538485 1.0886308 0.97845703 0.9725379
0002b0 df 3e 81 3f 21 3e 76 3f 40 2a 9b 3f 81 87 a5 3f
       1.0097312 0.9618855 1.2122269 1.2931978
0002c0 1a a4 6a 3f 36 10 90 3f 3a 4b 86 3f 57 1f 63 3f
       0.9165665 1.1254947 1.0491707 0.88719696
0002d0 b2 ef 7e 3f d7 f4 b5 3f 91 ac 74 3f 79 47 94 3f
       0.99584496 1.4215344 0.95575815 1.1584312
0002e0 db ea 91 3f f9 da 82 3f 9d cf 83 3f 84 b9 ac 3f
       1.1399797 1.0223075 1.0297734 1.3494115
0002f0 fa 82 9f 3f f3 ad 91 3f 9a 03 ab 3f fd e1 5b 3f
       1.2461846 1.138121 1.3360474 0.85891706
000300 55 91 88 3f e7 81 ef 3f f2 ce ba 3f 18 09 92 3f
       1.0669352 1.8711518 1.4594405 1.1409025
000310 5b 05 6c 3f 93 db db 3f 90 4d 79 3f de 52 5d 3f
       0.9219567 1.7176384 0.97383976 0.8645457
000320 e5 4d 8e 3f 6f 41 7a 3f 06 cc 85 3f c7 c8 5a 3f
       1.1117522 0.97756094 1.0452888 0.8546261
000330 fe e0 83 3f 51 91 96 3f 28 66 ad 3f 32 ba 7a 3f
       1.0303037 1.1763097 1.3546801 0.9794036
000340 f8 28 94 3f da 37 cc 3f a2 72 61 3f 6b 92 b7 3f
       1.1575003 1.5954545 0.8806554 1.4341558
000350 8d c0 ac 3f 41 07 67 3f 49 51 53 3f d5 99 52 3f
       1.3496262 0.90245444 0.82545906 0.8226598
000360 e8 e7 8f 3f 70 50 9a 3f ea bf 87 3f c8 28 79 3f
       1.1242647 1.2055798 1.0605443 0.9732785
000370 b0 61 9a 3f 2d e9 a0 3f 37 cc c3 3f 21 30 96 3f
       1.2061062 1.257116 1.5296696 1.1733438
000380 e4 07 94 3f 8b 24 9c 3f 7c 83 5a 3f 5f 95 9a 3f
       1.1564908 1.2198652 0.8535688 1.2076834
000390 e5 80 66 3f 36 1a 7f 3f b2 dc 79 3f ec b6 7d 3f
       0.9004043 0.9964937 0.9760238 0.9910724
0003a0 a2 e0 cd 3f 8a ec 79 3f dd 82 76 3f 7b 61 6f 3f
       1.6084177 0.97626555 0.9629343 0.9350812
0003b0 8b 0f 8e 3f d3 95 fb 3f 1a a4 57 3f 57 47 12 40
       1.1098493 1.9655098 0.84234774 2.2856042
0003c0 43 07 93 3f 83 13 db 3f ad 6d 63 3f 58 bc 6d 3f
       1.1486591 1.711533 0.88839227 0.92865515
0003d0 50 d7 6c 3f df cc 6e 3f 09 43 85 3f 8a 36 65 3f
       0.9251604 0.9328136 1.0411083 0.89536345
0003e0 40 9e 6a 3f 44 dc be 3f ef 7e a8 3f 94 21 52 3f
       0.9164772 1.491097 1.3163737 0.82082486
0003f0 47 9f 89 3f aa 05 a3 3f 06 03 89 3f cd b4 af 3f
       1.0751733 1.2736104 1.0704048 1.3727051

ln1.bias f4 [256]
000000 09 db da bd 25 9a 93 bc 19 7c f5 bd 38 ea 9a bd
       -0.10686309 -0.018017838 -0.119865604 -0.07564205
000010 74 d9 f0 bd 5c 8f 30 3d 8e fe fc bc ab 3a c7 bd
       -0.11760226 0.04310547 -0.0308831 -0.09727987
000020 08 6b 41 3d 91 3f bd bd d4 62 91 bd 7f 44 0c bd
       0.047221214 -0.0924064 -0.07098928 -0.03424501
000030 b0 80 83 bd f5 9f e3 3c 00 4d 9f 3d 9e e0 5a 3b
       -0.064210296 0.027786234 0.077783585 0.0033398042
000040 53 0c c7 3a 3f d1 40 bd 0e 96 45 3d 47 8d 96 bd
       0.0015186168 -0.047074553 0.048238806 -0.07351165
000050 ff 37 9e bb 05 a7 0e bd 1e 1c 3f 3d 68 bf 81 3c
       -0.0048284526 -0.03482725 0.046657674 0.01583834
000060 37 01 43 3d 9b 02 37 3e 63 55 a2 bd 87 07 16 be
       0.04760858 0.17872088 -0.079264425 -0.14651309
000070 5a 19 cc 3d 19 e2 8a 3c ea 2f 80 bd cf ab 79 bd
       0.09965773 0.016953515 -0.06259139 -0.060954865
000080 c7 9c ea 3b c8 80 4b bc 4b 1a ca bd 6b 65 29 3b
       0.0071598026 -0.012420841 -0.09868296 0.0025847803
000090 53 3f 9d bd 01 be 79 3c 63 18 72 bc 93 59 ea bc
       -0.07678094 0.015243054 -0.014776322 -0.028607165
0000a0 63 ee 55 be b5 45 6e bd 0d 96 75 3e f8 9e 1f be
       -0.20891719 -0.058171947 0.23983021 -0.15587986
0000b0 09 70 20 be 54 e1 f2 bb 86 8a 2f bd 35 4a 9c bd
       -0.15667738 -0.007412115 -0.042856716 -0.07631341
0000c0 73 eb a6 bc 25 f0 ee bd 6a 62 0e 3c 60 33 6f bd
       -0.020375943 -0.11666898 0.008690456 -0.058398604
0000d0 d7 99 1e bb ed a2 43 be 29 b5 c4 bd f4 7d fa 3c
       -0.0024200582 -0.1910512 -0.09604866 0.030577637
0000e0 ba 3a 8c 3b a5 40 a7 bd 5d c0 59 3d 29 f8 7c bd
       0.0042794617 -0.08166627 0.053161968 -0.0617601
0000f0 00 72 0d 3c 51 c8 d9 3c 58 4a 22 bd 79 3c a4 3a
       0.008633137 0.026584776 -0.03962168 0.0012530229
000100 2f a6 50 3d 86 6c 95 bd 87 24 26 be 00 2e 4e bd
       0.050939735 -0.0729609 -0.16224872 -0.050336838
000110 b6 0f a3 bd d9 75 ef 3d cf 30 61 be 19 d5 0c bd
       -0.07961981 0.116923995 -0.21991275 -0.034382913
000120 45 4c 69 3c bc 85 d3 bc d2 91 29 be d0 55 aa bd
       0.0142393755 -0.025820605 -0.16559532 -0.08317149
000130 13 b6 b9 bd d2 1f b5 3d 2e 5f df bd 9e cb 3a bd
       -0.09067931 0.0884396 -0.10906826 -0.04560434
000140 a9 b6 ec bd 65 f6 de bc 9a 15 ce 38 f4 df 9f bd
       -0.11558277 -0.0272171 9.826869e-05 -0.078063875
000150 37 01 13 be cc de 4a be 8c 7a ee 3c 23 96 d6 bd
       -0.14355932 -0.19811553 0.02911117 -0.10477855
000160 3c 14 d6 bd 69 27 1b be e5 70 f4 bd 59 0c 4a 3d
       -0.10453078 -0.15151753 -0.119355954 0.049328182
000170 b4 b2 19 bd d5 ef ab 3a 00 81 42 bd 40 31 51 3d
       -0.03752394 0.001311774 -0.047486305 0.05107236
000180 8c 3c db bd b6 27 05 bd 52 b3 ae 3d f0 14 af bd
       -0.10704908 -0.032508574 0.085302964 -0.085489154
000190 ba ca ba bc 06 a7 ed 3d f2 8a ee bc 47 68 93 3d
       -0.022801746 0.11604123 -0.029118989 0.07197624
0001a0 cb b1 c9 3d ac 51 4b be d7 78 0f be d3 ea b5 bc
       0.098483644 -0.19855374 -0.1401094 -0.0222067
0001b0 d1 1c 1e be 62 c8 0f bd 10 d8 c6 bd 1e 93 11 bd
       -0.1544068 -0.03510321 -0.097091794 -0.035540693
0001c0 ce 43 82 bd f7 80 ef bd ac e0 8a 3a ac 32 f2 bc
       -0.06360589 -0.1169452 0.0010595522 -0.029565178
0001d0 c6 b2 d5 bc 39 2a 6d bb ea 09 73 bd 26 7d 51 bd
       -0.026086222 -0.0036188497 -0.059335627 -0.05114474
0001e0 09 c4 9f 3c 77 7f ef bd c7 f7 03 bd 32 1f 09 be
       0.019502657 -0.11694234 -0.03221872 -0.13390806
0001f0 7c 0a 83 bc 58 4f e6 bd c4 75 8e 3c 6f 33 dc bc
       -0.01599621 -0.11245602 0.01739014 -0.026879994
000200 c4 dc 56 3c e2 2f f9 bc 66 35 a6 bd 42 bb a4 3c
       0.013114158 -0.03041834 -0.08115654 0.020108823
000210 c4 99 c0 bc 57 07 13 3d ce fd 20 be a9 db 01 be
       -0.023510821 0.03589567 -0.15721819 -0.1268145
000220 29 2b b2 bd 3a bf e8 bc 22 60 00 bd 4f f5 d8 3c
       -0.086996384 -0.028411496 -0.03134168 0.02648416
000230 6e 85 6d be f5 9d 27 3d 2c 14 d2 bc 58 ce a3 bd
       -0.2319543 0.040922124 -0.025644384 -0.07998341
000240 bf 40 52 be 48 76 ff bd 44 ae da bd 71 d6 97 be
       -0.20532511 -0.12473732 -0.1067777 -0.29655793
000250 3a 1b aa 3b 30 0f c4 bc cc 00 cd 3c bf e2 8e be
       0.005191234 -0.023933023 0.025024794 -0.2790737
000260 c5 26 36 bb dd be 97 be 3e d8 6b 3d 25 91 02 be
       -0.0027794105 -0.29637805 0.05757927 -0.1275068
000270 cd 0e 1b bd 62 72 18 bd 75 55 39 bd 6d 95 ed bb
       -0.037855912 -0.03721846 -0.045247514 -0.007250479
000280 a1 4b ba 3d f8 f3 8a bd 37 d8 0e be 22 32 49 bd
       0.09096456 -0.067848146 -0.13949667 -0.049120076
000290 35 d4 fc bc ee 67 c9 bd aa 79 12 bd 1d 8c a2 bd
       -0.030862907 -0.09834276 -0.03576056 -0.07936881
0002a0 db 47 d3 bd 42 8a 4f bc e8 30 0d bd 1a 20 29 bd
       -0.1031644 -0.012667241 -0.03447047 -0.04129038
0002b0 f2 78 f4 39 eb cd 94 bd 7f d2 ac bd 7a 32 c6 bb
       0.00046629418 -0.07265838 -0.084385864 -0.0060484977
0002c0 f3 f2 38 be d5 e2 03 bd 1c b1 87 bc e4 47 76 bd
       -0.18061428 -0.032198746 -0.016563945 -0.060127154
0002d0 ec 32 7f bd 39 ef c5 bd 50 7a 54 bd e3 bd 24 3d
       -0.062304422 -0.09664769 -0.05187446 0.040220153
0002e0 b7 4f 10 be a9 5e 0a be 2b 2e 78 bb c2 9a a7 bc
       -0.14092909 -0.13512672 -0.0037869315 -0.020459536
0002f0 13 0d 4d bd 80 04 06 bd ee a9 36 38 da 0a 70 bd
       -0.050061297 -0.032719135 4.355044e-05 -0.0586041
000300 23 c3 74 bd 12 cd e1 3c 61 0f 86 3d 33 6b 51 3c
       -0.05975641 0.027563605 0.06545902 0.012781906
000310 69 59 85 bd 69 b8 33 3e 0f 2c 10 bb e1 9e 1f be
       -0.06511194 0.17550816 -0.0021998917 -0.15587951
000320 ce b3 19 bd 0b eb f5 bd b9 4d 7f bc fb 12 1c be
       -0.03752499 -0.120077215 -0.015582495 -0.15241615
000330 a8 53 aa bc c1 af 96 3c 2e c8 33 bb 39 bb 32 bd
       -0.020791844 0.018394353 -0.0027432549 -0.04363558
000340 a2 89 f1 3b c3 e0 c5 3c 4a ab 96 bd 2e ae 94 bd
       0.0073711434 0.024155026 -0.073568895 -0.07259785
000350 bf 19 49 bd 27 86 d5 bd 93 cc 36 be 8a 3b 69 be
       -0.04909682 -0.10425978 -0.17851476 -0.22776619
000360 2d 3f bd 3d e9 19 3a bd 22 b4 43 bc 25 ce af bd
       0.092405654 -0.045434866 -0.0119448025 -0.08584241
000370 87 95 1f 3c 21 d7 29 3d 25 53 ff bc ae 9e 90 bd
       0.00974024 0.04146493 -0.031167576 -0.07061516
000380 7e 38 a7 37 89 5c aa bd 4e 53 0d be 0c 23 f7 3d
       1.9934258e-05 -0.08318431 -0.1380131 0.120672315
000390 2f 00 d7 bd 3e f0 1c bc f4 f8 a6 bd e5 0e 10 bd
       -0.10498082 -0.009578763 -0.08152953 -0.035170455
0003a0 7d 6c 3d bc d5 3b 48 bd c6 db 0f bd 96 81 8c bd
       -0.01156151 -0.048885185 -0.0351217 -0.06860654
0003b0 7b 76 b4 bd af b7 58 3c fd b6 16 be 94 88 e0 3d
       -0.08811661 0.013227387 -0.14718242 0.1096355
0003c0 63 11 be bb ba 61 d3 bc 94 26 77 be 13 f6 8e be
       -0.0058004125 -0.025803436 -0.2413581 -0.27922115
0003d0 4f e9 b3 bd 3f 87 7d bd 40 e3 1f bd 7e 57 f0 bd
       -0.087847345 -0.06189656 -0.039035082 -0.11735438
0003e0 7e 5b a2 bd f2 93 19 bc 88 fd 3c bc ec 21 f6 bd
       -0.07927607 -0.009373652 -0.011535056 -0.12018189
0003f0 d1 71 0e bd b3 fe 4c 3e 36 55 52 bd 7d 9d 30 3d
       -0.034776513 0.20019035 -0.051350795 0.043118943

fc2.weight f4 [128, 256]
000000 bc 66 1a bd ea 56 33 bd 98 ae 17 bb 10 d2 6a bd
       -0.03769563 -0.04378406 -0.0023144837 -0.057329237
000010 c2 22 96 3c 74 69 4c 3d 70 be af 3d 29 38 fd 3d
       0.01832712 0.049905255 0.08581245 0.12364227
000020 f0 fb 4e 3e 6a d5 90 3e c0 59 5c 3d 6b e9 2a 3c
       0.20213294 0.28287822 0.05379653 0.010431628
000030 09 a9 2d bd 99 55 15 be 7a 1e 08 ba b7 1b 95 3d
       -0.042397533 -0.14583434 -0.00051925296 0.07280677
000040 5c 24 35 3e 9a 46 c5 3d 54 7b 72 bd 6e 42 ac 3d
       0.17689651 0.09632607 -0.059199646 0.08411108
000050 cd 00 af 3d 15 19 58 be 0a fa e4 bd bf 0e b6 bb
       0.085450746 -0.21103318 -0.11180504 -0.005555957
000060 d6 98 02 3e c8 0a a2 be 13 fd 6d 3d 2f a4 82 3d
       0.12753615 -0.3164885 0.05810268 0.06378972
000070 5b 46 3e 3d 26 3c 10 3c b4 bb 8d bd 08 50 46 3d
       0.046453815 0.008803403 -0.06920567 0.048416167
000080 34 99 15 be fe cf 4b 3c f8 6c f6 bc 94 e5 b3 bd
       -0.14609224 0.012439726 -0.030081257 -0.08784023
000090 85 b1 7c bc b5 a1 56 3c c2 75 8f bc 4a f6 63 3e
       -0.015423183 0.013100077 -0.017512206 0.2226192
0000a0 ed 68 2e bc 75 e0 39 bd c1 92 e2 bd 0e f3 dd 3c
       -0.010645133 -0.045380075 -0.11063147 0.027093437
0000b0 e5 92 26 3e 93 9c 9f 3d a6 a7 bc 3d b9 5d 4b 3b
       0.16266973 0.07793536 0.09211664 0.0031031205
0000c0 3e 9f c4 3d ea d3 97 3d a5 63 92 3d ab 42 6c be
       0.096006855 0.07413466 0.07147912 -0.23072307
0000d0 38 e7 0a 3e 98 da f7 bc ea 18 05 3d 93 34 0c 3e
       0.13564765 -0.0302556 0.032494463 0.1369193
0000e0 2f 56 bc be f0 97 78 3e be 45 27 3e 4b e9 3c bd
       -0.36784503 0.2427671 0.16335198 -0.046120923
0000f0 f4 81 5f 3c 9e 4c 09 bf 0e 50 f8 3c 25 57 0d 3c
       0.013641823 -0.53632534 0.03031161 0.008626734
000100 9c f8 65 be 00 76 dc bb 8c cc 8c 3d 1e 0c 50 3d
       -0.22458118 -0.006727934 0.06874952 0.050792806
000110 65 7d cf bd fa b6 33 3e 8e 77 89 3e 3f 7c 77 bd
       -0.10131339 0.17550269 0.26849025 -0.060421225
000120 29 8e 4e 3e e4 10 a6 ba b9 60 3e 3e 2d 68 26 3e
       0.20171417 -0.0012669829 0.18591584 0.16250677
000130 6e f2 a8 3c 27 13 c8 bc 06 50 2e 3e 38 0d 35 bd
       0.020623412 -0.024423195 0.17022714 -0.04420206
000140 35 b1 ee 3d d2 9e bf 3d 6d 9b 84 3e 9a bd 59 3c
       0.11654893 0.093564644 0.2589983 0.013289833
000150 92 0c 86 bd 28 d8 01 3d 7f 14 42 3d 03 33 90 3c
       -0.06545366 0.031700283 0.047382828 0.01760245
000160 da 6d 08 3e 3f 0f 1b 3e 6f 4b 82 3e e2 74 4b 3d
       0.13323155 0.15142535 0.25448176 0.049672015
000170 c6 83 9e 3d 38 c2 90 3d 69 df bb 3c 4d 17 b8 3d
       0.077399775 0.07068294 0.022933679 0.08988819
000180 ca a1 2a bd 66 83 8b 3e 0e 5d 8e 3e 61 3f fc 3d
       -0.0416582 0.27248687 0.2780537 0.12316776
000190 0f ab e6 3d 43 18 a2 3e 75 57 3c be c8 e3 ad bd
       0.112630956 0.31659135 -0.18392737 -0.084907115
0001a0 c0 7a af 3d 3f b1 ae 3d 22 03 fc 3d ec 67 86 bd
       0.085683346 0.08529901 0.12305285 -0.0656279
0001b0 f8 de 1d 3b 7e 9b 69 3e 77 7b 8c be 06 d8 3d be
       0.0024089199 0.22813222 -0.27437946 -0.18539438
0001c0 e6 f0 24 3e 9c d3 f1 3c d1 cd 05 be 7e 98 0b 3e
       0.1610752 0.029519849 -0.13066794 0.1363239
0001d0 03 d6 1c 3e 83 2f 24 3e 5c f3 44 bd 77 20 86 3e
       0.15316014 0.1603375 -0.048083648 0.26196644
0001e0 f1 b9 f1 3d 78 51 05 3e a2 b9 f9 bd f3 1b b8 3e
       0.11803044 0.13019359 -0.1219361 0.35958824
0001f0 b1 cf 83 bd 06 fe b0 3e 88 2a 68 bd 39 f0 fd 3b
       -0.06436098 0.34568805 -0.056681186 0.007749584
000200 e0 b3 35 bc d1 9e 84 3d 2c 20 a5 3d 86 10 18 3e
       -0.011090249 0.06475604 0.08062777 0.14850053
000210 30 1a a7 3d 2f c8 96 3e 01 42 73 bd 41 99 7a bd
       0.08159292 0.29449603 -0.059389118 -0.06118131
000220 44 a1 41 3e 1a 19 8e bc be 2d 9a 3c 37 b6 6b 3d
       0.18909174 -0.017345954 0.01882064 0.05754682
000230 87 74 bd 3d a3 77 8a be 07 af 33 3d e0 05 a5 3e
       0.092507415 -0.270444 0.04386809 0.32231045
000240 77 1f 41 bd 2c c2 c7 bd e6 8f a6 3d 29 27 8a bc
       -0.047149148 -0.09753832 0.08132915 -0.016864376
000250 1f db c7 3d 4f c1 56 3c 1b 91 de 3d f4 b4 40 3e
       0.09758591 0.013107612 0.108675204 0.18819028
000260 8e 55 50 3d 12 bc c1 bc d5 fe 9f 3d 74 05 08 3d
       0.05086284 -0.02364925 0.07812277 0.033208326
000270 f5 be 94 bc d6 8e 5e 3d 6e eb b7 bc bc dd 41 3e
       -0.018157462 0.054335438 -0.022451129 0.18932241
000280 8d e4 3a 3f ff 37 eb 3d c4 02 18 3e 36 4a 86 3e
       0.7300499 0.1148529 0.14844805 0.26228493
000290 a7 e8 7f 3d d4 c6 97 3c b3 43 c3 bc a9 d5 a7 bb
       0.062477734 0.018527426 -0.023835992 -0.005121906
0002a0 b9 de 18 3d b0 51 8c 3b 93 f2 e4 3d 44 a5 45 3d
       0.03732178 0.004282199 0.1117908 0.048253313
0002b0 c7 4f de 3d a4 55 aa 3d be 01 8f 3d 78 46 a2 bd
       0.1085506 0.08317116 0.06982754 -0.07923597
0002c0 10 55 a9 bd 22 39 5d 3d 97 a8 92 3d 7f 9a ba 3b
       -0.082681775 0.054009564 0.07161062 0.005694687
0002d0 d3 0f 0a 3e cb 5f 37 be c9 55 28 3c d8 ea df 3c
       0.13482599 -0.17907636 0.010274359 0.027333662
0002e0 2b 23 7b 3e 61 a2 b2 3d 70 ad 12 3e 10 2d a8 3d
       0.24525134 0.087223776 0.14323974 0.0821172
0002f0 4b 84 46 3e a7 a3 8c 3d 38 98 2b 3e c5 6f aa 3d
       0.19386403 0.06867152 0.16757286 0.083220996
000300 5b 51 7d 3e ef 16 89 3f 3d 2d 47 3e c7 3f d0 3d
       0.24738066 1.0710124 0.19450851 0.101684146
000310 1d fb 6f 3e 50 48 83 3f d7 82 0b bc 1e 5b 1d 3e
       0.23435636 1.0256443 -0.008515081 0.1536679
000320 64 7e 12 3e ae b0 0d 3e ed b5 f4 bb e4 f0 3d bc
       0.14306027 0.13836929 -0.0074679763 -0.011593077
000330 b3 42 3c bd 6d 98 10 3e 04 62 ee 3d e5 61 0d 3e
       -0.045962047 0.14120646 0.11639789 0.13806875
000340 87 a5 69 3e e9 d1 7e 3e 54 cc 93 bd 2a 18 3a 3d
       0.2281705 0.24884762 -0.07216707 0.0454332
000350 69 8a 73 3e 17 8a 26 3d bb 9b f0 3d fe 94 dc bc
       0.23783268 0.040659036 0.11748453 -0.026926514
000360 1f b5 40 3e 0c 2c 44 be 31 09 14 bd 0d 10 10 3e
       0.18819092 -0.19157428 -0.036141578 0.14068623
000370 0b ff af bd 2c 7c 58 3e d3 66 ad bd 6a 38 64 3d
       -0.085935675 0.21141118 -0.08466878 0.055717863
000380 46 09 06 3e 69 8f c5 3c 1c 33 f4 3a 5a 15 18 3d
       0.13089475 0.024116235 0.0018630954 0.037129737
000390 7d ec 3c 3e 9c 8c 93 bc 76 f1 a4 bb 42 0b bd 3d
       0.18449588 -0.018011384 -0.005033667 0.09230663
0003a0 49 42 e1 3e 15 50 7d 3d 63 ef ad 3d 4b 40 0d 3e
       0.43995884 0.06184395 0.08492925 0.13794057
0003b0 37 53 d1 3d 0d 92 ef 3e c2 a7 d7 3d ba 99 e6 3e
       0.1022095 0.46791115 0.10530044 0.4503916
0003c0 23 ed 52 3e 05 23 8a be c3 3e c4 bb 4f e9 1c 3e
       0.20598273 -0.26979843 -0.005988927 0.15323375
0003d0 b8 ea fb 3d 5c 77 77 bc 89 6a 28 3e d4 17 4a 3d
       0.123006284 -0.015104141 0.1644689 0.04933913
0003e0 dd 9f 53 3c a3 3d d5 bc 66 71 76 bd c7 4f ad 3d
       0.012916532 -0.026030367 -0.06016674 0.08462482
0003f0 4b 06 e9 bd fc 17 c2 3d 2b 68 ac bc d9 e9 c1 3e
       -0.113781534 0.09477231 -0.021045765 0.37873724

fc2.bias f4 [128]
000000 79 83 5a 3d 1b f7 e5 bc 62 01 69 be 94 5b 00 bc
       0.05334804 -0.02807193 -0.22754434 -0.007834334
000010 72 34 bb 3b 14 15 0d 3c 03 71 54 3b dd 3e cb 3b
       0.005713039 0.008610982 0.0032415993 0.0062025622
000020 ec 32 54 3d b4 79 40 bc 1c 8e ad 3c 85 01 ab 3c
       0.051806375 -0.011747766 0.021185927 0.020874748
000030 0a a4 26 3b 0b 93 3e bc 6d f3 70 3c c1 b7 0a ba
       0.0025427365 -0.011631737 0.014706475 -0.00052916637
000040 ad 23 43 3c 9a 69 df 3c f1 11 b4 3e 67 30 40 3d
       0.011910361 0.027272034 0.35169938 0.04692116
000050 5f 0b 7a 3c d9 39 4a bc ff 01 34 3c 82 77 16 bd
       0.0152615 -0.0123428935 0.010986804 -0.036735065
000060 28 8a 09 3b 17 1c 82 3d d6 9d 86 3c 51 3f a2 3d
       0.0020986889 0.06353014 0.016432684 0.07922233
000070 1e 78 25 3d 5c 44 cf 3b 30 26 f5 3c 88 0a 4e bb
       0.040397756 0.0063252877 0.029925436 -0.0031439383
000080 6e 13 be 3b 2e b1 81 3c 73 da 7c 3c fe c3 84 3c
       0.005800656 0.015831556 0.015432942 0.016206738
000090 89 c6 f3 bb 62 16 cc 3b 49 34 8d 3b d0 78 6b 3c
       -0.0074394387 0.006228254 0.0043092114 0.014372066
0000a0 c4 ef 0b bd ef 99 10 3d 0a 6e 5f 3c f4 36 c4 3b
       -0.034164205 0.035303053 0.013637075 0.0059879962
0000b0 33 24 b8 3b 73 76 0b 3d 4e ba 93 3d 5f e0 b2 3c
       0.0056195497 0.03404851 0.07213269 0.021835504
0000c0 7a f0 31 3d ec 47 4f 3d 5f c7 8d 3c 44 ec ac 3c
       0.043442227 0.0506057 0.017306982 0.021108754
0000d0 ed 38 4c 3b 34 12 24 bb d2 78 09 3c 60 04 d7 3c
       0.003116186 -0.0025035264 0.008390622 0.026247203
0000e0 80 13 7f 3d 97 a0 b4 3b b2 34 aa 3c 0e 21 35 3d
       0.062274456 0.005512308 0.02077708 0.044220977
0000f0 49 b1 ab 3c 35 60 b1 3c 5c 4e 80 ba 4a 5e 45 3d
       0.02095856 0.02165232 -0.0009788978 0.048185624
000100 c7 6c c4 3c 72 87 a1 3c 64 24 19 bc 17 96 00 3c
       0.02397765 0.019717906 -0.009347055 0.007848284
000110 16 78 0b bb f5 9a e3 3b b4 c8 aa bb c5 26 46 3d
       -0.0021281294 0.0069459626 -0.005211914 0.048376817
000120 25 ed c3 3a f9 b0 51 3d 3f 19 06 3d de d6 e3 3a
       0.0014947994 0.051194165 0.03273892 0.0017382761
000130 64 b3 05 3d af d8 02 b9 b7 7a bd 3c eb 2c f3 ba
       0.032641783 -0.00012478487 0.023129804 -0.0018552815
000140 2c 95 f1 bb 78 b7 06 bf 59 43 09 3d 89 b0 aa 3c
       -0.007372519 -0.526237 0.033511493 0.020836132
000150 52 0a 03 3d 71 b1 06 3d a9 ac cb 3c 73 07 83 3c
       0.031992264 0.032884065 0.024862604 0.015994763
000160 4f 64 66 3d b7 ed 00 3c ed 55 29 3d e7 a2 9d 3c
       0.056248005 0.007869176 0.04134171 0.019242717
000170 8f a6 73 3c 6f 3e 5b 3d b3 83 47 3c 18 14 86 bb
       0.014871254 0.05352634 0.012177396 -0.004091751
000180 15 38 d6 bd 57 1b aa 3c e9 72 13 3d fc 02 05 3d
       -0.104599155 0.02076499 0.03599826 0.03247355
000190 c0 fb 07 3d fb 05 5b 3c a0 98 78 3c 5e f9 cb 3c
       0.033199072 0.013368125 0.015173107 0.024899181
0001a0 e4 c8 a3 3b f5 f3 f2 3c 77 c6 02 3d 98 57 9b 3c
       0.0049983133 0.029657343 0.031927552 0.018962666
0001b0 1e b4 e7 3c 32 d9 1d 3e 6c f6 3f 3d 7a 45 de 3b
       0.028284129 0.15414885 0.046865866 0.0067831846
0001c0 71 18 00 3d 8d 8b 2c bf fe 0c fb bd 39 93 72 bc
       0.03127331 -0.6740044 -0.122583374 -0.014805608
0001d0 c2 fa 3f 3d ee e1 54 bb d2 db 3f 3d 7d 83 81 3c
       0.04687 -0.0032483297 0.046840496 0.015809769
0001e0 ca 3c 65 3d 70 0e fb be a0 05 a5 3c 33 27 a1 3c
       0.055966176 -0.49034452 0.020144284 0.019672012
0001f0 dd bb 41 bc 72 91 ba 3c d9 18 da 3c 01 60 e2 3c
       -0.011824575 0.022774432 0.026623176 0.027633669

ln2.weight f4 [128]
000000 cc e5 74 3f b5 bf b9 3f 49 b5 7e 3f 42 6f 78 3f
       0.9566314 1.4511629 0.9949537 0.97044766
000010 ea 6d 9b 3f a5 c3 65 3f b6 19 71 3f 32 2f a7 3f
       1.2142918 0.89751655 0.94179857 1.3061278
000020 9f 59 56 3f da 09 75 3f cd 55 59 3f e2 09 62 3f
       0.837305 0.9571816 0.84896547 0.8829633
000030 e2 fc 73 3f 17 bb 95 3f 98 8b 76 3f 5a 74 8f 3f
       0.95307744 1.169772 0.96306753 1.1207383
000040 d7 5f 8b 3f 0b 2d 76 3f 1f d0 41 3f 3d 4f 71 3f
       1.0888623 0.9616248 0.7570819 0.94261533
000050 60 de 79 3f 6b 63 01 40 7f 28 62 3f 39 b5 7c 3f
       0.9760494 2.021693 0.8834304 0.98714024
000060 cc 26 99 3f 62 30 91 3f 80 46 7a 3f be be 6b 3f
       1.1964965 1.134289 0.97763824 0.92087924
000070 7d 97 57 3f e7 11 92 3f cb 9f 6e 3f e9 72 e7 3f
       0.8421553 1.1411713 0.93212575 1.8081943
000080 04 be 5e 3f a1 9b 79 3f eb 60 72 3f c0 3f 66 3f
       0.8700869 0.97503096 0.94679135 0.89941025
000090 9e 46 6e 3f 46 12 8c 3f 0f ba 9d 3f 8f a5 74 3f
       0.93076503 1.0943077 1.2322406 0.9556512
0000a0 4b 80 9b 3f 77 10 7b 3f 8c 43 76 3f 7c cb 88 3f
       1.2148527 0.98072 0.9619682 1.0687099
0000b0 39 d8 53 3f 04 02 61 3f 09 1c 81 3f 03 46 6c 3f
       0.82751805 0.878937 1.0086681 0.9229433
0000c0 12 4c 97 3f 8d 32 3d 3f 5b 27 84 3f 28 1e a3 3f
       1.182009 0.7390526 1.032451 1.2743578
0000d0 f5 0c bf 3f 2d b6 71 3f e1 36 6b 3f 49 3c 8e 3f
       1.4925829 0.94418603 0.91880614 1.1112148
0000e0 6a 6a 8b 3f a5 45 7a 3f 35 fe 90 3f 36 3f 44 3f
       1.089185 0.9776252 1.1327578 0.7665895
0000f0 5e 22 7a 3f 6b 4b 81 3f e6 8f 6f 3f 33 3c 6d 3f
       0.9770869 1.0101141 0.93578947 0.9266998
000100 ff c0 63 3f f1 0c 80 3f c8 5d 5f 3f 59 f8 bd 3f
       0.88966364 1.0003949 0.87252474 1.4841415
000110 4b f2 8c 3f 11 f2 73 3f f9 98 8d 3f 44 94 86 3f
       1.1011442 0.9529124 1.1062309 1.0513997
000120 c5 20 6e 3f cf 11 7a 3f a5 1a 71 3f 15 15 6c 3f
       0.9301875 0.97683424 0.9418128 0.9221967
000130 38 b3 4c 3f 9e 66 61 3f 14 a2 75 3f 1a ab 5e 3f
       0.79960966 0.88047206 0.95950437 0.8697983
000140 9b ed 60 3f 74 01 8a 3f e9 76 a5 3f d1 62 4f 3f
       0.8786256 1.0781693 1.2926913 0.81010157
000150 df 62 80 3f 80 c3 87 3f f2 a5 83 3f 4e 88 67 3f
       1.0030173 1.0606537 1.0285017 0.9044236
000160 fe e0 7c 3f 3e 27 79 3f 00 8a 72 3f a5 93 80 3f
       0.9878081 0.97325504 0.9474182 1.0045058
000170 21 64 84 3f 47 54 76 3f b2 f9 8f 3f 83 26 9c 3f
       1.0343057 0.9622235 1.1248076 1.2199253
000180 2c f3 89 3f 0e cb ac 3f 85 3e 7c 3f b0 fa bd 3f
       1.0777335 1.3499467 0.985329 1.4842129
000190 da 58 a6 3f 9a e6 97 3f 66 1e 78 3f 7d 1a 68 3f
       1.2995865 1.1867249 0.96921384 0.9066542
0001a0 4d 46 73 3f 8a f0 7f 3f 89 2b 69 3f ab 9e 74 3f
       0.95029145 0.9997641 0.91082054 0.9555461
0001b0 ab 16 78 3f 00 8e 55 3f 09 89 7e 3f 24 f7 76 3f
       0.9690959 0.834198 0.9942785 0.96470857
0001c0 3f af 89 3f 40 b8 82 3f 1d 74 7f 3f 71 8f 74 3f
       1.0756606 1.0212479 0.9978655 0.95531374
0001d0 01 fa 81 3f 92 aa 83 3f 01 5e 82 3f 5d 71 86 3f
       1.015442 1.0286429 1.0184938 1.0503346
0001e0 ba bd 89 3f 5d 3e 74 3f ca 8d 80 3f 50 a0 74 3f
       1.0761025 0.9540766 1.004327 0.9555712
0001f0 38 11 8e 3f 26 2e fc 3f 19 28 7f 3f bc 56 79 3f
       1.1099005 1.9701583 0.9967056 0.9739797

ln2.bias f4 [128]
000000 a7 52 17 bd 14 40 70 bd e2 f7 11 bc fb ad f7 bc
       -0.036944058 -0.05865486 -0.0089091975 -0.030234328
000010 a6 1e 0f be f0 9a 39 be 49 72 0a bb 57 bc 13 bc
       -0.13976535 -0.1812551 -0.0021125248 -0.009017072
000020 68 da 61 be 98 da 25 bd 8a b9 48 be 33 6a 1b be
       -0.22055972 -0.04049167 -0.19602028 -0.1517723
000030 29 a7 d0 bd 41 ae 10 bd ae 00 a0 bc c8 56 55 bc
       -0.10188133 -0.03532243 -0.019531574 -0.013021179
000040 4e fa 9c bd ef 8e ed 3c d0 9a 8d be 68 c3 f4 bd
       -0.07664929 0.02899882 -0.27657175 -0.11951333
000050 28 f9 77 bd a6 fd e7 bc 8b cf 24 be 04 15 5c bc
       -0.06054035 -0.028319191 -0.16094796 -0.013432745
000060 b1 7b b0 bd 3c c4 8b 3d 36 44 b5 ba 08 1d 1f be
       -0.08617342 0.06824538 -0.0013829533 -0.15538418
000070 db f3 47 be 53 4d 17 bd ec 67 81 be 00 6f 9e bd
       -0.19526617 -0.036938976 -0.252746 -0.07736015
000080 ab b6 fe bd 7f 22 73 bd f4 61 9b bc 4f 57 01 be
       -0.12437185 -0.05935907 -0.018967606 -0.12630962
000090 92 bf 80 bc 28 86 60 bd 74 6c a7 bd 6c b5 a1 bc
       -0.015716348 -0.05481544 -0.08174983 -0.019739829
0000a0 3a 39 6a bd 3b f3 7e 3a 34 e2 be 3b 8f 52 bb bd
       -0.05718348 0.0009725575 0.0058253054 -0.09146606
0000b0 47 31 3b be fa 8f 21 be 20 20 a2 3c cd 37 df bd
       -0.18280517 -0.15777579 0.019790709 -0.10899315
0000c0 db 80 f9 3c ea b3 9c be 8d ae 26 bd c1 df 05 bc
       0.03045695 -0.30606014 -0.04069381 -0.008171023
0000d0 3c 5b b0 bd 28 ba ed bc 48 75 01 be 29 80 94 bd
       -0.086111516 -0.02901943 -0.12642395 -0.07251007
0000e0 21 71 2b 3d 6c fb 33 bd dd 75 3d 3d 15 e4 a0 be
       0.041855935 -0.043940946 0.04625498 -0.31424013
0000f0 ca 30 20 3b 0a ca 4e 3c 1b 50 14 bd a8 6c ed bd
       0.0024443143 0.012621412 -0.036209207 -0.1159299
000100 ab aa fe bd ac 2e 0a 3c 04 73 c0 bd 80 9e 40 3d
       -0.12434896 0.008433979 -0.093969375 0.047026157
000110 c1 1b ac bc 90 69 86 bd b4 58 8c bd 8e 0c 5f 3d
       -0.021009328 -0.06563103 -0.06852856 0.054455332
000120 72 b2 92 bc 44 3e 34 3d e7 b3 f3 bd b7 d4 5b be
       -0.017907355 0.044004694 -0.11899548 -0.21467863
000130 6f 33 72 be f7 35 15 be 21 a6 ae 3b 0e 68 21 be
       -0.23652433 -0.14571367 0.0053298627 -0.1576235
000140 a3 a8 21 be e9 68 a6 3c 1a 33 96 bc 90 3e 10 be
       -0.15786986 0.020313697 -0.018334914 -0.14086366
000150 04 84 b3 3c 87 f6 2a be 36 dd 66 bd 68 8b 0a be
       0.021913536 -0.16695605 -0.056363307 -0.13529742
000160 be 99 c5 3c 72 16 92 ba b0 e7 4c bd a8 ce 56 be
       0.024121162 -0.0011145605 -0.050025642 -0.2097727
000170 45 47 e7 bd 6f df 48 be 9a d7 a7 bd 9c f0 66 bd
       -0.112928905 -0.19616483 -0.081954196 -0.056381807
000180 d0 63 35 3c 20 5e c9 bd ff 58 96 bd 10 46 28 bd
       0.01107116 -0.09832406 -0.073411934 -0.04108244
000190 99 95 c5 bb 85 e7 93 bd d0 8c 13 ba 52 46 f8 bd
       -0.0060297963 -0.07221893 -0.00056285877 -0.121227875
0001a0 30 f2 10 be 84 f0 b4 3c f0 12 35 be f1 93 c6 bc
       -0.14154887 0.022087343 -0.17683005 -0.024240466
0001b0 ee c8 d0 bb a0 be 48 be 34 51 9b 3c 5e c9 a4 3b
       -0.006371609 -0.19603968 0.01895962 0.0050288877
0001c0 8f f8 d0 3c ab 41 aa 3c c6 68 39 3b 67 42 9b bc
       0.025509147 0.020783266 0.002829121 -0.018952562
0001d0 87 87 fb 3c 02 8b bb bc 88 ae 89 bd 1c ab 0c bd
       0.030704273 -0.022893433 -0.06722742 -0.03434287
0001e0 1d d7 38 3d dc 0d 78 bc 15 01 c8 bd fa 1b c1 bc
       0.045127023 -0.015140023 -0.097658314 -0.02357291
0001f0 98 aa e8 bc 3a ce 7e bd 1c e9 0d 3c 14 e0 53 3c
       -0.028401658 -0.06220839 0.008661535 0.012931842
