checkpoints/DDPG/Actor/DDPG_actor_600.pth (torch, 93275 bytes, 10 tensors)

fc1.weight f4 [256, 19]
00000000: 267b c9be f133 773c 13de 2c3e e6a0 d53a
00000010: 9213 dd3c dd29 68bb 11f5 fa3c 4086 dd3c
00000020: 03a2 b739 0da9 683d ed63 f33c 091b 533e
00000030: bce1 02bd ca9e 1a3d e2ef e3bd 062e 2cbd
00000040: 93fe cebb 6564 293e 47d7 683c bcc0 083e
00000050: 3078 e23d 577b 6b3d 66ca 89bd 9714 a4bd
00000060: d306 843d 3eb0 7b3c 6ad5 05bb 7d0c 543d
00000070: f6fd d03d 4719 ecbd eeb3 80bc d7c4 0b3d
00000080: 44a2 6cbc 9165 59be 914f 963d 85ff 2a3d
00000090: 324c 013b f59c ba3d cac8 d4bc e46b 3ebd
000000a0: 444b 82bd eb51 453d 91b1 293d 5a73 70bd
000000b0: 9e80 923d 0a3f 9abd 9ca0 0f3e 88d8 afbd
000000c0: acb7 7fbd 5a5c 8fbc e25b 6bbc 5bfd ca3c
000000d0: 2528 ac3d c50a adbd dab4 e93c b22a 053a
000000e0: 0625 eb3d e76d cb3d 578f 2d3e d90b b43c
000000f0: 3324 05be f4d5 b53d 33ed 4abd fda5 7bbb
00000100: 72df 533d 6827 033c 314f 08be f6a0 1abd
00000110: 96de e9bd 802c 30bc 8f66 afbe 31fd f93a
00000120: e239 15be b10f 403d a255 6ebd 8bdb a83d
00000130: 1b1a f0bd e706 773c 4f7a 493c 8db1 ebbc
00000140: 8fb9 233d 3322 dfbb 8d24 5b3e 7d4f e93d
00000150: 6c63 51be 9138 fe3d aa99 ef3d f4a1 293e
00000160: f98a ea3d b617 d33e aa59 573d 9593 643d
00000170: 2c2e 543d b073 153e a729 833d 4e51 923e
00000180: 8405 be3d dfe7 9a3d 6875 75bd e1af a6bd
00000190: 609b 00be 9982 de3c 993a 40bc 62b0 ef3d
000001a0: 5a55 6abd c123 b0bd f4f5 dcbd d37e c7bc
000001b0: 3b7c 5abe 3d13 15bd a0f5 3a3d b9b2 d93c
000001c0: 5641 83bd 23e0 033d d6bc 033d 2e1d c63d
000001d0: a151 8bbd a254 9bba 645a f0bd 3a9a 8abe
000001e0: 2c0e 6abe 8ecc e0bc dbf3 b13d 5c89 2d3c
000001f0: 47ac 84bc d790 dcbd 3075 16be 7beb 773e
00000200: b965 67bd a0e2 87ba 2de6 0b3d 1b4c e63d
00000210: 5bbf cbbb 088b 55be 2e5d 3cbc 77f6 dd3b
00000220: a99c 9f3d af82 dd3d 2144 09be c03c 813d
00000230: dc42 253e 831f 763d 728d 66be 1eef 63be
00000240: 901a b8bd 83eb ddbd 0051 86be c1b2 fbbd
00000250: 7213 c2bc dd17 f33c e185 1fbb d63e c9b9
00000260: a2a9 833d 5acd 0bbe cd91 2c3d fe61 56bd
00000270: 58e3 63bd 6bee 8b3d d57c b63d 26e6 033e
00000280: dc82 b5ba 522e bf3d 3bff 05be 3ddd b2bd
00000290: 994c 093d e12e 0438 b795 94bc 128e 57bd
000002a0: daa4 283d f147 3cbe 2fb5 2b3e 72c8 a0bd
000002b0: b096 5ebd d9f8 1bbe 3869 a8bc f2c2 14be
000002c0: 1a3d 3dbe d0c9 08be 7d48 0d3d 201f a63d
000002d0: 4d0b 9f3b 6a54 373d efd4 34bb 6a0c 3a3e
000002e0: add7 42bd 8250 c0bd 1c56 c13d 6ea5 183d
000002f0: c0e8 6c3e c3f9 18be a82c 20be 3b0a 4ebe
00000300: aeaf 7abd d4f5 1c3d c430 b0bc fd4a a8bd
00000310: 1b39 cb3d e63d 273e 2fba 273d b83c cdbd
00000320: e8f7 64be 6523 ecbd 1798 12bd 4c5c c7bb
00000330: 02ea 953d c50b 42be 0395 093d b0fc 06be
00000340: e7d0 7cbd 3d5f 8dbe 46a4 3bbe add2 8b3e
00000350: 37eb 683e 1acf 4a3a 1c9f c53b bd2b 4b3d
00000360: ec9a fd3d 23a1 ccbc a0ce 403d 7f6d 35bc
00000370: c87e d3ba 5f46 523e c1d5 e1bc cae5 a33d
00000380: 8ece b13d 7e63 9d3c 74a9 5dbd 71fd 9dbd
00000390: e346 54bb 53fb b73d 8950 2fbe 5aeb 143e
000003a0: 16d4 07be c848 bb3d 68c2 16bc 32df 7ebc
000003b0: 7510 d4bc 60e2 19be 2630 a83d d8e9 373e
000003c0: 57d8 103e 7be6 123f e84f 8f3e 8a70 a13d
000003d0: c721 443d d9be 223d 14ee 3c3e e363 113e
000003e0: e00a 933e d18b babd 3735 913e 752b a03e
000003f0: 883b 42bd bb82 bb3e 0b50 c23d 3c20 f3bd
-0.39351767 0.015088067 0.1688159 0.0016298562 0.02698687 -0.0035425343 0.030634435 0.027041554
0.00035025188 0.056801844 0.029710734 0.20615782 -0.03195356 0.03774909 -0.111297384 -0.04203608
-0.0063169687 0.16542204 0.014211482 0.13354772 0.1105808 0.057490673 -0.067280576 -0.0801174
0.06446614 0.015361844 -0.0020421394 0.051769722 0.10204689 -0.11528259 -0.015710797 0.034123268
-0.014442984 -0.21230151 0.07339395 0.04174759 0.0019729254 0.091119684 -0.02597465 -0.04648961
-0.06362012 0.048173826 0.041429106 -0.058703758 0.07153438 -0.07531555 0.14026111 -0.08586222
-0.062431023 -0.017500091 -0.014365168 0.024779012 0.084060945 -0.0844932 0.02852862 0.00050799095
0.11481671 0.099330716 0.16949211 0.021978306 -0.1300209 0.08878699 -0.049542617 -0.0038398497
0.051726766 0.008005001 -0.13311459 -0.03775116 -0.11419408 -0.010752797 -0.34257933 0.0019072649
-0.14572862 0.046889964 -0.058187135 0.082449995 -0.11723729 0.015077329 0.012297227 -0.028771186
0.039971884 -0.006809497 0.21400662 0.11392114 -0.20448083 0.12413133 0.11699231 0.16565686
0.11452288 0.41229028 0.052575745 0.055804808 0.051801845 0.14594913 0.06404429 0.28577656
0.09278396 0.07563757 -0.05992642 -0.08139015 -0.12559271 0.027161883 -0.011732721 0.11703564
-0.057210304 -0.086005695 -0.10789099 -0.024352467 -0.21336453 -0.0363953 0.045644403 0.02657448
-0.06408946 0.032196175 0.03216251 0.09673534 -0.06802679 -0.0011850784 -0.11735991 -0.2707079
-0.22856969 -0.02744129 0.0868909 0.010591831 -0.01619543 -0.107698135 -0.14693141 0.24210922
-0.056493495 -0.0010367222 0.03415506 0.11244985 -0.0062178797 -0.20853817 -0.011496825 0.0067737657
0.077935524 0.108159415 -0.13404895 0.06310415 0.16138786 0.060088646 -0.22514895 -0.22259185
-0.089894414 -0.10835936 -0.26233673 -0.12289954 -0.023690913 0.029674465 -0.0024341273 -0.00038384524
0.06428839 -0.13652554 0.042131234 -0.052339546 -0.055636734 0.06832584 0.089105286 0.12880763
-0.0013848203 0.09335007 -0.13085644 -0.08733604 0.033520315 3.1514912e-05 -0.018137796 -0.052625723
0.04117284 -0.18386818 0.16768335 -0.07850732 -0.054342926 -0.15231647 -0.020557985 -0.1452749
-0.1848034 -0.13358235 0.03449296 0.081114054 0.004853642 0.044758238 -0.0027592739 0.18168798
-0.047568966 -0.09390356 0.09440252 0.03726714 0.23135662 -0.14939027 -0.15642035 -0.2012109
-0.061202697 0.038320377 -0.021507628 -0.08217428 0.099230014 0.16332206 0.040949043 -0.10021347
-0.22360194 -0.115301885 -0.035789575 -0.0060840007 0.07320024 -0.18949802 0.033589374 -0.1318233
-0.061722662 -0.27611724 -0.18324384 0.2730917 0.22745977 0.0007736549 0.00603093 0.04960226
0.12383065 -0.02497918 0.047072053 -0.011073469 -0.0016135806 0.20534657 -0.027567746 0.08002813
0.08681975 0.01921248 -0.05411668 -0.07714356 -0.0032390885 0.08983483 -0.17120565 0.14542904
-0.13264498 0.09144741 -0.0092016235 -0.015556144 -0.025886754 -0.15027761 0.082123086 0.17960298
0.14145027 0.57382935 0.2799065 0.07882793 0.047883775 0.039732788 0.18450195 0.1419826
0.28719234 -0.09108699 0.28360912 0.31283155 -0.047420055 0.36623177 0.09487923 -0.118713826

fc1.bias f4 [256]
00000000: 267b bb3c 6fc1 20bd 1195 00bd 071c 8ebd
00000010: 8227 c63d 0cb2 62bc 65df 76bd a1a9 bfbd
00000020: 7499 83bc 4a27 633b c34b 6ebd c509 d03c
00000030: e2db 903d 3466 823d 0c55 063c e1e5 20bd
00000040: 8947 023e 2f5c 523d a6e7 58bd 4eea 873d
00000050: 3936 463c 295b 3c3d e374 4d3e 5a80 c63c
00000060: f1f3 413d 8c0f 25bd badd 1c3d 8a32 b4bd
00000070: e265 293e b020 79bd 934b 86bb 175c 853a
00000080: 167c 403d 3d65 b53c c055 433d ed5a 57bd
00000090: 3a87 b13d 7494 3dbd 591b c33d b5ab aa3c
000000a0: 5597 793d 5c7f 02bd ab50 a1bd 65eb b33d
000000b0: 4e8e f7bc badc 33bd 3de1 b53d 7dba c7bd
000000c0: 9615 1d3e adba 45bd eaaf 9abd 7011 30bd
000000d0: bd65 113e cb1d fabd 9052 d7bd 3d10 ec3d
000000e0: 794c b7bd 69f6 c0bd bec6 743d 785d 4d3c
000000f0: f628 abbb 8397 dd3c dd1f 7a3d 8d2e 00bd
00000100: 3a9b 8b3d eab5 23bc 5169 07bc 258a a8bd
00000110: f812 54bd 2610 d93c b71d 2c3e c64f b63d
00000120: 47b6 3e3d f576 e63d 7858 8f3d 6bf9 063e
00000130: b498 a8bc 2f1d a43d ec7f 0bbc b66a d83c
00000140: 51ff 2c3b f0ff afbc 91ca c2bc 4ab9 ae3c
00000150: 1080 c13d b264 0b3e aea5 b53d 5594 d2bd
00000160: 7f92 be3c d0f4 f63c 4826 523e bb1f c93d
00000170: 5f41 c9bc f8fa d5bc 9f89 dc3b 404d 833d
00000180: 11bd 083e d726 133e d5fd 6b3d b8c2 103e
00000190: d5da e73d 6e10 f03c 4e76 adbd f2c8 00be
000001a0: 84cb b2ba 8327 073d a842 2ebd b0e4 e7bd
000001b0: 1331 b9bd f56b 933d a20e 693d 8066 8a3d
000001c0: f21a 663e f878 ddbc 4726 b63d 5ab4 933d
000001d0: f980 fd3d 82dd 2f3e 6f9f 72bd d1b4 02bd
000001e0: 60ed e63d f942 7d3d 78bb b13d a56f 593d
000001f0: 466c 85bd 3248 093e 5288 ee3d e936 b3bc
00000200: 065f dc3d 0545 3b3b 1634 ffbb 52a2 6c3d
00000210: 546d 26bd 97d4 4d3e c429 0c3d 9856 053e
00000220: d792 ea3b 73c6 af3c 3e74 db3c 690f 913c
00000230: 6b41 4cbe c2c3 003e cbeb 91bc 7d79 f83d
00000240: 3985 cd3d 7dd2 fe3d a482 ba3d 196a 8cbd
00000250: fdbe 0d3e 2764 213e b977 e93d ed09 d23d
00000260: 9a74 a43d 7e4e ec3d 4bfb 00bd 66ac 3abd
00000270: 8a96 b33d b123 adbd 7275 cb3d b49b 83bc
00000280: 31d3 78bd 9093 aabd 333b e3bd 8443 a93d
00000290: e651 543d d265 0e3d cb9a a23b 6a42 503d
000002a0: e94c c8bd 6fcd 5b3d baca 61bd c77a 5b3d
000002b0: da47 f33d 2a53 de3d c2db e53d 39a0 a6bd
000002c0: 2de6 2a3d a4aa 0dbd 6884 113e abcd ccbc
000002d0: 78fe f2bb ec2e d3bc 5157 26bd c2ad d03d
000002e0: 0705 1c3e 1735 05bd 80d2 4a3d 5561 a1bb
000002f0: b136 b13d ef36 e3bc c338 213d 6007 c6bd
00000300: da75 333d 2351 47bd 2e0a af3c 8af6 0e3e
00000310: d8c9 a53d f453 22bd 0257 083d a305 08be
00000320: 599d db3c 074f bcbc 6c1c c4bd b97a 883b
00000330: 26db 0e3e fe8c a5bd b9d6 39ba 14c3 89bc
00000340: 4c9f d03d 4fc4 313d dcb3 b03d b2fa 85bc
00000350: 01b2 f7bd 59fb 2bbd 104a 903d df20 3cbd
00000360: a5b0 493d 7d14 133e 98f6 6fbd 003a aebd
00000370: 5fdf 82bd 3658 093e 8c6d aabc 83ab 493e
00000380: 986c 0d3e a24d 443e a846 c5bd 61ee 13bd
00000390: 2301 cabd 173a 0abc 4fba 303e 7212 d13d
000003a0: 8c0b 99bc 214c ea3c d84a 0cbd e270 8ebc
000003b0: 2416 433d 6151 0f3b 4049 9b3d db4b 983b
000003c0: bbb0 ed3d eb19 253c 52d9 b23d 7567 693c
000003d0: 7d3e 3d3e d910 533c 3001 c1bc a2b1 5bbd
000003e0: f601 173e 805b 023e 8916 503b d556 103d
000003f0: eaca 183d 1815 3bbd f662 cd3d 6828 48bd
0.02288587 -0.039246973 -0.03139216 -0.069389395 0.09675504 -0.013836395 -0.06027164 -0.09358526
-0.016064383 0.003466087 -0.05817772 0.025395283 0.07073189 0.0636715 0.008198988 -0.03928173
0.12722601 0.051357444 -0.052955292 0.06636487 0.012097889 0.045985375 0.2006412 0.024231125
0.04735178 -0.04029803 0.038297392 -0.08798702 0.16542771 -0.06082219 -0.0040983646 0.001017454
0.046993338 0.022143 0.0476892 -0.052576948 0.086683705 -0.046284154 0.095267005 0.02083383
0.060935337 -0.03185974 -0.07876714 0.08785132 -0.030219223 -0.043911673 0.088808514 -0.09752367
0.15340266 -0.04827373 -0.07553084 -0.04298538 0.14198966 -0.12212714 -0.105137944 0.11526535
-0.08950133 -0.09421999 0.059759848 0.012534492 -0.005223389 0.027049785 0.061065543 -0.031294394
0.068167165 -0.009992102 -0.0082648555 -0.08229474 -0.051775903 0.026496958 0.1680821 0.08901934
0.046560552 0.11253158 0.06999296 0.13181083 -0.020580627 0.08013379 -0.008514386 0.026418071
0.0026397298 -0.021484345 -0.023778232 0.021328587 0.09448254 0.13612631 0.088694915 -0.10282198
0.023263214 0.030146033 0.20522416 0.09820505 -0.024567304 -0.026120648 0.006730273 0.06411219
0.13353373 0.14370285 0.05761512 0.1413678 0.11321036 0.02930471 -0.084698305 -0.12576655
-0.0013640975 0.032996666 -0.042544037 -0.113229156 -0.09042563 0.071983255 0.05689872 0.067578316
0.22471216 -0.027035221 0.088940196 0.07212134 0.12378115 0.17174342 -0.05923408 -0.03191072
0.112757444 0.06183145 0.08678335 0.05308499 -0.06514792 0.13406447 0.11647095 -0.02187677
0.10760312 0.0028575074 -0.0077881915 0.05777199 -0.040631607 0.20100628 0.03421952 0.13021314
0.007158618 0.021456933 0.026788827 0.017707543 -0.1994683 0.12574676 -0.01781263 0.12132547
0.10035176 0.12442491 0.09106949 -0.06856174 0.13842387 0.15760861 0.113997884 0.102557994
0.080300525 0.11538409 -0.03148965 -0.04557457 0.087689474 -0.08454073 0.0993451 -0.016065456
-0.060748283 -0.083289266 -0.11095276 0.08264831 0.051835917 0.034765072 0.0049623004 0.050844587
-0.097802944 0.053662714 -0.055124976 0.053583886 0.11878939 0.10855706 0.11223556 -0.08136029
0.04172342 -0.034586564 0.14210665 -0.025000414 -0.007415589 -0.02577921 -0.040610615 0.10189392
0.15236293 -0.032521334 0.049517155 -0.004924933 0.0865301 -0.027736155 0.039360773 -0.096693754
0.043813564 -0.048661362 0.021367159 0.13961235 0.08095139 -0.039630845 0.033286102 -0.132834
0.026808428 -0.022986902 -0.095757335 0.0041650203 0.13950786 -0.08083533 -0.0007089186 -0.016816653
0.101866335 0.043400105 0.086280555 -0.016354892 -0.120944984 -0.04198775 0.07045376 -0.045929786
0.049240727 0.14363284 -0.05858478 -0.08507156 -0.06390261 0.13412556 -0.02080419 0.19694333
0.13810956 0.1917024 -0.09632617 -0.036116008 -0.09863498 -0.008436701 0.17258571 0.10208596
-0.018682264 0.028600754 -0.034251064 -0.017387811 0.047628537 0.0021868574 0.07582331 0.0046477146
0.11605974 0.01007698 0.08732857 0.0142458575 0.18480869 0.012882435 -0.023560137 -0.0536362
0.14746842 0.12730217 0.0031751713 0.03523906 0.03730289 -0.045674413 0.10028641 -0.04886666

ln1.weight f4 [256]
00000000: 3d86 903f b74c 6a3f bf6d 943f 6347 763f
00000010: 78fa 7f3f 7800 8c3f 07ca 803f 62b2 6a3f
00000020: c9f8 803f 23cb 613f f2c8 823f 0527 9c3f
00000030: 1a79 7c3f b006 af3f d5d4 6d3f 27b1 653f
00000040: ec6c 803f 75a2 763f a476 743f a0c1 933f
00000050: 94ba 9f3f d0ad 8e3f 7710 a93f 10b5 673f
00000060: f203 983f 6cad 7e3f 0f1b 983f 8df6 813f
00000070: 6230 8a3f 8d31 923f 9ef2 ad3f 1f24 9c3f
00000080: 3081 9e3f ca76 9d3f 06d6 6c3f e883 8e3f
00000090: c653 8d3f ea38 723f 8dbe 723f 291e 713f
000000a0: 7665 b93f dae1 713f de3c 673f 1fd5 b03f
000000b0: 2f30 663f 523d 683f d743 ab3f 2b55 ad3f
000000c0: 454f 873f 40bd 8c3f 3f29 623f e4d5 873f
000000d0: 83ff 873f 4174 a33f db75 6a3f ed56 9a3f
000000e0: f994 753f 7a6b 873f 7dd8 943f 73f5 6b3f
000000f0: b595 5b3f 2379 a23f 621d a43f 6379 803f
00000100: ee08 8c3f 13fa 8a3f 654e 703f 1de6 813f
00000110: 10cd 7e3f 6a96 763f 21fd a83f eadf ab3f
00000120: 6109 793f 38bd 6b3f 4133 843f 230a b83f
00000130: d49e 773f f20d 5c3f 9168 863f deb8 693f
00000140: 549a 7c3f e886 703f 6b43 7c3f 7acb 9b3f
00000150: 500a 7b3f f085 c63f a6c7 a33f 6697 6e3f
00000160: d85a 6d3f e635 973f d428 9f3f c818 7c3f
00000170: 306b 633f e7e4 503f 1080 7b3f 2a2e 923f
00000180: 24c3 8e3f e42a e33f 072e 8c3f 7f4b a23f
00000190: 13c5 933f 6fd5 813f 926c be3f fb42 9c3f
000001a0: 51fe 813f b03b 963f 8f94 6b3f 5ab5 863f
000001b0: 2303 873f c2ed 793f cbe0 4b3f 0da5 853f
000001c0: f74a 8b3f 30f6 793f 9401 c13f ac7b a93f
000001d0: ffee 8a3f b129 ef3f 82b8 6e3f 70c4 853f
000001e0: 173a 903f a8fd 893f 763f 733f 367f 7e3f
000001f0: 1b1b 893f defc 883f b2b3 943f 3f01 993f
00000200: 3fa9 9b3f b731 783f ce42 ba3f 4211 9d3f
00000210: a76d 8b3f e027 9a3f a014 833f 108d 873f
00000220: 1f57 743f cf1a 9e3f 1634 793f 4ddb 813f
00000230: 984a 803f c99c 913f e5a1 9b3f 3381 ac3f
00000240: f05d 713f 432b 6f3f 89e6 9a3f 254c 6b3f
00000250: 233c 753f ca09 ac3f 8494 973f 1268 983f
00000260: 5e74 c53f c2c2 903f 7491 813f d67c 6a3f
00000270: f92c 863f 6b79 833f 9945 9a3f 601b 703f
00000280: a4c1 703f 6f0b 823f aab9 a33f b818 833f
00000290: 5e75 603f 40aa 623f 55bd 663f 8984 ab3f
000002a0: 1610 623f 0535 853f 23b7 813f 9a70 743f
000002b0: ff8e 953f fecc 933f f5f5 983f c4a9 783f
000002c0: 4462 8e3f 7962 8c3f 09ee aa3f ec2b 5e3f
000002d0: d74a 4f3f f7ab 8d3f 2b66 6e3f c5aa 903f
000002e0: 09c6 843f db98 803f 55db 903f d5a8 923f
000002f0: 914e 823f 26e7 823f 504f a23f af36 763f
00000300: a5a1 6b3f 4fe7 5b3f 12d2 9e3f 43cc 833f
00000310: 4d96 663f 8053 663f ad90 7d3f fe96 8a3f
00000320: 2b4f 673f c0fb 913f 903e 853f a67f 833f
00000330: 324c b43f db06 9d3f d995 923f fec3 893f
00000340: 7a76 a53f 7657 923f 1dac 9d3f 24e7 6a3f
00000350: b847 723f 3cc1 723f 2aef 893f 48dd 823f
00000360: 3b14 8b3f 96ad bf3f 6123 773f 8419 7e3f
00000370: 3777 9e3f 56bb ab3f 3b34 aa3f 3747 f93f
00000380: 5ef0 7c3f f34c 953f badb 853f a9a5 993f
00000390: dbb2 633f 01fb 723f d647 b93f a07a 763f
000003a0: 64c2 743f 1707 8c3f 670c 8d3f 4adf 743f
000003b0: 191b 763f b607 833f e162 7a3f 8599 713f
000003c0: c84b 833f 4033 823f 898f 9b3f f398 9c3f
000003d0: 5cdf 973f 2daf 9e3f d8f3 753f 1cd0 883f
000003e0: 6a7e de3f 1b4c 843f 3d2d 823f c42a 683f
000003f0: ed61 943f 26a7 603f 5082 be3f 67b1 6e3f
1.1290966 0.9152331 1.1595992 0.9620268 0.9999156 1.0937643 1.0061654 0.9167844
1.0075923 0.8820059 1.0217574 1.2199408 0.98622286 1.3673916 0.9290288 0.8972344
1.003324 0.9634164 0.9549353 1.1543465 1.2478814 1.1146793 1.320815 0.90510654
1.1876204 0.9948337 1.1883258 1.0153366 1.0796015 1.1421372 1.3589666 1.2198523
1.2383175 1.2301877 0.92514074 1.1134005 1.1041191 0.94618094 0.9482201 0.94186646
1.4484088 0.9448525 0.9032725 1.3815039 0.8991727 0.9071857 1.3380078 1.3541616
1.0571066 1.0995255 0.88344187 1.0612149 1.0624851 1.2769853 0.91586083 1.2057778
0.9593044 1.0579674 1.1628567 0.921714 0.8577531 1.2693218 1.2821467 1.0037044
1.0940225 1.0857567 0.9386962 1.014835 0.9953165 0.96323264 1.3202249 1.3427708
0.97279936 0.920856 1.0328141 1.4378093 0.9672673 0.8595878 1.0500661 0.9129771
0.98672986 0.9395585 0.9854037 1.2171471 0.9806261 1.5509624 1.2795303 0.93199766
0.9271674 1.1813323 1.2434335 0.98475313 0.8883543 0.8159928 0.9824228 1.1420338
1.1153302 1.7747464 1.0951546 1.267929 1.1544517 1.014326 1.4876883 1.2207941
1.0155736 1.1736965 0.9202356 1.0524094 1.0547832 0.97628415 0.7963988 1.0440995
1.0882252 0.9764128 1.5078607 1.3240867 1.0854186 1.8684598 0.93250287 1.0450573
1.1267728 1.0780535 0.9501871 0.9941286 1.0711397 1.0702169 1.1617339 1.1953505
1.2161025 0.9695086 1.4551637 1.2270892 1.0892838 1.2043419 1.0240669 1.0589924
0.95445436 1.2351931 0.973451 1.014505 1.0022764 1.1375972 1.2158781 1.3476928
0.9428396 0.9342539 1.2101604 0.9191306 0.95794886 1.3440487 1.1842198 1.190676
1.5426137 1.1309435 1.0122514 0.91596735 1.0482475 1.0271429 1.205249 0.9379177
0.9404547 1.0159739 1.2791035 1.0241919 0.8767909 0.8854103 0.9013265 1.3399822
0.88305795 1.0406805 1.0134014 0.95484316 1.1684264 1.1546934 1.195006 0.9713404
1.1123738 1.0967551 1.3353893 0.8678577 0.8097357 1.1068105 0.93124646 1.1302115
1.0372936 1.0046648 1.1316935 1.1457773 1.0180227 1.0226791 1.2680454 0.9617719
0.92043525 0.85899824 1.2407858 1.0296711 0.9007309 0.8997116 0.9904888 1.0827329
0.90355176 1.1404953 1.0409718 1.027333 1.4085753 1.2267717 1.145198 1.0762937
1.2926781 1.1432941 1.231815 0.9175894 0.94640684 0.948261 1.0776112 1.022378
1.0865549 1.4974849 0.9653836 0.99257684 1.2380131 1.3416545 1.329719 1.9474858
0.9880427 1.1664108 1.045768 1.200368 0.88944787 0.9491425 1.4475048 0.9628086
0.95609117 1.0939664 1.101941 0.9565321 0.961351 1.0236728 0.9780713 0.9437488
1.0257502 1.017189 1.2153178 1.2234176 1.1865039 1.239721 0.960752 1.068851
1.7382329 1.0335726 1.0170056 0.90690255 1.1592385 0.8775505 1.4883518 0.93239444

ln1.bias f4 [256]
00000000: 544c 4cbd a897 a1bd ed1c 403d 1ae0 babc
00000010: 2f12 a4bc 1de2 cc3c e0d3 ccbd 1a57 90bd
00000020: f39e 373c 2c5c f3bd 768c 4ebc fcd6 1dbe
00000030: 3496 84bd 874f 0fbc b8e2 cebd 471c b4bd
00000040: a15b b5bc 8d2f 62bd dbb2 d1bd 7c5d 22bc
00000050: d71a b3bd fd0a 4abd 9b06 c63b 0835 f0bd
00000060: 15db e3bd 28a7 abbd b540 b6bc aa56 69bc
00000070: 8916 ecbc 640a 44bc 0311 b7bb 160b 0bbd
00000080: fb56 6fbd 26aa aa39 0a71 d4bd 8ab0 65bd
00000090: 98a3 b9bb 8d3f d0bd 5be0 85bd d064 40bd
000000a0: 073c 03bc 3589 a3bd 4400 91bd 8007 e5bc
000000b0: 8cc3 0abe 95cd e1bd 77fb 37bd f6fc 2f3d
000000c0: 5bb5 b1bd 76be efbc 9ab3 fcbd ba13 cbbd
000000d0: d5cd cabc fa80 083d 5e55 afbd 084e 72bc
000000e0: 330e 66bd 4cb2 243b b242 a5bc 670c d3bd
000000f0: a74f 01be 3228 0f3d d111 77bd 0c17 a2bd
00000100: 1947 ecbd a062 95bd c82d b0bd 881e 66bc
00000110: 664c b3bb cc46 5abd bb04 6f3c f9e3 5ebb
00000120: 48dd cabd b205 d2bd cff0 823b 9189 32bb
00000130: 3a72 aabd d7e3 53be f4c2 1a3d 59a2 e7bd
00000140: b193 07be 39cf d3bd a3b1 a5bd 2112 0dbd
00000150: f2c0 80bd 07a2 ceba 190e 91bc 4ab5 8fbd
00000160: 5527 b7bd 5851 47bc de71 533c f567 23bd
00000170: 1cd4 e4bd 098e 22be cc77 9fbd e448 f2bd
00000180: f6a4 9a3b 702c b83d 055b 11bd a000 12bd
00000190: 8269 08bc 2396 99bd ff42 5b3c 9aaa 0f3c
000001a0: 8ebf a6bd 831c 7ebc 4e64 b3bd f233 cfbb
000001b0: 5db9 fd3c e771 5cbd dd5b 6abe d1be f6ba
000001c0: 87bb 8cbd 348f 1abd e99a 40bd 29e0 fe3c
000001d0: fafb 93bd 7294 b13d 8e09 73bd b7f5 d13c
000001e0: f400 2d3d 0704 2abd 3471 72bd 29e9 06be
000001f0: 4174 e7bb e2ea 6cbd 30da 0dbd 6288 ec3c
00000200: 5f1d 88bd 19c1 96bd a5a6 fb3b 35c8 58bd
00000210: 983a 04bd 55ba 2e3b dd64 07bd 5606 64bd
00000220: 7d0e 90bd 7bf1 8c3c 647d 22bd 1c3f 6dbd
00000230: bdaf 4bbd 83cf 8fbd d507 f6bc 9c7e cbbb
00000240: dce6 23bb 93b2 88bd e31a f6bc 6f8f f5bd
00000250: b376 3fbd 7170 54bd 321a 023d 3bc8 5dbd
00000260: 9807 43bd 9d10 b239 8848 4ebd 3891 fabd
00000270: 3046 02be 06ce 4b3c a6c6 a73b 7d19 b3bd
00000280: d1b2 37bd 4cec 97bd 9772 f83b af3d 3cbc
00000290: 0f80 a9bd 9f7c bebd ed5e edbd 580f 40bd
000002a0: 3dc1 d9bd 746c c6bc 0c16 18bd cf70 00be
000002b0: 8833 58bb 2ce8 2c3d c3b8 83bc f44a c9bc
000002c0: 462f 9abd 3ef2 713c 9051 b7bc 5938 b8bd
000002d0: 40a2 6dbe 61f1 943d 142c 26be 9058 19bd
000002e0: 2bcf 083c 5b27 77bd 74fb 85bc 793a febd
000002f0: 33f1 91bc 78df bfbd f7d0 80bc 77a4 13bd
00000300: db20 9bbd 75b2 00be a3b0 1cbd 07da 99bb
00000310: 20dd 04be 7516 78bd 282c 75bd 5885 1bbd
00000320: 7b1b 05be 3a83 b5bc 600d 02bd 651e 21be
00000330: ad94 a73b 8c60 143d 6875 7c3c 8ebb e7bc
00000340: ebb7 fcbc 4e41 b0bd 9a55 80bd af9d ffbd
00000350: f147 33bd e5a6 ddbd e642 babc f23b 9cbd
00000360: d6b9 e4bd 30b8 693c cba0 24bd 412e 8cb7
00000370: 9517 763d 416c 903c b617 cabc ff5a 3a3e
00000380: 80f8 abbd 9092 c7bb 59f7 03bd 297d 783c
00000390: 498a a3bd 25dd 6cbd d4e3 813d a671 e3bd
000003a0: 210c f0bd 1797 a3bd 66fc 4f3d 0e87 6fbd
000003b0: 3b28 55bd 0631 91bd 70dd f3bc 0b78 cfbd
000003c0: 4796 b4bd bcfe a3bd babe 44bc eea6 2fbd
000003d0: c084 413d 3adb f0bc 041f 1cbd face 38bd
000003e0: f167 503d 798c 6abd bf0d b0bd 980a 96bd
000003f0: 68e5 6bbd 4d8d 07be 4f35 b1bc 10c7 24bd
-0.04987748 -0.07890254 0.046902586 -0.022811938 -0.020028202 0.025010163 -0.100013494 -0.07047863
0.01120733 -0.11882815 -0.012606731 -0.15414041 -0.064739615 -0.008746988 -0.10101837 -0.08794456
-0.022138419 -0.05522113 -0.10239192 -0.009909984 -0.08745354 -0.049326885 0.006043268 -0.11728865
-0.11125771 -0.08381492 -0.022247652 -0.014241854 -0.02881934 -0.011965368 -0.0055867448 -0.03394612
-0.05843256 0.00032551697 -0.10373123 -0.056076564 -0.005665254 -0.10168371 -0.06536933 -0.046971142
-0.008009917 -0.079851545 -0.07080129 -0.027957678 -0.13551158 -0.1102554 -0.04491755 0.04296585
-0.08677169 -0.029265624 -0.12338944 -0.09915872 -0.024756351 0.033326127 -0.085612044 -0.014789112
-0.056165885 0.0025130687 -0.020173404 -0.103051 -0.12628041 0.034950443 -0.060319725 -0.07914552
-0.11536998 -0.07294202 -0.08602482 -0.014045365 -0.005471754 -0.053290173 0.01458853 -0.0034010394
-0.09905487 -0.102549925 0.003995992 -0.002724264 -0.08322568 -0.20692383 0.037783578 -0.11310262
-0.13239934 -0.10342259 -0.08090522 -0.034441117 -0.062868014 -0.0015764841 -0.017706918 -0.07017
-0.08943049 -0.01216539 0.012905566 -0.039894063 -0.11173269 -0.15874495 -0.07786521 -0.11830309
0.004719372 0.08992851 -0.035487194 -0.035645127 -0.008325936 -0.074993394 0.013382672 0.008768702
-0.08142005 -0.015509727 -0.08759366 -0.006323331 0.030972177 -0.053819563 -0.22886606 -0.0018825178
-0.068717055 -0.037734225 -0.047022734 0.031112747 -0.07225795 0.08670892 -0.059335284 0.025629861
0.042237237 -0.041507747 -0.05918999 -0.13174881 -0.007063419 -0.05784119 -0.034631908 0.028873626
-0.06646227 -0.07361049 0.0076797777 -0.052925307 -0.03228244 0.0026661356 -0.033055175 -0.055670105
-0.070340134 0.01720499 -0.039670363 -0.057921514 -0.049728144 -0.070220016 -0.030033031 -0.0062101614
-0.002500943 -0.06674685 -0.030042117 -0.119902484 -0.04674406 -0.051865045 0.031763263 -0.054146033
-0.047614664 0.00033963184 -0.05036214 -0.122347295 -0.12722087 0.0124392565 0.0051201163 -0.08745096
-0.044848267 -0.07418117 0.0075820195 -0.011489316 -0.08276378 -0.09301113 -0.11590371 -0.046889633
-0.106325604 -0.024221636 -0.0371304 -0.12543033 -0.00329897 0.042213604 -0.016079312 -0.024571873
-0.07528548 0.014767228 -0.02237776 -0.089951225 -0.23206425 0.07272602 -0.16227752 -0.037437975
0.008350174 -0.060340267 -0.016355254 -0.124134965 -0.017815208 -0.09368795 -0.015724642 -0.036045518
-0.07574626 -0.12568076 -0.03825439 -0.0046951803 -0.12974977 -0.06056829 -0.059856564 -0.037968963
-0.12998764 -0.0221573 -0.031751037 -0.15734251 0.005114159 0.036224887 0.015408851 -0.028287675
-0.030849418 -0.08606206 -0.06266327 -0.12481248 -0.04376978 -0.10822848 -0.022736978 -0.07628621
-0.11168258 0.014265105 -0.040192407 -1.671084e-05 0.060081083 0.017629744 -0.02466951 0.18198775
-0.08397007 -0.0060904697 -0.03221831 0.015166559 -0.0798536 -0.057828087 0.06342283 -0.11105661
-0.117210634 -0.079878025 0.050777815 -0.058478408 -0.05204032 -0.070894286 -0.029768676 -0.10130318
-0.08817726 -0.08007571 -0.012008363 -0.042883806 0.04724574 -0.02940141 -0.038115516 -0.045119263
0.050880376 -0.05726287 -0.08596372 -0.07326239 -0.057591826 -0.13237496 -0.021631865 -0.040228903

fc2.weight f4 [64, 256]
00000000: 3e97 5cbe 2aab 813d e11b f43d 0019 ebbd
00000010: 4227 763d fe9d 37bd 6c8d 283e 85fa aabc
00000020: 4dda c43d b2ba 3cbe 0c1a 24bd 343a 32be
00000030: f9b2 e6bd e806 18be 7601 a73d 5e15 af3d
00000040: e817 b33d 2124 a9bd 4cd0 e03c 859e 81bd
00000050: 3e21 4ebd 1a3e 343d fb07 783d 46f3 b83c
00000060: 60e4 4d3c 255b ec3d 42e3 2ebe fa9c 0c3d
00000070: f174 2a3e 17b3 6f3e 3ee7 f5bd 37bb a53c
00000080: b077 7cbe 8641 e43c 61b3 5b3d fedd ea3d
00000090: 0094 26bd 358b d63c 01f5 043c 7e83 2cbe
000000a0: 1b18 0fbe a043 0cbd fc54 d53d 97a4 5f3e
000000b0: 9cf3 183d 2f13 013e 3646 b9bd 5215 983e
000000c0: d188 8abd 4c42 2d3e bdeb 25bd 8d3d dd3b
000000d0: 22c1 45be 7bb7 843e b59a 8a3c 2489 573e
000000e0: f3b5 913d a475 843e 8c3d 013d 6df7 babd
000000f0: bb5e 79bc 4a9b 4f3e a7d6 22bd 6d71 063e
00000100: 705a 68bd 700d 403e ad42 8b3e 1e01 1d3d
00000110: 31a9 1a3e e5eb 0d3e a3b9 7dbe 9cc8 35be
00000120: 8d7b 11be 78bb 27be 3c9b f0bc ecdc 4f3e
00000130: 87cc bdba 1d7b 59bd 3aa4 ed3d 5a96 1b3d
00000140: 897d 4a3d 623c 713d 1684 753d b9ae 8f3e
00000150: 2848 8e3d 4f92 c23e 435a 833b 3ce6 653c
00000160: e4dd e33d c8b2 9a3d 9828 89bd 7418 183d
00000170: a67e 59be dbd0 c2ba c0be 06be 29ec 3abe
00000180: 0997 51bd 4279 b83e 22fa 343e 7c2e c13c
00000190: 68ad 6ebd a73a 513c d80c 7d3e 97b3 433e
000001a0: 91cc 9cbd ecd3 cdbd 4346 cb3d 1402 ed3d
000001b0: 9609 8b3d 3d18 7a3d 7065 983c 8457 e5bc
000001c0: 4a00 753d b5a2 1c3d 0fa1 b23e 9da0 fcbd
000001d0: 6a4f 633e da3c 6a3e f1c6 97bc e94f 823d
000001e0: a5cd 7a3d 7e3b 80bd dca8 903d 8d89 fbbb
000001f0: 5d58 6f3e acae 983e da6f 6abe ca4b 883e
00000200: 7677 41bd 19a7 393d e480 9f3e 6785 4a3d
00000210: 851c 5e3e 2268 46be d2e8 33be 75e2 323d
00000220: 72a2 0abe 21d3 a53d 40d4 85bd 20af 2c3e
00000230: 6a3a 513e f090 143e fa76 343e cd39 c43c
00000240: 43cf aabc d0f3 bb3b 8141 993c f43c 613d
00000250: bee5 adbc 7040 853d 4ca0 1cbe cdc2 b1bd
00000260: 1370 36be 7266 0cbd cc5b 98bd 3b46 81bd
00000270: b6c2 c8bd e77b a63d 52f5 1e3e ae1a f23d
00000280: c741 4ebd b654 d33c 0e6b ec3d 2b60 85bd
00000290: baef 1e3d 75c5 bb3d 0fcc 70be f5db 9fbd
000002a0: 207e 993d 39d0 e4bd b0b4 063d 3e07 0f3e
000002b0: 62d1 2cbe fb1c 06bd 1d85 5fbe e0c0 4dbb
000002c0: 171e ecbd a1c7 8f3c 9412 473d a77c 60bd
000002d0: 5631 4d3d e09e a03d 1299 eabd cec4 5f3e
000002e0: 8625 ca3d 152d 09bb ed61 eb3d 4eb7 3fbe
000002f0: 457a efbd e4e8 98be c017 81bd a237 853b
00000300: 20f7 59bc fd39 38bd 2a8e 373c 75e0 493d
00000310: ba34 263e 84fa e43d 897c 8cbd 99b8 4d3e
00000320: 6f2e bdbc b492 00bd 0046 fe3d 7346 b8bd
00000330: 1bbb c4bd 2e5e 693e f5a1 993d 4565 b13d
00000340: ea6d aebe 7058 2c3d 1f93 793d d2fc 0a3d
00000350: 820d 4f3d 0a4a b63c 8559 2ebb fe08 78be
00000360: 2394 9abd 17ad cd3e 5efe 853e 1181 4e3d
00000370: e862 693e 6eb5 523e 01f2 763e 78e5 5e3e
00000380: 40c1 2b3e c911 a13d a21b 083e a45a ee3d
00000390: ab4c a43d b7a4 ddbd d9a1 a23e b8e9 0c3d
000003a0: 8ac4 65bd cc45 b1bd bcca 1f3e 89c8 3a3c
000003b0: 0f9f f03d 55f2 3c3d 84c6 93bc 2d0d a1bd
000003c0: 1822 bc3d 5dbd 9f3e 8d00 24be 26a4 a7bd
000003d0: b963 e9bc 9266 fc3c af0b 143e ff62 8b3e
000003e0: b048 4bbd bda0 c5bd e2a6 c03c f9a4 17be
000003f0: 5eed 4abe 4fd0 51bc c4c3 b0be 5223 2e3e
-0.2154207 0.06331475 0.1191938 -0.11479378 0.060096033 -0.044828407 0.16460198 -0.02087141
0.0961195 -0.18430594 -0.040063903 -0.17405015 -0.11264605 -0.14846385 0.081545755 0.08548997
0.08744794 -0.08258844 0.027443074 -0.06329063 -0.05032467 0.044004537 0.060554486 0.02257694
0.012566656 0.11540822 -0.1707888 0.034329392 0.16646172 0.23408161 -0.120069966 0.020230873
-0.24655032 0.027863275 0.053637866 0.11468123 -0.040668488 0.026189426 0.008115054 -0.16847035
-0.1397404 -0.03424418 0.104166 0.2184013 0.0373417 0.12604974 -0.09046595 0.29703766
-0.06764377 0.16919822 -0.04050802 0.006751722 -0.19311956 0.25921234 0.016919473 0.21048409
0.07114782 0.25871003 0.031552836 -0.09129224 -0.015220339 0.20274082 -0.03975549 0.13129206
-0.056726873 0.18755126 0.27199307 0.038331144 0.15103604 0.13859518 -0.24777846 -0.17752308
-0.14207287 -0.16380107 -0.029370897 0.20299119 -0.001448051 -0.053095926 0.11603589 0.037985183
0.049436126 0.058895476 0.05994042 0.2806299 0.069473565 0.3800225 0.004008563 0.014031943
0.11126307 0.07553631 -0.06697196 0.037132695 -0.21239719 -0.0014863269 -0.13158703 -0.1825415
-0.05116943 0.36030012 0.17673543 0.023581736 -0.05827084 0.012770331 0.24711931 0.19111477
-0.076562054 -0.100501865 0.09925511 0.11572662 0.06788938 0.06105827 0.018603057 -0.027995832
0.05981473 0.038241107 0.34888503 -0.12335322 0.22198263 0.22874776 -0.01852748 0.06362898
0.061231274 -0.06261347 0.07063457 -0.0076763094 0.23373552 0.29820764 -0.2289423 0.26620322
-0.047233067 0.045325372 0.31153023 0.04944363 0.21690567 -0.19375661 -0.17569283 0.043672998
-0.1353853 0.0809691 -0.06534624 0.1686368 0.2043244 0.14508414 0.17623511 0.023953343
-0.020850783 0.005735852 0.018707993 0.05498977 -0.021227714 0.06506431 -0.15295523 -0.086797334
-0.1781619 -0.034277387 -0.07439384 -0.063122235 -0.09802763 0.08129101 0.1552327 0.11821495
-0.0503557 0.02579723 0.115438566 -0.06512483 0.03880284 0.09168521 -0.23515342 -0.07805625
0.074947596 -0.11172528 0.03288716 0.13967606 -0.16876748 -0.03274248 -0.21828122 -0.003139548
-0.11529177 0.017551245 0.0486017 -0.054806378 0.05009588 0.07842803 -0.11454977 0.21852419
0.09870438 -0.0020931412 0.11493287 -0.18722269 -0.11693243 -0.2986518 -0.06303358 0.00406547
-0.013303548 -0.044977177 0.011203328 0.049286325 0.16231051 0.111805946 -0.06859691 0.2008995
-0.02309343 -0.031389907 0.12415695 -0.08997812 -0.09606 0.22789833 0.07501594 0.08661894
-0.34068233 0.042076528 0.06093132 0.033932514 0.05054999 0.022252101 -0.002660365 -0.2422218
-0.07547786 0.4017112 0.2617063 0.050416056 0.22791636 0.20577022 0.24115755 0.21767223
0.16772938 0.078647204 0.13291791 0.11638382 0.08022436 -0.108224325 0.31764105 0.03440258
-0.056095637 -0.08655891 0.15604681 0.01140035 0.11749088 0.046129543 -0.018038996 -0.07863841
0.0918619 0.3119916 -0.16015835 -0.08185606 -0.028489934 0.030810628 0.14457582 0.27223966
-0.049629867 -0.09649799 0.023517076 -0.14809026 -0.19817111 -0.012806012 -0.34524357 0.17005661

fc2.bias f4 [64]
00000000: 79d6 903c 4f7f 90bc c083 993b c1d5 3dbb
00000010: 3854 c1bb 9548 9b3c 7b2b cf3c 4b4e 243b
00000020: 7cf3 773b 34ac 29bd 7427 d83a 5e39 6a3c
00000030: 9933 dc3c 8f6a 5abc 19b3 c73c 7abf e83c
00000040: 524a 3e3d 3507 d9ba 236f 063c 2fcd a13d
00000050: b977 1dbc 7d35 8f3b 36a6 8f3c 962a 5c3d
00000060: 530a a43c 86ad b43c dd87 2fbc 4149 e83b
00000070: ac13 293d e532 2e3c aea6 a53b 1832 86bb
00000080: 7d5d 8a3c 932d 893c 4e38 463d bef7 523c
00000090: 2df3 7d3c 9952 7fbc 034f 7cbc 68bd f63b
000000a0: 0004 603c 23fb 533d f9b6 cb3c 36cc 483c
000000b0: e7b4 7f3c f001 d93b d62b 5a3b ea5b 583b
000000c0: 73a2 193d 824e 443b e29e 9a3d e470 aa3c
000000d0: c185 cdba 4f1e 993a fcc8 c23c d8c9 633c
000000e0: 0019 133d 64c4 e93c 879c 7e3b facd e23b
000000f0: 0d3b cb3c bcb1 39bc f29b 2abc 5ad0 ea3d
0.017680394 -0.01763883 0.0046848953 -0.0028966519 -0.0058999322 0.018955508 0.025289288 0.002507108
0.0037834337 -0.04142399 0.001649125 0.014295904 0.026880072 -0.01333107 0.024377393 0.028411616
0.046457596 -0.0016557934 0.008205208 0.07900464 -0.009611064 0.00437039 0.01753531 0.05375155
0.020024454 0.022055399 -0.010713545 0.0070888107 0.041278526 0.010632251 0.00505527 -0.004095327
0.016890282 0.016745364 0.04839354 0.012876449 0.015499872 -0.015583658 -0.015399697 0.007529903
0.013672829 0.051753175 0.024867522 0.012255719 0.015607095 0.0066225454 0.0033290288 0.003301377
0.03750844 0.002995402 0.07549836 0.020805784 -0.001568012 0.0011682006 0.023777477 0.013903104
0.035912514 0.02853603 0.0038850622 0.006921527 0.024808431 -0.011333879 -0.010413157 0.11465521

ln2.weight f4 [64]
00000000: 7de0 9e3f 5a98 8d3f 0339 a43f 0d3c 973f
00000010: 8ce7 bc3f ac1f b43f c20e 913f 6272 843f
00000020: 1042 a63f e12a 863f 0422 813f 7dd6 8d3f
00000030: afca 8e3f a005 6f3f a4db 963f 550e c73f
00000040: 90a1 b23f 31c1 c23f bb97 813f de29 913f
00000050: 5003 793f 44c8 973f a2dc a83f b76a 923f
00000060: b543 753f 75fd 913f 081d 673f 63bc 943f
00000070: 9518 8f3f 6339 a13f 0925 693f 8227 8a3f
00000080: 60e3 823f 1fda 973f 18c5 853f d83d 853f
00000090: 4924 ab3f a197 713f 4ad6 563f ef61 a03f
000000a0: 1b06 893f 6040 8a3f 6bec 743f 9bce 903f
000000b0: 9eae 8f3f 3612 a93f a46c 813f 5820 a33f
000000c0: 8fb6 953f 66f0 803f f08b b73f 0c22 873f
000000d0: c6c6 833f 4a56 763f ac42 873f 6d0c 793f
000000e0: 623f 9a3f 93b0 ad3f 68e3 843f f7c8 803f
000000f0: 622f 8b3f ffeb 973f df6f 873f 11f0 993f
1.2412258 1.1062119 1.2829899 1.1815201 1.4758162 1.4072165 1.1332629 1.0347407
1.2988911 1.0481836 1.0088506 1.1081082 1.1155604 0.9336796 1.1785779 1.5551249
1.3955555 1.5215207 1.012443 1.1340902 0.9727068 1.1857991 1.3192332 1.1438817
0.9580644 1.1405474 0.90278673 1.1619991 1.1179377 1.2595638 0.91072136 1.0793307
1.0225639 1.186344 1.0450773 1.0409498 1.3370448 0.9437199 0.8392073 1.2529887
1.0704988 1.0800896 0.95673245 1.1313051 1.1225164 1.3208683 1.011128 1.2744246
1.1696337 1.0073364 1.433958 1.0557265 1.0295036 0.96225417 1.0567222 0.97284585
1.2050593 1.3569511 1.0381899 1.006133 1.0873835 1.1868895 1.0581015 1.2026387

ln2.bias f4 [64]
00000000: cbaf 3b3b 44b5 e2bd 6307 60bd 7eee 173d
00000010: 3f0e 89bd 6893 10be 2ed1 c8bd 047d e6bb
00000020: cc73 1fbe f6c2 0dbe 9a30 01bd 27fd 8ebc
00000030: c00f 123d 1833 41be 7955 8b3d 0e19 193d
00000040: 5e7f 163d 10d0 28bc c084 1dbe 26b6 b93d
00000050: 3aa4 c0bd c0fe 3cbc 63cb 5fbd 9e03 8a3d
00000060: 50c4 aa3c f7c3 c6bc 03b4 bcbd a6d9 91bd
00000070: df66 ecbc 98c7 a5bd 0fd2 29bb d66d c2bd
00000080: 9d09 103c 551f 5bbd 8ec2 8a3d 5234 b4bb
00000090: c8a7 61bd af48 2cbe 227b 6cbe bbde 0cbc
000000a0: 205e d0bc b273 763c d801 8bbd 74fc 91bd
000000b0: 98bb 883d c00d 153d 4075 53bd 715d a1bd
000000c0: ef72 e3b9 2c0c b03a e6f2 183d 6a31 70bc
000000d0: 0608 4dbc 1618 0b3c db24 35b9 3ff4 bb3b
000000e0: c1d8 4f3d d77d 7cbd e44c 423b af4d e83c
000000f0: a338 10be 3966 9cbd 8382 a7bc 1d26 ed3c
0.0028638716 -0.1106973 -0.054694545 0.03709268 -0.0669217 -0.14118731 -0.09805523 -0.007033946
-0.15571517 -0.13843903 -0.03154049 -0.017454697 0.03565955 -0.18867147 0.06803412 0.03737741
0.03674256 -0.010303512 -0.15382671 0.09067945 -0.09406324 -0.0115353465 -0.054637324 0.06738971
0.020845562 -0.024263365 -0.09214022 -0.07121591 -0.028857647 -0.0809471 -0.0025912558 -0.09493606
0.0087913545 -0.053496677 0.067753896 -0.005499401 -0.05509165 -0.16824602 -0.23093846 -0.008598025
-0.025435507 0.015042232 -0.06787461 -0.0712823 0.06676406 0.036390066 -0.05162549 -0.07879151
-0.00043382446 0.0013431362 0.03734102 -0.014660219 -0.01251412 0.008489629 -0.00017275235 0.0057359035
0.050743822 -0.061643448 0.0029647881 0.028357355 -0.14084105 -0.07636685 -0.020447975 0.028948838

action.weight f4 [4, 64]
00000000: a0a7 a43c e01b ccbe 7553 fc3d 0c51 88be
00000010: d4a1 363f eeae 253f 777c 2cbc ed0c da3c
00000020: a760 153b 11a2 34bd ab2a 383d 902a 043c
00000030: 0892 93bd 1a90 273e 5285 923c 689f dfbb
00000040: 6d4a 083d 1f0a 11bf 5b4a 953e ff2f cb3d
00000050: 0ed8 a43e baa3 3d3e 2abb 7dbc 068e 8ebc
00000060: d9d3 fd3d 7f42 d7bd ffed d0bd c9b0 183b
00000070: 2c66 1ebd 5a11 82be 4730 773e 4405 f23d
00000080: 3d5f 39bd e79c 403c af22 8abe 5560 8e3c
00000090: 526c 0cbc 7a2d ce3d 6e64 b73d f7e5 213d
000000a0: 32e2 823d 45d1 ef3c 2c0a 83bc 80e2 bd3c
000000b0: 613e 3e3d e7cc 06bd 019f 163e 64d2 753c
000000c0: eb0c da3b 9627 febd 13ab 723c d565 143c
000000d0: 7373 1ebe 54d7 1dbe 557e 013e d326 a4bd
000000e0: 657e cfbd c470 7f3c 05a8 1ebe f2fe e8bd
000000f0: 6a77 163d acac cebd 5b91 3bbe 9988 0839
00000100: bcc1 083f b52d 813e b2eb 0e3f bbf3 32bf
00000110: ec4a 823e 59b9 8e3e 3da3 7dbe b0d3 8f3e
00000120: 71d1 9cbe a3cd c83d 2b45 023f 2dbc d03e
00000130: ae53 bf3e 459b f3bd eb6b b23e 2803 1ebe
00000140: 9291 093e 0fd2 003f 60e7 7fbe 7b7f 6abe
00000150: 7539 cbbe 8f46 103e ef38 343f c1d6 9ebd
00000160: ed32 da3d 035e 3cbe 9378 cb3e 6d8e eebe
00000170: ae87 ee3d d385 573e 9cbd 14bd 1d8b 5fbe
00000180: 4b07 38bf e5e1 49bf 8cad 44be 2a09 cbbd
00000190: 6af4 96bd cf60 0fbe 17d4 5a3d 3584 973e
000001a0: 13e4 1a3e 1805 acbe 8820 9fbb 6f7e 75be
000001b0: 1125 c63e 9785 05be de7a 263e d6ac 803e
000001c0: 6214 f5bd a2a0 14be e8a7 bebe d217 343e
000001d0: 0296 073e 001b aa3e 8fc4 9b3e 438e 04bf
000001e0: f864 e73e d755 623e 59a3 cb3e 4518 38be
000001f0: 6e4f 92bf 8e1d ec3e 1972 cbbd e9ff a9be
00000200: dc9a 343f b5c7 9e3d 9e5b 8f3e ecf9 19bf
00000210: fd46 cfbd 2dee 8cbe eb58 273f 0451 2abe
00000220: 17e2 e03d c7b8 883e 67f3 57be 144c cabc
00000230: 9abd 623e 6d1a 88bd 5191 d0bd 1a4e 3ebf
00000240: cb2d 8c3f 5ce1 b63e 2951 c4be a1f1 0f3f
00000250: 9abe 203e 5364 07bf 39eb 89be 4432 123e
00000260: 5d26 033e 041a 1bbf c3da 6fbb a6c5 cabe
00000270: afe5 d53e 879d 733e 010e 8d3e b1b6 23bf
00000280: c881 09bd fccc cfbd e69a dd3a f77d 00bf
00000290: 7428 03bf 357e 9bbe 14a6 76bd 05d3 8ebe
000002a0: 0679 93be e5bd cb3d 6efc 75be 364d 72be
000002b0: 6dc8 9a3e 18a5 88bf 0e95 93bb 0bc4 193f
000002c0: 6b8b bcbe fc49 313f e7a1 2bbe 70ad e3be
000002d0: e3c3 4bbf 97bf cdbe 3930 f3be 9239 073d
000002e0: 81dc 0c3e a5b3 41bf b4c4 9f3d d5ce 23be
000002f0: 4e9f e23d a963 313e 0a76 493f 0291 973e
00000300: d16b 4dbe cc5e 853d 338d 51bf 0e1d e83d
00000310: b9fb 243e adc0 e0bb bca1 0d3e 2296 2b3c
00000320: 88d1 203f ca20 a93e 68c6 843e 9e90 4a3f
00000330: 5341 69be 2905 9fbd bf90 78be 88ee bd3e
00000340: 161a 3cbf 8c93 503e bfa3 16be 223f 7fbe
00000350: f850 ebbd 3d00 503d c2ca 073f 260e 12bf
00000360: 5529 1cbe 1c78 1a3f 3c49 a8bc 3836 1a3d
00000370: 1d3f e63e d3d9 7e3e bf66 85be b53c a43d
00000380: e219 643e 7da8 b73e 11e6 b63d 1968 b4bd
00000390: 3d6d d53e 5b94 38be 816d 5dbd 2cc4 20bf
000003a0: a80b bd3e 362f 89be ad8c de3b baab bc3e
000003b0: 4ff8 b1be 229d c93e f2c7 353e b385 62be
000003c0: 70b1 533e 05aa 6b3d 9ab8 ff3e c73e 20be
000003d0: 727c d93e f8e9 c8bd 8339 bb3e e9b1 a2be
000003e0: 932d 82bd 4a05 0d3e 9000 ab3c 786f 3a3f
000003f0: 2df7 453e 6428 2f3e e705 debe 51d5 53be
0.020099461 -0.39865017 0.12320606 -0.26624334 0.7134068 0.64720047 -0.010527722 0.026617492
0.0022793205 -0.04409987 0.044962566 0.008066788 -0.072055876 0.16363564 0.017885838 -0.0068244226
0.033274103 -0.5665607 0.2915829 0.09921264 0.32196087 0.18519488 -0.015486518 -0.017401706
0.12393922 -0.1051073 -0.10201644 0.0023298732 -0.038671657 -0.25403863 0.2413951 0.118174106
-0.045256842 0.011756158 -0.26979586 0.017379919 -0.008570747 0.10067268 0.08954702 0.039525952
0.063907996 0.029274592 -0.015996061 0.023179293 0.046446208 -0.032910254 0.14709093 0.015003774
0.006654372 -0.12409894 0.014811295 0.009057482 -0.15473728 -0.15414172 0.12645848 -0.08015218
-0.1013153 0.01559085 -0.15493782 -0.11376752 0.036734976 -0.10091528 -0.18317167 0.00013020857
0.53420615 0.25230184 0.5582839 -0.69903153 0.25447786 0.27875784 -0.24769302 0.28091192
-0.3062854 0.09804847 0.5088679 0.40768567 0.3736853 -0.1189485 0.3484796 -0.15430892
0.13434437 0.50320524 -0.24990606 -0.22900192 -0.39692274 0.14089416 0.70399374 -0.07755805
0.106542446 -0.18395238 0.39740428 -0.46593037 0.116469726 0.21047144 -0.036313638 -0.21830411
-0.7188613 -0.7886031 -0.19206828 -0.09913857 -0.07370837 -0.14001773 0.05342492 0.29593053
0.15126066 -0.33597636 -0.004856173 -0.23974012 0.38700154 -0.13039242 0.16257808 0.25131863
-0.11966778 -0.14514402 -0.37237477 0.17587212 0.13240817 0.33223724 0.304234 -0.51779574
0.4519422 0.22103058 0.39773062 -0.17978008 -1.143049 0.46116298 -0.09933872 -0.33203056
0.70548797 0.07752935 0.27999586 -0.60146976 -0.10120962 -0.27525464 0.65370053 -0.16632468
0.10980623 0.26703474 -0.21088944 -0.02469448 0.2214264 -0.06645665 -0.10183967 -0.74337924
1.0951475 0.3571881 -0.3834317 0.5622807 0.15697709 -0.5288746 -0.26937273 0.14276987
0.12807603 -0.6058657 -0.0036598898 -0.3960392 0.41776797 0.2379056 0.27549747 -0.6395064
-0.033571035 -0.101465195 0.0016907125 -0.5019221 -0.512336 -0.30369726 -0.06021698 -0.2789537
-0.2880327 0.09948329 -0.24022076 -0.23662266 0.30231038 -1.0675383 -0.0045038527 0.6006476
-0.36825117 0.69253516 -0.1676098 -0.4446826 -0.79595774 -0.40185234 -0.47497728 0.033013888
0.1375599 -0.7566474 0.0780119 -0.15996869 0.11065541 0.17323174 0.7869574 0.2960282
-0.2006066 0.06512222 -0.8185608 0.11333667 0.1611165 -0.0068589062 0.13831228 0.010472806
0.6281972 0.3303283 0.25932622 0.7912692 -0.22778825 -0.07764656 -0.24273966 0.37096047
-0.73477304 0.20368785 -0.14710902 -0.24926427 -0.11490053 0.050781477 0.5304376 -0.5705284
-0.15250142 0.6033952 -0.020542733 0.037649363 0.44970027 0.24887781 -0.26054952 0.080193914
0.22275499 0.35870734 0.089306004 -0.088089176 0.41684905 -0.18025343 -0.05405951 -0.62799335
0.36922956 -0.26793832 0.006791672 0.36849767 -0.34759757 0.39377695 0.17752054 -0.22121315
0.20673156 0.05753519 0.49945527 -0.15648948 0.42477757 -0.09810251 0.36567315 -0.3177636
-0.06356349 0.13771549 0.020874292 0.7282634 0.19332571 0.17105252 -0.43363878 -0.20686843

action.bias f4 [4]
00000000: f897 81bc f660 66bb d640 25bb ce0b 7abd
-0.015819535 -0.0035153008 -0.0025215647 -0.061046414
