checkpoints/DDPG/Actor/DDPG_actor_200.pth (torch, 183131 bytes, 10 tensors)

fc1.weight f4 [256, 41]
0	0xbdee259e	-0.11628269
1	0x3dbd95d5	0.09257094
2	0x3d8b9262	0.0681503
3	0xbdfc9b5b	-0.12334319
4	0xbe1faf98	-0.15594327
5	0xbd307f29	-0.04309002
6	0x3c5fd749	0.013662168
7	0x3dc7e4ab	0.09760412
8	0x3dc6db6b	0.097098194
9	0xbd8174da	-0.06321116
10	0xbe22ca12	-0.15897396
11	0x3d14e3c8	0.03635004
12	0xbe05ac74	-0.13054067
13	0x3b9bdf5c	0.004756851
14	0x3e170224	0.1474691
15	0xbde829d9	-0.11336107
16	0xbde2786e	-0.110581264
17	0x3d162fb7	0.0366666
18	0xbd51b6ce	-0.051199727
19	0xbe07b598	-0.13252866
20	0x3d1fb702	0.03899289
21	0x3d82a254	0.06378618
22	0xbdca0c64	-0.098656446
23	0xbe2247d0	-0.15847707
24	0x3bf5872a	0.0074929195
25	0x3cd25eaa	0.025679905
26	0xbbbb476e	-0.005715302
27	0x3ccf8b01	0.025334837
28	0x3d555325	0.052081246
29	0xbe0705aa	-0.13185754
30	0xbe18acf6	-0.1490973
31	0x3c2ce41e	0.010552434
32	0xbc4031bd	-0.0117306085
33	0x3c8f12bc	0.017464988
34	0x3b7638e2	0.0037570526
35	0xbd42a014	-0.047515944
36	0x3d6d7659	0.057974193
37	0x3df5d200	0.12002945
38	0x3dd0377a	0.10166831
39	0xbbb3df04	-0.005489232
40	0xbe09cf90	-0.13458085
41	0x3d3a1e27	0.04543891
42	0x3b7f48f6	0.00389534
43	0x3c22d0e2	0.009937497
44	0x3e00c54a	0.1257526
45	0xbd8495fd	-0.064739205
46	0x3dbba177	0.09161656
47	0xbd0acf5a	-0.033889152
48	0x3daf6f4e	0.085661516
49	0xbd12432c	-0.03570859
50	0x3d17a5e5	0.037023444
51	0xbe0379ac	-0.12839383
52	0xbe0e212f	-0.13879846
53	0xbc911dcb	-0.017714402
54	0x3d168620	0.036749005
55	0x3db46961	0.08809162
56	0xbddb3519	-0.10703487
57	0x3d520200	0.05127144
58	0xbdcc0669	-0.0996216
59	0x3d41c0e9	0.047303114
60	0xbda622ba	-0.08112092
61	0x3e1dfd27	0.15428601
62	0x3d7a77d5	0.061149437
63	0x3e6af346	0.22944364
64	0x3d4e1786	0.050315402
65	0x3dfcbbab	0.12340482
66	0x3d451c0e	0.04812246
67	0x3e88a83d	0.26690856
68	0xbbd0503a	-0.00635722
69	0xbd7ac2dc	-0.06122099
70	0xbe07dfc4	-0.13268954
71	0x3ddbd0f8	0.10733217
72	0x3e173375	0.14765723
73	0x3c239efc	0.009986635
74	0xbd60ec74	-0.054913
75	0xbd0b7778	-0.03404948
76	0xbddc0a7c	-0.10744187
77	0x3ddda206	0.10821919
78	0x3bfd898c	0.007737344
79	0x3b695869	0.0035605675
80	0xbc13b370	-0.009014949
81	0x3de6e48b	0.1127406
82	0x3dc22f1c	0.09481642
83	0xbd3473cd	-0.04405575
84	0xbd52bdfc	-0.051450714
85	0xbdf5dc86	-0.12004952
86	0xbe175040	-0.14776707
87	0xbd242c64	-0.040081397
88	0xbd258d4c	-0.040417954
89	0x3dab764f	0.08372175
90	0x3d8f4919	0.06996364
91	0xbddb6358	-0.10712308
92	0x3db98cf1	0.090600856
93	0x3e5525bd	0.20815177
94	0x3e416a4a	0.18888202
95	0x3e29b78d	0.16573925
96	0x3c9ea9a9	0.01936801
97	0xbdd4166f	-0.10355841
98	0xbda82330	-0.082098365
99	0x3d2af2e7	0.041735556
100	0x3d970106	0.07373242
101	0x3b54d682	0.003247649
102	0xbd233466	-0.039844893
103	0x3d89da9e	0.06731151
104	0xbda4eb3e	-0.080526814
105	0xbde0c527	-0.10975104
106	0xbe01082e	-0.12600777
107	0xbe012b17	-0.12614094
108	0xbd9fa594	-0.077952534
109	0x3c7739c1	0.015089453
110	0x3d804c25	0.062645234
111	0x3d9350e1	0.07193161
112	0x3dbd1558	0.092325866
113	0x3d716331	0.058932487
114	0x3cac694a	0.0210463
115	0x3d37cb73	0.04487176
116	0x3d2bef89	0.041976485
117	0x3e2058a0	0.15658808
118	0xbc862a47	-0.016377581
119	0xbd7ef771	-0.062247697
120	0xbb41997c	-0.0029540947
121	0xbdb5b601	-0.08872605
122	0x3beed284	0.007288279
123	0x3d0120ba	0.03152535
124	0xbe63341a	-0.22187844
125	0xbd91b5a8	-0.07114726
126	0x3d294cd8	0.04133305
127	0xbd89bde1	-0.0672567
128	0xbca43f1c	-0.020049624
129	0xbd63f603	-0.055654537
130	0x3d4daae9	0.05021182
131	0xbdb786e9	-0.08961279
132	0x3dc75bcb	0.09734305
133	0x3d5828fd	0.052773464
134	0x3e6b8684	0.23000532
135	0x3e038777	0.12844644
136	0x3d04ac3b	0.032390814
137	0x3c7bfe5a	0.015380466
138	0x3e1399d7	0.14414154
139	0xbe0b324c	-0.13593405
140	0x3e4d7436	0.20063862
141	0x3d671976	0.056420766
142	0xbcf66264	-0.030076213
143	0x3c7da6ce	0.015481664
144	0x3c9515d3	0.018198883
145	0xbe2ef48e	-0.17085478
146	0x3be5a72b	0.0070084534
147	0xbdb9a89a	-0.09065361
148	0xbd20ccdb	-0.039257865
149	0xbd95a452	-0.07306732
150	0xbc899d5a	-0.016798664
151	0x3d606ffb	0.054794293
152	0x3e4f2ba8	0.20231497
153	0xbda0cedd	-0.07851956
154	0xbd96920a	-0.073520735
155	0x3e25a97b	0.16177933
156	0xbd032303	-0.03201581
157	0xbd805108	-0.062654555
158	0x3e8c1048	0.27356172
159	0x3e6e1ac5	0.232524
160	0x3d7d1e4c	0.06179647
161	0x3d0fbb6f	0.03509086
162	0x3dfa2ff9	0.12216181
163	0x3d1b27bd	0.037879694
164	0x3b96a583	0.0045973673
165	0x3e1451a6	0.14484271
166	0xbe185480	-0.14875984
167	0xbbac408b	-0.0052567176
168	0xbe3cdf1b	-0.18444483
169	0x3de3ebad	0.11128936
170	0xbdb7983d	-0.08964584
171	0xbda7ef74	-0.08199969
172	0xbceffb86	-0.02929474
173	0x3c829ce8	0.01594396
174	0x3d998e18	0.07497805
175	0xbcd03ee8	-0.025420621
176	0xbe1632fc	-0.14667886
177	0xbe405788	-0.1878339
178	0xbe52f015	-0.20599397
179	0xbdf77909	-0.120836325
180	0xbdf71d55	-0.120661415
181	0x3d98e612	0.074657574
182	0xbe4c32bf	-0.19941233
183	0xbe1832e8	-0.14863169
184	0xbd3186d8	-0.043341488
185	0xbdabb4aa	-0.08384068
186	0x3e4fc68f	0.20290588
187	0x3d360c5d	0.044445384
188	0x3d5f9029	0.05458084
189	0x3cfa37cf	0.03054419
190	0x3d12ed31	0.035870735
191	0x3e3b8e4a	0.18315998
192	0xbd0ca4b2	-0.034336753
193	0x3c3b0631	0.01141505
194	0x3d8fb8ec	0.07017693
195	0xbba23abc	-0.0049508493
196	0x3db7e771	0.08979691
197	0x3e218cc7	0.15776359
198	0xbac712fc	-0.0015188153
199	0xbd8fcec5	-0.0702186
200	0xbdc708dc	-0.09718487
201	0x3c0efefb	0.008727784
202	0x3b0797f8	0.0020689946
203	0xbe3ad823	-0.18246512
204	0x3cb0e2a0	0.021592438
205	0xbd1edf6c	-0.03878729
206	0x3e05e632	0.13076094
207	0x3e30e3ae	0.17274353
208	0x3d704a96	0.05866488
209	0xbad3b6f9	-0.0016152553
210	0x3d96be8d	0.073605634
211	0x3dbb5993	0.09147944
212	0x3e7f61ea	0.24939695
213	0x3e3ce1c4	0.18445498
214	0x3e2d8447	0.16944991
215	0x3e1056af	0.14095567
216	0x3cf76718	0.030200526
217	0xbdaa773f	-0.08323526
218	0x3da5db6c	0.08098492
219	0x3dbd76c1	0.09251166
220	0x3c282ab0	0.010264084
221	0x3da6eee1	0.08151031
222	0x3d1d27aa	0.038367905
223	0x3d9d8c99	0.076928325
224	0xbcf89c2d	-0.030347908
225	0xbe34e55e	-0.17665622
226	0xbb3f6ace	-0.0029207948
227	0x3d797f9e	0.06091272
228	0xbc5b8a89	-0.013399729
229	0xbdedd0f4	-0.1161212
230	0xbcc7991b	-0.024364999
231	0x3e35e45f	0.17762898
232	0x3c592ef8	0.013255827
233	0x3dc93dde	0.09826253
234	0xbccf8c13	-0.025335347
235	0xbdff85ee	-0.12476717
236	0x3db72c75	0.089440264
237	0x3e1c6cab	0.15275829
238	0x3e5feed2	0.21868446
239	0xbcdc94ce	-0.026926424
240	0x3e58232d	0.21107168
241	0x3d0ff101	0.03514195
242	0xbd3c01b7	-0.045900073
243	0x3ccb83dc	0.024843149
244	0x3d608970	0.05481857
245	0xbe7c055f	-0.24611424
246	0x3e30c834	0.17263871
247	0x3caf8ff3	0.021430945
248	0x3d87f0cb	0.066377245
249	0xbde9781f	-0.113998644
250	0xbe05131c	-0.12995571
251	0xbe6b7e73	-0.22997455
252	0xbd93a417	-0.07209032
253	0xbd921917	-0.07133692
254	0xbe0db625	-0.13839014
255	0xbe15065d	-0.14553209

fc1.bias f4 [256]
0	0xbbfeafee	-0.0077724373
1	0xbc66d018	-0.014087699
2	0xbc7a779f	-0.015287309
3	0x3d5c4791	0.05377919
4	0xbd287665	-0.041128535
5	0x3db78543	0.089609645
6	0x3cc3ddc6	0.02390946
7	0x3d670492	0.056400843
8	0x3bcfd2f4	0.0063422862
9	0x3d068db7	0.032849994
10	0xbccc3ea1	-0.024932208
11	0xbd14d00e	-0.03633123
12	0x3ccb00ef	0.024780719
13	0x3dce83d5	0.10083739
14	0x3e056c0e	0.13029501
15	0x3d4f4733	0.05060501
16	0xbc818c42	-0.01581395
17	0x3cf02f50	0.029319435
18	0x3d02f9c9	0.031976495
19	0xbd605430	-0.054767787
20	0xbc2ad019	-0.010425591
21	0x3d219477	0.039448228
22	0x3d6c5a5a	0.057703353
23	0x3d885238	0.06656307
24	0x3d9781df	0.07397818
25	0x3dec5178	0.115389764
26	0xbd933239	-0.071873136
27	0xbcaf9c22	-0.021436755
28	0x3d36bea2	0.044615395
29	0xbcf2b2d4	-0.029626288
30	0x3d01ff6f	0.03173774
31	0x39e58a78	0.0004378145
32	0x3d78c4f5	0.060734708
33	0xbd61f0c7	-0.055161264
34	0x3ccc28c2	0.024921779
35	0xbd28d55b	-0.041219097
36	0x3c8cb4a9	0.01717599
37	0xbcd2501e	-0.025672968
38	0xbd290034	-0.04125996
39	0xba9b22e1	-0.0011835956
40	0x3a975cda	0.0011548058
41	0x3cb9e7b5	0.022693494
42	0x3dcf1378	0.10111135
43	0xbca11327	-0.019662453
44	0xbc2b8cab	-0.01047055
45	0x3d34da81	0.044153694
46	0x3d998d46	0.07497649
47	0x3d212566	0.039342307
48	0xbd40a0ad	-0.047028232
49	0xbd0ae717	-0.03391179
50	0x3c1fe24b	0.009758542
51	0x3c953be4	0.018217035
52	0xbd689f9e	-0.056792848
53	0x3c3a4e22	0.011371167
54	0xbd8f3b6d	-0.069937564
55	0xbc1bb866	-0.009504413
56	0xbd3f2ac9	-0.046671662
57	0x3d057980	0.032586575
58	0x3d475ece	0.048674397
59	0xbd5144d0	-0.051091015
60	0x3d95d992	0.07316889
61	0x3d130660	0.03589475
62	0x3dcc6666	0.099804685
63	0xbd573622	-0.05254186
64	0x3cd87512	0.026423011
65	0x3c9eead9	0.019399093
66	0xbc2ed325	-0.010670458
67	0x3d48d64c	0.049032494
68	0xbd6138c8	-0.05498579
69	0x3e1bcd8c	0.15215129
70	0x3d3f6a0c	0.046731994
71	0x3d5a8cc6	0.05335691
72	0x3db40ccd	0.08791504
73	0x3d54fc09	0.051998172
74	0xbc1c3332	-0.00953369
75	0x3cde9427	0.027170254
76	0xbcdb63ab	-0.026780924
77	0x3c3c8ecb	0.011508654
78	0x3c84f3bc	0.016229503
79	0xbd147710	-0.03624636
80	0xbbdb2980	-0.006688297
81	0xbd1859ad	-0.037194896
82	0x3cab4a4b	0.02090945
83	0x3b5ac670	0.0033382438
84	0x3bd5dc15	0.00652648
85	0xbca7af4d	-0.020469332
86	0x3d91d4be	0.071206555
87	0xbd57e0b1	-0.052704517
88	0xbd85a3a3	-0.06525352
89	0xbcd842f7	-0.026399119
90	0xbc5724b6	-0.013131311
91	0x3dd489e4	0.10377863
92	0xbd40f7bf	-0.04711127
93	0x3c8d3048	0.017234936
94	0xbd7c93a2	-0.06166423
95	0x3da520de	0.080629095
96	0xbd3a5cdd	-0.045498718
97	0xbba57d37	-0.005050327
98	0x3cff6d88	0.031180158
99	0xbd0a27df	-0.03372943
100	0xbd2b6e30	-0.04185313
101	0x3db0ef9c	0.08639452
102	0xbdbd486c	-0.09242329
103	0x3dc73f59	0.097288795
104	0x3dd07d29	0.101801224
105	0xbd7e4f77	-0.062087502
106	0xbaadb7a6	-0.0013253584
107	0xbd298396	-0.041385256
108	0xbcc66543	-0.024218207
109	0xbcf760cd	-0.030197525
110	0x3d157273	0.0364861
111	0x3d8a112c	0.067415565
112	0x3d0c8759	0.034308765
113	0xbc451768	-0.012029506
114	0xbd54a16e	-0.051911764
115	0x3d8a9022	0.067657724
116	0x3d1209cd	0.035653878
117	0x3d193150	0.037400544
118	0x3c9c643d	0.019090766
119	0x3cccce4f	0.02500072
120	0x3d8210f7	0.06350892
121	0xbd754d17	-0.05988797
122	0xbcb0894f	-0.021549849
123	0x3c8ac903	0.016941553
124	0x3d5e4e1d	0.054273713
125	0xbd739a42	-0.059473284
126	0xbd172a5e	-0.03690564
127	0xbd637887	-0.055534866
128	0xbd2b0786	-0.04175522
129	0xbd05c4b2	-0.032658286
130	0x3da3a680	0.07990742
131	0x3d4f6f06	0.05064299
132	0xbd75f920	-0.060052037
133	0x3d9ab8d6	0.07554786
134	0x3c87d1fe	0.016579624
135	0xbcba5969	-0.022747712
136	0x3cef7ea1	0.029235186
137	0x3d20f953	0.039300274
138	0xbd4403a4	-0.047855034
139	0xbcf33944	-0.029690392
140	0xbbaa0c43	-0.00518945
141	0xbcd05f78	-0.025436148
142	0xbc5b8470	-0.013398275
143	0x3c52a71f	0.012857228
144	0xbd57fd96	-0.052732073
145	0xbd993f9f	-0.07482838
146	0x3bc60264	0.0060427655
147	0xbd2723f5	-0.040805776
148	0xbd1c952a	-0.03822819
149	0x3d94985b	0.07255622
150	0xbbcf9739	-0.006335166
151	0xbd37491b	-0.044747453
152	0x3d99f886	0.07518105
153	0xbd042a47	-0.03226688
154	0x3d460035	0.04834004
155	0x3d6213c6	0.05519464
156	0xbd065fb6	-0.03280612
157	0xbcd0e50a	-0.02549984
158	0xbd4deef6	-0.05027672
159	0xbd2885d7	-0.041143265
160	0x3bd7acde	0.0065818867
161	0x3d2b7e91	0.04186875
162	0x3bc587ec	0.006028166
163	0x3d3c7564	0.04601039
164	0x3d3dbf48	0.046325
165	0xbd04cdce	-0.032422833
166	0xbcebe8b5	-0.028797487
167	0xbb831de0	-0.004001364
168	0xbb9c9486	-0.0047784476
169	0xbd2f9457	-0.042866077
170	0xbd646a66	-0.055765532
171	0xbd2629d8	-0.04056725
172	0xbd1b71aa	-0.037950195
173	0x3d1d7531	0.03844184
174	0x3c940efb	0.01807355
175	0xbc6e5b36	-0.014548114
176	0x3d12724e	0.03575354
177	0x3b97d242	0.004633219
178	0xbc1c8ffb	-0.009555812
179	0x3ad14b6b	0.0015967911
180	0xbcc90d4a	-0.02454247
181	0x3cdb5071	0.026771756
182	0xbb2d0c86	-0.002640517
183	0xbcd08399	-0.025453376
184	0x3cd14f2a	0.025550444
185	0xbcd4e2ea	-0.025987107
186	0xbb69f070	-0.003569629
187	0xbd969fde	-0.07354711
188	0xbd7d481b	-0.061836343
189	0xbba4c48e	-0.005028314
190	0x3d2eb254	0.042650536
191	0xbc58cc92	-0.013232367
192	0x3d50eb92	0.051005907
193	0x3cd18c02	0.025579456
194	0x3d9407cb	0.07228049
195	0x3ddd025f	0.10791468
196	0xbceee21f	-0.029160557
197	0x3d2bbccc	0.041928098
198	0xbd2c50f9	-0.04206941
199	0xbcc2cd47	-0.023779524
200	0xbd78d5ac	-0.06075065
201	0xbc90d33d	-0.017678851
202	0x3db978ac	0.090562195
203	0x3d3783ac	0.044803306
204	0xbd24664a	-0.040136613
205	0x3d8457b5	0.06462041
206	0xbd4fdc8b	-0.050747436
207	0xbd16d974	-0.036828473
208	0x3ce86017	0.028366132
209	0x3dae54f3	0.085122965
210	0x3c1105d3	0.008851486
211	0x3c7f0424	0.015564952
212	0x3c7652ee	0.01503442
213	0xbd586a6f	-0.052835878
214	0xbd779545	-0.06044509
215	0xbdbf2d80	-0.0933485
216	0x3de35faf	0.111022346
217	0x3c1a4f6a	0.009418348
218	0x3d801ff2	0.06256093
219	0x3d726484	0.05917789
220	0xbd9c16af	-0.07621514
221	0x3cd5eed3	0.026114857
222	0xbcdd9ace	-0.027051356
223	0x3c608b49	0.013705083
224	0xbd84f0f5	-0.064912714
225	0xbc75b512	-0.014996784
226	0xbd6f7a90	-0.058466494
227	0x3dd259f5	0.10271064
228	0x3d240e8e	0.040052943
229	0x3d25e722	0.04050363
230	0x3ac7759a	0.0015217543
231	0xbd10fddc	-0.03539835
232	0xbd2b894d	-0.041878987
233	0x3c043eba	0.008071596
234	0xbcd65f11	-0.026168378
235	0x3d56c4b1	0.052433673
236	0x3bbdde4b	0.0057943217
237	0x3d449435	0.047992904
238	0x3cd00486	0.025392782
239	0x3d073dc6	0.033017896
240	0x3c79aa69	0.015238383
241	0xbaccc273	-0.0015621915
242	0xbd3eca37	-0.046579566
243	0x3c152b84	0.009104613
244	0x3b9da131	0.0048104753
245	0xbd1a04b0	-0.037602127
246	0x3ce92cf1	0.028463813
247	0xbd3b9ff9	-0.04580686
248	0xbd8c6203	-0.06854632
249	0x3c469c64	0.012122247
250	0xbcb3a807	-0.021930708
251	0x3d1833e4	0.03715886
252	0xbd090a6e	-0.033457212
253	0x3e510e58	0.20415628
254	0xbc4afa38	-0.012388758
255	0x3d5d33b5	0.05400439

ln1.weight f4 [256]
0	0x3f731b90	0.9496393
1	0x3f8b9127	1.0903672
2	0x3f785892	0.9701015
3	0x3f8362d5	1.0264536
4	0x3f78899d	0.9708498
5	0x3f8da3f8	1.1065664
6	0x3f9787b9	1.1838294
7	0x3f867156	1.0503337
8	0x3f99108b	1.1958174
9	0x3f86be97	1.0526913
10	0x3f86e728	1.0539293
11	0x3f7aff43	0.9804575
12	0x3f8002ad	1.0000817
13	0x3f968803	1.1760257
14	0x3f9d1fd4	1.2275338
15	0x3f84aa0b	1.0364393
16	0x3f8266b4	1.0187593
17	0x3f8afd81	1.0858613
18	0x3f8b9cb6	1.0907199
19	0x3f7827f8	0.9693599
20	0x3f86859b	1.0509523
21	0x3f92649d	1.1436955
22	0x3f90313a	1.1265023
23	0x3f8a67a2	1.0812876
24	0x3f8bc02f	1.0918025
25	0x3fa3f8e3	1.2810329
26	0x3f77d7e8	0.9681382
27	0x3f7646af	0.96201605
28	0x3f959592	1.168627
29	0x3f96a2e7	1.1768464
30	0x3f7e40ff	0.99317926
31	0x3f7f0739	0.99620396
32	0x3f864d86	1.0492408
33	0x3f84fac2	1.0389025
34	0x3f847114	1.0347009
35	0x3f851a25	1.0398604
36	0x3f7bcac8	0.98356295
37	0x3f8e7e62	1.1132319
38	0x3f84941e	1.0357702
39	0x3f864937	1.0491093
40	0x3f6dc295	0.92875034
41	0x3f7dde9d	0.99167806
42	0x3fa61846	1.2976158
43	0x3f81a49e	1.0128362
44	0x3f7541b3	0.95803374
45	0x3f8e8356	1.113383
46	0x3f85b220	1.0444984
47	0x3f7e67b6	0.99377
48	0x3f7f524c	0.9973495
49	0x3f75c0bb	0.9599721
50	0x3f8bcfc8	1.0922785
51	0x3f832b00	1.0247498
52	0x3f813e46	1.0097129
53	0x3f705fa2	0.93895924
54	0x3f722330	0.9458494
55	0x3f81feab	1.0155843
56	0x3fa8d498	1.3189878
57	0x3f81ca74	1.0139909
58	0x3f8e1a85	1.1101843
59	0x3f783d8f	0.9696893
60	0x3f87382d	1.0564018
61	0x3faccaca	1.3499386
62	0x3f8c502d	1.0961968
63	0x3f845642	1.0338824
64	0x3f9017e8	1.1257296
65	0x3f8171ec	1.0112891
66	0x3f70a449	0.9400068
67	0x3f8354b2	1.0260222
68	0x3f75b8b2	0.9598495
69	0x3f9912c4	1.1958852
70	0x3f7afbcf	0.9804048
71	0x3f85aea7	1.0443925
72	0x3f8e3d21	1.1112405
73	0x3f830b51	1.0237828
74	0x3f752ea7	0.9577431
75	0x3f8c461f	1.0958899
76	0x3f759e76	0.9594492
77	0x3f996181	1.1982881
78	0x3f80f1ae	1.0073755
79	0x3f802eae	1.0014246
80	0x3f7bb8f7	0.9832911
81	0x3f8da0c2	1.1064684
82	0x3f89150e	1.070955
83	0x3f8c0edb	1.0942034
84	0x3f7b14d2	0.98078644
85	0x3f6bdcf2	0.9213401
86	0x3f8caa62	1.0989497
87	0x3f79837b	0.9746625
88	0x3f80f55d	1.0074879
89	0x3f6ba893	0.920541
90	0x3f7e4e55	0.99338275
91	0x3f8e6e65	1.112744
92	0x3f7b41b5	0.98147136
93	0x3f891911	1.0710775
94	0x3f7b6dfa	0.98214686
95	0x3f8fe8fe	1.1242979
96	0x3f7f56d3	0.9974186
97	0x3f820355	1.0157267
98	0x3fa6d509	1.3033763
99	0x3f7e047b	0.99225587
100	0x3f8152dd	1.0103413
101	0x3f94c141	1.1621476
102	0x3f83f2e5	1.03085
103	0x3f8f833c	1.1211925
104	0x3f9184b5	1.1368624
105	0x3f6bc136	0.9209169
106	0x3f809dcb	1.0048155
107	0x3f945bdb	1.1590532
108	0x3f73e841	0.95276266
109	0x3f7f4478	0.9971385
110	0x3f8d767d	1.1051785
111	0x3f9ef8a8	1.2419634
112	0x3f77a2ba	0.96732676
113	0x3f8262cd	1.0186402
114	0x3f810c4a	1.0081875
115	0x3f8a18b9	1.0788795
116	0x3f8f01aa	1.1172383
117	0x3f818b8b	1.012071
118	0x3f8ad84f	1.0847262
119	0x3f87fda6	1.0624282
120	0x3f92f15b	1.1479906
121	0x3f803560	1.0016289
122	0x3f81c62f	1.0138606
123	0x3f7ba2af	0.9829511
124	0x3f85a5a1	1.0441171
125	0x3f7e6236	0.9936861
126	0x3fa40a8d	1.281572
127	0x3f87e938	1.0618048
128	0x3f821350	1.0162144
129	0x3f7d2731	0.98887926
130	0x3f8f1b56	1.1180217
131	0x3f8802a1	1.0625802
132	0x3f813b16	1.0096157
133	0x3f980d79	1.1879112
134	0x3f8071c6	1.0034721
135	0x3f6f705e	0.93530834
136	0x3f869263	1.0513424
137	0x3f8330c1	1.0249254
138	0x3f8028b4	1.0012422
139	0x3f8f9fb7	1.1220616
140	0x3f705f1f	0.93895143
141	0x3f98dd88	1.1942606
142	0x3f7bcd41	0.9836007
143	0x3f87f747	1.0622338
144	0x3f7445a8	0.95418787
145	0x3f9e5ac3	1.2371448
146	0x3f79c364	0.9756377
147	0x3f72da8e	0.9486474
148	0x3f80e367	1.0069398
149	0x3f85ec85	1.0462805
150	0x3f94c7d6	1.1623485
151	0x3f74393a	0.9539982
152	0x3f857f34	1.0429444
153	0x3f624dae	0.8839978
154	0x3f8d8490	1.105608
155	0x3f772e4a	0.96555007
156	0x3f7d19e8	0.98867655
157	0x3f81a5f9	1.0128776
158	0x3f813a7e	1.0095975
159	0x3f86095c	1.0471606
160	0x3fa03b56	1.2518108
161	0x3f8355fe	1.0260618
162	0x3f75a516	0.95955026
163	0x3f94874e	1.1603792
164	0x3f7ff05d	0.9997614
165	0x3f7c40c6	0.98536336
166	0x3f832319	1.0245086
167	0x3f9400b3	1.1562713
168	0x3f7778d9	0.96668774
169	0x3f850687	1.0392617
170	0x3f80f94a	1.0076077
171	0x3f7d597e	0.9896468
172	0x3f80bde2	1.0057948
173	0x3f7ef285	0.99588805
174	0x3f8317b3	1.0241607
175	0x3faaf968	1.3357363
176	0x3f6ea640	0.9322243
177	0x3f9b1a3a	1.2117379
178	0x3f7b9729	0.9827753
179	0x3f7be47c	0.98395514
180	0x3f7b4875	0.98157436
181	0x3f8237a5	1.0173231
182	0x3f7e6537	0.9937319
183	0x3f92d59c	1.1471438
184	0x3f832de5	1.0248381
185	0x3f81a49f	1.0128363
186	0x3f84744e	1.0347993
187	0x3fa83042	1.3139727
188	0x3f8c5c31	1.0965635
189	0x3f85081c	1.03931
190	0x3f945cf0	1.1590862
191	0x3f7b7d6a	0.9823824
192	0x3f84de72	1.0380385
193	0x3f944372	1.1583083
194	0x3fa41347	1.2818383
195	0x3f909773	1.1296219
196	0x3f7a8f00	0.9787445
197	0x3f9c83ec	1.2227759
198	0x3f7e5310	0.99345493
199	0x3f7be60d	0.98397905
200	0x3f862d50	1.0482578
201	0x3f778217	0.96682876
202	0x3f8bbb95	1.091662
203	0x3f73ef7b	0.95287293
204	0x3f7e4c5c	0.99335265
205	0x3f8f87f9	1.121337
206	0x3f956b47	1.1673363
207	0x3f7dd272	0.9914924
208	0x3f961978	1.1726522
209	0x3fa5fb44	1.2967305
210	0x3f8209c8	1.0159235
211	0x3f9308f9	1.1487113
212	0x3f7cd454	0.98761487
213	0x3f74548a	0.95441496
214	0x3f719d7f	0.94380945
215	0x3f7429e3	0.95376414
216	0x3f90e162	1.1318781
217	0x3f8d191d	1.1023289
218	0x3f85112a	1.0395863
219	0x3f844b69	1.0335513
220	0x3f94ca85	1.1624304
221	0x3f8c5314	1.0962853
222	0x3fa03459	1.2515975
223	0x3f78e022	0.97217
224	0x3f8b287a	1.0871727
225	0x3f921df7	1.1415395
226	0x3f723eff	0.94627374
227	0x3f9d03e1	1.2266809
228	0x3f7b3569	0.9812837
229	0x3f820d63	1.0160335
230	0x3f7f2776	0.9966959
231	0x3f80eefb	1.0072931
232	0x3fb157c4	1.3854909
233	0x3f7f42f1	0.9971152
234	0x3f7e0a07	0.9923405
235	0x3f7db454	0.99103284
236	0x3f87e8d5	1.061793
237	0x3fbb5faa	1.4638569
238	0x3f77d669	0.9681154
239	0x3fb642c2	1.4239123
240	0x3f868bd8	1.0511427
241	0x3f905a64	1.1277585
242	0x3f78e397	0.97222275
243	0x3f77e4aa	0.9683329
244	0x3f7b614c	0.9819534
245	0x3f7bf2e2	0.98417485
246	0x3f86c113	1.0527672
247	0x3f7a7732	0.9783813
248	0x3f7884b7	0.97077507
249	0x3f9e498a	1.2366192
250	0x3f958711	1.1681844
251	0x3f7581c7	0.9590115
252	0x3f7f2c35	0.9967683
253	0x3fa6dbb1	1.3035794
254	0x3f7f310a	0.996842
255	0x3f99c3fb	1.2012933

ln1.bias f4 [256]
0	0xbd3b6519	-0.04575071
1	0x3cd3ae00	0.025839806
2	0xbd093227	-0.033495095
3	0xbb41acd8	-0.0029552486
4	0xbcc5a750	-0.024127632
5	0x3d43b863	0.047783267
6	0xbc6ad163	-0.014332148
7	0x3bee4140	0.007270962
8	0x3d67d1c3	0.05659653
9	0xbd4d443c	-0.0501139
10	0xbd238283	-0.039919388
11	0xbc4197ed	-0.011816007
12	0xbbff681a	-0.0077943923
13	0x3d5eff03	0.054442417
14	0x3dc2ab97	0.095053844
15	0x3cb605c1	0.02221954
16	0xbb044c3e	-0.0020187045
17	0x3bdba1a3	0.006702618
18	0x3d8df0a8	0.06930667
19	0xbd21ae06	-0.039472602
20	0x3c46505a	0.012104118
21	0xbbb11ceb	-0.0054050586
22	0x3da90a02	0.08253862
23	0x3cd00b91	0.02539614
24	0x3d5f780c	0.054557845
25	0x3e3e914d	0.18610115
26	0xbcfc59d2	-0.030804548
27	0xbd3b519e	-0.045732133
28	0x3dd7a70e	0.1052991
29	0x3b8e6d93	0.0043465584
30	0x3bcf962c	0.0063350406
31	0xbb86f3e5	-0.00411843
32	0x3ca80491	0.02050999
33	0xbc742cd2	-0.014903264
34	0x3ca6ad63	0.02034635
35	0x3ba6a148	0.005085144
36	0xbd0e069c	-0.034674272
37	0x3c57eabb	0.013178523
38	0xbca10f9d	-0.019660765
39	0xbc219312	-0.009861724
40	0xbd942f60	-0.072355986
41	0xbbe1fc29	-0.006896515
42	0x3e73fc06	0.23826608
43	0xbc3e9e57	-0.011634431
44	0xbd53c48a	-0.051701106
45	0x3d4d1573	0.050069284
46	0x3ba48077	0.005020197
47	0xbcef3429	-0.029199677
48	0xbc0a989d	-0.008459237
49	0xbd896015	-0.06707779
50	0x3d808743	0.06275799
51	0xbd1a4824	-0.037666455
52	0x3c1d35c5	0.009595339
53	0xbd708def	-0.05872911
54	0xbd801cbf	-0.06255483
55	0x3cf3b47d	0.02974915
56	0x3c045f5b	0.008079375
57	0xbc4ce4fb	-0.012505765
58	0x3d9ddc09	0.07707984
59	0xbd132dd1	-0.035932366
60	0x3d94b5cf	0.0726124
61	0x3cc660a0	0.024215996
62	0x3c8dadac	0.017294727
63	0xbacdd9d0	-0.0015705172
64	0x3cd2b4dd	0.025721008
65	0xbc31f490	-0.010861531
66	0xbd864571	-0.06556214
67	0xbc8c795b	-0.01714771
68	0xbd100e02	-0.03516961
69	0x3df91ea8	0.1216405
70	0xbddefd39	-0.10888142
71	0x3cc4b77e	0.024013277
72	0x3d0e8038	0.034790248
73	0xbbca0444	-0.0061650593
74	0xbd1dc3da	-0.038516857
75	0xbc6045b1	-0.013688491
76	0xbd012dd4	-0.031537846
77	0x3dbbef8f	0.091765516
78	0xbca4ca68	-0.020116046
79	0xbd039c42	-0.03213144
80	0xbd6b2e3a	-0.057417132
81	0xbc73d177	-0.014881483
82	0x3ccd98ac	0.025097214
83	0xbc7fc5bf	-0.015611111
84	0xbd706989	-0.058694396
85	0xbdb74181	-0.08948041
86	0x3d0dcb9d	0.03461801
87	0xbd18fc49	-0.037349973
88	0xbd4ac3f4	-0.04950328
89	0xbda81ad9	-0.08208246
90	0xbd28389c	-0.041069612
91	0x3db292fe	0.08719443
92	0xbd03b828	-0.032158047
93	0x3d099551	0.033589665
94	0xbd0a23c4	-0.033725515
95	0x3db874a6	0.09006624
96	0xbd4c5e76	-0.049894772
97	0xbc698ab8	-0.0142542645
98	0x3dfefe85	0.124508895
99	0xbc63bf38	-0.013900571
100	0xbc9af26a	-0.01891442
101	0x3ded4ab6	0.115865156
102	0xbcff118c	-0.031136297
103	0x3dee9aa3	0.11650588
104	0x3de05f28	0.109556496
105	0xbd73ab63	-0.05948962
106	0x3bd4958b	0.0064875535
107	0xbc8ce733	-0.017200088
108	0xbd3fdd1c	-0.046841726
109	0xbcbe67fa	-0.02324294
110	0xbc8c078b	-0.01709344
111	0xbc3acde8	-0.011401631
112	0xbd30dfd0	-0.043182194
113	0xbd4ed58a	-0.050496615
114	0x3aef0c75	0.0018237965
115	0x3d0a97ed	0.033836294
116	0xbc96dcaa	-0.018415768
117	0x3c2edf56	0.010673365
118	0xbcf2a795	-0.029620925
119	0x3d8860a4	0.06659058
120	0x3d004831	0.031318847
121	0xbd79ba05	-0.060968418
122	0xbc0cbebb	-0.008590396
123	0xbd3530e8	-0.044236094
124	0x38d73639	0.00010262099
125	0xbd410e60	-0.04713285
126	0x3bf0b6b8	0.0073460005
127	0xbc6c158f	-0.014409437
128	0x3c7a4661	0.015275569
129	0xbd07fe58	-0.033201545
130	0x3c006d56	0.007838568
131	0x3c9dd573	0.01926682
132	0xbcd2b8f4	-0.025722958
133	0x3d135673	0.035971116
134	0xbcd02021	-0.025405945
135	0xbcf8c3ec	-0.03036686
136	0xbd2c51ab	-0.042070072
137	0x3c84dc3a	0.016218293
138	0xbc42d811	-0.011892335
139	0x3cbdec66	0.023184013
140	0xbd4b16be	-0.049582236
141	0x3d3e999f	0.046533223
142	0xbc1d2fea	-0.009593943
143	0xbc8b585a	-0.017009903
144	0xbd399107	-0.045304324
145	0xbd0b8188	-0.034059078
146	0xbcc3b811	-0.02389148
147	0xbd9f5dde	-0.077815756
148	0x3bd67147	0.0065442654
149	0x3bf5c3cc	0.0075001474
150	0xbbe97735	-0.0071248063
151	0xbdaf15eb	-0.085491024
152	0x3b85c9a3	0.004082875
153	0xbddf7576	-0.10911076
154	0x3d9926d4	0.07478109
155	0xbccb1631	-0.024790855
156	0xbc4ecf57	-0.012622676
157	0xbc3b65df	-0.011437862
158	0xbc91625a	-0.017747093
159	0xbcb220c0	-0.021744132
160	0x3da1bb64	0.0789707
161	0xbc35786a	-0.011076072
162	0xbd19872b	-0.03748242
163	0xbc1cb4df	-0.009564607
164	0xbbb5c735	-0.005547429
165	0xbc9966d7	-0.018725796
166	0xbb836dc7	-0.004010889
167	0xbc90bfcc	-0.01766958
168	0xbd2601f7	-0.040529218
169	0xbc36f919	-0.011167788
170	0xbcd1680d	-0.02556231
171	0xbcd30c93	-0.025762832
172	0xbb1eb879	-0.002421884
173	0xbcbc9593	-0.023020541
174	0xbd347c9b	-0.044064146
175	0xbb11d2d8	-0.0022250917
176	0xbe04dc90	-0.12974763
177	0x3bbb0b30	0.0057081208
178	0xbc41604d	-0.011802745
179	0xbba86e28	-0.005140085
180	0xbd42ea4b	-0.04758672
181	0xbd049833	-0.03237171
182	0xbce63c6f	-0.028104989
183	0x3d12335a	0.035693504
184	0x3b022e92	0.0019864184
185	0xbceae23f	-0.028672336
186	0x3c1c1bec	0.0095281415
187	0xbc8c512b	-0.017128548
188	0x3af26432	0.0018492995
189	0x3c9b9981	0.018994095
190	0xbb2c8885	-0.002632649
191	0xbc4b7774	-0.012418617
192	0x3bdc3e46	0.0067212908
193	0x3ccbb7b3	0.024867868
194	0x3d883a63	0.066517614
195	0x3cc3c9c6	0.023899924
196	0xbc99da8d	-0.018780971
197	0x3e2dd884	0.16977125
198	0x3bd88b59	0.0066084084
199	0xbcb8dfaa	-0.022567589
200	0xbcef64e5	-0.029222915
201	0xbd1bc2c6	-0.038027547
202	0x3d38301d	0.04496776
203	0xbd2f4fe4	-0.0428008
204	0xbcb89def	-0.022536246
205	0x3cbf96db	0.023387363
206	0xbc0ea74b	-0.008706878
207	0xbc4beeb8	-0.012447052
208	0x3d819f1f	0.06329178
209	0x3cd6a40a	0.026201267
210	0x3be647ca	0.007027601
211	0xbd47ce84	-0.048780933
212	0xbc0f552f	-0.008748337
213	0xbd266b15	-0.040629465
214	0xbd741ef6	-0.05959984
215	0xbd9b9cb6	-0.075982496
216	0x3dc0d696	0.09415929
217	0xbd151eeb	-0.03640644
218	0x3bf334b8	0.007422056
219	0x3c69fc4d	0.014281345
220	0xbadb7e12	-0.0016745946
221	0x3d4f47c9	0.05060557
222	0xbc344624	-0.011003051
223	0xbd362253	-0.044466328
224	0xbb8b061e	-0.0042426726
225	0xbc565282	-0.013081195
226	0xbd68dac2	-0.05684925
227	0x3e074aed	0.13212176
228	0xbc972349	-0.018449442
229	0x3b13a0f2	0.002252635
230	0xbcdda541	-0.027056338
231	0xbc5e75a0	-0.013577849
232	0xbbfa0fa9	-0.0076312614
233	0xbd0914c1	-0.033467058
234	0xbc46a49c	-0.012124207
235	0xbc7ddca3	-0.015494498
236	0xbae38a64	-0.0017359969
237	0xbaddccaf	-0.0016921962
238	0xbced6775	-0.028979996
239	0x3d60f5c6	0.054921888
240	0x3bae4350	0.005318083
241	0xbd3261b7	-0.04355022
242	0xbd669cae	-0.056301765
243	0xbe17bd04	-0.14818197
244	0xbc534314	-0.012894411
245	0xbcbd7d9f	-0.02313119
246	0x3d374b44	0.044749513
247	0xbd15e855	-0.036598522
248	0xbcb7b407	-0.02242471
249	0x3bec9ba1	0.007220701
250	0xbc93aa13	-0.018025434
251	0xbcf1b453	-0.02950493
252	0xbd024714	-0.031806067
253	0x3e5b881f	0.21438645
254	0xbbb5a4e5	-0.0055433386
255	0x3d03f612	0.032217093

fc2.weight f4 [128, 256]
0	0xbda75d08	-0.08172041
1	0xbd5da9b1	-0.05411691
2	0xbaaf874f	-0.0013391766
3	0xbc33f778	-0.010984294
4	0xbd89598b	-0.06706532
5	0x3d03d9d1	0.032190148
6	0xbd162f9e	-0.036666505
7	0x3e13767c	0.14400667
8	0x3cb6851c	0.022280268
9	0x3d824ae6	0.06361942
10	0xbd026148	-0.031831056
11	0xbc80ba24	-0.015713759
12	0x3bc743bd	0.006081073
13	0xbd7e6d31	-0.06211585
14	0x3d5f5b80	0.05453062
15	0x3daa9c75	0.08330623
16	0x3dfb959d	0.12284396
17	0x3db6ee7b	0.08932205
18	0xbd84c942	-0.064836994
19	0x3ca07a2e	0.01958951
20	0x3c966449	0.018358367
21	0xbe1296c0	-0.14315319
22	0xbd5a2274	-0.053255513
23	0x3d206d4c	0.039166734
24	0x3e080a19	0.13285102
25	0xbe94975a	-0.29021722
26	0x3d0f71c1	0.035020594
27	0x3d42540f	0.047443446
28	0x3d2932b2	0.041308112
29	0xbd935f7d	-0.07195947
30	0xbd68420c	-0.056703612
31	0x3d9a783b	0.075424634
32	0xbd946c3e	-0.07247208
33	0xbd75cf26	-0.060012005
34	0xbd4a7360	-0.049426436
35	0xbe1abf5c	-0.1511206
36	0x3c88f917	0.016720338
37	0xbd476fec	-0.04869072
38	0xbca4c694	-0.02011422
39	0x3e10f39f	0.14155434
40	0xbc97d065	-0.018531987
41	0xbd44c963	-0.04804362
42	0xbdf8ce2a	-0.12148698
43	0xbc5c091b	-0.013429905
44	0x3e035877	0.12826715
45	0x3d2addb3	0.041715335
46	0x3df6f77b	0.12058922
47	0xbcb07f41	-0.021545054
48	0xbbb2f1b8	-0.005460944
49	0x3be4dd4e	0.0069843894
50	0x3c972176	0.018448573
51	0xbde404c0	-0.111337185
52	0x3df09df6	0.11748879
53	0xbd0e73f3	-0.034778547
54	0xbd0e28f6	-0.034707032
55	0x3dfc87c7	0.12330585
56	0xbea45380	-0.32094955
57	0x3e02a9f9	0.12760152
58	0x3dced0a2	0.10098387
59	0xbd573392	-0.052539416
60	0xb9e521b2	-0.0004370339
61	0x3d0c1f98	0.034209818
62	0x3ca23c4e	0.019804146
63	0x3cfda173	0.030960774
64	0x3c4c192b	0.012457172
65	0x3cde0163	0.02710027
66	0x3c338335	0.010956575
67	0x3d1eeba0	0.03879893
68	0xbde1e60d	-0.11030207
69	0x3e30dc6e	0.17271587
70	0xbc82e1f4	-0.015976883
71	0xbc85a526	-0.0163141
72	0x3e2eb0a7	0.17059575
73	0x3d856bbe	0.06514691
74	0x3e2f1a87	0.17099963
75	0x3e0ad058	0.1355604
76	0xbb3dcf48	-0.002896266
77	0xbdcc10da	-0.09964152
78	0x3e0d0ea1	0.13775112
79	0xbd8d98db	-0.069139205
80	0x3de49203	0.11160662
81	0x3d387bd7	0.045039978
82	0x3dc5488b	0.09632977
83	0xbdceae66	-0.100918576
84	0xbc2de30f	-0.010613217
85	0x3cbada85	0.022809276
86	0x3d3a78c5	0.04552533
87	0x3c9c28fe	0.019062515
88	0x3d62f828	0.05541244
89	0x3db8bd12	0.09020437
90	0x3e35bad1	0.17747046
91	0x3d8ecac3	0.069722675
92	0x3d8ec84a	0.06971796
93	0x3c8ff67d	0.01757359
94	0xbaf82785	-0.0018932676
95	0x3d05a31b	0.032626253
96	0xbdc5f630	-0.09666097
97	0x3da91507	0.08255964
98	0x3de1edb0	0.110316634
99	0x3dd709aa	0.1049989
100	0x3d917416	0.0710222
101	0x3e8c4770	0.27398252
102	0xbe638007	-0.22216807
103	0xbdb52f74	-0.088469416
104	0x3d73b480	0.05949831
105	0x3c5a56d2	0.013326364
106	0x3da832f8	0.082128465
107	0xbe3d2306	-0.18470392
108	0xbd3e1d51	-0.046414677
109	0x3d6cb371	0.057788316
110	0x3be21ce3	0.006900416
111	0x3d4ac6d0	0.04950601
112	0x3dc7893e	0.09742974
113	0xbc1a24fc	-0.009408232
114	0xbdd58e48	-0.104275286
115	0x3de8bd62	0.11364247
116	0x3d4246a4	0.04743065
117	0x3dd15238	0.1022076
118	0xbdc7f2d0	-0.0976311
119	0x3e69d71d	0.22835965
120	0x3d031451	0.032001797
121	0xbbf0a171	-0.007343464
122	0xbe084d58	-0.13310754
123	0x3c371c97	0.01117625
124	0xbd79395a	-0.06084571
125	0x3e26b607	0.16280375
126	0xbdc30b1f	-0.095236056
127	0xbdf357cd	-0.11881981
128	0xbd08fd3c	-0.033444628
129	0x3cadb9a3	0.021206683
130	0xbd0dedc6	-0.034650587
131	0x3e33e21d	0.17566724
132	0x3d76c4e9	0.060246382
133	0x3e6f270b	0.23354737
134	0x3ca20af9	0.019780623
135	0xbda61619	-0.081096835
136	0x3e413e31	0.1887138
137	0xbcf336ae	-0.02968916
138	0x3cc157a2	0.023601357
139	0x3cf9c650	0.03049007
140	0x3dc1d309	0.0946408
141	0xbea2922c	-0.31752145
142	0x3c71c61a	0.014756704
143	0x3d92b13c	0.07162711
144	0xbd0b42df	-0.03399932
145	0xbc5f3b03	-0.013624909
146	0x3d96a154	0.0735499
147	0x3c6a9fa6	0.01432029
148	0x3da1df9f	0.079039805
149	0xbcaebbef	-0.021329848
150	0x3e477501	0.19478227
151	0xbb2e354c	-0.002658206
152	0xbc83401f	-0.016021786
153	0xbcfc13e5	-0.030771205
154	0x3cdba7e0	0.026813447
155	0x3cf1adc6	0.029501807
156	0xbc6993ea	-0.014256457
157	0x3d9a8066	0.07544021
158	0xbdd032be	-0.10165928
159	0x3dc96772	0.09834184
160	0x3e3f8cbf	0.18706034
161	0x3d7b3d64	0.061337844
162	0x3df5e92a	0.12007363
163	0x3e31cd3b	0.17363445
164	0x3d00d377	0.03145167
165	0xbcd5b537	-0.026087387
166	0xbdedcbb2	-0.116111174
167	0xbe718476	-0.23585686
168	0xbc07140c	-0.008244526
169	0x3cb58616	0.022158664
170	0x3d873fd2	0.0660397
171	0x3d5f7764	0.05455722
172	0x3dc73d0e	0.09728442
173	0x3d9b2227	0.075748734
174	0x3e0be859	0.13662852
175	0xbe24e499	-0.16102828
176	0x3dd41655	0.10355822
177	0xbdbfdf4b	-0.09368762
178	0x3d7c487e	0.06159257
179	0xbcc0e8d0	-0.023548514
180	0x3d331188	0.04371789
181	0x3d27847e	0.04089784
182	0xbd29c363	-0.0414461
183	0xbe0270e1	-0.12738372
184	0x3dfb67d5	0.12275664
185	0x3c361fbf	0.011115967
186	0x3d947a9c	0.072499484
187	0xbce42103	-0.027847772
188	0x3d56b3c2	0.052417524
189	0x3cec4de1	0.02884573
190	0x3db66513	0.08905997
191	0x3d8a886b	0.06764301
192	0x3e6fb462	0.23408654
193	0x3e7c42d0	0.24634862
194	0x3dc4dade	0.09612058
195	0x3dba6a66	0.09102325
196	0x3e2290c6	0.15875539
197	0x3ed1fdc9	0.41013935
198	0xbc8ee505	-0.01744319
199	0x3e2e106a	0.16998449
200	0xbb08a8af	-0.0020852496
201	0x3d58f9c2	0.052972563
202	0xbd3865bf	-0.045018908
203	0x3c3ad3d1	0.01140304
204	0xbccad2f8	-0.0247588
205	0x3e47bfc6	0.1950675
206	0x392bdc92	0.0001639
207	0x3da7c354	0.08191553
208	0x3dd2edbe	0.10299252
209	0x3dfbaa9d	0.12288401
210	0xbd2fbee0	-0.042906642
211	0x3d7c82f9	0.061648343
212	0x3c7187d6	0.0147418585
213	0x3c79bb9d	0.015242484
214	0x3dd9a916	0.10627954
215	0xbd5ab0b1	-0.053391162
216	0x3e3f258f	0.18666671
217	0xbbd1b428	-0.00639965
218	0xbb3d253d	-0.0028861307
219	0x3dabd541	0.08390284
220	0xbe4b43d2	-0.1985009
221	0x3e2e4d18	0.17021596
222	0xbd7191ed	-0.058977056
223	0x3cad6d19	0.021170186
224	0x3c6618af	0.014043971
225	0x3d6e1fc4	0.058135763
226	0xbb8a368f	-0.0042179297
227	0x3c894c1f	0.01675993
228	0x3e402062	0.18762353
229	0xbce75327	-0.028237892
230	0xbd1bc132	-0.038026042
231	0x3d1ef093	0.03880365
232	0x3ebb7d96	0.36619252
233	0x3da81b80	0.0820837
234	0x3c9b6ef1	0.0189738
235	0x3e17a3f3	0.14808635
236	0xbbf4e9d8	-0.0074741654
237	0xbdd8b8f0	-0.10582149
238	0x3dc66f49	0.09689195
239	0x3e072920	0.13199282
240	0xbbc14719	-0.005898368
241	0xbd45d280	-0.04829645
242	0xbd36a472	-0.04459042
243	0xbd540d37	-0.051770415
244	0x3dfe0683	0.12403586
245	0xbd09c47c	-0.033634648
246	0x3dcae01f	0.09906029
247	0x39f8c699	0.00047450213
248	0x3d03b238	0.032152385
249	0xbcd5cad7	-0.026097698
250	0xbe3548ca	-0.17703548
251	0x3d6881c0	0.056764364
252	0xbd065360	-0.032794356
253	0x3da472aa	0.08029683
254	0x3c67ed47	0.014155692
255	0x3e29be7f	0.16576575

fc2.bias f4 [128]
0	0x3d193005	0.03739931
1	0xbc69c686	-0.014268523
2	0xbd799f7c	-0.06094311
3	0x3bf265aa	0.007397373
4	0xbb103358	-0.002200326
5	0xbc5aea95	-0.013361593
6	0x3b34fbb0	0.0027615838
7	0x3cbe8c4f	0.023260264
8	0xbbed1c0c	-0.0072360095
9	0xbcb11a97	-0.021619124
10	0xbbb391d0	-0.0054800287
11	0xbc04adce	-0.008098079
12	0x3b765d86	0.0037592365
13	0xbbe8d56e	-0.007105521
14	0x3bb52952	0.0055286074
15	0xbc18aef0	-0.009319052
16	0x3af52713	0.0018703662
17	0x3d15f357	0.03660902
18	0x3dd1f5cb	0.102519594
19	0x3c73022d	0.014832062
20	0x3b55e715	0.0032638956
21	0x3ca11301	0.019662382
22	0xbb9958e8	-0.004679788
23	0xbd3f6b0a	-0.04673294
24	0x3b867a46	0.0041039316
25	0x3d6c3137	0.057664122
26	0x3c485b14	0.012228746
27	0x3d206959	0.039162967
28	0xbb545378	-0.0032398384
29	0x3b043556	0.0020173392
30	0xb7b65155	-2.1733964e-05
31	0xbb94b808	-0.00453854
32	0xbc08c7a8	-0.008348383
33	0xbba74730	-0.0051049218
34	0x3c26ad4b	0.010173152
35	0xbc80ce68	-0.015723422
36	0xbbc4ae7e	-0.0060022464
37	0x3c697919	0.014250063
38	0x3c9e63ee	0.01933476
39	0x3c025d89	0.007956871
40	0xbc6dfe3b	-0.014525945
41	0x3cf86f34	0.030326463
42	0x3c2aa425	0.010415112
43	0xbc0b9c35	-0.008521129
44	0xbca3d69e	-0.019999798
45	0xbb588668	-0.0033039097
46	0x3d659ac8	0.056055814
47	0x3afdc3ad	0.0019360684
48	0x3cd1b5c4	0.025599368
49	0xbc496ce9	-0.012294033
50	0x3993a5c7	0.0002816154
51	0x3cd114a9	0.025522547
52	0x3a2bc098	0.0006551831
53	0xb8e8d6d8	-0.0001110264
54	0xbb394d7d	-0.0028274946
55	0x3c579f10	0.013160482
56	0x3d4fd0b4	0.050736144
57	0xbc1449a7	-0.009050763
58	0x3caa7daa	0.020811874
59	0xbc11efda	-0.008907283
60	0x3cad18d6	0.021130007
61	0x3c91a25b	0.017777612
62	0xbba1c8a8	-0.00493725
63	0x3c3ee356	0.011650881
64	0xbbdf3e3d	-0.0068128393
65	0x3ccd9ad9	0.025098251
66	0xbc0069fd	-0.00783777
67	0x3c5f729b	0.013638164
68	0x3b1fc01e	0.0024375985
69	0xbb93b6b7	-0.0045078653
70	0x3b021372	0.0019848016
71	0x3d3e1d6b	0.046414774
72	0x3b1fa1d4	0.0024357932
73	0x3d65d56c	0.056111738
74	0x3c616b53	0.013758498
75	0xbb97fc54	-0.004638234
76	0xbc7edb46	-0.015555209
77	0xbc4ade04	-0.012382034
78	0x3c5342e0	0.012894362
79	0xbceb9849	-0.028759139
80	0xbc3323cf	-0.01093383
81	0xbd693d7c	-0.0569434
82	0x3ccf7726	0.02532537
83	0xbc3dc65e	-0.011582939
84	0x3ccfd8ea	0.025371987
85	0x3c9685ea	0.018374402
86	0x3c320c38	0.010867171
87	0xba069a0f	-0.0005134651
88	0x3d606f49	0.05479363
89	0x3c27aac9	0.010233589
90	0x3c257bc1	0.010100306
91	0xbc2b7eda	-0.0104672555
92	0xbc1289ba	-0.008943969
93	0x3bf48d6d	0.0074631483
94	0xba34c12d	-0.00068952405
95	0xba5a9bfc	-0.00083392835
96	0xbcafed84	-0.021475561
97	0x3b08a4a9	0.0020850098
98	0x3c7be9f5	0.015375604
99	0x3d0c2f84	0.034225002
100	0x3c93e4a6	0.018053364
101	0xbbae348a	-0.0053163217
102	0x3c2722e2	0.010201188
103	0xbc7869d6	-0.015161952
104	0xbc6034e7	-0.013684488
105	0x3cde07d8	0.02710335
106	0x3c428eb0	0.01187484
107	0x3c30a615	0.010781785
108	0x3ccf2d8c	0.025290273
109	0x3d975bd4	0.07390562
110	0x3d2eeac6	0.042704366
111	0x3bd97d42	0.0066372463
112	0x3d0782fc	0.0330839
113	0xbdbb6900	-0.091508865
114	0xbd268d32	-0.040661998
115	0xbc1a5f44	-0.009422127
116	0x3d424ba2	0.04743541
117	0xbc84f83e	-0.016231652
118	0x3d12f9d8	0.0358828
119	0x3c4ec45b	0.012620057
120	0x3d58872c	0.052863285
121	0xbd50ded6	-0.050993763
122	0x3938d9bb	0.00017628718
123	0x3caf6b6e	0.021413531
124	0xbb96fd33	-0.0046078204
125	0x3cb26906	0.021778595
126	0x3c95d2ab	0.01828893
127	0x3cc872fa	0.024468888

ln2.weight f4 [128]
0	0x3f837eeb	1.0273107
1	0x3f76d0d4	0.96412396
2	0x3f7eb549	0.9949537
3	0x3f818fa2	1.0121958
4	0x3f7d61e5	0.989775
5	0x3f7cb55a	0.9871422
6	0x3f7e328b	0.9929587
7	0x3f8d7c95	1.1053644
8	0x3f80f829	1.0075732
9	0x3f7a1dc2	0.97701657
10	0x3f80b5bb	1.005546
11	0x3f7a4ca9	0.97773224
12	0x3f808ccc	1.0042968
13	0x3f93b5a5	1.1539809
14	0x3f7cec8f	0.9879846
15	0x3f8744c0	1.0567856
16	0x3f7e4808	0.9932866
17	0x3f82ef76	1.0229328
18	0x3f78a1dd	0.97121984
19	0x3f80c331	1.0059568
20	0x3f80edf2	1.0072615
21	0x3fc38140	1.5273819
22	0x3f7bcce5	0.9835952
23	0x3f7b2f62	0.98119175
24	0x3f852b2d	1.0403801
25	0x3f93b2a3	1.1538891
26	0x3f811152	1.0083411
27	0x3f8213fa	1.0162346
28	0x3f7f7502	0.99787915
29	0x3f95c790	1.1701527
30	0x3f7bf155	0.9841512
31	0x3f96e5dd	1.1788899
32	0x3f7cd885	0.9876788
33	0x3f746c1d	0.9547747
34	0x3f7de8cd	0.9918335
35	0x3f817263	1.0113033
36	0x3f779302	0.9670869
37	0x3f8c5644	1.0963826
38	0x3f99dfb9	1.20214
39	0x3f7ec479	0.99518543
40	0x3f83a016	1.0283229
41	0x3f85e514	1.0460534
42	0x3f7f8faa	0.9982859
43	0x3f7f3239	0.9968601
44	0x3f79e879	0.9762035
45	0x3f809d73	1.004805
46	0x3f84a234	1.0362
47	0x3f7ff9c1	0.9999047
48	0x3f857c8e	1.0428636
49	0x3f7c2510	0.9849405
50	0x3f872b32	1.0560057
51	0x3fa8ea42	1.319649
52	0x3f9af7e2	1.2106898
53	0x3f78314d	0.9695023
54	0x3f8069ae	1.0032251
55	0x3f7f3e94	0.9970486
56	0x3f8d1ff1	1.1025373
57	0x3f7dcaaa	0.99137366
58	0x3f964513	1.173983
59	0x3f7a9e82	0.97898114
60	0x3f84efbf	1.0385665
61	0x3f84768b	1.0348676
62	0x3f7b68bf	0.98206705
63	0x3f85b24e	1.0445039
64	0x3f73f8b8	0.9530139
65	0x3f894d07	1.0726632
66	0x3f70b095	0.9401944
67	0x3f8ec972	1.1155226
68	0x3f7bf730	0.98424053
69	0x3f7ac81b	0.97961587
70	0x3f803aa8	1.00179
71	0x3f8a34ee	1.0797403
72	0x3f78b1ad	0.9714611
73	0x3f86ff05	1.0546576
74	0x3f807971	1.0037061
75	0x3f7d7a49	0.9901472
76	0x3f7cfa69	0.98819596
77	0x3f7d9746	0.9905895
78	0x3f7ed0b6	0.9953722
79	0x3f7e8653	0.9942371
80	0x3f7bb1d3	0.98318213
81	0x3f8a0174	1.0781693
82	0x3f9f02eb	1.2422765
83	0x3f7e0713	0.99229544
84	0x3f833d6b	1.0253118
85	0x3f8540fb	1.0410455
86	0x3f8a1c58	1.07899
87	0x3f7e40e8	0.9931779
88	0x3f867837	1.0505437
89	0x3f81e9c2	1.0149462
90	0x3f7db79d	0.99108297
91	0x3f7f07b0	0.99621105
92	0x3f7fd729	0.99937683
93	0x3f87cfc2	1.0610278
94	0x3f7f74a5	0.9978736
95	0x3f79077f	0.97277063
96	0x3f89f32c	1.0777335
97	0x3f8f28db	1.1184343
98	0x3f875034	1.0571351
99	0x3f9216f6	1.1413257
100	0x3f931255	1.148997
101	0x3f7cf0fa	0.988052
102	0x3f7e6916	0.993791
103	0x3f7a5955	0.9779256
104	0x3f7478b1	0.9549666
105	0x3f843266	1.032788
106	0x3f84956a	1.0358098
107	0x3f80582e	1.002691
108	0x3f801aef	1.000822
109	0x3f6cbd99	0.92476803
110	0x3f852e4a	1.0404751
111	0x3f80dad1	1.0066777
112	0x3f8ed406	1.1158454
113	0x3f82b840	1.0212479
114	0x3f7f741d	0.9978655
115	0x3f7b8c9e	0.9826144
116	0x3f88ac5e	1.0677602
117	0x3f81252f	1.0089473
118	0x3f7fc513	0.99910086
119	0x3f7e8eca	0.9943663
120	0x3f8d0315	1.1016566
121	0x3f743e5d	0.9540766
122	0x3f81506d	1.0102669
123	0x3f7fad30	0.9987364
124	0x3f8bd0a6	1.092305
125	0x3faa7065	1.331555
126	0x3f8429bb	1.0325235
127	0x3f80c403	1.0059818

ln2.bias f4 [128]
0	0x3ca26e54	0.019828
1	0xbd2cfcc8	-0.04223326
2	0xbc11f7e2	-0.0089091975
3	0xbb5ff875	-0.0034175192
4	0xbcfd01e2	-0.030884687
5	0xbd66e42d	-0.05636995
6	0xb7cbf1f6	-2.4312158e-05
7	0x3d6acd61	0.05732477
8	0xbb344094	-0.0027504312
9	0xbc3d2248	-0.011543818
10	0xbc90c496	-0.017671864
11	0xbc964b89	-0.018346565
12	0xbb2c6cd6	-0.0026309988
13	0xbca081da	-0.019593168
14	0xbb5dcd84	-0.003384442
15	0xbb044041	-0.00201799
16	0xbb10fe9c	-0.0022124415
17	0x3d3b0920	0.045663
18	0xbd6c64b8	-0.05771324
19	0xbca650a5	-0.020302126
20	0xbb79bb81	-0.0038106146
21	0x3c5969c5	0.013269846
22	0xbca433a2	-0.020044152
23	0xbc9e9ef0	-0.019362897
24	0xbc45efa4	-0.012081061
25	0x3da8bb8e	0.08238898
26	0x3beeb84f	0.007285155
27	0xbc80fc91	-0.015745433
28	0xbceb8312	-0.028749023
29	0xbcec92c7	-0.028878583
30	0xbd7fc5da	-0.062444545
31	0xbcfbcef8	-0.030738339
32	0xbc928364	-0.017884918
33	0xbc8967e8	-0.01677318
34	0x3bf06c79	0.0073371497
35	0xbb95ffb0	-0.0045775995
36	0xbbef89e8	-0.007310141
37	0x3d0d0fa6	0.03443875
38	0x3cc59a6a	0.024121482
39	0xba15b899	-0.0005711406
40	0xbc0b9e95	-0.008521696
41	0x3cf3854e	0.02972665
42	0x3bff1f8b	0.0077857426
43	0xbb16eea2	-0.002303042
44	0xbce8c7b5	-0.02841554
45	0xbbbfd321	-0.005854026
46	0x3d257093	0.040390562
47	0xbc61be62	-0.013778301
48	0x3cf485e6	0.029849004
49	0xbcf37ce8	-0.029722646
50	0x3d4f7afb	0.050654393
51	0xbc209f9f	-0.009803682
52	0xbcbdb7c3	-0.023158913
53	0xbc180c64	-0.009280298
54	0xbcc49b98	-0.023999974
55	0xbc1fbc97	-0.009749553
56	0x3d40f526	0.04710879
57	0xbc8fbbc3	-0.017545586
58	0x3d51148b	0.051044982
59	0xbd86c229	-0.06580002
60	0x3c398749	0.011323758
61	0x3c879814	0.016552009
62	0xbca3c2c1	-0.019990327
63	0x3cdfae62	0.027304832
64	0xbd500c18	-0.050792783
65	0x3d2d5e6f	0.042326387
66	0xbca35376	-0.019937258
67	0x3d72b064	0.05925025
68	0x3bd0e517	0.006374966
69	0xbc927059	-0.017875837
70	0xbca29852	-0.019848023
71	0x3d72fa7b	0.059320908
72	0xbbf8c0fa	-0.007591364
73	0x3d846ca0	0.06466031
74	0xbc8aa931	-0.01692638
75	0xbc8ae692	-0.016955648
76	0xbcc889c7	-0.02447976
77	0xbc97d570	-0.018534392
78	0x3c4beb21	0.012446196
79	0xbbfe7337	-0.0077651995
80	0xbcaf113b	-0.02137052
81	0x3ca668e9	0.020313697
82	0x3c2eade8	0.01066158
83	0xbb06bd21	-0.0020559507
84	0x3ce17265	0.027520368
85	0xbde0044d	-0.1093832
86	0xbb50fe77	-0.0031889954
87	0x39c8e68e	0.0003831875
88	0x3d45d8d6	0.048302494
89	0x3c4b84c9	0.012421795
90	0x3c123045	0.008922641
91	0xbbb43bb4	-0.005500281
92	0xbcdd039b	-0.026979258
93	0x3ccd2fbe	0.02504718
94	0xbc20ef0d	-0.009822619
95	0xbc6efb7b	-0.014586325
96	0x3c3563d0	0.01107116
97	0xbd9119c5	-0.07084993
98	0x3c74d292	0.014942782
99	0x3c94d346	0.01816715
100	0x3c8b58f9	0.017010199
101	0xbcd41d1f	-0.025892792
102	0x3bb2f070	0.0054607913
103	0xbd293a52	-0.041315384
104	0xbd3b3ac2	-0.045710333
105	0x3cbd3025	0.023094246
106	0xbc843231	-0.016137214
107	0x3bd0b804	0.0063695926
108	0x3ccfc357	0.0253617
109	0xbd895f8c	-0.06707677
110	0x3cb70565	0.02234144
111	0x3c2cd7ef	0.010549529
112	0x3d039f30	0.032134235
113	0x3caa41ab	0.020783266
114	0x3b3968c6	0.002829121
115	0xbc611923	-0.013738903
116	0x3d771049	0.060318265
117	0xbc98b6d0	-0.01864186
118	0x3becd444	0.0072274525
119	0x3afb3902	0.001916677
120	0x3d5c3356	0.053759895
121	0xbc780ddc	-0.015140023
122	0x3be624ea	0.0070234435
123	0xbc874f1d	-0.016517216
124	0xbb5d3a7b	-0.003375678
125	0xbc5d810a	-0.013519535
126	0x3ca6acc1	0.020346047
127	0x3c6fd725	0.014638697
